model/actor_critic_Reward_prediction_finetune_v2.pth (torch, 461146 bytes, 24 tensors)

log_std f4 [2]
0	0xbdde8e6e	-0.1086701
1	0xbec0df1c	-0.3767022

features_extractor.encoder.conv.0.weight f4 [4, 1, 3, 3]
0	0xbde615aa	-0.11234601
1	0xbd677ac1	-0.05651355
2	0xbcbd1595	-0.02308158
3	0xbe573d12	-0.2101939
4	0x3e53bb2c	0.20676869
5	0x3dd2907e	0.10281466
6	0xbe96e61e	-0.2947244
7	0x3e8ecf73	0.27892646
8	0x3d9d5294	0.07681766
9	0x3da76259	0.08173055
10	0x3e995a84	0.2995187
11	0x3e28380a	0.16427627
12	0xbeccb698	-0.39983058
13	0xbf008ddf	-0.5021648
14	0x3ea3047c	0.3183936
15	0x3e9f5bc4	0.311247
16	0x3e3d9f78	0.18517864
17	0xbf09e17a	-0.53859675
18	0xbd560d3d	-0.05225872
19	0xbcba6cb9	-0.022756921
20	0x3e3c594b	0.18393438
21	0xbe8679c2	-0.2626477
22	0xbde4d219	-0.111728854
23	0x3e33a118	0.17541921
24	0x3da55ff8	0.08074945
25	0xbea4bcd9	-0.3217533
26	0x3e51c88a	0.20486656
27	0x3d29bbc6	0.04143884
28	0xbc995ebe	-0.018721934
29	0x3d98e8eb	0.074663006
30	0x3defff6e	0.11718641
31	0x3d8dbcfc	0.069208115
32	0x3df593de	0.11991094
33	0xbd7924f1	-0.060826246
34	0x3dee0046	0.11621146
35	0x3dbd6e84	0.09249595

features_extractor.encoder.conv.0.bias f4 [4]
0	0xbc9058d1	-0.017620476
1	0xbc004434	-0.007828761
2	0xbac25b23	-0.0014828186
3	0xbd14fa4c	-0.036371514

features_extractor.encoder.conv.2.weight f4 [8, 4, 3, 3]
0	0xbc9fc332	-0.019502256
1	0x3e1309e3	0.1435924
2	0x3df7fdf8	0.121089876
3	0xbf0e97c6	-0.5570034
4	0xbe01eda0	-0.12688303
5	0xbe26be2b	-0.16283481
6	0x3e29421b	0.16529123
7	0x3ac7564a	0.0015208211
8	0x3e34e7d7	0.17666565
9	0x3e179555	0.1480306
10	0x3cd1afa0	0.02559644
11	0x3d3372d4	0.04381068
12	0x3e88b0c8	0.26697373
13	0x3eccd1dc	0.4000386
14	0x3e409d39	0.18809976
15	0x3e240788	0.16018498
16	0xbe3dedf2	-0.185478
17	0xbd90416c	-0.07043728
18	0x3d097c3c	0.033565745
19	0x3eaadeb8	0.33373046
20	0xbe25d925	-0.16196115
21	0xbe9417a7	-0.28924295
22	0xbd1d4085	-0.03839161
23	0xbdc39cd4	-0.09551397
24	0x3c1dc248	0.00962884
25	0x3da42204	0.080143005
26	0xbe076b85	-0.13224609
27	0xbdf71024	-0.120636255
28	0x3d166497	0.036717024
29	0x3cc2beee	0.023772683
30	0x3ee825a0	0.45341206
31	0x3e5820b9	0.21106233
32	0xbeb2b4c8	-0.3490355
33	0xbe5313a1	-0.20612957
34	0xbea61305	-0.32436386
35	0x3e03de23	0.12877707
36	0x3e4a7a80	0.19773293
37	0xbf48b61b	-0.7840287
38	0x3d77a7f2	0.0604629
39	0xbea90145	-0.3300878
40	0x3c8a1a90	0.01685837
41	0x3e919c69	0.28439644
42	0x3deb3917	0.114854984
43	0x3e531b53	0.20615892
44	0x3e497c69	0.19676365
45	0xbdbb79c1	-0.09154082
46	0xbde876f4	-0.113508135
47	0xbe5654c6	-0.20930776
48	0x3cf56256	0.029954117
49	0xbeaece1d	-0.34141627
50	0x3db7eb71	0.08980454
51	0x3d08f415	0.0334359
52	0x3da0bde9	0.078487225
53	0xbbcd0403	-0.0062565817
54	0x3dba8dc7	0.09109073
55	0xbeb24d34	-0.34824526
56	0x3c1e7d0f	0.009673371
57	0xbf4877b1	-0.78307635
58	0x3dc51f13	0.096250676
59	0x3deaa71a	0.11457653
60	0x3e9f03d8	0.3105762
61	0x3dee8126	0.11645727
62	0x3d92278c	0.07136449
63	0xbd81c171	-0.06335724
64	0xbef99468	-0.48746037
65	0xbd96b69a	-0.07359047
66	0xbdd41ae4	-0.103566915
67	0xbe969502	-0.2941056
68	0x3dccbc26	0.09996824
69	0xbe056520	-0.13026857
70	0x3d261d2a	0.040555157
71	0x3d5f35ba	0.054494597
72	0xbd4d8166	-0.050172232
73	0xbb92bb05	-0.004477861
74	0xbdfc5e7d	-0.1232271
75	0xbc0ebd86	-0.008712178
76	0xbdb12d95	-0.08651272
77	0xbe259857	-0.16171394
78	0xbe5b9b05	-0.21445854
79	0xbe13c6c7	-0.14431296
80	0xbe61f508	-0.22066128
81	0x3dded71e	0.10880874
82	0xbcb807d8	-0.022464678
83	0x3d1d38e7	0.038384344
84	0x3d6e37c2	0.058158644
85	0x3df52dff	0.11971664
86	0xbc4e9dcf	-0.012610867
87	0x3cfc52a0	0.030801117
88	0xbe0448ab	-0.12918346
89	0xbe078808	-0.13235486
90	0xbd574232	-0.052553363
91	0x3da46d48	0.08028656
92	0xbbd11648	-0.00638083
93	0x3d4115d8	0.047139972
94	0xbd9ce367	-0.07660561
95	0xbea3bf9b	-0.3198212
96	0xbe189e5f	-0.14904164
97	0xbe4fb58c	-0.20284098
98	0xbd2d3d4d	-0.04229479
99	0xbc076dd0	-0.008265927
100	0x3d898a2d	0.06715808
101	0x3dddacf0	0.10824001
102	0x3e5f6865	0.21817167
103	0x3e3f98c6	0.18710622
104	0x3e0ce4ff	0.1375923
105	0x3d4e9442	0.05043436
106	0x3d631db2	0.05544824
107	0x3df9c9ce	0.12196694
108	0x3e6c1f1a	0.2305874
109	0x3d8f21c4	0.06988862
110	0xbdc659d6	-0.096851036
111	0xbdc57c4d	-0.09642849
112	0x3d06ec67	0.032940295
113	0x3d483928	0.048882633
114	0x3e5b040b	0.21388261
115	0x3de07bab	0.10961088
116	0xbe3c3bac	-0.18382138
117	0x3dabd5bc	0.08390376
118	0x3d4e92da	0.050433017
119	0xbe7f7285	-0.2494603
120	0xbd6b484a	-0.057441987
121	0x3d0ae34d	0.033908177
122	0xbe5f0653	-0.21779756
123	0xbdc1443f	-0.09436845
124	0x3d07cd7f	0.03315496
125	0xbccb00f0	-0.02478072
126	0xbd1d7445	-0.03844096
127	0x3e965403	0.2936097
128	0xbe5d041f	-0.21583603
129	0x3d0d392f	0.034478363
130	0x3e21159c	0.157309
131	0xbd38e7fb	-0.04514311
132	0x3dc80709	0.09766967
133	0x3dff0a5b	0.12453147
134	0xbe3eab67	-0.18620072
135	0xbe072326	-0.13197002
136	0x3e2790fc	0.16363901
137	0xbd2cb249	-0.042162213
138	0xbe87b68b	-0.26506457
139	0x3e709d5e	0.23497531
140	0x3dc72187	0.09723192
141	0xbe17871e	-0.14797637
142	0xbbcf95ac	-0.006334981
143	0x3e2f9ac3	0.1714888
144	0x3e69b42c	0.22822636
145	0x3e832944	0.2561742
146	0xbf1539c1	-0.5829125
147	0x3ea46013	0.3210455
148	0x3f04d7ba	0.5189167
149	0xbf2f7446	-0.68536794
150	0xbd89d4af	-0.06730019
151	0x3d1611a6	0.036637925
152	0x3d4da051	0.050201718
153	0x3d8dbee4	0.06921175
154	0xbcfa19ab	-0.030529818
155	0x3e47d28c	0.19513911
156	0xbcedfea1	-0.02905208
157	0x3c89baf3	0.016812777
158	0x3cdce752	0.02696577
159	0x3c996c84	0.018728502
160	0x3d364ac4	0.044504896
161	0xbd24ee80	-0.040266514
162	0x3e4b8445	0.19874676
163	0xbe8a9289	-0.27064922
164	0xbec6eb84	-0.3885156
165	0x3e74acde	0.23894069
166	0xbd8ab8d7	-0.06773537
167	0xbf223f15	-0.63377506
168	0x3c6ba4e9	0.014382579
169	0xbe950081	-0.29101947
170	0xbe8c9b82	-0.27462393
171	0x3dc6613e	0.09686516
172	0x3e27f2b4	0.16401178
173	0xbe7bc73f	-0.24587725
174	0x3e02b6af	0.12765001
175	0x3e4e4178	0.20142162
176	0xbe980d1e	-0.29697508
177	0x3c9969ed	0.018727267
178	0x3d8e85f3	0.069591425
179	0xbe4525e2	-0.19252732
180	0xbedccb11	-0.43123677
181	0x3ec65804	0.38739026
182	0xbebddb4e	-0.3708138
183	0xbf10fa31	-0.5663176
184	0xbd488c07	-0.048961665
185	0xbf3c194e	-0.7347611
186	0x3e297647	0.16549025
187	0x3e150eac	0.14556378
188	0xbef512ea	-0.47865993
189	0x3bc121a8	0.0058939047
190	0xbe62a270	-0.22132277
191	0xbf3ccf4c	-0.7375381
192	0xbf788d57	-0.9709067
193	0xbfda6feb	-1.7065405
194	0xbf818ba3	-1.0120739
195	0xbf52c4bc	-0.8233144
196	0xbfbf5366	-1.4947326
197	0xbf72c785	-0.9483569
198	0x3e701e84	0.23449141
199	0x3f041d8c	0.51607585
200	0xbc52ba06	-0.012861734
201	0xbf49e046	-0.7885784
202	0xbe21587c	-0.1575641
203	0xbf39c7b4	-0.7257035
204	0x3e089a06	0.13340005
205	0x3e437b1c	0.19089931
206	0xbe9e35eb	-0.3090051
207	0x3df829f4	0.12117377
208	0x3e92304c	0.28552473
209	0x3dfecba9	0.12441189
210	0xbe67f31d	-0.22651334
211	0xbe2cf1f8	-0.16889179
212	0xbee38481	-0.4443703
213	0x3ed4876f	0.41509578
214	0x3e7b5e88	0.2454778
215	0x3da4f591	0.080546506
216	0x3e25bb86	0.16184816
217	0xbe945a6a	-0.2897523
218	0x3ee395d8	0.4445026
219	0xbf0075fb	-0.50180024
220	0xbe965500	-0.29361725
221	0x3e83ffdb	0.2578114
222	0x3e8e0f4d	0.2774605
223	0x3e4b74d5	0.19868787
224	0xbc03ac25	-0.008036648
225	0x3ddc87ba	0.10768075
226	0xbf5be58c	-0.85897136
227	0xbf112f3f	-0.56712717
228	0xbe610f3f	-0.21978472
229	0xbfa8ae5e	-1.3178213
230	0xbf9a640e	-1.2061784
231	0xbdde5569	-0.108561344
232	0xbf23a5c8	-0.6392484
233	0xbf082bea	-0.5319201
234	0xbe871e95	-0.2639052
235	0xbef68adb	-0.48152813
236	0x3e28fe54	0.16503268
237	0xbebc81ef	-0.3681788
238	0xbe1a031a	-0.15040246
239	0x3df3c3a3	0.11902549
240	0xbe809702	-0.2511521
241	0xbeb6acc5	-0.35678688
242	0xbd0e5110	-0.034745276
243	0x3e719b46	0.23594388
244	0x3e2b5217	0.16730534
245	0x3deb18fc	0.11479375
246	0x3daac728	0.08338767
247	0xbe04e27a	-0.12977019
248	0xbc2d351d	-0.010571745
249	0xbe4577db	-0.19284002
250	0xbec42bb4	-0.38314593
251	0x3d61c41f	0.055118676
252	0x3cac21a0	0.021012127
253	0xbe0131d6	-0.12616667
254	0x3bf70ac0	0.0075391233
255	0xbe18ebd8	-0.14933717

features_extractor.encoder.conv.2.bias f4 [8]
0	0xbcb225f7	-0.021746619
1	0xbd7aaba1	-0.061198834
2	0xbdbe72bf	-0.0929923
3	0x3cab6251	0.020920904
4	0xbd028253	-0.031862568
5	0x3c649c31	0.013953255
6	0xbde96622	-0.113964334
7	0xbcef7780	-0.029231787

features_extractor.encoder.conv.4.weight f4 [16, 8, 3, 3]
0	0xbf8591f2	-1.0435164
1	0xbf2522a5	-0.6450599
2	0x3eed29f8	0.46321082
3	0xbf8a99f6	-1.0828235
4	0xbedfcc47	-0.4371054
5	0xbf303d88	-0.6884389
6	0xbed4e33c	-0.41579616
7	0xbee26d30	-0.44223928
8	0xbe3efe03	-0.18651585
9	0xbdba9b73	-0.09111681
10	0xbedb0105	-0.42774215
11	0xbef55182	-0.47913748
12	0x3d71235b	0.05887161
13	0xbeb1d253	-0.34730777
14	0x3e46aee4	0.19402653
15	0xbe60034a	-0.21876255
16	0xbee3dca9	-0.44504288
17	0xbddf5e9a	-0.10906716
18	0x3d8667ea	0.06562789
19	0x3e730895	0.23733743
20	0x3e0d71b4	0.13812906
21	0x3dabe3e4	0.08393076
22	0x3deb39ce	0.11485635
23	0x3db6f071	0.08932579
24	0x3dc883e1	0.09790779
25	0xbce61865	-0.028087804
26	0xbd851714	-0.064985424
27	0xbca099e0	-0.019604623
28	0xbe2c8df9	-0.16851033
29	0xbc88048b	-0.016603729
30	0xbd3f715f	-0.04673898
31	0xbd94e461	-0.07270122
32	0xbec785f0	-0.38969374
33	0xbdafd940	-0.08586359
34	0xbe56dd01	-0.20982744
35	0x3e01f7e4	0.12692219
36	0x3d2b3da5	0.041806836
37	0xbe9ead95	-0.30991808
38	0xbeb186c9	-0.34673145
39	0x3e3ae289	0.18250479
40	0xbd52d9a4	-0.05147709
41	0x3dba6a5f	0.0910232
42	0xbdd75150	-0.10513556
43	0xbcccdba5	-0.025007078
44	0xbe39dff1	-0.18151833
45	0xbf700f3f	-0.93773264
46	0xbf17c69a	-0.59287417
47	0xbe9a4fa5	-0.3013889
48	0x3e358061	0.17724754
49	0x3e6cfb30	0.23142695
50	0xbe07bd57	-0.13255821
51	0xbf5b3ef9	-0.85642964
52	0xbf07761e	-0.5291461
53	0xbe0c076f	-0.1367471
54	0xbe9e1ab9	-0.30879763
55	0xbf0b8bb2	-0.54510033
56	0x3e307388	0.17231572
57	0xbd875162	-0.066073194
58	0xbe2860ab	-0.16443126
59	0x3e157884	0.14596754
60	0xbe86fe5a	-0.2636593
61	0x3edfdec0	0.43724632
62	0x3efceffc	0.49401844
63	0xbe380df9	-0.1797408
64	0x3dda751c	0.10666868
65	0x3d812d0b	0.063074194
66	0xbe1842ff	-0.14869307
67	0xbe8f5eb2	-0.28001934
68	0xbe1bde3d	-0.15221496
69	0x3e025f91	0.12731768
70	0x3e44820a	0.19190231
71	0x3ea232b6	0.31679314
72	0x3ddf048d	0.1088954
73	0x3e456b33	0.19279175
74	0xbdf0f8c7	-0.117662005
75	0x3d94e6d8	0.072705925
76	0x3ee7a43f	0.45242497
77	0xbdab1172	-0.08352937
78	0x3d8acf5e	0.067778334
79	0x3e529eb9	0.2056836
80	0xbd4dd093	-0.05024774
81	0xbded56af	-0.11588799
82	0xbe914c50	-0.28378534
83	0x3a18cc16	0.0005828751
84	0xbe6b3e4c	-0.22972983
85	0xbf62b74c	-0.8856094
86	0x3df7b3ba	0.12094827
87	0x3dd27e2c	0.102779716
88	0xbe878062	-0.26465136
89	0xbcfdf3c8	-0.031000033
90	0xbdd3264b	-0.10310038
91	0x3ebc3c74	0.36764872
92	0xbe66cfcc	-0.22540206
93	0xbe53f0ca	-0.20697322
94	0x3e9ff6aa	0.31242877
95	0xbe20b400	-0.15693665
96	0xbdc087df	-0.09400915
97	0x3e5a5e03	0.21324925
98	0xbd6bef2f	-0.05760115
99	0x3e17ec3a	0.14836207
100	0xbe4e2f38	-0.201352
101	0xbed1935d	-0.40932742
102	0x3e505c08	0.20347607
103	0xbf1c7c47	-0.6112713
104	0xbe214ab1	-0.15751149
105	0x3e906fe6	0.28210372
106	0xbeb91bec	-0.36154115
107	0xbd8e866f	-0.06959235
108	0x3da1d2e4	0.07901552
109	0xbf225428	-0.6340966
110	0x3df6ea2a	0.12056382
111	0x3e4af4d2	0.19819954
112	0xbfca822f	-1.5820979
113	0x3e8555c3	0.26041993
114	0x3e67f271	0.22651078
115	0xbfa5a211	-1.2940084
116	0x3ea3c29a	0.31984407
117	0xbde5e52d	-0.112253524
118	0x3df8a908	0.12141615
119	0xbcf620a9	-0.03004487
120	0x3d321f6d	0.043487
121	0x3d6acc46	0.057323717
122	0x3cfd8041	0.030944945
123	0x3c47176c	0.01215158
124	0xbd11dc6c	-0.0356106
125	0xbd8e5efe	-0.06951712
126	0xbf21a780	-0.6314621
127	0x3e715657	0.23568092
128	0xbe8a8a88	-0.27058816
129	0xbf587b32	-0.8456298
130	0x3e2c4ec6	0.16826925
131	0x3d521279	0.05128715
132	0xbf4b89e1	-0.7950726
133	0x3e32b9aa	0.17453638
134	0x3da21735	0.07914583
135	0xbe068434	-0.13136369
136	0x3e383336	0.17988285
137	0xbd280f6e	-0.04103034
138	0xbd7c7adb	-0.0616406
139	0x3e284807	0.16433726
140	0xbe29eae6	-0.16593513
141	0xbdced611	-0.10099424
142	0x3e68a2fc	0.22718424
143	0xbda69ebb	-0.08135744
144	0xbd9b6538	-0.07587665
145	0xbe365568	-0.17806017
146	0x3d253e2e	0.040342502
147	0xbe8dc1f4	-0.27687037
148	0x3e1c1e45	0.15245922
149	0xbd26a7b7	-0.04068729
150	0xbc7396bf	-0.014867484
151	0xbd2cbdb3	-0.0421731
152	0x3c8cffaf	0.017211763
153	0xbe093a21	-0.1340108
154	0x3e2043b2	0.15650824
155	0x3e36f962	0.1786857
156	0x3b401eca	0.0029315227
157	0x3e25f6d5	0.1620744
158	0xbc503316	-0.012707492
159	0xbd8f6947	-0.07002502
160	0xbec9da27	-0.3942425
161	0xbe95d20c	-0.29261816
162	0x3e3e0953	0.18558244
163	0x3d707c1c	0.05871211
164	0x3e1b7117	0.15179859
165	0x3ce7ceca	0.028296847
166	0x3e66517b	0.2249202
167	0x3e027e91	0.12743594
168	0x3d6093fb	0.054828625
169	0x3d000d25	0.031262536
170	0xbd53e30f	-0.05173021
171	0xbe967753	-0.29387912
172	0x3d455eb8	0.048186034
173	0x3c811938	0.015759096
174	0xbe46e051	-0.19421507
175	0x3e65d998	0.22446287
176	0x3dee967d	0.11649797
177	0xbe2e57bd	-0.17025657
178	0x3bc3012d	0.005951068
179	0xbe074f50	-0.13213849
180	0xbe154ab3	-0.14579277
181	0x3dcea4f5	0.10090057
182	0x3d98111a	0.07425137
183	0xbe7a9f30	-0.24474788
184	0x3e186d44	0.14885432
185	0x3e94ab80	0.29037094
186	0x3d7850ce	0.060623936
187	0xbe06998e	-0.13144514
188	0x3b1b7fb5	0.0023727242
189	0x3e0d42d7	0.13795029
190	0xbecd3378	-0.4007833
191	0xbf207282	-0.62674725
192	0x3ea2677e	0.31719583
193	0xbf4d1556	-0.8011068
194	0xbf95f774	-1.1716142
195	0x3e1de8ce	0.15420839
196	0xbe9ca6c1	-0.30595973
197	0xbd8e9639	-0.069622464
198	0xbdfae100	-0.122499466
199	0xbeeb449a	-0.45950776
200	0xbe1827ba	-0.14858904
201	0xbec49f9b	-0.3840302
202	0xbf803207	-1.0015267
203	0xbf1a847c	-0.60358405
204	0xbd853319	-0.06503887
205	0xbe846e8d	-0.25865594
206	0x3b902cf6	0.004399891
207	0xbe3d3ae6	-0.18479499
208	0x3e1a904f	0.15094112
209	0x3eadbcc7	0.33933088
210	0xbe012863	-0.12613063
211	0x3e73e975	0.23819526
212	0x3e20a55f	0.15688084
213	0xbd87f14d	-0.06637821
214	0x3caf0410	0.021364242
215	0x3df27734	0.118391424
216	0x3d862995	0.065509
217	0xbe219b63	-0.15781932
218	0xbe6c33e3	-0.23066668
219	0xbe8029fc	-0.25032032
220	0xbcf98eb3	-0.030463552
221	0x3eb55ae6	0.35420913
222	0x3d784b89	0.06061891
223	0x3c340cc7	0.0109893745
224	0x3eb50a21	0.3535929
225	0x3e121ce8	0.1426884
226	0xbe851b77	-0.25997517
227	0xbe2947df	-0.16531323
228	0x3e39a025	0.18127497
229	0xbe6de307	-0.23231135
230	0xbf0464a6	-0.5171608
231	0x3c08d4e4	0.008351538
232	0x3e0ea7d4	0.13931209
233	0xbee2d4bd	-0.4430293
234	0x3dcc6286	0.09979729
235	0xbddff0c4	-0.10934594
236	0x3ee93e31	0.4555526
237	0x3de9f6cb	0.11424025
238	0xbd0577b6	-0.03258487
239	0x3ecda62b	0.4016584
240	0x3e2317c8	0.1592704
241	0xbd2d1040	-0.042251825
242	0x3e720078	0.23632991
243	0x3d79342f	0.06084078
244	0x3dcfdb77	0.101492815
245	0xbdd3a68e	-0.10334502
246	0xbdd0ee33	-0.10201683
247	0x3e38277c	0.17983812
248	0xbed9e37e	-0.42556375
249	0xbe2c6e09	-0.1683885
250	0x3ea8549d	0.32877055
251	0xbf129d47	-0.57271236
252	0x3abdc35b	0.0014477776
253	0x3dafddb9	0.08587212
254	0xbf260135	-0.6484559
255	0xbe84ff59	-0.25976065

features_extractor.encoder.conv.4.bias f4 [16]
0	0xbdfa0e86	-0.122098014
1	0x3c609010	0.013706222
2	0x3b2e4ad8	0.0026594903
3	0x3c89eec8	0.016837493
4	0xbe994b1a	-0.2994011
5	0x3c3b90af	0.0114480695
6	0xbbffdac6	-0.0078080622
7	0xbde8fb6b	-0.11376079
8	0x3c7d44aa	0.015458265
9	0xbdb74548	-0.08948761
10	0x3cb2d172	0.021828387
11	0xbe1ad778	-0.15121257
12	0xbde4de68	-0.11175233
13	0xbb25ba20	-0.002528794
14	0xbd346b76	-0.044047795
15	0xbe06b59d	-0.13155217

features_extractor.encoder.conv.6.weight f4 [32, 16, 3, 3]
0	0xbe5f15f4	-0.21785718
1	0xbd86d1dd	-0.06582997
2	0xbcd1b608	-0.025599495
3	0xbedabbff	-0.42721555
4	0xbc38e0d6	-0.011284074
5	0xbeb37d2b	-0.35056433
6	0xbe87b98d	-0.26508752
7	0xbda1fc8a	-0.07909496
8	0xbe33ca4d	-0.1755764
9	0xbe60dc19	-0.2195896
10	0xbdcb14bd	-0.09916065
11	0xbe082131	-0.13293912
12	0xbefba598	-0.49149776
13	0xbdc6625f	-0.096867315
14	0xbd884b64	-0.066550046
15	0xbe5d2e7e	-0.21599767
16	0xbde8aa09	-0.11360557
17	0xbdebd6e5	-0.11515597
18	0x3d84dc8c	0.064873785
19	0x3cee15f9	0.029063212
20	0x3e06537f	0.13117789
21	0x3deac312	0.11462988
22	0xbc925455	-0.017862478
23	0x3e67b60a	0.22628036
24	0x3c5594bd	0.01303595
25	0xbe42c087	-0.19018756
26	0x3e4f4ef8	0.20244968
27	0x3d006cc1	0.031353716
28	0xbe8bfef8	-0.27342963
29	0xbebf2ffe	-0.37341303
30	0xbe0ad1ee	-0.13556644
31	0xbeb34231	-0.35011438
32	0xbd88b06b	-0.06674274
33	0xbe8420d1	-0.25806287
34	0xbe5fee72	-0.21868303
35	0xbdf2ad11	-0.11849416
36	0xbeb70827	-0.35748407
37	0xbe49475f	-0.19656132
38	0x3e0dfe9d	0.13866659
39	0xbed63e22	-0.4184428
40	0xbee2d1cf	-0.44300696
41	0x3d3710ce	0.04469376
42	0xbea5b366	-0.32363433
43	0xbe70e904	-0.23526388
44	0xbc863153	-0.016380941
45	0xbe6f3a21	-0.23362018
46	0xbd35970e	-0.04433351
47	0xbd9346cb	-0.07191237
48	0xbd6ffa6e	-0.058588438
49	0xbdc231b8	-0.09482139
50	0x3da38d67	0.07985955
51	0x3c128b58	0.008944355
52	0xbcf46d39	-0.029837238
53	0xbcf57b9e	-0.029966172
54	0xbe6532e6	-0.22382697
55	0xbe6a8843	-0.22903542
56	0x3c58a231	0.013222263
57	0xbeddba86	-0.4330637
58	0xbeebbd16	-0.460427
59	0x3dc98f04	0.09841731
60	0xbe9f8514	-0.31156218
61	0x3d7b5a53	0.061365437
62	0xbd36b671	-0.044607583
63	0xbe591e17	-0.21202885
64	0xbe32d9c7	-0.17465888
65	0x3ce86015	0.028366128
66	0x3e6eff20	0.2333951
67	0xbcafea31	-0.021473976
68	0x3e0b4c54	0.13603336
69	0x3de16250	0.1100508
70	0xbe547c9f	-0.20750664
71	0xbca191ba	-0.019722808
72	0x3d98aebf	0.07455205
73	0xbdad45b1	-0.08460558
74	0x3d366215	0.044527132
75	0x3e839bb3	0.25704727
76	0xbca51963	-0.020153707
77	0x3d928602	0.07154466
78	0x3e730328	0.23731673
79	0x3d8fac10	0.0701524
80	0x3c77fb0c	0.015135538
81	0xbe1b4a1b	-0.15164988
82	0xbe3de5d6	-0.18544707
83	0xbf05b1da	-0.52224505
84	0xbe881757	-0.26580307
85	0xbe0ce96a	-0.13760915
86	0xbc4af504	-0.012387518
87	0xbf1ba543	-0.60799044
88	0xb9707a9b	-0.00022933858
89	0xbe55ebb9	-0.20890702
90	0xbedbc131	-0.4292083
91	0xbe741fd7	-0.23840271
92	0xbe422f07	-0.18963252
93	0xbf4bd6cb	-0.79624623
94	0xbad24698	-0.0016042767
95	0x3c17d549	0.00926716
96	0xbec24326	-0.37941855
97	0xbe60e921	-0.21963932
98	0x3e12e99e	0.1434693
99	0x3d468874	0.048469976
100	0x3d7f7953	0.062371563
101	0xbd638cf8	-0.05555436
102	0xbd407533	-0.04698677
103	0x3cba19a6	0.022717308
104	0xbd619d4e	-0.055081658
105	0x3cbee336	0.023301702
106	0x3cddac8b	0.027059814
107	0xbd963f6b	-0.07336315
108	0xba4e3adb	-0.00078670465
109	0xbc727c49	-0.01480014
110	0x3c5421e8	0.012947537
111	0x3d78c4e9	0.060734663
112	0x3de34aab	0.11098226
113	0xbcb1959c	-0.021677785
114	0x3d11227d	0.03543328
115	0xbce07782	-0.027400736
116	0xbcf1a376	-0.02949689
117	0x3dad7c14	0.08470932
118	0x3e5c7852	0.21530274
119	0x3d1ceba9	0.03831068
120	0x3d82e516	0.06391351
121	0x3d6bc176	0.057557546
122	0x3d6e26ea	0.05814258
123	0xbe829603	-0.25505075
124	0xbe4f6877	-0.20254694
125	0xbe50cb48	-0.20390046
126	0x3e0c55dd	0.13704629
127	0x3d20834b	0.03918771
128	0xbd94593b	-0.07243582
129	0x3e5f49f2	0.21805552
130	0x3e68cf83	0.2273541
131	0xbe911c91	-0.28342107
132	0x3cb379a8	0.021908596
133	0x3caedebe	0.021346446
134	0xbdbfe83a	-0.093704656
135	0xbf23ebb3	-0.64031523
136	0x3e3132b7	0.17304502
137	0xbc9f7bdd	-0.019468242
138	0xbefd61d3	-0.49488696
139	0x3e265839	0.16244592
140	0xbd290162	-0.041261084
141	0xbe3cd41a	-0.18440285
142	0x3e6c7996	0.23093256
143	0xbebe05e2	-0.37113863
144	0xbe5dcb8a	-0.21659675
145	0x3e80831b	0.25100026
146	0xbca9ffac	-0.020751797
147	0xbe8200e2	-0.253913
148	0xbe0d258f	-0.13783859
149	0xbe05411a	-0.13013116
150	0xbea37713	-0.31926784
151	0x3e18f26b	0.14936225
152	0xbcba1474	-0.022714831
153	0xbe9d2d76	-0.30698746
154	0xbe60d48d	-0.21956082
155	0xbe75c7de	-0.24002025
156	0xbe7930b5	-0.24334987
157	0xbe4faff9	-0.20281972
158	0xbe325959	-0.17416896
159	0xbd3d4c79	-0.046215508
160	0x3e277504	0.16353232
161	0x3d8fd028	0.070221245
162	0x3da60e82	0.08108236
163	0xbccdbf06	-0.025115501
164	0xbe095575	-0.13411506
165	0xbe80b781	-0.25140002
166	0xbe58f6ef	-0.21187948
167	0xbe1a9758	-0.15096796
168	0xbe97761e	-0.29582304
169	0xbeaa9025	-0.333131
170	0xbe3b1418	-0.18269384
171	0xbe8035e8	-0.25041127
172	0xbe8dfcca	-0.27731925
173	0xbeaf7013	-0.34265193
174	0xbd6079f2	-0.054803796
175	0x3c9aadb0	0.018881649
176	0xbebd80f3	-0.37012443
177	0x3e665189	0.2249204
178	0x3d82521a	0.06363316
179	0x3c0b083c	0.00848585
180	0xbe8c6018	-0.27417064
181	0x3b6ce006	0.003614427
182	0xbe12e86b	-0.14346473
183	0xbcfba1c7	-0.03071679
184	0x3dcda49f	0.100411646
185	0xbecb126d	-0.39662495
186	0xbd5cf82d	-0.053947616
187	0xbc76aba8	-0.0150555745
188	0xbda2a694	-0.079419285
189	0x3c76c2dd	0.015061107
190	0x3dfbbb17	0.12291544
191	0x3a5e52d0	0.0008480968
192	0x3e999c27	0.30001947
193	0x3e79f039	0.24408044
194	0xbdf3bb54	-0.119009644
195	0xbe851701	-0.25994113
196	0xbf1c38c3	-0.6102411
197	0xbec496b1	-0.38396218
198	0xbd6c2eee	-0.057661943
199	0x3eabefc0	0.33581352
200	0xbc676bc6	-0.014124816
201	0xbdc49a71	-0.0959977
202	0xbebe4afd	-0.37166587
203	0xbf02efdd	-0.5114725
204	0xbe63d481	-0.22249033
205	0xbf1b8c7a	-0.60761225
206	0xbe987e55	-0.29783884
207	0xbd831d43	-0.064020656
208	0xbe8a74a9	-0.2704213
209	0xbeec9809	-0.46209744
210	0xbedbeeae	-0.42955536
211	0xbf1252a9	-0.5715738
212	0xbecaae63	-0.39586172
213	0x3d386a2a	0.04502312
214	0xbe7b1674	-0.24520284
215	0xbdd9dba4	-0.10637596
216	0x3ed89c65	0.4230682
217	0xbdff8430	-0.12476385
218	0x3ce3771d	0.027766759
219	0xbf00e59b	-0.5035035
220	0xbf0b69e9	-0.5445848
221	0xbf02afdd	-0.51049596
222	0xbc8f8bb8	-0.017522678
223	0x3ebce274	0.3689152
224	0x3e6acec4	0.22930437
225	0xbd0234ca	-0.031788625
226	0xbef19ca3	-0.47189817
227	0x3e41c6e0	0.18923521
228	0xbe2df870	-0.16989303
229	0xbe89cda3	-0.269147
230	0xbf0c757b	-0.5486676
231	0x3e8833da	0.2660206
232	0x3e2267ec	0.15859956
233	0x3e0d6e46	0.13811597
234	0x3e3efc03	0.18650822
235	0xbe060564	-0.13087994
236	0xbe9ae0c5	-0.3024961
237	0x3d335e79	0.043791268
238	0x3e4b7830	0.19870067
239	0xbe91bed4	-0.28465903
240	0x3e597ca0	0.21238947
241	0xbd71b4c9	-0.0590103
242	0x3e99910d	0.29993477
243	0x3a5e8aab	0.0008489291
244	0x3cffbca6	0.031217884
245	0x3c68cf36	0.014209559
246	0x3da231b7	0.079196386
247	0x3dd29dfc	0.102840394
248	0xbc3e00b6	-0.011596849
249	0xbd86a547	-0.06574493
250	0x3d883ff2	0.066528216
251	0xbda3aece	-0.07992326
252	0xbce2251a	-0.027605582
253	0xbc8e3005	-0.017356882
254	0xbd540a26	-0.05176749
255	0x3c857f6e	0.016296115

features_extractor.encoder.conv.6.bias f4 [32]
0	0xbdfcc6dc	-0.12342617
1	0x3c9f7f2a	0.019469816
2	0xbca8c508	-0.020601764
3	0x3c5c7d8d	0.013457668
4	0xbb9e3d5c	-0.004829092
5	0xbc93ed1a	-0.018057395
6	0xbdc7378b	-0.09727391
7	0xbda8eb35	-0.08247987
8	0xbd9b7c46	-0.07592063
9	0xbdfed43d	-0.12442825
10	0xbd913e6c	-0.07091984
11	0x3c9ce03c	0.019149892
12	0xbcd14bff	-0.025548933
13	0xbd26991a	-0.040673353
14	0xbde575bf	-0.11204099
15	0xbb29d5d7	-0.0025914812
16	0xbd6c36fc	-0.057669625
17	0xbc91972c	-0.01777228
18	0xbda4f7eb	-0.08055099
19	0xbd8813c5	-0.06644396
20	0xbdd9d9ac	-0.10637221
21	0xbb8fe34b	-0.004391109
22	0xbe372602	-0.17885593
23	0x3cce0447	0.025148524
24	0xbd800e5c	-0.06252739
25	0xbccc381f	-0.024929104
26	0xbd1ac724	-0.03778757
27	0xbe361097	-0.17779766
28	0x3b936a09	0.0044987244
29	0x39c6e5bc	0.00037936668
30	0xbdf14aa3	-0.11781814
31	0xbe124c8e	-0.14287016

features_extractor.encoder.conv.8.weight f4 [64, 32, 3, 3]
0	0x3e2908a2	0.165072
1	0xbeae2f72	-0.34020573
2	0xbdded0ae	-0.10879646
3	0xbe84fff7	-0.25976536
4	0xbc251414	-0.010075588
5	0xbf096f03	-0.53685015
6	0xbe695f07	-0.22790156
7	0x3d66ad99	0.0563179
8	0xbddc4577	-0.10755437
9	0xbfb52a3e	-1.4153516
10	0x3e6c44d3	0.2307313
11	0x3c7b4e46	0.015338486
12	0xbdd18f05	-0.10232357
13	0xbf092666	-0.53574216
14	0x3e2ba077	0.16760431
15	0xbcafc65f	-0.021456895
16	0x3edb8361	0.42873672
17	0xbe84651c	-0.2585839
18	0xbe6f08f4	-0.23343259
19	0x3e2fa68b	0.17153375
20	0x3dfea5f2	0.12433995
21	0xbe2e3804	-0.17013556
22	0x3d9932c9	0.074803896
23	0xbcb852c9	-0.022500413
24	0xbde04f9f	-0.109526865
25	0xbd21fdc1	-0.03954864
26	0xbd1757e6	-0.03694906
27	0xbf03de4f	-0.5151109
28	0x3cdd2295	0.026994029
29	0x3e8b9cc7	0.2726805
30	0xbe57f44f	-0.2108929
31	0x3edbc31e	0.429223
32	0x3b22daf4	0.0024849745
33	0xbb31256d	-0.0027030364
34	0x3e24df8d	0.16100903
35	0x3d165a5b	0.036707263
36	0xbf3ea03b	-0.7446324
37	0xbeb3d17a	-0.35120755
38	0xbdc97848	-0.09837395
39	0xbefcd04b	-0.49377665
40	0xbea29378	-0.31753135
41	0xbde13f48	-0.10998398
42	0x3e530cd7	0.20610367
43	0xbe1ea5c7	-0.15492927
44	0x3ccb6682	0.024829153
45	0xbe49e52b	-0.19716327
46	0xbf0ac05e	-0.5419978
47	0x3e5ac4d9	0.21364154
48	0xbef72fbb	-0.48278603
49	0xbe8deec0	-0.27721214
50	0xbe47667d	-0.1947269
51	0xbecf7644	-0.40519917
52	0xbe1922f6	-0.14954743
53	0xbc1adc50	-0.009451941
54	0x3b026a1d	0.0019899674
55	0xbf88a57e	-1.0675504
56	0xbe02e777	-0.1278361
57	0x3dbf3f3d	0.093382336
58	0xbeeeea3d	-0.46663085
59	0xbdd23f3c	-0.10265967
60	0x3d9f34e4	0.0777376
61	0x3d3656a5	0.044516224
62	0x3df58c0b	0.11989602
63	0x39f3e2df	0.00046517604
64	0xbbfd6cf3	-0.007733935
65	0xbd173cc1	-0.036923174
66	0x3ce53307	0.027978433
67	0xbc8b52b1	-0.017007204
68	0xbd929184	-0.07156661
69	0x3d81468e	0.06312285
70	0x3d424964	0.047433272
71	0xbd132abc	-0.035929427
72	0x3da251a2	0.079257265
73	0x3d29cb3e	0.041453592
74	0x3d834f72	0.06411637
75	0xbe955a74	-0.29170573
76	0xbde9849e	-0.11402248
77	0x3e21da70	0.15805984
78	0x3b43b6f7	0.0029863694
79	0xbe7a0f4e	-0.24419901
80	0x3e00b52a	0.12569109
81	0xbfa254d9	-1.2682143
82	0xbe932f6c	-0.28747118
83	0x3df3cb2b	0.119039856
84	0x3d0d22f1	0.03445715
85	0x3e29c725	0.16579874
86	0xbe6f1e75	-0.23351462
87	0xbe761714	-0.24032241
88	0x3f0c1944	0.5472605
89	0xbdb14b33	-0.08656921
90	0xbd3edae0	-0.046595454
91	0x3e245bb4	0.16050607
92	0xbdad786e	-0.08470236
93	0x3f093be6	0.5360702
94	0x3b4a86a8	0.0030903015
95	0x3e614a31	0.22000958
96	0x3e8b9c2c	0.27267587
97	0x3e3fa13c	0.1871385
98	0x3eac872f	0.33696887
99	0xbc885153	-0.01664034
100	0x3ccbb7ce	0.024867918
101	0x3d3987ef	0.045295652
102	0xbc380d30	-0.011233613
103	0xbdc4ce75	-0.09609691
104	0xbcbb14cb	-0.022837063
105	0x3db1da1e	0.08684181
106	0xbba7e65e	-0.0051238975
107	0x3cf3de0f	0.029768972
108	0x3e494b27	0.19657575
109	0xbe02ede1	-0.12786056
110	0x3d6d4222	0.057924397
111	0x3e90cccc	0.28281248
112	0x3de77cf7	0.11303132
113	0xbe6fed5e	-0.23430392
114	0xbd959016	-0.07302873
115	0x3e75aaeb	0.23990981
116	0xbebfae1f	-0.3743753
117	0x3d4330f7	0.04765412
118	0x3ed33f04	0.41259015
119	0x3e7092b9	0.2349347
120	0x3bb00af8	0.0053724013
121	0x3f140c04	0.57830834
122	0xbe2b21fd	-0.16712184
123	0xbefa9b02	-0.48946387
124	0x3e90932c	0.28237283
125	0xbdb17513	-0.08664908
126	0xbe4c8f94	-0.19976646
127	0xbf6d549d	-0.92707235
128	0xbe37dded	-0.17955752
129	0xbf5d2ab9	-0.86393315
130	0xbf454d04	-0.7707064
131	0xbe0ab8b8	-0.13547027
132	0xbe9dbe70	-0.30809355
133	0xbe845449	-0.25845554
134	0xbb16f0a2	-0.0023031612
135	0xbe5a2ee7	-0.21306954
136	0xbf2f680e	-0.6851815
137	0xbec174b7	-0.3778436
138	0xbef84127	-0.48487207
139	0xbf20a854	-0.6275685
140	0xbeae6a91	-0.3406568
141	0x3cb005fc	0.021487229
142	0x3cd498a8	0.025951698
143	0x3d9dd724	0.077070504
144	0xbe647e05	-0.22313698
145	0x3d79cc02	0.060985573
146	0xbd9f886d	-0.07789693
147	0xbea681b2	-0.32520825
148	0xbdce7d79	-0.10082526
149	0x3c9e7227	0.019341541
150	0x3d211e40	0.03933549
151	0xbec40c79	-0.38290766
152	0x3ea8eab9	0.3299158
153	0xbeacc7e8	-0.33746266
154	0x3e2977e0	0.16549635
155	0xbc54f61b	-0.012998129
156	0xbd6eb323	-0.058276307
157	0xbf078d36	-0.52949846
158	0x3e17c67e	0.14821813
159	0x3d3bb081	0.045822624
160	0xbf0fcdac	-0.56173205
161	0x3e8835f9	0.26603678
162	0x3f0c1d5c	0.547323
163	0x3f28b300	0.6589813
164	0x3cca3417	0.024683041
165	0x3ecd3454	0.40078986
166	0x3e6b8177	0.22998606
167	0x3ebd3b7d	0.36959448
168	0xbf0d261e	-0.5513629
169	0xbe414814	-0.18875152
170	0xbe188559	-0.14894618
171	0xbdf08a77	-0.1174516
172	0x3ea81189	0.32825878
173	0xbdf3679c	-0.11884996
174	0x3d997695	0.07493321
175	0x3ed32b22	0.41243845
176	0x3dd1c67b	0.10242935
177	0x3d98231d	0.07428572
178	0x3e40a97a	0.1881465
179	0xbe30a56f	-0.17250608
180	0xbbca1515	-0.006167064
181	0xbc3f8489	-0.011689314
182	0x3b9c031b	0.0047611124
183	0x3ac7efe6	0.001525399
184	0xbd7e16b1	-0.06203336
185	0xbd275688	-0.040854007
186	0xbd8013ce	-0.062537774
187	0xbda54d46	-0.08071379
188	0xbbac948e	-0.0052667325
189	0xbed873a8	-0.4227574
190	0xbe3cef38	-0.1845063
191	0x3e48105f	0.19537495
192	0xbe7217fa	-0.23641959
193	0xbe0919bf	-0.13388728
194	0xbe6442c0	-0.22291088
195	0x3da1782e	0.078842506
196	0xbe7a929a	-0.24469987
197	0xbe1b28d6	-0.15152296
198	0xbe3208ec	-0.17386216
199	0xbcddd38a	-0.027078409
200	0x3ad0a247	0.0015917503
201	0xbefe8c86	-0.49716586
202	0xbeaf74e3	-0.34268865
203	0xbce2cf1a	-0.027686644
204	0xbee548af	-0.44782016
205	0x3d9e1e02	0.07720567
206	0xbba6adf8	-0.0050866567
207	0xbefab755	-0.48967996
208	0x3df448f1	0.11927975
209	0x3d82d00d	0.06387339
210	0xbe81802a	-0.25293094
211	0x3e73aa27	0.23795377
212	0x3d54bb73	0.051936578
213	0x38a3c6d6	7.809482e-05
214	0x3d6f7c84	0.058468357
215	0xbe81d812	-0.2536016
216	0xbf32bc33	-0.6981842
217	0xbe9fd4ae	-0.3121695
218	0xbd657a9f	-0.056025144
219	0xbef8d014	-0.4859625
220	0xbeb46f14	-0.35240996
221	0xbbde7ad6	-0.0067895455
222	0x3d01b59e	0.031667344
223	0x3cd63c34	0.026151754
224	0x3d2f54a9	0.042805348
225	0xbed540de	-0.41651052
226	0x3d1a21ff	0.037630077
227	0x3e80b70a	0.25139648
228	0xbd007589	-0.03136209
229	0x3e38ffb0	0.18066287
230	0x3d4fe5dd	0.050756324
231	0xbddbda47	-0.107349925
232	0x3e165ba3	0.14683394
233	0xbec90744	-0.39263356
234	0x3e23c8f8	0.15994632
235	0x3ef07e1d	0.46971217
236	0xbd644aa5	-0.05573525
237	0x3e6908ae	0.22757217
238	0x3f6e227c	0.9302137
239	0x3e88a29b	0.26686558
240	0x3e3e798e	0.18601057
241	0x3eb852c7	0.36000654
242	0xbcc4eb28	-0.024037912
243	0xbd78fc31	-0.060787383
244	0x3d30f200	0.04319954
245	0xbded194f	-0.11577093
246	0x3c82f189	0.015984314
247	0xbc88f861	-0.016719999
248	0xbd419dd1	-0.047269646
249	0xbd8089fa	-0.06276317
250	0xbd87e9c5	-0.06636385
251	0xbd4761b5	-0.048677165
252	0x3cdd4025	0.027008126
253	0xbcad9cbc	-0.0211929
254	0xbe378116	-0.17920336
255	0x3ea1f35b	0.31630978

features_extractor.encoder.conv.8.bias f4 [64]
0	0xbd6e0778	-0.05811259
1	0x3dc03321	0.09384752
2	0x3d98f298	0.07468146
3	0xbe24cc69	-0.16093601
4	0x3dc091fe	0.09402846
5	0xbd9ee574	-0.077586085
6	0xbd47fdd5	-0.048826057
7	0xbcdd3838	-0.027004346
8	0xbcb6a62c	-0.022296034
9	0xbe5bf754	-0.21481067
10	0x3e7b53d7	0.24543701
11	0xbd863907	-0.06553846
12	0xbd93d005	-0.07217411
13	0x3d92595e	0.07145952
14	0x3dbacdac	0.0912126
15	0x3d32b5aa	0.04363028
16	0xbab844a6	-0.0014058545
17	0xb9979a41	-0.00028915892
18	0xbdb22a37	-0.08699458
19	0xbc7a9faf	-0.015296861
20	0xbdb0dfeb	-0.08636459
21	0x3d0e0431	0.034671966
22	0xbde05ec4	-0.10955575
23	0x3cf4c6a7	0.029879881
24	0xbd83b8b5	-0.064317144
25	0xbd67ad0a	-0.056561507
26	0xbc75f8da	-0.015012944
27	0x3dd0a200	0.10187149
28	0x3d649950	0.055810273
29	0xbd889b68	-0.066702664
30	0xbdec9018	-0.11550921
31	0xbdce8dac	-0.100856155
32	0xbdc2341d	-0.09482596
33	0xbddd4df8	-0.10805887
34	0xbc6f9a09	-0.014624127
35	0x3c8dee2b	0.017325481
36	0xbdea25fd	-0.11433027
37	0xbde4b0b3	-0.11166515
38	0xbd082abd	-0.033243883
39	0xbdd21a63	-0.10258939
40	0xbcd5f41d	-0.026117379
41	0xbdae1beb	-0.08501419
42	0xbd382d98	-0.044965357
43	0xbd077100	-0.03306675
44	0xbd3e8d52	-0.046521492
45	0x3bcf5c11	0.006328114
46	0x3d3d8ba3	0.046275746
47	0x3d8ae36e	0.0678166
48	0x3d1dea81	0.03855372
49	0xbdaa3680	-0.08311176
50	0x3c7988f8	0.01523041
51	0xbd26750b	-0.040638965
52	0x3caa1df4	0.020766236
53	0xbd6865b1	-0.056737605
54	0xbd14c613	-0.03632171
55	0x3e0e2342	0.13880637
56	0x3d00ce1a	0.031446554
57	0xbcf7df8b	-0.03025796
58	0x3ddc2fec	0.10751328
59	0xbc64f4e2	-0.0139744
60	0x3de3a607	0.111156516
61	0x3dd4ff82	0.10400297
62	0x3e63dbc5	0.22251804
63	0x3cb262c8	0.021775618

features_extractor.encoder.conv.10.weight f4 [128, 64, 3, 3]
0	0x3ca3920e	0.019967105
1	0xbd2643ff	-0.04059219
2	0x3cf91f68	0.030410483
3	0xbb8ce456	-0.0042996807
4	0xbcad67ec	-0.021167718
5	0xbc9f5a9d	-0.019452387
6	0xbd08229e	-0.03323614
7	0xbd58d042	-0.052932985
8	0x3c3cb53b	0.011517818
9	0x3c8e09bb	0.017338624
10	0xbb15ea00	-0.002287507
11	0x3c8972d8	0.016778395
12	0xbc9b71b3	-0.018975114
13	0xbca5abc0	-0.020223498
14	0x3d1a95b3	0.03774042
15	0xbc350f70	-0.011051044
16	0xbcf2f6da	-0.029658724
17	0xbdb963f5	-0.090522684
18	0x3c66413b	0.014053638
19	0xbcf48a1b	-0.02985101
20	0xbc7e8196	-0.015533825
21	0xbc874cb0	-0.01651606
22	0xbd8bbfa4	-0.06823662
23	0xbcbea618	-0.023272559
24	0xbd0600a7	-0.032715466
25	0xbda950b8	-0.08267349
26	0xbc34169b	-0.010991718
27	0x3d0a2a50	0.03373176
28	0xbc0d31a6	-0.008617794
29	0x3bad37cb	0.005286192
30	0xbc870cd3	-0.016485607
31	0xbd864423	-0.06555965
32	0xbd4a9e43	-0.049467336
33	0x3cf0258b	0.029314777
34	0xbc5054c8	-0.012715526
35	0xbd8c51ed	-0.068515636
36	0xbd24f54a	-0.04027299
37	0xbc03bcdb	-0.008040632
38	0x3bd08c96	0.0063644154
39	0xbcd36a03	-0.025807386
40	0x3c8105d1	0.015749844
41	0xbce8e949	-0.028431552
42	0xbd21e934	-0.03952904
43	0xbd6fd0fe	-0.05854892
44	0x3cb38299	0.02191286
45	0xbcf4ac96	-0.029867452
46	0xbce718f6	-0.028210144
47	0x3d0d0c46	0.034435533
48	0x3ccb8920	0.02484566
49	0x3c6cd8b6	0.014455965
50	0x3c480b4b	0.012209724
51	0x3cd2970b	0.025706789
52	0xbc9fc9b6	-0.019505363
53	0xbcdffcce	-0.027342226
54	0x3c7cc506	0.015427833
55	0xbd244e28	-0.040113598
56	0x3c304f90	0.010761157
57	0xbd08bbe8	-0.033382326
58	0xbd17d215	-0.037065584
59	0xbd8a286b	-0.0674599
60	0xbc1eeaf0	-0.009699568
61	0xbd4b0dd9	-0.049573753
62	0xbcfb533a	-0.030679334
63	0xbcb2ef5b	-0.02184265
64	0xbd03f75f	-0.032218333
65	0x3b9df2a0	0.004820183
66	0xbd228700	-0.039679527
67	0xbca3d3e4	-0.019998498
68	0xbc32eae2	-0.010920258
69	0xbd09e887	-0.03366902
70	0x3b125ba5	0.0022332456
71	0x3b00da49	0.0019661358
72	0x3ca99a5b	0.020703485
73	0x3c166510	0.009179369
74	0x3c942e9b	0.01808863
75	0xbcff8726	-0.031192373
76	0x3c82f469	0.015985684
77	0xbbc2cdde	-0.0059449514
78	0xbcdae476	-0.026720267
79	0x3c85c6d4	0.01633016
80	0xbd3a6a04	-0.04551126
81	0xbcf01130	-0.02930507
82	0x3aa4ca80	0.0012572557
83	0xbcaceff3	-0.02111051
84	0xbc27fbf6	-0.010252943
85	0xbd83d41b	-0.0643694
86	0x3d5c27d7	0.05374893
87	0x3c1a5cf0	0.009421572
88	0xbd30564b	-0.043051045
89	0xbd0e3673	-0.034719896
90	0x3c43f4f6	0.011960259
91	0x3d1b1a93	0.03786714
92	0xbcfcf83e	-0.03088009
93	0xbcb84eab	-0.02249845
94	0xbce9ed64	-0.02855558
95	0xbcac8c8c	-0.021063112
96	0xbd1e5dc4	-0.03866364
97	0xbdf0ff99	-0.117675014
98	0x3caee950	0.021351486
99	0x3cbfa2b3	0.02339301
100	0x3c4f270b	0.012643586
101	0xbcd845a0	-0.026400387
102	0x3d0ea418	0.03482446
103	0x3b17b5d6	0.0023149154
104	0x3bbe098b	0.0057994775
105	0x3d29f11c	0.041489705
106	0x3d1fd2c8	0.039019376
107	0x3d11aa27	0.03556266
108	0x3cdbe1fe	0.02684116
109	0xbcdeea1e	-0.027211245
110	0x3c1fb9eb	0.009748916
111	0x3d1fab5e	0.038981788
112	0xbcb3485b	-0.021885088
113	0xb92776ab	-0.00015970568
114	0xbc6b657b	-0.014367457
115	0xbbccac6b	-0.0062461398
116	0x3cc2f950	0.023800522
117	0x3d14736c	0.036242887
118	0xbbeeae8b	-0.0072839907
119	0x3c66519b	0.014057542
120	0x3c8cd606	0.017191898
121	0xbdbccfe5	-0.0921934
122	0xbd1e7cbc	-0.038693175
123	0x3bf701cb	0.0075380555
124	0xbc77abdd	-0.015116659
125	0x3d02f633	0.031973075
126	0x3c24a770	0.010049686
127	0xbb9c73eb	-0.0047745607
128	0xbce2aed0	-0.027671248
129	0x3c644586	0.013932591
130	0xbd802b88	-0.06258303
131	0x3ad320f3	0.0016107842
132	0x3bfc5360	0.0077003688
133	0xbd81aea7	-0.063321404
134	0x3d0335cc	0.032033727
135	0xbc40e81b	-0.011774088
136	0xbcb79bc6	-0.022413146
137	0x3cc99c6e	0.024610724
138	0xbcfaf6fb	-0.030635348
139	0xbd95bde3	-0.07311609
140	0x3cb8950d	0.02253201
141	0x3cd6cf40	0.026221871
142	0xbd05f486	-0.0327039
143	0xbcb216b5	-0.021739343
144	0x3b3d5240	0.0028888136
145	0x3b8340eb	0.0040055416
146	0xbcf66dee	-0.030081715
147	0xbb958d2b	-0.0045639477
148	0x3cbedcd6	0.023298662
149	0xbcb0bfc4	-0.021575816
150	0xbd0354ca	-0.032063283
151	0xbd2fdf3f	-0.042937513
152	0xbd7fed7b	-0.06248234
153	0xbb1fab6b	-0.0024363648
154	0xbcf78d0b	-0.030218622
155	0x3d0974f8	0.033558816
156	0xbcf9a548	-0.03047432
157	0xbd2288f6	-0.039681397
158	0xbda9fcbd	-0.08300159
159	0xbc8677e6	-0.016414594
160	0x3cb6e8c8	0.022327796
161	0xbd2997c8	-0.041404516
162	0xbcd540c8	-0.026031867
163	0xba5cf100	-0.0008428246
164	0x3c4c232b	0.012459557
165	0xb9e0acab	-0.00042853257
166	0x3bfeb96b	0.0077735684
167	0xbbc7e936	-0.006100799
168	0xbcc2b043	-0.023765689
169	0xbc582b30	-0.01319389
170	0x3c989458	0.018625423
171	0x3ce58dd6	0.028021734
172	0x3ba4cb20	0.005029097
173	0xbcbd9613	-0.02314285
174	0x3cf475c6	0.029841315
175	0xbd5487a7	-0.05188718
176	0x3d067947	0.032830503
177	0x3c6c84c0	0.014435947
178	0xbd93a7e3	-0.07209756
179	0xbc6a63de	-0.014306037
180	0xba791856	-0.00095022225
181	0x3c9b09f3	0.018925643
182	0xbcee76db	-0.02910941
183	0xbd0afe96	-0.0339342
184	0xbc93d623	-0.018046444
185	0x3ca3955b	0.01996868
186	0xbcd33143	-0.025780326
187	0xbc4fff3b	-0.012695129
188	0x3c96124e	0.018319275
189	0xbc4fe190	-0.012688056
190	0x3d0cec78	0.0344052
191	0x3d1cc4ef	0.038273748
192	0x3bd42716	0.006474386
193	0xbd53f97b	-0.051751595
194	0x3c65856d	0.014008862
195	0x3cd92c66	0.026510429
196	0xbbf59aec	-0.007495275
197	0xbd772fc8	-0.060348302
198	0x3b46b5d6	0.0030320785
199	0x3cfcc466	0.030855369
200	0x3d0334d4	0.032032803
201	0xbc4a79fb	-0.012358184
202	0xbcdde5bf	-0.02708709
203	0xbbdaa161	-0.00667207
204	0xbd199b74	-0.037501767
205	0xbd55fe1a	-0.052244283
206	0x3cf1abd4	0.02950088
207	0xbd1c96f8	-0.038229913
208	0x3c9d0bb3	0.019170618
209	0xbbefb0c0	-0.0073147714
210	0x3d0e42fb	0.034731846
211	0xbb885db1	-0.0041615595
212	0xbc3d38a2	-0.011549147
213	0xbc09d580	-0.008412719
214	0xbd732075	-0.059357125
215	0xbd0c3f97	-0.03424033
216	0x3d066fc6	0.03282144
217	0xbab6f700	-0.001395911
218	0x3cc87c03	0.024473196
219	0xbc4828a6	-0.012216723
220	0xbca9cfd6	-0.020728987
221	0xbce59c93	-0.028028762
222	0xbd15dbdb	-0.036586624
223	0x3c73fa06	0.014891153
224	0x3d0930db	0.033493858
225	0x3d16fa6c	0.036859915
226	0xbd2517ec	-0.040306017
227	0x3d131707	0.035910632
228	0x3c205880	0.009786725
229	0xbdcffe9f	-0.10155987
230	0x3c8a50d7	0.01688425
231	0x3d1b07ef	0.037849363
232	0xbdd33d30	-0.10314405
233	0xbd319da2	-0.04336322
234	0xbc021f96	-0.007942101
235	0x3ca6e746	0.020373952
236	0xbca58c28	-0.020208433
237	0x3cb6bcd8	0.022306845
238	0xbcdeb61c	-0.027186446
239	0xbd55163a	-0.05202315
240	0x3c84af13	0.016196763
241	0xbc0561fc	-0.008141037
242	0xbd3ba7c8	-0.045814306
243	0x3cd252f8	0.025674328
244	0x3ce89aa6	0.028394055
245	0xbc216676	-0.009851089
246	0xbc9c0440	-0.019044995
247	0xbd5b7371	-0.05357689
248	0xbd6226c1	-0.05521274
249	0xbbfd12e0	-0.0077231973
250	0xbd68ffff	-0.056884762
251	0x3bf4b22f	0.00746753
252	0xbd293fbb	-0.041320544
253	0x3bbfcb56	0.005853097
254	0xbd07bcb3	-0.033138942
255	0xbcda5420	-0.026651442

features_extractor.encoder.conv.10.bias f4 [128]
0	0xbd3a93c1	-0.045551065
1	0xbd0bd88b	-0.03414206
2	0x3eb44e22	0.3521586
3	0xbdf2f641	-0.118633755
4	0x3e9586cb	0.292044
5	0xbd6ade3c	-0.057340845
6	0x3e5d6b95	0.2162307
7	0x3e8b1630	0.27165365
8	0x3ea43cbb	0.32077584
9	0x3d411732	0.04714126
10	0xbd729a85	-0.059229393
11	0x3e543b1f	0.20725678
12	0xbe0f063d	-0.13967223
13	0xbccac320	-0.024751246
14	0xbca157a7	-0.019695116
15	0xbcc34b60	-0.023839653
16	0x3e0a6abf	0.13517283
17	0xbd9f8aaa	-0.0779012
18	0x3e85a8b2	0.26105267
19	0xbd338e3a	-0.04383681
20	0xbc9a1984	-0.018810995
21	0x3ea058f0	0.31317854
22	0xbd636071	-0.055511896
23	0x3e19a6d5	0.15005048
24	0xbbf7c0a6	-0.0075608073
25	0x3d08027d	0.033205498
26	0x3ec6731a	0.3875969
27	0xbc857796	-0.016292375
28	0x3db93ec8	0.09045178
29	0x3e1c966d	0.15291758
30	0xbbd2111a	-0.00641073
31	0x3e2b8fb9	0.16754045
32	0xbd503db6	-0.050840102
33	0xbd7abced	-0.06121533
34	0x3e5f3d78	0.21800792
35	0xbd083a04	-0.033258453
36	0xbd8c88b2	-0.0686201
37	0x3dedb45f	0.11606669
38	0x3e66260a	0.22475448
39	0xbd19d450	-0.037555993
40	0xbc9513ef	-0.018197982
41	0xbccf5061	-0.025306882
42	0xbd25b33b	-0.04045413
43	0xbda86781	-0.08222867
44	0xbd506b15	-0.05088337
45	0x3ed2beda	0.41161233
46	0xbd56caa7	-0.052439358
47	0x3e8a9699	0.27068022
48	0xbd0e8cca	-0.034802236
49	0xbc95e5d3	-0.018298065
50	0x3db5f148	0.08883911
51	0x3e2cc3c1	0.16871549
52	0x3e0b27b8	0.1358937
53	0xbd45050a	-0.04810051
54	0xbd1753b9	-0.03694508
55	0xbd8a1709	-0.06742675
56	0xbcff0f28	-0.031135157
57	0x3a974220	0.0011540093
58	0x3e52f157	0.20599876
59	0xbbf1a8a2	-0.007374839
60	0x3e182e3e	0.1486139
61	0xbd871ee6	-0.0659769
62	0x3be57819	0.007002842
63	0xbd0e8202	-0.034791954
64	0x3e862219	0.2619789
65	0xbd65b90d	-0.05608468
66	0xbd3199be	-0.04335951
67	0x3ec4af2b	0.38414893
68	0x3e46551b	0.19368403
69	0xbd08a941	-0.033364538
70	0xbcf0a27a	-0.02937435
71	0xbd6c84ed	-0.057743955
72	0x3e86b03d	0.26306334
73	0x39cf4c63	0.0003953903
74	0xbbfc8721	-0.0077065383
75	0x3eb7af99	0.35876158
76	0xbc8d6a1f	-0.017262517
77	0xbcd6cbbe	-0.026220199
78	0x3e23c1ab	0.15991847
79	0x3df8e9d6	0.12153976
80	0x3ec261f1	0.37965348
81	0xbd17292a	-0.03690449
82	0x3e8a03d9	0.2695606
83	0xbcbf1337	-0.023324592
84	0xba812e9a	-0.0009855807
85	0x3eb84a73	0.359943
86	0xbd2c0866	-0.042000197
87	0x3e54dd65	0.2078758
88	0xbddd2cd3	-0.10799565
89	0x3e18273d	0.14858718
90	0xbd322965	-0.04349651
91	0xbd2a813a	-0.041627146
92	0xbd9dd18a	-0.07705982
93	0xbd94590d	-0.072435476
94	0x3e5bf6ab	0.21480815
95	0x3e9a2190	0.3010373
96	0x3e9f31f7	0.31092808
97	0xbcb6430f	-0.022248773
98	0xbd3ab01d	-0.04557811
99	0xbcdb6ff7	-0.026786787
100	0x3e4cc5b0	0.19997287
101	0x3e12e88e	0.14346525
102	0xbd5780c1	-0.052613024
103	0x3eddc4e7	0.43314287
104	0x3e5cba5f	0.2155547
105	0x3e34bbbd	0.17649741
106	0xbd60189a	-0.054710962
107	0xbd04cad1	-0.032419983
108	0xbd085644	-0.033285394
109	0x3e7806e8	0.24221385
110	0xbcf2d1be	-0.029641028
111	0xbd3f09ea	-0.046640314
112	0x3e5b6840	0.21426487
113	0x3e14b4ac	0.14522046
114	0xbd02dde9	-0.03194991
115	0xbd55ed63	-0.052228343
116	0xbd4c2b5e	-0.049846046
117	0xbd2a7eec	-0.04162495
118	0x3c839fb1	0.016067358
119	0xbd2ecbef	-0.042674955
120	0x3e962b0e	0.29329723
121	0x3ddb5de3	0.10711267
122	0xba8d8042	-0.001079567
123	0x3e887350	0.26650476
124	0xbd75aea3	-0.059981
125	0xbd022b1b	-0.03177939
126	0x3e4c0f37	0.19927679
127	0xbd71ed2f	-0.059064087

features_extractor.encoder.fc.weight f4 [64, 128]
0	0x3cc8f593	0.024531161
1	0x3d5a7c5d	0.05334126
2	0xbdcd4adf	-0.10024046
3	0x3e4446cb	0.1916763
4	0x3dda4ea2	0.10659529
5	0xbe8cbf69	-0.27489784
6	0xbe71b8a4	-0.23605591
7	0xbe6f5360	-0.23371649
8	0xbe312de0	-0.17302656
9	0x3d9b13c2	0.07572128
10	0xbd7e7a46	-0.062128328
11	0x3b84d2e5	0.004053461
12	0x3d7eb641	0.06218553
13	0xbd866eaf	-0.0656408
14	0x3d5e8756	0.054328285
15	0xbd3b6cb1	-0.045757953
16	0x3dc8dde8	0.0980795
17	0xbdd4e413	-0.10395064
18	0xbda3ba16	-0.079944775
19	0x3ce811eb	0.028328856
20	0x3d0b1bb1	0.033961955
21	0x3e8fe525	0.2810451
22	0xbd6021f1	-0.05471987
23	0xbe997976	-0.2997548
24	0x3d84d658	0.06486195
25	0x3dbe0905	0.09279064
26	0x3de46bcb	0.111533724
27	0xbd1bd8f3	-0.038048696
28	0xbd87eb08	-0.066366255
29	0x3d8c7352	0.06857933
30	0xbdeef843	-0.11668446
31	0xbdc05459	-0.09391088
32	0xbbf7b2b1	-0.0075591435
33	0x3d407fdd	0.04699694
34	0xbd83edb7	-0.06441825
35	0x3d7c27dd	0.061561454
36	0x3d7cd25a	0.061724044
37	0xbdea3e58	-0.114376724
38	0xbe9f43b7	-0.3110635
39	0x3d1e6cd2	0.038677998
40	0xbdd93e9e	-0.106076464
41	0xbd8498c7	-0.064744525
42	0xbd01dcc9	-0.031704698
43	0x3d74c3e2	0.05975712
44	0x3c735ae7	0.014853216
45	0x3e7aff38	0.2451142
46	0x3d5cad24	0.053876057
47	0xbeb5c580	-0.35502243
48	0x3dabcbac	0.08388457
49	0x3c25ccb6	0.010119608
50	0x3e8cd5f2	0.27506977
51	0xbe25214b	-0.16125982
52	0x3d9179b5	0.07103292
53	0x3d629504	0.055317894
54	0x3d49a5bc	0.049230322
55	0xbd020fa6	-0.031753205
56	0x3ca685de	0.020327505
57	0x3d5559c4	0.05208756
58	0x3ef82e63	0.4847289
59	0xbd5abb45	-0.05340125
60	0xbe9a4c2c	-0.3013624
61	0x3d32a856	0.04361757
62	0xbea2ccd7	-0.31796905
63	0xbcad7953	-0.021176016
64	0xbdc9fdd9	-0.09862871
65	0x3cecaa1a	0.028889704
66	0xbda398c7	-0.07988124
67	0xbe698fe5	-0.22808798
68	0xbe0ce95f	-0.13760899
69	0x3d92321c	0.07138464
70	0xbd35b660	-0.04436338
71	0xbbaa7a65	-0.005202579
72	0x3d5dda99	0.05416355
73	0x3cc9b731	0.024623485
74	0x3dd9be2e	0.10631977
75	0xbdffcc0a	-0.12490089
76	0x382f183b	4.1745818e-05
77	0xbca6ade6	-0.020346593
78	0x3d75428a	0.05987791
79	0xbd8d6208	-0.069034636
80	0xbeb3d679	-0.35124567
81	0xbd41a79d	-0.04727899
82	0xbca95c02	-0.020673756
83	0x3dbae4c6	0.09125666
84	0xbdb61505	-0.08890728
85	0x3de087e3	0.10963418
86	0xbd485e2f	-0.048917945
87	0xbe37ef8b	-0.17962472
88	0xbda5fb02	-0.081045166
89	0x3eafc919	0.34333113
90	0xbd9daed9	-0.07699365
91	0x3c51419b	0.012771989
92	0xbc2b5c05	-0.010458951
93	0xbca8ba08	-0.02059652
94	0xbc390e5e	-0.011294929
95	0xbe32916f	-0.17438291
96	0x3ecf5ee8	0.40502095
97	0xbc65d55d	-0.014027921
98	0xbdf21323	-0.11820056
99	0x3c49a90f	0.012308373
100	0x3cdd81d9	0.027039455
101	0xbeb16d3d	-0.34653655
102	0xbd5b4be8	-0.053539187
103	0xbe95cddd	-0.29258624
104	0x3d52b1ba	0.051439025
105	0xbe0f7f71	-0.14013459
106	0x3d583b75	0.052791078
107	0xbe268a6a	-0.16263738
108	0x3d1fe427	0.039035942
109	0x3e71749b	0.23579638
110	0x3c32fa2b	0.0109239025
111	0xbc91289d	-0.017719561
112	0x3ea0be35	0.31395116
113	0xbebd7717	-0.3700492
114	0xbb3602b7	-0.0027772614
115	0xbd5b0138	-0.05346796
116	0x3c305a21	0.010763676
117	0xbd95b308	-0.07309538
118	0xbcbd1950	-0.023083359
119	0xbcc809c4	-0.02441872
120	0xbe1c98a0	-0.15292597
121	0x3eb0ca30	0.34529257
122	0x3d6f8a53	0.058481526
123	0x3e41834b	0.1889774
124	0xbc8274e8	-0.015924886
125	0x3c720722	0.014772208
126	0x3ec1775e	0.37786382
127	0x3cd9f33a	0.026605237
128	0xbdd2417b	-0.10266396
129	0x3d562315	0.05227955
130	0x3ed76ee0	0.42076778
131	0x3eac1616	0.336106
132	0x3d84e4b0	0.06488931
133	0x3e8625d7	0.26200745
134	0x3ebf66d1	0.3738313
135	0xbd5899f7	-0.052881207
136	0xbdfa3f82	-0.122191444
137	0xbcfec2d8	-0.031098768
138	0xbd27cad5	-0.04096492
139	0xbcb6f28c	-0.022332452
140	0x3d87dbff	0.06633758
141	0xbd4b951c	-0.04970275
142	0xbd92952d	-0.07157359
143	0xbbf6dbf5	-0.007533545
144	0x3de00687	0.10938745
145	0xbc787507	-0.01516462
146	0xbe27b788	-0.16378605
147	0xbbb5479a	-0.005532217
148	0x3d5ab141	0.0533917
149	0xbcca2197	-0.02467422
150	0xbc391462	-0.011296364
151	0xbe361154	-0.17780048
152	0xbcadb707	-0.021205438
153	0xbe968e45	-0.29405418
154	0x3f1246c9	0.5713926
155	0x3d3c35c8	0.045949727
156	0x3e4e0862	0.20120385
157	0x3c47c8af	0.012193843
158	0x3de120db	0.10992595
159	0x3eab2c66	0.3343231
160	0xbdc09151	-0.09402717
161	0xbd1536fa	-0.036429383
162	0x3d94c86d	0.07264791
163	0xbd63b5df	-0.055593368
164	0x3bcd0309	0.0062564653
165	0xbe46f53c	-0.19429487
166	0x3c0d70d5	0.008632858
167	0x3c00a879	0.007852667
168	0xbcf68fd6	-0.030097883
169	0x3df015c7	0.11722904
170	0xbd8fab20	-0.070150614
171	0x3dcac7a1	0.099013574
172	0x3dc1bd98	0.0945999
173	0xbe126154	-0.1429494
174	0x3d45e53e	0.048314326
175	0x3d57e6b0	0.052710235
176	0xbcd34634	-0.025790311
177	0x3d544be5	0.05183019
178	0xbd87d1bf	-0.06631803
179	0xbd993c81	-0.07482243
180	0x3e329a33	0.17441635
181	0x3d054149	0.032532964
182	0xbd8b9c72	-0.06816949
183	0x3dff9678	0.124798715
184	0xbd9a8fae	-0.07546936
185	0xbd10f96c	-0.035394117
186	0x3d92168c	0.07133207
187	0x3db4799b	0.08812257
188	0x3e550dc2	0.2080603
189	0xbd41e51b	-0.047337633
190	0x3e3e47eb	0.18582122
191	0xbc647a27	-0.013945139
192	0x3db1c0a1	0.08679319
193	0x3c8f0da9	0.017462568
194	0xbdbbced6	-0.0917031
195	0x3cfcffd4	0.030883707
196	0x3e84b979	0.25922754
197	0x3cba638a	0.022752542
198	0x3cfe12f2	0.031014893
199	0xbd3d397f	-0.04619741
200	0x3e5fcbfb	0.21855156
201	0xbd307603	-0.043081295
202	0x39b8dbb2	0.000352589
203	0x3ed7a431	0.42117456
204	0xbd26d938	-0.0407345
205	0x3d1fcec4	0.039015546
206	0xbe8f465f	-0.27983376
207	0xbd11607d	-0.03549241
208	0x3e49b39e	0.19697425
209	0xbd4d80e1	-0.050171737
210	0x3df0963a	0.117474034
211	0xba1f5bb4	-0.00060790335
212	0x3d9fa2fa	0.07794757
213	0x3ec66154	0.3874613
214	0xbc37f890	-0.0112286955
215	0x3c9c06a8	0.019046143
216	0xbdb4b480	-0.0882349
217	0xbe2be272	-0.16785601
218	0x3d7786e8	0.06043139
219	0xbd7600b1	-0.060059253
220	0x3c099493	0.008397239
221	0xbda9d334	-0.08292237
222	0x3e5f8414	0.21827728
223	0x3d1233fc	0.035694107
224	0x3c54b05a	0.012981499
225	0x3d90cf31	0.070707686
226	0x3c9ecc38	0.019384488
227	0xbd7ddccd	-0.06197815
228	0x3e3ba2f4	0.1832388
229	0x3ede3548	0.43400025
230	0xbcfe4aad	-0.031041468
231	0x3d747979	0.059686158
232	0x3e9bb8ef	0.3041453
233	0xbe5113a8	-0.20417655
234	0xbd918488	-0.071053565
235	0x3cc4c7a6	0.024020981
236	0xbc9b8bf9	-0.018987643
237	0x3dab11d3	0.08353009
238	0x3c9ab92c	0.018887125
239	0x3c66ed0a	0.0140946
240	0x3e508b59	0.20365657
241	0x3df566f5	0.11982528
242	0xbcd1e239	-0.025620567
243	0x3c1e6838	0.009668402
244	0x3bad13bd	0.005281894
245	0xbd6eca7f	-0.058298584
246	0xbd94e279	-0.07269759
247	0x3d1dc51f	0.038518067
248	0x3efecea4	0.4976703
249	0x3bda7afe	0.006667494
250	0x3c68fd27	0.0142205125
251	0x3ce9b354	0.028527893
252	0xbd77ba96	-0.060480677
253	0xbd996e3a	-0.07491727
254	0xbc208a21	-0.0097985575
255	0x3da7e3d3	0.08197751

features_extractor.encoder.fc.bias f4 [64]
0	0x3cb52ca9	0.022116022
1	0x3db07c5b	0.08617469
2	0xbcea9ca1	-0.02863914
3	0x3c4d0adf	0.012514799
4	0x3e179f4e	0.14806864
5	0x3dfbba19	0.12291355
6	0xbe2a4776	-0.16628823
7	0xbd2cf52c	-0.042226
8	0xbe02329e	-0.12714621
9	0xbe4d24f6	-0.2003363
10	0xbd88a325	-0.06671742
11	0xbd96921b	-0.07352086
12	0x3d293193	0.041307043
13	0x3dd4cdf6	0.103908464
14	0x3daff6bf	0.08591985
15	0x3ea10029	0.31445435
16	0x3e0b0f6b	0.135801
17	0x3ddf9870	0.10917747
18	0xbd83020c	-0.06396875
19	0x3cc3b521	0.02389008
20	0xbe16180c	-0.1465761
21	0xbd8eb599	-0.06968231
22	0xbbede3a2	-0.007259802
23	0xbd2fd227	-0.042925026
24	0x3d87fdc1	0.066401966
25	0xba995ee3	-0.0011701252
26	0x3c42f56a	0.011899332
27	0xbd5eca36	-0.054392062
28	0xbcec3b42	-0.02883685
29	0xbd2c7fbb	-0.042114
30	0x3d16bc67	0.03680077
31	0x3da21851	0.07914794
32	0xbe08e280	-0.13367653
33	0xbe005c68	-0.1253525
34	0x3eae6769	0.3406327
35	0x3dc94487	0.09827524
36	0x3c394829	0.011308708
37	0xbbb30fb3	-0.005464518
38	0xbd3f12fd	-0.046648968
39	0x3d347e40	0.044065714
40	0xbd05d3c4	-0.03267266
41	0xbda11b13	-0.07866492
42	0x3d210fed	0.03932183
43	0xbdadc80c	-0.084854215
44	0xbd9d9060	-0.07693553
45	0xbc962446	-0.018327843
46	0x3d0cf37d	0.034411896
47	0x3e1a2827	0.1505438
48	0x3ea7cdd1	0.32774213
49	0x3d92200f	0.07135021
50	0xbe024f60	-0.12725592
51	0xbcbfbed9	-0.023406433
52	0xbd1241ad	-0.035707165
53	0x3dce7554	0.10080972
54	0xbdfe36d7	-0.124128036
55	0xbe11c4e3	-0.14235263
56	0x3c78f3a4	0.015194807
57	0xbddb4b04	-0.107076675
58	0x3e4eeee6	0.2020832
59	0xbe7c88c9	-0.24661554
60	0xbc0227dd	-0.007944074
61	0x3dbeecbc	0.09322497
62	0x3ba07ada	0.0048974575
63	0xbd607d8a	-0.054807223
