model/actor_critic_CNN_v1.pth (torch, 444146 bytes, 16 tensors)

log_std f4 [2]
00000000: 4081 bfbe 85c7 02bf
-0.37403297 -0.5108569

features_extractor.cnn.0.weight f4 [16, 1, 3, 3]
00000000: f875 e8be 6028 3d3d b472 e73e cccb 67be
00000010: 28bd b7be 4901 803d baa8 a6bd f71b 2cbe
00000020: 6b8b a73e 79d8 a6be 0888 1abd 7573 b83e
00000030: 57c2 943e e08c cb3c 57f8 ccbc 8244 2a3e
00000040: 2c1d 5a3e 2a67 833e 37d1 9a3d bae5 38be
00000050: 1e34 8bbc c827 5f3e be95 1ebe 18ee bc3e
00000060: f671 9f3e 6f6a 3fbe f93a 9a3e e4e4 233e
00000070: e81f d7bd 12ab a7be f774 233e 3da5 9bbe
00000080: 751d d93e 2969 80be 3dd3 63bd 943c d9be
00000090: 4053 c33e 5c1e 87be 1fdd 963d 195a 903e
000000a0: 8c1e 323e be94 9abe 69d3 60bd 1b14 84be
000000b0: ee8d 2cbe ef95 e9be 4d32 3d3e 93fe dfbd
000000c0: d923 803e 7943 10bf f24c ea3e 4820 843e
000000d0: 7f1a 613e eb6b cabe e6c1 353d 71ea a63e
000000e0: 6430 cfbe 0a78 c33e b97f a2be 897e 55be
000000f0: 2d65 ccbe e88e b1be 5f3a 393e 5fae c03a
00000100: e986 963e 81d3 283e 9381 61be fd3e 803e
00000110: 42c5 87be f038 15be f8ad 283d 0ee7 713e
00000120: 148b dabd 350c 07bf 9789 b43d 5953 5c3e
00000130: f85d 9c3e 6222 e8be a32d dabd 9532 a63d
00000140: 4564 9d3e 48b1 90bd 5d35 9b3e 8fe0 85be
00000150: 4fb1 723e 0cd9 00be 404c 493e fc7c b0be
00000160: d982 873e 5efc da3d 3ab0 6d3e f9a5 b73e
00000170: 1c9c 48be cb22 4f3d 784e cc3b e689 fbbe
00000180: e66c 9ebe 3a3a a93d 2b26 453e ec7b 82be
00000190: 7acf b9bc 2a49 67be 5fd8 3ebd 1e22 503e
000001a0: bbb0 603d 92f1 643e 007b 70be 9eeb 993d
000001b0: 97b9 743e dc79 90be 388c 853d a43a 15bf
000001c0: c612 cc3e e5b7 1e3e 83ee bd3e da87 0fbe
000001d0: 00f9 5ebe de3e 0d3e a834 92be 7056 ae3e
000001e0: 5b3e 1a3c c8ca 9ebe a890 5d3e 84f6 e03b
000001f0: a9af a03e bea5 7cbe 661b f3bd 0a5d 303e
00000200: 6f3c 0f3e 0be6 223e 3090 ecbc 8509 08bf
00000210: cb6d ba3e 7a2a 55bd 7db5 a0be 7731 56be
00000220: 62ef 26bf 5bf5 c33e ed65 62be 6fc9 033e
00000230: 66f4 0d3c d4bc bebe ac14 af3e f3f4 89be
-0.45402503 0.046181083 0.452047 -0.22636336 -0.35886502 0.06250245 -0.08137651 -0.16807543
0.32723555 -0.3258703 -0.037727386 0.36025587 0.2905452 0.024847448 -0.025020761 0.16627696
0.2130019 0.25664645 0.07559436 -0.18056384 -0.016992625 0.21792519 -0.1548681 0.369004
0.31141633 -0.18692945 0.30123118 0.16005284 -0.105041325 -0.32747704 0.15962587 -0.30399504
0.42405286 -0.2508023 -0.055621374 -0.4242903 0.38149452 -0.2639035 0.07366394 0.2819374
0.17394465 -0.30191606 -0.054889116 -0.2579659 -0.16851017 -0.45622203 0.1847622 -0.10937228
0.2502735 -0.56352955 0.4576183 0.2580588 0.21982764 -0.3953546 0.04437437 0.3260074
-0.40466607 0.3817752 -0.3173807 -0.2084905 -0.3992094 -0.3467934 0.18088673 0.0014700404
0.29399803 0.16486932 -0.22022085 0.25048056 -0.26517683 -0.14572501 0.041181535 0.23623297
-0.10671058 -0.52753 0.08815306 0.2151617 0.30540442 -0.45338732 -0.10653236 0.081151165
0.30740562 -0.07065064 0.3031415 -0.26147887 0.2370045 -0.12582797 0.19657993 -0.34470356
0.26467016 0.106926665 0.23211756 0.35868815 -0.19590801 0.05057029 0.00623494 -0.49128646
-0.30942458 0.08263059 0.19252841 -0.2548517 -0.02268194 -0.22586504 -0.046593066 0.20325515
0.054856043 0.22357777 -0.23484421 0.075156435 0.23898922 -0.2821797 0.06520885 -0.58292603
0.39858073 0.15499838 0.37096033 -0.14016667 -0.21774673 0.13793513 -0.285558 0.34050322
0.009414281 -0.31014085 0.21637213 0.0068653245 0.31384018 -0.246726 -0.1187046 0.17222992
0.13987897 0.15908067 -0.028877348 -0.53139526 0.3641189 -0.052042462 -0.31388465 -0.20917307
-0.6520902 0.3827313 -0.22109194 0.1286981 0.008664226 -0.3725344 0.3419546 -0.26944694

features_extractor.cnn.0.bias f4 [16]
00000000: 0b65 7a3e b408 03be 2a5a e83d 703a b3bb
00000010: 6d18 31bd 6541 adbd 888d 0bbd 1d96 8cbd
00000020: 0c89 c13d 3dc0 03bc 36dc ce3d 5fbb 153e
00000030: 7283 a3bc ea2a 203d 520e 1d3e 5519 69bd
0.24452607 -0.12796289 0.113453224 -0.005469613 -0.043236185 -0.08459739 -0.03407052 -0.06864569
0.09449968 -0.008041439 0.10100596 0.14622258 -0.019960139 0.039103426 0.15337494 -0.056908924

features_extractor.cnn.2.weight f4 [16, 16, 3, 3]
00000000: 67fc 43be 8190 20be b24b 5cbd 5bd0 89be
00000010: e3de afbd b68e 873a 022e fcbd 2f74 07be
00000020: d4f6 1abe f22d fbbc c57d 26bd a508 0f3d
00000030: 3560 86bd 90fe da3d 9e46 a5be a1b4 bb3b
00000040: 0436 c2bc e642 98bd 15fe 143c 720e f63b
00000050: 260e db3b 0140 67bc 44c6 763d aae0 e7bc
00000060: 57b3 72bd 400b c9bd 8edf 63bd 7dfc 4ebd
00000070: 2895 3c3d fc79 cfbc b4e9 093e ecb6 973e
00000080: 1a64 3d3e 5ea6 4c3e db63 303c 213f 9d3e
00000090: 7965 7b3d b0b4 2fbe 2d69 423e 45fc febc
000000a0: e544 68bd 2d32 ee3d 8de6 93bd 281c 613c
000000b0: f814 953e b2c6 ef3c 8224 4d3e 030f 533e
000000c0: cbcb 0a3e 9a4f af3e 0fa3 3fbd ec45 803d
000000d0: e1ec 0f3e 7560 af3e 133a b33d 9917 7bbc
000000e0: 726a 6cbe 7136 e23d def2 6a3d 06ba d73e
000000f0: d664 663d da1b 023e 87da 8a3d 7e8c 633d
00000100: 6952 e53d 5370 64be b0de d13c 081d d3bd
00000110: 9e1c 00be e02b 51bd 185f 74bc bfc4 b0be
00000120: 461b 673d d5ef 8bbe 772f 0dbc 3da9 8dbe
00000130: 7a55 2d3d 0d7a adbc 370a 143d 2e4c 6abb
00000140: d61e d73d 5054 2bbc 9ed2 243e c6f1 82bc
00000150: a2ea a63d e0b8 ad3d 89aa 10bd 8e71 aa3d
00000160: c0c6 303d 3faa c4bd e7a4 15bd 8df1 45bc
00000170: 8a10 073c ae24 19be 2941 33be 638e d43c
00000180: 5418 46bd 3e55 8fbd 53c9 9abb 93ec a7bd
00000190: 11d1 92bd ce6a 39be abd0 dabc 9215 24bd
000001a0: 156a 9dbb d80a 93bd b8cf 5f3d 4081 14be
000001b0: 1491 873d bc61 3e3e 3635 54be f9f2 483d
000001c0: e4ce 813e 8a12 273e 4aee 233e aace 993e
000001d0: 9078 443e 7cbb 7a3c 97d2 d5bd cc27 d83d
000001e0: 5439 063d 0767 80bd 5ce6 47be d6bd 013e
000001f0: 4562 67bd 1a98 513d 6848 393c 8435 1dbd
00000200: 36c5 d93c c767 6bbe dde2 9cbd c83e d03d
00000210: c416 2bbe b626 6bbd 1a66 d5bc bcea 313c
00000220: 0bf7 fdbd 01af 37be 170d 1dbe 121a 05bd
00000230: 04a4 fc3d 98c7 8ebd 0ea5 88be 941b 62be
00000240: 13bc 0ebc 53ef 213d 1460 eabb 8147 873c
00000250: 875a 503d 5f30 a4bc 8043 88bc 10c2 743d
00000260: c966 0c3d d062 f93b 66b0 b7bd 26af 38be
00000270: 8d92 3a3d b648 01be e262 d4bc 7008 c4bd
00000280: 8bd7 0dbe 1e43 3ebd ee7b 9c3d f7b9 c4bc
00000290: 95db 8dbc f25c 12bd b211 5f3b 1995 413b
000002a0: 37f3 06bd 801e f4bd 2cca 7bbd 9bdd 1a3e
000002b0: 9a22 7fbd f13d 933e 8fd5 fd3d f7aa 643e
000002c0: fc2d 513e 2f9c 1a3e 853d 5d3e 8f51 6f3e
000002d0: 1475 4e3e fefe 0fbd f56b 133d ea33 01bd
000002e0: 6fa8 963d 33d1 f6bd bd24 a63d 4182 c23d
000002f0: 48f3 55be 06e5 303e 19f6 073e b1c0 d0bd
00000300: 83b7 5abe 1b10 b33e ae77 4b3d 12c3 203e
00000310: cf66 3cbe a1e1 d23e 7db5 7a3e 7b45 603e
00000320: a061 243e be45 35be f607 8f3d 170e 05bc
00000330: b950 2f3e 56bd b03e 457c 473d be3a 74bd
00000340: 3a66 883d f280 28bd 81a3 07bd c9b2 c6bd
00000350: 56aa 15bd 3054 9a3d c2c8 4a3d 3020 10bd
00000360: 5055 5f3d a34c c73d 4614 ae3c 0cb7 16bd
00000370: cebe f1bc 19c5 d03d 0836 a2bc 5379 d3bb
00000380: 3c8a 673d d0cd d3bd f848 87bd 2e1a b0bd
00000390: d59a bcbc d7fb 86bd 6ac2 12bd 203a e2bc
000003a0: e3f6 e3bd bf1a 8d3d 5541 f13c 8355 c23d
000003b0: ee9d 8e3d 085f 52bd d3d7 41bd 2644 3c3d
000003c0: 33e7 363d 201c 9c3c f948 4ebd 214d 183d
000003d0: c03c ea3d 021e a23c eac3 53bd 7500 80bd
000003e0: 36d2 76bd c012 0fbd 1e7e e03d 7335 8b3c
000003f0: d687 b3bd 3c8f d63d 08d2 253e 3ff1 943d
-0.19139253 -0.15680124 -0.053783126 -0.26916775 -0.08587434 0.0010342214 -0.12313463 -0.13227914
-0.1513322 -0.030661557 -0.040647287 0.034920353 -0.06561319 0.10693085 -0.3228044 0.0057283198
-0.023707397 -0.07434635 0.009093781 0.0075090462 0.0066850362 -0.014114381 0.060247675 -0.02830537
-0.059253063 -0.09816599 -0.05563312 -0.05053376 0.046040684 -0.025326721 0.13468057 0.29631746
0.18495217 0.19985339 0.010765995 0.30712226 0.06137607 -0.1715877 0.18985434 -0.03112615
-0.056706328 0.11630664 -0.072217084 0.013739623 0.2911756 0.02926955 0.20033458 0.20611195
0.13554303 0.3424042 -0.046786364 0.062633365 0.14055206 0.34253278 0.08751311 -0.01532545
-0.2308748 0.1104554 0.057360522 0.42134112 0.05624851 0.12705937 0.06779962 0.055553906
0.11197359 -0.22308473 0.025618881 -0.10308272 -0.12510917 -0.051067233 -0.01491525 -0.34525105
0.056422494 -0.27331415 -0.0086172735 -0.2766818 0.042317845 -0.021176362 0.036142554 -0.0035750973
0.10503928 -0.010457113 0.16095969 -0.015984427 0.081502214 0.08482528 -0.035318885 0.0832244
0.043158293 -0.09602784 -0.036534216 -0.012081516 0.008243689 -0.14955398 -0.17505325 0.025946802
-0.048363045 -0.069986805 -0.0047237067 -0.0819942 -0.071687825 -0.18107149 -0.026710829 -0.040059634
-0.0048039057 -0.07179803 0.054641455 -0.1450243 0.06619468 0.1859197 -0.20723423 0.04905984
0.25353158 0.16315666 0.16008869 0.30040485 0.19186616 0.015303489 -0.104405575 0.10554466
0.032769516 -0.06269651 -0.19521469 0.12670073 -0.0564902 0.051170446 0.011308767 -0.038381115
0.026583295 -0.22988807 -0.07660458 0.101682246 -0.16707903 -0.057409965 -0.026049662 0.010859188
-0.12400635 -0.17937852 -0.15337025 -0.032495566 0.12335971 -0.06971663 -0.26688427 -0.22080833
-0.008711833 0.039534878 -0.0071525667 0.016513588 0.050867584 -0.020042596 -0.016633749 0.059755385
0.03427771 0.0076106563 -0.08969192 -0.18035564 0.045549918 -0.12625393 -0.025926057 -0.09571922
-0.13851754 -0.046450727 0.07640825 -0.024014456 -0.017316619 -0.03573317 0.0034037647 0.0029538332
-0.03294679 -0.1191988 -0.061472103 0.15123598 -0.062288858 0.28758195 0.12394249 0.22330843
0.20427698 0.15098642 0.21605499 0.23370956 0.2016185 -0.03515529 0.035991628 -0.03154365
0.07356345 -0.1205162 0.08112476 0.094975 -0.20893586 0.17274866 0.13277473 -0.10193003
-0.21359067 0.34973225 0.049674682 0.15699413 -0.18398593 0.41187766 0.24483295 0.21901505
0.16052866 -0.17702386 0.0698394 -0.008121035 0.17120637 0.34519452 0.048702497 -0.059626333
0.06660123 -0.041138597 -0.033114914 -0.09702069 -0.036539398 0.07535589 0.049507864 -0.035186946
0.05452472 0.09731414 0.021249902 -0.03679566 -0.029509928 0.101938434 -0.019801155 -0.006453672
0.056528315 -0.1034199 -0.066057146 -0.085987434 -0.023023048 -0.065910034 -0.03582994 -0.027615607
-0.11131074 0.06889867 0.029450098 0.09488966 0.069637164 -0.05136016 -0.047324967 0.04596343
0.044654083 0.01905638 -0.05036256 0.03718293 0.114373684 0.0197897 -0.05170051 -0.06250087
-0.060259067 -0.03492999 0.10961555 0.01699326 -0.08766143 0.104765385 0.16193402 0.072725765

features_extractor.cnn.2.bias f4 [16]
00000000: 3737 a73c dceb 6e3d 7d2f 6ebc 49f0 1abd
00000010: 6071 0cbd 49b7 81bd f47c 5bbd 45f6 efbc
00000020: f691 7ebd 258b 073d 7fb9 b4bc 7350 5dbc
00000030: 4431 813d edbe 093d 7893 783d 37a4 80bc
0.02041207 0.0583304 -0.014537689 -0.03782681 -0.03428781 -0.06333787 -0.05358596 -0.029292235
-0.062150918 0.033091683 -0.022061108 -0.01350795 0.06308225 0.033629347 0.060687512 -0.015703304

features_extractor.cnn.4.weight f4 [16, 16, 3, 3]
00000000: ce8f 2abe 18d8 3bbe cb98 2a3e 054f 683c
00000010: 00bc 2d3d b8df 1d3c fb8e 8e3d db8a afbd
00000020: aaa0 b9bb b7bd 04be 5e18 28bd c753 44bd
00000030: 3cae 34be 4f0a 03be 685a 0bbe a003 45bd
00000040: e5cd 113d c42d 04be 69e3 94bc b320 003e
00000050: 24a2 ddbc 50e6 27bd 04ef c9bd 1df8 c33c
00000060: 29db 1b3b cdaa 5fbd 8420 d73d be65 8c3e
00000070: fcf5 c0bd 6956 24bc fcc7 13be 0396 743d
00000080: c833 083e 4836 123d 4646 79be 5153 583e
00000090: 2d62 3bbd a96e dfbc b6c9 fabc d28e cdbd
000000a0: 6b5e f7bc 12ed 9ebc c13c 3abb a6da 41bc
000000b0: db8e 7ebd 1c71 4bbe 75bf 343e 3da7 41bd
000000c0: b034 b93d 3edf 8dbd 2dd6 e23d 680d ff3b
000000d0: 138d 763d ae10 bbbb 2f65 0f3e dfef 443d
000000e0: 4099 88bd e51f 373d efa4 f03d 619f 403e
000000f0: 7da5 0ebc 84a3 783e e9c7 593e e521 5b3e
00000100: 68f5 fe3d 7d86 84bc 2e07 63bd d289 febd
00000110: 1e40 123e 2234 633e 8fe3 443d 4fab 23be
00000120: 6d7b 0bbd 0b9b 8ebd 6154 f7bd a9dd a63d
00000130: e0e8 233e f2fe ea3b b48d 53bd 860f 3f3b
00000140: a9fb 853d b73d b03d 1ce4 64bd bc54 01be
00000150: 023d f0bd 749e 6dbb 29bd fd3c 45c5 6ebc
00000160: 2261 113c 84f9 b73c 4140 e83c c023 00be
00000170: f198 83be 3d06 c73d 3e26 5bbc 95d0 c3bd
00000180: 83fe 5d3c f730 d93d 992d 4b3d 0a2e 483e
00000190: 8c0e db3d 6dfa 653d 49c7 d2bb 9e3e 89be
000001a0: deae 90bd 5603 3abd e32e b2be 3618 c63d
000001b0: 34bf 163c f45e 4dbd accc 83bc 5313 41be
000001c0: 412d e73d e9ee acbd e815 c73c e9bd 133d
000001d0: a799 2abd ae9d 1a3d e435 3bbd 5eb0 e0bd
000001e0: 8a18 7dbb 0480 023d bea9 38be 4d48 973c
000001f0: f9e1 063e 4dce 8dbd 8a1a 08bd 3198 253c
00000200: 5409 a1bc 3150 3f3d 779c e53d dbab 6a3d
00000210: 3af2 203d 08aa 433c 94f2 693b 27ba 853d
00000220: f099 493e bf49 39be b7bf cd3b 44c7 c8bd
00000230: 060d 403c d720 c83d ac93 033e 9d87 ddbd
00000240: ed1d 5cbd 6a0a 363e 17a6 ea3d 7609 6d3b
00000250: 0375 0b3e b625 bb3e 3af5 ca3d 9021 bc3e
00000260: 04c4 843b aba0 673a 4d75 35bd 0d96 b5bd
00000270: 01e6 423b 70fd 8cbd f0e8 023e 8c34 aebd
00000280: 8884 2e3d 9664 ce3d e277 debc c4b1 e73c
00000290: d1e6 2fbd ab85 463d d241 81bc 9358 8d3c
000002a0: d240 803d df0c 80bd 8894 1a3d 6b03 24bd
000002b0: ac3f 1d3e 6bbb d6bc d3d7 9abd 6fce 073e
000002c0: e271 243e 1ee8 0d3a bc8d 473e 248b 2f3e
000002d0: 2736 2abd b1d7 d2bd ce7f c53d c40e 263d
000002e0: 4c6e d0bd 0124 02bd c769 38be f670 24be
000002f0: 9734 b2bb 2a77 00bd 8ac8 153e 7eb6 e23d
00000300: 742b a03e b6a6 5e3e d5ea bdbd 6a45 093e
00000310: 604d b7bd 41dd 1f3e 8dc9 58bc a3e1 bb3c
00000320: d376 eabd 344b a83c 3752 dabc c3d4 9cbc
00000330: 2219 1abd 5984 babd 23c5 3fbd a20a 8abc
00000340: 4853 a0bd c2e2 713e 4b49 95bd d8eb 583e
00000350: 1463 f7bc 2a91 b23c 59ff 993d bc11 0bbe
00000360: 1dd6 e73c b6a9 f5bd ee83 febc d8b2 56bd
00000370: 879f 1f3c ad48 ec3a 4b39 733d 8d28 40bd
00000380: 26b8 18bc d9e7 80be eb50 153e 2762 ae3c
00000390: e892 b53d 18fc 0d3e 9f45 d3bb e3fa af3d
000003a0: 1378 f4bd 8d9c 8dbc f010 d6bc 210f 633c
000003b0: 2eab f83d 675d 33bd 2bc0 8d3e 6bf7 76bd
000003c0: 558f 2e3d fa28 1a3d 2961 a63e 204c d8bd
000003d0: c2ce 133e 0409 533e 5427 623e ae95 d53e
000003e0: 53ce a33e 291d b1ba 9ac0 683d 9ecb d03d
000003f0: 9197 d83d 5325 fc3d e08c 0dbe fd41 28be
-0.1665642 -0.18344152 0.16659848 0.014178996 0.04241562 0.009635858 0.06960865 -0.085714065
-0.0056649046 -0.12962995 -0.041038863 -0.04793146 -0.1764459 -0.12796901 -0.13608706 -0.04809916
0.035596747 -0.12908083 -0.018174844 0.12512474 -0.027054854 -0.040991127 -0.09860042 0.02392202
0.0023781753 -0.054606248 0.10504249 0.27421373 -0.09421918 -0.010030367 -0.14431757 0.059713375
0.13301003 0.035696298 -0.24343213 0.21125533 -0.045747925 -0.027274447 -0.030613761 -0.100370064
-0.03019639 -0.019400153 -0.002841756 -0.011831915 -0.062147956 -0.19867367 0.1765116 -0.04727863
0.090432525 -0.06927346 0.11076007 0.0077835806 0.060193133 -0.0057087755 0.14003442 0.04808032
-0.06669855 0.04470815 0.117502086 0.18810798 -0.008706448 0.24281126 0.21267666 0.21399648
0.12449151 -0.01617741 -0.05542677 -0.12428631 0.14282271 0.22187856 0.04806858 -0.15983318
-0.034053255 -0.06963166 -0.12076641 0.08147747 0.16006804 0.007171505 -0.05164881 0.002915354
0.06542141 0.08605521 -0.055881605 -0.1262998 -0.11730386 -0.0036257776 0.030973988 -0.0145734
0.008873256 0.022457846 0.028350951 -0.12513638 -0.25702623 0.09717987 -0.013375817 -0.09561268
0.01354945 0.106050424 0.049604032 0.19548813 0.10696134 0.056147028 -0.006432448 -0.26805586
-0.07064603 -0.045413338 -0.34801397 0.096725866 0.00920086 -0.050139382 -0.016088806 -0.18855028
0.112879284 -0.08444006 0.024302438 0.036069784 -0.04165044 0.03774803 -0.04570569 -0.10971139
-0.0038619363 0.031860366 -0.18033502 0.018467093 0.13172139 -0.069241144 -0.033228435 0.010107086
-0.019657768 0.046707336 0.11211484 0.0572928 0.039293505 0.011942394 0.0035697566 0.06529646
0.19687629 -0.18094538 0.0062789577 -0.09803632 0.011721855 0.09771889 0.12849301 -0.10816882
-0.053739477 0.1777741 0.114574604 0.003616897 0.13618855 0.3655221 0.099100545 0.36744356
0.004051687 0.0008835892 -0.04430132 -0.088665105 0.0029739144 -0.06884277 0.12784171 -0.08506116
0.04260686 0.10077779 -0.027156774 0.028283007 -0.042944733 0.04846732 -0.015778456 0.01725415
0.062623635 -0.06252455 0.037739307 -0.040042322 0.1535632 -0.026212415 -0.075606965 0.13262342
0.16059068 0.00054133113 0.19487661 0.17142922 -0.04155555 -0.10295046 0.096435174 0.040541425
-0.101772875 -0.031772617 -0.18009101 -0.16058716 -0.005438398 -0.031363644 0.14627281 0.11069964
0.31283152 0.21743283 -0.09273306 0.13405386 -0.08950305 0.15611745 -0.013231647 0.02293474
-0.11448445 0.020543672 -0.026650531 -0.019144421 -0.037621625 -0.091072746 -0.046818864 -0.016850773
-0.07828385 0.23621657 -0.0728937 0.21183717 -0.030198611 0.021797735 0.07519407 -0.13580984
0.02830034 -0.119952604 -0.031068768 -0.052416652 0.009742624 0.001802703 0.05938081 -0.046913672
-0.009321248 -0.25176886 0.14581649 0.021287037 0.08865911 0.13865697 -0.0064475085 0.08592775
-0.11936965 -0.017286563 -0.026131123 0.0138585875 0.12142025 -0.043790247 0.27685675 -0.06029455
0.04261716 0.037636735 0.32496002 -0.10561395 0.1443434 0.20608908 0.22085315 0.4171576
0.3199335 -0.0013512719 0.056824304 0.10195087 0.10575784 0.123118065 -0.13823271 -0.16431423

features_extractor.cnn.4.bias f4 [16]
00000000: 6d16 d9bc a573 bebd 13bb 8cbd 2cf7 e2bc
00000010: 5e95 8bbc b190 1cbc aa68 6ebd e364 a3bd
00000020: 611b b0bc 1177 bdbc ccb2 9abb a0c7 4fbc
00000030: abd2 08bd 3e4e cfba 8434 32bd 8869 48bd
-0.026499951 -0.09299401 -0.06871619 -0.027705751 -0.017038997 -0.0095559815 -0.058205284 -0.07978227
-0.02149743 -0.023128064 -0.0047210213 -0.012681872 -0.033404034 -0.0015816165 -0.043507114 -0.048928767

features_extractor.policy_net.0.weight f4 [64, 784]
00000000: b6fd 91bd 7338 f5bd 63fa 0fbe 634e 513e
00000010: 73ee 20bb 3425 70bd 66ea bebc 682b f7bb
00000020: a742 01be e852 05be 9962 99bd 9caa 46bd
00000030: f7a8 16be 7fd7 44bd 07e7 ae3d 9968 02be
00000040: 608a 113d 49d4 a03d c475 b43c f192 05be
00000050: 85b6 40bd 25b7 3abe d0e8 40be ac7d 9fbd
00000060: b20f d03b 852e 0ebe d48e 15be 5f1a d4bd
00000070: a857 693d ac13 33be 49eb 923d c3be 4b3d
00000080: a50e ffbc ac33 963d d2e6 f03c 2053 f7bd
00000090: 413b 34bd 05fb c53d 5ff2 ec3d a7a3 923d
000000a0: 9280 a23c f8fd 3b3e 81a3 81be 7be9 3abe
000000b0: 3ae1 73be 864b 9b3c 7fec ab3d 6c32 90bd
000000c0: 0f84 093e 0997 bbbc 17b8 5b3d f3fb 553d
000000d0: db66 c7bc 49ce a53b ecbf 84be 4e03 37be
000000e0: 6546 d1bd 99d9 8d3c 1b16 d93d 687c 3a39
000000f0: 38b6 b6bd 72a1 f8bd 2e9c 773e 5228 d2bd
00000100: 63f1 c33d 0b69 9cbd 6353 a63d 9f35 d83a
00000110: e746 91be 8a10 1abe 580a 0f3e 3395 7abd
00000120: 4c16 9d3d 5139 2f3d 33dd 6f3b c807 6ebe
00000130: 505d 8b3d 0b78 4cbb 89e4 773e fa42 0d3d
00000140: 2ec5 22be bc95 a0bd 8b07 f13d aeb6 0c3e
00000150: 1d4c 2f3c 0192 9a3d 999e 80bd 9575 04bd
00000160: b2b8 43bd 74d3 273e a35d d2bc b1d8 103d
00000170: ebb8 463b c0d5 923d 2b3b 2c3e 6b09 1dbd
00000180: 6cb7 18be 54b1 0c3d b1dd 863b fd44 6b3c
00000190: 62ac c63c 9aa7 26bc 33c4 d3bd bfdd 73be
000001a0: 8eba 37be 242b 2e3c f6f9 e8ba fbc2 eabc
000001b0: b9ff 9cbc 9b31 4bbd 0508 27bd a9f4 b03d
000001c0: ece0 5fbd c497 b33d 1cde 79bd 1530 dd3d
000001d0: 5c2a 86bd 3f09 33be 7d1d c5bd e461 50bb
000001e0: 4aa8 94bc 645f a0bb bae3 8f3d efe0 3abd
000001f0: 73fc 1ebc 5ddd 2f3d 73ad 663d 172c 9f3d
00000200: 42d3 96bc d37b 14bd c1a4 0f3d 13d9 ff3d
00000210: 797e b33d 7fcf fc3d ff2c 58bd 6d24 a33d
00000220: c3c3 b53d f945 a9bd 488a 013e 8db5 dc3d
00000230: 5c71 273e f8e0 af3c 35ca 8d3d 9080 433d
00000240: a433 2d3d 0b9a 15be 2ba4 e13b 901f 6a3e
00000250: 2fa3 9a3d f6ec bb3d 91b6 a43d 56d5 c2bd
00000260: cc38 d23a e6d1 38be f409 d73d 9320 ac3e
00000270: 4488 8cbd 2c4f 84bc a6da b43d 4113 073e
00000280: 081f d038 4916 033e a2a1 df3c 8f64 51bc
00000290: 2cab 633d ad77 33bd ec13 b8bd 39fe 323e
000002a0: 2b0e 573c 5b94 95bc 8d18 193e 8d6d f9bc
000002b0: 20fc 9fbd 1c3b 6e3e 3b1e 463e 9239 433e
000002c0: 9e13 a83d 6f08 883d 9685 3a3d 71e7 9b3d
000002d0: 97df d33d d09c d93c bc95 493d 0182 c0bc
000002e0: cd7c 6d3d a9fd cbbd 6055 81be bf22 1ebd
000002f0: 9145 f3bc 1c5f 6f3d 5b47 0cbe f934 543d
00000300: cb2d b2bd 4576 2c3d 93cd 6fbd 52ec 153e
00000310: d67a 9aba bc7f b93d 5cd0 f73d fdbf 883d
00000320: 8edd bb3a bba3 c3bd e864 07be 7724 ad3d
00000330: f161 6d3d 479f 123d 9307 e2bb e05e 333c
00000340: e1e4 2fbe 5728 db3d 8d47 8fbd 8f3e ed3d
00000350: 08d3 7a3d 642b 1e3e 572b a6ba 9e25 03be
00000360: f339 42be c09f 173d 5773 5d3d 719b 47bc
00000370: e91f b5bc f06c 9aba 1f24 da3b 357c 25bd
00000380: 06cc df3d facb 473d 54cb de3c 9635 e3bd
00000390: 42d7 6cbd f79f 2c3c 8e98 9d3d cd80 ba3d
000003a0: 4d8c 1fbd 1355 ef3d fd35 333d b9dd eabd
000003b0: 0fc5 213e 5c08 d23d 5476 b23d 879b 813d
000003c0: 371b e7bc a0cc 983d eb82 e33c 2b99 05bd
000003d0: 7248 4e3c 73fc d53d ee69 e23b 9e9c d63d
000003e0: edf8 2a3d c7c3 07be 0524 81be 8674 68be
000003f0: 3134 9f3c 87c3 093e f9bb 46bc d855 c4bc
-0.0712847 -0.119736575 -0.14060359 0.20440058 -0.002455619 -0.05862923 -0.02330513 -0.007543016
-0.12623082 -0.13019907 -0.07489509 -0.04850255 -0.14712892 -0.048057076 0.08540159 -0.12735213
0.035532355 0.0785299 0.022028811 -0.13044335 -0.047049064 -0.18233927 -0.18838811 -0.07787642
0.0063495273 -0.13884933 -0.14605266 -0.103565924 0.05696836 -0.17487973 0.07173783 0.04974247
-0.031134913 0.073340744 0.029406939 -0.12076402 -0.04400182 0.09667019 0.11569666 0.071601205
0.019836698 0.183586 -0.25320056 -0.18253128 -0.23816386 0.01895691 0.083947174 -0.07040867
0.13429283 -0.022899168 0.05364236 0.05224223 -0.024341037 0.0050599915 -0.25927675 -0.17872354
-0.10218505 0.017315673 0.105999194 0.00017784687 -0.08921474 -0.12140168 0.24180672 -0.10261597
0.09567525 -0.07637223 0.081213735 0.0016495473 -0.28374407 -0.15045372 0.1396879 -0.061177444
0.076702684 0.04277927 0.003660035 -0.23245156 0.06804907 -0.003119948 0.24208273 0.034487702
-0.1589553 -0.078410596 0.11769017 0.13741562 0.010699299 0.07547379 -0.0628025 -0.032338697
-0.04778356 0.16389257 -0.025679415 0.035362903 0.0030322622 0.07169676 0.16819446 -0.03833906
-0.1491372 0.0343488 0.004115783 0.01435971 0.02425212 -0.010171795 -0.103401564 -0.23815058
-0.17942259 0.010630403 -0.001777469 -0.028657427 -0.019164907 -0.049607854 -0.040779132 0.08640415
-0.05465786 0.08769181 -0.061002836 0.108001865 -0.06551048 -0.17483996 -0.09624765 -0.0031796629
-0.018146653 -0.004894184 0.07025857 -0.04562467 -0.009703743 0.042935718 0.056317758 0.07772081
-0.018411282 -0.0362509 0.03506923 0.124925755 0.08764357 0.12344264 -0.052777287 0.07965932
0.08875229 -0.08265299 0.12650406 0.107768156 0.16351837 0.021469578 0.069233336 0.04773003
0.042285576 -0.14609544 0.0068860254 0.22863603 0.07550656 0.09176056 0.08042634 -0.09513347
0.0016038655 -0.1804882 0.10499945 0.33618602 -0.06861928 -0.016151033 0.088307664 0.13190939
9.923993e-05 0.1280147 0.027298752 -0.012780323 0.055583164 -0.043815304 -0.08988175 0.17479791
0.0131259365 -0.018259218 0.14950772 -0.030447746 -0.07811761 0.23264736 0.1934747 0.1906493
0.08206867 0.066422336 0.045537554 0.07612503 0.10345381 0.026564032 0.049215063 -0.02349949
0.057980347 -0.09960491 -0.25260448 -0.038607355 -0.029696258 0.058440313 -0.13699095 0.05180833
-0.087001406 0.042104978 -0.05854566 0.1464093 -0.0011785876 0.090575665 0.12100288 0.06677244
0.0014332996 -0.095527135 -0.13222086 0.08454221 0.057954732 0.03579643 -0.0068978756 0.010947913
-0.17177154 0.107010536 -0.06996069 0.11584198 0.06123641 0.1544624 -0.0012677711 -0.12807319
-0.18967418 0.037017584 0.054065075 -0.012183056 -0.022109943 -0.0011781733 0.006657138 -0.040401656
0.10927586 0.04877851 0.027196564 -0.11094205 -0.057822473 0.0105361855 0.07695113 0.09106598
-0.03895216 0.116861485 0.04375266 -0.114680715 0.15797828 0.10255501 0.087139755 0.063284926
-0.02821122 0.07460904 0.027772387 -0.032616775 0.0125905145 0.104485415 0.0069096005 0.10479091
0.0417413 -0.13258277 -0.25222793 -0.227007 0.019434066 0.13453494 -0.012129777 -0.023966715

features_extractor.policy_net.0.bias f4 [64]
00000000: 5d8d 223d 2cfc 6b3d bb17 12bd 3a5b 383d
00000010: 0145 c53c e12e 2d3d ad58 793d 5cc1 953c
00000020: d3ea bd3c e3df c5bc e354 b03b cffc f83b
00000030: 81a2 343c b7bd 0a3d 7a39 07bc add1 663b
00000040: 324b 803d 35d2 c13c 7271 6a3d ef94 6dbc
00000050: 3a98 713c 65d3 d03c 9ef0 a33c c838 333d
00000060: 78c9 923d ed5e 763d b327 8bbd 7513 3c3d
00000070: c09b 283c af27 99bc 93df 783d 9484 a4bd
00000080: c08f e0bb 5d4e 8b3d ffe5 b1bc 511a 40bc
00000090: b7b9 b0bd 7b53 943b 73b3 403d 5481 8d3d
000000a0: f02f 7a3c 8452 323d d1df c4bc 5205 603d
000000b0: 88d3 0dbd 46a3 90ba 1908 86bb d6d3 753d
000000c0: 1da7 27bc 22de b03c feb6 1b3d 4a40 81bc
000000d0: cb3c 29bd b259 283d 1bee 1b3d 6e12 213d
000000e0: 0c2f edbc c2bf 933c afc4 66bb 469c be3c
000000f0: 0cb6 013d 42ed 0f3d c9f5 4abd 53c6 5f3d
0.039685596 0.057613537 -0.035667162 0.045008875 0.024080755 0.042281035 0.060875583 0.018280677
0.023183262 -0.02415461 0.005381213 0.0075984965 0.011025072 0.033872332 -0.00825345 0.0035220191
0.06264342 0.023659805 0.057237096 -0.014500841 0.014745766 0.025491426 0.020012196 0.043755323
0.07167333 0.060149122 -0.067946814 0.045916993 0.01029104 -0.01869568 0.060760092 -0.080331
-0.006853074 0.06802056 -0.021716116 -0.011725024 -0.08629172 0.004526553 0.047046136 0.06909433
0.015270218 0.043535724 -0.024032505 0.054692574 -0.03462556 -0.0011034987 -0.004090321 0.060016476
-0.010232714 0.021590296 0.03801631 -0.015777726 -0.041317742 0.041101165 0.038068872 0.039324217
-0.028953098 0.018035773 -0.0035212447 0.023267876 0.031667754 0.035138376 -0.049550805 0.054632496

features_extractor.policy_net.2.weight f4 [64, 64]
00000000: ca2f 1b3e 6452 373d 9d3f 09be c2e2 473e
00000010: 3ee2 403e 6d4e 05be 92f1 d0bd 3b15 833e
00000020: 3c2d 833e 0dca 26bc fa43 11be beed 8abd
00000030: 8ba8 88bc 6021 c53d adab 653e 17fd c33c
00000040: eb1d 2f3e 95c4 c4bd 914e b13b b5f1 3dbd
00000050: 23cf b53d 2c85 fabc 47ef 193e 13e3 e13c
00000060: 27ee 2dbe 8fc2 3dbe a590 363e 359e 3abe
00000070: a85e 1a3d 4fe3 513c 1f5e 103e 17bb dfbd
00000080: 37c3 14bd 679f 643e 67b4 8b3d bf19 7cbd
00000090: e857 823e fd0a 0e3c 3bd4 303e dcae 943e
000000a0: d0e7 393e f088 d53d 4d8f 603e 1519 babd
000000b0: f9b4 9abe 406d 3b3e e689 8c3c 70c4 14be
000000c0: c944 83be f9d3 42be 5878 233c 4ae5 d3bd
000000d0: dc4d 4d3e ad73 8cbd 212a 0ebe 46f6 813e
000000e0: e5f6 b5bd 01e4 b0bd 88f6 563e 0ec0 8fbe
000000f0: d8ba 0abe 1f1e 28be 3ff2 073e a8ec 353e
00000100: 22bb d5bb 11a5 103d c24c 69bd b503 4e3e
00000110: 67e3 043e d5f5 a63d d44d fabd 0683 703d
00000120: acbe 843d 7d1b 2c3e 4d96 98bd 294e 3bbe
00000130: e604 33be aade 03be 42b4 213e 201d 9fbd
00000140: bce9 8f3e 0b49 d0bd d1f3 2c3e 9246 5c3e
00000150: 5db3 c0bd 1f7c c1bd 945e bc3c ac68 543e
00000160: 2589 1cbe c99a 16be c7e5 103d bcc0 91bd
00000170: 0157 8c3e 2e05 023e 21c5 ffbb a8a8 233d
00000180: d190 dabd d35e c8bc adb0 84bd ffc3 3dbe
00000190: 8275 343d 5225 263e 00b2 f0bd b10a 283e
000001a0: 659f 0c3e ab03 1f3e 1eb5 973d 9e43 51be
000001b0: 772b 98bd e897 0a3e af6d 653c 5ab7 d43d
000001c0: 70f3 28be 826a d03c 63aa e53d d4d1 5dbe
000001d0: 1eaa 5c3e 428b a4bd 8d4c 8ebd 4a60 153e
000001e0: 6456 bebe 3e4a 99bc 97f5 a23d b140 b3bd
000001f0: d2de 29bd 8c12 1ebe ddad 623d e7be b83d
00000200: 716e 95bd ee46 54bd 811a 963b 6982 143e
00000210: f040 9fbd 14b3 933c 8432 08be 4221 8a3e
00000220: 905c a8bd 105a dfbb 1b23 7bbe 9e71 68be
00000230: fbe3 39bd 0ae8 3bbe 7c48 bfbc 4ec4 10be
00000240: 6726 6f3e 4c7a 06be 08c3 a9bc d850 ee3d
00000250: efea 0dbe ad6b 59bd 7559 ae3d e7b2 2e3e
00000260: 390c debd d355 31bd 19f7 0f3e 708c 03be
00000270: 1dbe 3c3e 4da3 bc3d b503 303d 73b6 083d
00000280: d513 d4bd e381 483d d648 50be 2bc8 5bbe
00000290: f393 be3d bf55 663e 8eb3 68bd af08 6e3e
000002a0: 48e0 743e b485 c33d d8ec 4e3e a325 20bd
000002b0: 4f77 68bd 5654 323d bb0e 373e bc92 783d
000002c0: ab6b 24be aff2 f53d 2e78 2d3e ad4a 1dbe
000002d0: 7b19 da3d 7de5 da3c 3c39 813d b07b 543e
000002e0: a8bc c5be 38a6 d7bd b2f7 473d 1f26 33be
000002f0: 9fb7 ca3d dcae 02be 2906 103e 3aeb 793d
00000300: c981 51be 374b 80be 6a5e a4bd 16fe a13d
00000310: 8c46 763d 79c4 563e df03 6dbd 718d 773c
00000320: 17a4 583b 852a 3b3e c66e 56be 29b2 68bd
00000330: c15c 51be 840a 06bd f29c 233c 1886 d6bd
00000340: cdb3 b13b c64b 11be 0527 1c3d df0d 913e
00000350: 705e 96bd 02c5 84be 7fdb 0f3d 3556 573d
00000360: 5086 18bd b826 26bd caba 203e 6bd3 913d
00000370: ad1c 483e 88c7 5f3e 200a 3d3c d0ad 673e
00000380: 6b3c 9ebc 97fc 3bbd 256f 21be 7ee9 87be
00000390: 96f9 903d 1d55 183e 5c05 153d ab8a e5bc
000003a0: c160 9abc 4d8a 163e a597 3a3e 8f64 69bd
000003b0: ae91 423e 84ef 4a3e ba68 3f3e cbcd 863e
000003c0: ca34 08be f13c 633e deca 6d3d b4ce 2bbd
000003d0: de81 9cbb 1da4 d6bd b0e8 7bbd 7425 8e3d
000003e0: 67a1 a7be dbf4 0dbe 52e1 27be 29bf 31be
000003f0: 9ac5 a63d b669 393d 3f8e b1bc 30dc f8bc
0.15154949 0.04475631 -0.13403173 0.19520095 0.18836305 -0.13018198 -0.10202326 0.25602135
0.2562045 -0.010180009 -0.14186087 -0.06783627 -0.01668193 0.096255064 0.2242877 0.023924394
0.17101257 -0.096078075 0.005410977 -0.046373088 0.08877399 -0.03058108 0.15032683 0.027574098
-0.16985379 -0.1853125 0.17828615 -0.18224414 0.037687927 0.012810542 0.14098404 -0.109243564
-0.036318984 0.22326432 0.068215184 -0.06154799 0.25457692 0.008669612 0.1726846 0.29039657
0.18154836 0.104265094 0.21929665 -0.09086815 -0.30216196 0.18303394 0.017155599 -0.1452806
-0.25638416 -0.19026174 0.009977423 -0.10346468 0.20049232 -0.06858001 -0.13883258 0.25383204
-0.08884982 -0.08637238 0.20992482 -0.28076214 -0.13547838 -0.1641774 0.13276003 0.17766058
-0.006522552 0.03531367 -0.056957968 0.20118602 0.12977372 0.081523575 -0.12221876 0.058718704
0.0648168 0.16807361 -0.074505426 -0.18291534 -0.17482337 -0.12877908 0.15791419 -0.07769227
0.28108013 -0.10170182 0.16889884 0.21511295 -0.09409211 -0.09447502 0.022994317 0.20743054
-0.15286691 -0.14707483 0.035375383 -0.07116839 0.2741013 0.12697288 -0.007805482 0.039955765
-0.10672153 -0.024459278 -0.06479011 -0.18531798 0.044057377 0.16225174 -0.11752701 0.16410328
0.13732679 0.15528743 0.07407592 -0.2043595 -0.07430165 0.1353451 0.014003201 0.10386534
-0.16499114 0.025441412 0.11214139 -0.21662074 0.2154927 -0.08034374 -0.06948195 0.14587513
-0.37175286 -0.01871216 0.07956999 -0.08752573 -0.041472264 -0.15436763 0.05534159 0.09020787
-0.07296456 -0.051825456 0.004580796 0.14502873 -0.07776058 0.018029727 -0.1330052 0.269785
-0.0822078 -0.006816156 -0.2452511 -0.22699592 -0.045383435 -0.18350235 -0.023349993 -0.14137384
0.23354493 -0.1313259 -0.020722881 0.116365135 -0.13859151 -0.053081203 0.08513156 0.17060433
-0.10842175 -0.04329474 0.14059104 -0.12846541 0.18431897 0.09210835 0.042972285 0.033377122
-0.10355345 0.048951995 -0.20340285 -0.21463077 0.09305563 0.22493647 -0.05681186 0.232455
0.23913682 0.09546986 0.20207536 -0.039098393 -0.056754407 0.04353746 0.17876713 0.06068681
-0.16056697 0.12009179 0.16940376 -0.15360518 0.10649391 0.026720757 0.06309745 0.20750308
-0.38620496 -0.105297506 0.048820205 -0.17495011 0.09898304 -0.12762016 0.1406485 0.061015345
-0.20459665 -0.25057384 -0.080258206 0.07909791 0.060125872 0.20973386 -0.05786502 0.015109406
0.003305679 0.18277939 -0.20940694 -0.05681053 -0.20445539 -0.032724872 0.009986149 -0.10474795
0.0054230453 -0.14189062 0.03812315 0.28330895 -0.07342231 -0.25931555 0.035121437 0.052572448
-0.037237465 -0.04056427 0.15696254 0.07120403 0.19542189 0.21853459 0.0115380585 0.22624898
-0.019315919 -0.045895185 -0.15765055 -0.26545328 0.07078855 0.14876218 0.036382064 -0.028020224
-0.018844964 0.14701195 0.1822191 -0.056980666 0.19000885 0.1981793 0.18692294 0.26328883
-0.13301387 0.22191216 0.058054797 -0.041945174 -0.0047762236 -0.10480521 -0.061501205 0.06940737
-0.32740328 -0.13862936 -0.16394547 -0.17358078 0.08143158 0.04526683 -0.021674274 -0.030378431

features_extractor.policy_net.2.bias f4 [64]
00000000: 1a2e 94bd aef3 aebd a1f4 303d a26b 453d
00000010: ab2e 5a3c ae85 cb3d c819 9fbd 6205 153d
00000020: cca2 a0bc 6484 c0bc 7432 fd3c 788d 2abd
00000030: 8d1b babc cce2 c8bd 9b1a a4bd e666 a0bd
00000040: 1ef6 d33d 16fb 6ebd f5b0 0bbc d0ca 3f3c
00000050: 2d6c 6dbd 38b1 56bd 5ce5 ea3d b35e 503d
00000060: 0506 633d a470 b6bd dc02 45bd 47ba 293d
00000070: f6d8 a13d 6108 1e3d cb17 f9bd 3eb0 5bbd
00000080: 4e65 b0bd 012f e73c 13c8 d93d 04e0 b63d
00000090: 499c 8e3d c6f4 e7bc 0e27 a1bd 165d d2bd
000000a0: 1817 a23d bf46 963d f48c 803d 0c95 f9bd
000000b0: bef1 62bd 4a9f c33d c586 c3bc 854a a33b
000000c0: a402 a3bd d202 3bbd 4c91 863d 5818 9e3d
000000d0: b7ac fcbc d02c 10bd ae47 cabd f405 953d
000000e0: 142d d5bd 454e df3d 38b4 31bd ecec b73d
000000f0: bd36 983d 51a1 f0bd f81c af3d 3936 e3bd
-0.07235356 -0.08542572 0.043202046 0.04819835 0.013316791 0.09937607 -0.07768589 0.036382087
-0.019608878 -0.023500629 0.030907847 -0.04163882 -0.022718215 -0.09808883 -0.08012887 -0.07832126
0.103496775 -0.058344923 -0.008526077 0.011706069 -0.057964493 -0.052415103 0.11469528 0.050871562
0.055425663 -0.08908203 -0.04809843 0.041437414 0.0790271 0.03858221 -0.12162741 -0.053634875
-0.08613072 0.028220655 0.10633864 0.08929446 0.06963403 -0.02831496 -0.07868777 -0.10271661
0.07914561 0.073377125 0.06276885 -0.121866316 -0.055406325 0.09551866 -0.023867974 0.0049832487
-0.07959488 -0.045656987 0.06570682 0.07719487 -0.030844076 -0.035198987 -0.09876953 0.07276526
-0.104089886 0.109036006 -0.04338476 0.08980736 0.074323155 -0.11749519 0.08550447 -0.110943265

features_extractor.value_net.0.weight f4 [64, 784]
00000000: a817 943d 965f 333d 6c8e 813d 49d1 c7bd
00000010: bfda 403d 8293 463e 845a 413d 2446 363d
00000020: 2c2a 61bd 675c 33bd c0c7 203e 7a13 01be
00000030: 7dd4 ae3c a860 a3bc d774 533c f46b 0ebe
00000040: 89f6 56bc 809a 40be 57ec 80be aee2 063d
00000050: 76ea 36bd 8399 2b3d b18a bebc 8056 ebbb
00000060: 2f40 f4bd 6260 99be 4844 0fbe 9cf7 1dbc
00000070: e288 213d d896 a8bb b7c1 9ebd 82c5 07be
00000080: 18eb 1dbe 17c9 74be 02c8 41be c907 6fbd
00000090: c7b3 c8ba 93cc d4bc 5a68 9cbd c932 01bd
000000a0: 333e a03c 0864 e539 a0a1 bf3d c6f2 dbbd
000000b0: 2a3b a23c 8698 8f3c 0ef0 cdbc 7d56 fcbc
000000c0: 81f4 8f3d a9d6 2cbd 224a 1fbe 7df5 fdbd
000000d0: f3fe 7dbd 12a4 14be f1c4 acbd 772f 813d
000000e0: b8ec edbd a04f 20bd 0610 eabb b550 be3d
000000f0: 3995 debc 29dd 253e 730b 753c bccc 51bd
00000100: af4b 52bc cc64 e2bc 6c54 68be 5597 53bd
00000110: a132 fe3d 6680 1e3e 813d 10be 083f dd3d
00000120: ed8b 7dbd ecf1 c2bd 4c40 3d3b f997 713d
00000130: a995 6f3e 0e86 77bd a57c 263c 79e6 7bbd
00000140: 0ccf 8ebd 1069 f5bd dc66 8abd 20b9 6ebe
00000150: 1ef5 98bd d556 aebb b81c dabc 80f7 1abc
00000160: 8e2e 8ebb 9dba 243d c03a 03bc 74cf f0bd
00000170: d290 62bd 57fc dd3d ebbd 4fbd 17cf fe3c
00000180: c9ba 053e 8ac1 0a3e 476a 03be 7976 83be
00000190: c994 fcbd d6e2 0dbe 00e9 9abd f4b6 a5bd
000001a0: c8b1 853d 390d 26be 0170 65bd b60c 073c
000001b0: e8b3 36bd 8de8 88bd 8be1 bf3d a6c8 623d
000001c0: a28f 23be 17e9 1b3d 7401 823a 7bb6 4fbe
000001d0: 1a27 abbb 7f2c 983e fcfb 413e 5081 61be
000001e0: 40a7 0bbd 9a3c 7abd 87c5 4ebe b913 2cbe
000001f0: 4c97 f93d a3d4 3d3e 37c5 0ebe ab68 bebd
00000200: 75ba 50bd 8945 e8bc e1c2 95bd 99ec 34bd
00000210: 93fc 11be e836 21be 51fc 5dbd 42e3 18be
00000220: 8e3f 0d3d 1711 4d3d 4e09 7f3d 51a7 453d
00000230: 4775 94bd a329 15be a48d c73c 571d 3cbd
00000240: 74f5 a43d 27b5 543e 3b49 4e3e a276 34be
00000250: 343a 19be bada 793b af72 b6bd f1bd 90bd
00000260: a7d1 e03d 069a dd3d 733c 34be 1d5e 6ebe
00000270: 8338 a5bd 499e ffbb bae1 a23c 0442 a13c
00000280: 78fd 16be 6306 89bd 9c05 9e3d 9c83 0ebe
00000290: 2278 70be 9766 0f3d 1276 473e 203e 423e
000002a0: e582 59bd 7987 a1bb a3d3 cabd d273 26bd
000002b0: 049c 99bb eb3f 32be 5506 c1bc f554 09bc
000002c0: 2978 27be 29e9 45be 53ac 62bd afcb 69bd
000002d0: 0ba4 51be 38cd 9cbd 4585 28be cb83 bd3c
000002e0: ecfa 40bd 8f1a af3d d378 9b3c ddb5 5fbd
000002f0: 93d0 24bd aa4d 883d a739 a23d 35d5 1ebe
00000300: c52a 94bd 6e4c ec3d d84c 3d3b 24bf 493c
00000310: 8be8 40be 8d0a 90be da3f 31be f826 4dbe
00000320: aa92 a5bd 4174 64bd 1608 9f3d 817f 60be
00000330: 3d76 0fbe 96ca 243d f697 4abc 7b66 103c
00000340: 6f45 163e 037d c73d acda f1bd 497e 39bd
00000350: db3b 453c 3615 8abe 7de4 df3c 7549 953e
00000360: cc15 2d3e 2eb9 28be b3b4 acbd 0d98 bdbd
00000370: 0b75 47be 83e6 4abd c418 063c 6db2 713e
00000380: 1a80 51be afce 26be a638 f8bd 3a04 14bd
00000390: 65f5 bcbd 4428 9bbd 7eb3 61be b709 42be
000003a0: b73b a7bd 90a6 49be 99ee e33c 2671 fd3d
000003b0: 31c5 0b3e 51ef 013d afcf c3bd 0d14 81be
000003c0: 7c2f 993c b5b9 5cbc 0269 ad3d 9993 783e
000003d0: 5aa3 fd3d 5925 cbbd bbdb 61be 5da4 b9bd
000003e0: 3768 08be aea6 bfbc 475b e0bc b8d0 673d
000003f0: 4474 7bbd a3d8 fcbd 2e2f 2d3c d1a4 ee3d
0.072310746 0.04379233 0.06325993 -0.09756715 0.047083613 0.19392207 0.047205463 0.044500485
-0.05497186 -0.043789294 0.15701199 -0.12605086 0.021341557 -0.01994355 0.012906275 -0.13908368
-0.013120302 -0.18808937 -0.25180313 0.032931022 -0.044657193 0.041894447 -0.023259493 -0.0071819425
-0.119263045 -0.29956347 -0.13990891 -0.009641554 0.039437182 -0.005144935 -0.07751792 -0.13258937
-0.15421712 -0.23904835 -0.18923953 -0.058357034 -0.0015312367 -0.025976455 -0.07637091 -0.031542573
0.019560909 0.00043752813 0.093569994 -0.10739665 0.019803602 0.017528784 -0.025138881 -0.03080296
0.07029057 -0.042196903 -0.15555623 -0.12400339 -0.062010717 -0.14515713 -0.08436001 0.06307881
-0.11617416 -0.039138436 -0.0071430234 0.092927374 -0.027170764 0.16197647 0.014956343 -0.05122064
-0.012835427 -0.027635954 -0.22688454 -0.051657993 0.124120004 0.15478668 -0.14085962 0.10803038
-0.06190102 -0.09518799 0.0028877435 0.058982823 0.23396935 -0.06043058 0.0101615535 -0.061499093
-0.06973085 -0.1198293 -0.067579 -0.23312807 -0.074686274 -0.00532041 -0.026625022 -0.009458423
-0.004339046 0.04021703 -0.008009613 -0.117583185 -0.055313893 0.10839146 -0.05071823 0.031104608
0.13059534 0.13550392 -0.1283351 -0.25676325 -0.12333066 -0.13856062 -0.075639725 -0.08091536
0.0652805 -0.16215982 -0.05601502 0.008242777 -0.044605166 -0.066849805 0.09369191 0.055367135
-0.1597276 0.03806409 0.0009918646 -0.20284455 -0.005223167 0.29721448 0.1894378 -0.22021985
-0.03409505 -0.06109295 -0.20192538 -0.16804399 0.12187061 0.18538146 -0.13942419 -0.092973076
-0.05095907 -0.02835347 -0.07312561 -0.04417095 -0.14256506 -0.15743601 -0.054195706 -0.14930442
0.03448444 0.050065126 0.062264733 0.04825527 -0.072489314 -0.14566664 0.024359532 -0.04592642
0.08054629 0.20772229 0.20145123 -0.1762338 -0.14963609 0.0038124756 -0.08908593 -0.070674784
0.10977488 0.10820393 -0.17601185 -0.23278089 -0.080674194 -0.0078008515 0.019883025 0.019684799
-0.14745128 -0.06690671 0.07715914 -0.13917392 -0.23483327 0.035009947 0.19478634 0.18969011
-0.053103346 -0.0049294797 -0.09903648 -0.0406378 -0.004687788 -0.17407195 -0.02356259 -0.008382072
-0.16354431 -0.19327225 -0.055340122 -0.057079013 -0.20472734 -0.0765633 -0.16457088 0.023134133
-0.047114298 0.085499875 0.018978512 -0.054616798 -0.040237974 0.06655438 0.079211526 -0.1551102
-0.0723472 0.11538015 0.0028884914 0.012313638 -0.18838708 -0.2813305 -0.17309514 -0.20034397
-0.080846146 -0.05577493 0.07765214 -0.21923639 -0.14009948 0.040232264 -0.012365332 0.008813496
0.14674924 0.09740641 -0.118092865 -0.04528645 0.012038196 -0.26969308 0.027330631 0.29157606
0.16902846 -0.1647689 -0.08432903 -0.09257517 -0.19478242 -0.04953624 0.0081846155 0.2360322
-0.20459023 -0.16289781 -0.1212018 -0.036136843 -0.09226493 -0.075760394 -0.22041127 -0.18949018
-0.081656866 -0.19692445 0.027823733 0.12375097 0.13649441 0.03172237 -0.09561097 -0.2521061
0.0186994 -0.01347201 0.08467294 0.24275054 0.123846725 -0.09919233 -0.22056477 -0.09064553
-0.13321005 -0.023394909 -0.027387274 0.056595534 -0.061390176 -0.12346008 0.010570331 0.1165253

features_extractor.value_net.0.bias f4 [64]
00000000: b1bd a3bd 8939 91bd 223e 46bd 2d8c 2c3d
00000010: 97ff f9bc b0ee fabd 9661 fabd 3d12 f5bc
00000020: 45fb 98bd 3d26 0bbe eb67 38bd 6dac 77bd
00000030: 60f0 0ebe 539d 33bd 0c6f b5bd 4a34 94bd
00000040: a17f 0ebe 2926 94bd 558d e1bd 228d d4bd
00000050: 4cc3 aebd 3bee 0fbe 5b3c e43d 76af b7bd
00000060: ad9f 96bc 6b74 0cbe 148e c4bc 5244 e0bd
00000070: 9f9a 0cbe 9550 aebd f50f d6bc bff0 b9bd
00000080: 8002 48bd 2d3d c6ba 238e 0dbe db3c 4fbd
00000090: a12c aebc fd8a 05be 0c0e febd 1850 b33d
000000a0: c074 e4bd 7049 e9bc fca6 20be d90c a6bd
000000b0: b72c ecbd e55a c9bd a118 d8bd 49dd e0bd
000000c0: dc9b b7bd 2cf6 fcbc 469d 68bd 3c14 41bd
000000d0: 7d57 03bd e18f 1cbe 9609 70bd b542 c8bd
000000e0: e239 ac3c 8c26 9cbd a92a 08be 6e55 cabd
000000f0: c3d7 04be 83c9 11bd d7c7 64bc 56c4 2bbe
-0.07995165 -0.07091052 -0.0483991 0.04212587 -0.030517383 -0.12252557 -0.12225644 -0.029915923
-0.07469801 -0.13588805 -0.04502098 -0.060467172 -0.13958883 -0.043851208 -0.08859071 -0.07236536
-0.13915874 -0.07233841 -0.11013285 -0.103784814 -0.08533344 -0.14055721 0.111443244 -0.089690134
-0.018386686 -0.13716285 -0.02399353 -0.10950531 -0.13730858 -0.085114636 -0.026130656 -0.09079122
-0.04883051 -0.0015124433 -0.13823752 -0.050595146 -0.021261515 -0.13041301 -0.12405023 0.08755511
-0.11155081 -0.0284774 -0.156887 -0.08107919 -0.11531966 -0.0983179 -0.105515726 -0.10979707
-0.08965275 -0.030879103 -0.056790613 -0.047138438 -0.032065857 -0.1528926 -0.05860289 -0.09778348
0.021023694 -0.0762454 -0.13297524 -0.09879576 -0.12972932 -0.035592567 -0.013963661 -0.16774115

features_extractor.value_net.2.weight f4 [1, 64]
00000000: b24f 6f3d 968b 913d bce1 6d3d c387 aa3d
00000010: 91d7 b03d b48d b3bb 436a 3cbd 3e27 5b3d
00000020: e7a0 953d f1ba f2bc 1bba a33d 5669 d23d
00000030: c310 2d3d 80f6 273d 4ba0 ae3d 6adf 5cbd
00000040: 3dab 24bd e561 073d ae19 48bd 2062 b0bd
00000050: 36e7 5d3d db41 073c 4c63 1a3e 6f76 2fbd
00000060: f4d0 ab3d 669a 83bd 72af e63d 1aba 343d
00000070: 92b0 28bd bd43 a03d 0978 0fbd 907a 7b3e
00000080: 9e97 11bd 44a5 133e 3c69 693c af18 d7bd
00000090: fb1b eebc 4a16 d93d d297 82bd 77a8 a03d
000000a0: 5f98 30bd f109 65bd 27e3 8bbb 11ae 25bc
000000b0: 8e1a 5ebc 990a 1e3d 4360 09bd 3dec a13d
000000c0: e0df 9dbd 96cf 743d 88a3 b93d 7bac 7f3d
000000d0: 81dd db3d 5008 a73d 472d bc3b 8631 043e
000000e0: b4ff 6e3d c2be 95bd 9f6b 603b a61a 41bd
000000f0: 1602 2e3d 5d0f 1fbd 1692 c73c c5b0 333c
0.058425613 0.07106702 0.058076605 0.08326676 0.08634866 -0.005479539 -0.045999777 0.05350422
0.0730608 -0.029630156 0.07994481 0.102739975 0.042252313 0.041006565 0.08526667 -0.053924
-0.040202368 0.033052344 -0.048852615 -0.08612466 0.054175578 0.008255447 0.15076941 -0.042837556
0.08389464 -0.064259335 0.11263932 0.044122793 -0.041184016 0.0782542 -0.035026584 0.24558473
-0.035544984 0.14418513 0.014246281 -0.10502755 -0.029066077 0.105999544 -0.06376614 0.07844632
-0.043114062 -0.055917684 -0.004269022 -0.010112301 -0.013556136 0.038584325 -0.033539068 0.07906387
-0.077087164 0.059768282 0.09064394 0.06242035 0.10735608 0.08155882 0.005742702 0.12909517
0.058349326 -0.07311775 0.0034243835 -0.047144555 0.042482458 -0.03883301 0.024361651 0.010967438

action_net.weight f4 [2, 64]
00000000: 8130 8b3e 009c 753e e28a 393e 3c1a 9f3d
00000010: 3b2f 9639 ce0f 4e3e 544a 1c3e 8828 a73d
00000020: 8268 533e d781 91be 3498 56be 9bcd 1fbe
00000030: 1b46 e3bd c5be bc3d d321 fabd 5d88 2f3d
00000040: 8648 753e 8deb 7d3e d479 23be 78c2 853e
00000050: affe a43e 3a04 b23d efea 89be b417 873e
00000060: c2a3 56be ad75 3c3e 0268 fb3c 16fb febd
00000070: 0597 843e 196a 35be f3eb 8e3d 9c3b 803e
00000080: 8a9c 67bd bdc2 5bbd 38bc 2b3e 830c d9bd
00000090: 5efb 41bd 4cfe d13d 1cb4 9ebd e4fb 53bc
000000a0: 045a b73c 4a5e 74be 8cd8 923d 6a0f 353e
000000b0: a3a9 9d3e 0969 84be 47d4 45be 34f0 293c
000000c0: b6ae 3d3e 5ba5 423e b530 5dbe 4b39 94be
000000d0: 497c 8fbe 8cc8 623e 6a3c 3d3e 64aa 4dbe
000000e0: 81c6 6dbe ee52 423e c28d 97be 651f 93be
000000f0: c973 0c3e 780c 8a3e 8945 603d d977 59be
00000100: fe1d 363c 5cdc 59be a0bb 5bbe f3aa 7ebe
00000110: e90c 6d3e a3df dabd 6f01 7c3e e690 843e
00000120: 7b52 4e3e a852 583d 2111 553e e3e4 22be
00000130: d725 8ebd 1865 653e 041d 823e 8667 62be
00000140: 8747 0ebe 5f8f 4b3d b7b6 8a3d ef24 1bbe
00000150: 0388 d0bd 0ce1 873e 590a 6fbd 5489 79be
00000160: c4be 2d3d 4eae a53c 01ab 863e 4ed5 df3d
00000170: aa38 e5bd f9ee 91bd 449c 84be 0439 023d
00000180: 6127 363e 906b 53be d882 4fbe a2b8 2dbe
00000190: 027c 27be 5295 26be 1e53 763e 1818 253e
000001a0: 7e93 993e 13df 793e 7a7b 78be 4f71 69be
000001b0: e0af efbc e2a4 98bd 82da 03be 0dc4 853e
000001c0: c796 523e 6a1a 193e 7982 ed3d db62 823d
000001d0: 34ef a6bb faaa ec3d 2b88 1ebe 2ebb 803e
000001e0: ed15 633d fcec bc3c b26e 223e 3429 2f3e
000001f0: 68d1 80be f6c0 b9bc 3ce3 293e 231d 213e
0.27185443 0.2398529 0.18119386 0.07768676 0.0002864542 0.20123217 0.15262729 0.081620276
0.20645335 -0.28419372 -0.20956498 -0.15605776 -0.11097356 0.09216074 -0.12213483 0.042854656
0.23953447 0.24796887 -0.15964442 0.2612493 0.32225558 0.086922124 -0.26937053 0.26385272
-0.20960906 0.18404265 0.030689243 -0.124502346 0.2589647 -0.17716254 0.069785975 0.25045478
-0.05654577 -0.053652514 0.16771019 -0.105980895 -0.047358863 0.102535814 -0.07749197 -0.012938473
0.02238179 -0.23864093 0.07170209 0.17681661 0.30793485 -0.25861385 -0.19319259 0.01037221
0.18523678 0.1900839 -0.21600612 -0.2894996 -0.2802451 0.22146815 0.18480077 -0.2008453
-0.23220254 0.18976948 -0.2960034 -0.2873489 0.13716044 0.26962638 0.054753814 -0.21237125
0.011115549 -0.21275467 -0.21458292 -0.248699 0.23149456 -0.106871866 0.24609922 0.258918
0.20148651 0.052813202 0.20807315 -0.15907626 -0.06940811 0.22401845 0.25412762 -0.22109804
-0.13894473 0.049697276 0.06773131 -0.15150808 -0.10182192 0.26538885 -0.058359478 -0.24368793
0.042418256 0.020224717 0.2630234 0.109293565 -0.111924484 -0.071256585 -0.2590047 0.031792656
0.1778846 -0.206465 -0.20264757 -0.16964963 -0.16355899 -0.16267899 0.24055144 0.16122472
0.2999534 0.24401502 -0.24265853 -0.2279713 -0.029258668 -0.07453324 -0.12876323 0.26126137
0.2056533 0.14951482 0.11597151 0.063665114 -0.005094433 0.11556049 -0.15481631 0.25142807
0.055440832 0.023062222 0.1586254 0.17105561 -0.25159764 -0.022675019 0.1659059 0.15733771

action_net.bias f4 [2]
00000000: d18a 173d 45a4 d53d
0.03699762 0.104317226
