model/actor_critic_Reward_prediction_finetune_v1.pth (torch, 461146 bytes, 24 tensors)

log_std f4 [2]
0	0xbdcbe388	-0.099555075
1	0x3ec76dc1	0.38950923

features_extractor.encoder.conv.0.weight f4 [4, 1, 3, 3]
0	0xbe0ff4d9	-0.14058246
1	0x3c108887	0.008821613
2	0x3d63dcec	0.05563061
3	0xbe966125	-0.2937099
4	0x3e5f0ec7	0.21782981
5	0x3da556a0	0.08073163
6	0xbea3cfbe	-0.31994432
7	0x3e88133e	0.2657718
8	0x3d6838b5	0.056694705
9	0x3d7fef15	0.062483866
10	0x3e97a308	0.2961657
11	0x3e3d7183	0.18500333
12	0xbec35afa	-0.38155347
13	0xbf0d6a09	-0.5523992
14	0x3e85f3f1	0.26162675
15	0x3e9ddb69	0.3083146
16	0x3e6f78f4	0.23385984
17	0xbf0c8414	-0.54889035
18	0x3dbe4955	0.09291331
19	0x3c89b295	0.016808787
20	0x3e22ef97	0.15911709
21	0xbe955590	-0.29166842
22	0xbe5263bf	-0.20545863
23	0x3e1a1bca	0.15049663
24	0x3c22b303	0.009930375
25	0xbe92bef8	-0.28661323
26	0x3e44355b	0.19160978
27	0x3d43b07a	0.047775723
28	0xbd300efe	-0.042983048
29	0x3d10256c	0.03519194
30	0x3d924904	0.07142833
31	0x3d84e227	0.06488448
32	0x3def3acf	0.11681139
33	0xbd5ee2e4	-0.0544156
34	0x3e23aeef	0.159847
35	0x3df5c093	0.11999621

features_extractor.encoder.conv.0.bias f4 [4]
0	0xbc91d224	-0.017800398
1	0xbc423ab8	-0.01185482
2	0xbc074a98	-0.008257531
3	0xbd0b9a70	-0.03408283

features_extractor.encoder.conv.2.weight f4 [8, 4, 3, 3]
0	0xbe970e4d	-0.29503098
1	0xbdf6438d	-0.12024603
2	0x3de8ea8e	0.11372863
3	0xbf1cd05b	-0.61255425
4	0xbe5aaa1e	-0.21353957
5	0xbeff1275	-0.4981877
6	0x3e518721	0.20461704
7	0x3ca05c4c	0.01957526
8	0x3d940133	0.07226791
9	0x3e840785	0.25786987
10	0x3e02cf1f	0.12774323
11	0x3e251b1d	0.16123624
12	0x3ea1e335	0.31618658
13	0x3ea2244c	0.31668317
14	0x3e63e2f7	0.22254549
15	0xbd818fc7	-0.063262515
16	0xbe0b69b2	-0.13614538
17	0x3a2ca25a	0.00065854716
18	0x3dec006f	0.1152352
19	0x3e8da9bc	0.2766856
20	0x39a09314	0.0003062716
21	0xbe62226c	-0.22083443
22	0xbdaed498	-0.08536643
23	0xbbd82081	-0.0065956716
24	0x3e1b46e1	0.15163757
25	0xbd09d076	-0.03364607
26	0x3d1e36e4	0.038626567
27	0xbe4d1b5b	-0.20029967
28	0xbb17a399	-0.0023138283
29	0x3cdf6456	0.027269524
30	0x3ed3676b	0.4128984
31	0x3ea8de2a	0.32981998
32	0xbefe4d60	-0.49668407
33	0xbddee4ba	-0.1088347
34	0xbe4f0d2e	-0.20219871
35	0xbbbba26d	-0.00572615
36	0x3ec83fb8	0.39111114
37	0xbf0b2bcd	-0.5436371
38	0xbdbe4472	-0.09290399
39	0xbcbed56f	-0.023295132
40	0x3df5d897	0.12004202
41	0x3e57a241	0.21057989
42	0xbdbd3ac3	-0.092397235
43	0x3e84489f	0.25836655
44	0x3dc916dc	0.09818813
45	0x3e185671	0.14876725
46	0xbe081618	-0.13289678
47	0xbea16f9c	-0.31530464
48	0x3e0c6de9	0.13713802
49	0xbe8a47f6	-0.27008027
50	0x3d36619a	0.044526674
51	0xbde324fc	-0.110910386
52	0xbd044566	-0.032292746
53	0xbe392598	-0.18080747
54	0x3e343269	0.17597355
55	0xbee87162	-0.45399004
56	0x3af0b026	0.0018363043
57	0xbee3f158	-0.44520068
58	0xbd4a5983	-0.04940177
59	0x3c8367bd	0.016040677
60	0x3ea24aee	0.31697792
61	0x3d08bea5	0.033384938
62	0x3d516d98	0.051129907
63	0x3e79441c	0.24342388
64	0xbe2f416c	-0.171148
65	0xbe28b101	-0.16473772
66	0xbcc7783e	-0.024349328
67	0xbe827554	-0.2548014
68	0x3d04e2ee	0.03244298
69	0xbe2bce9e	-0.16778037
70	0x3dc4e021	0.09613062
71	0x3cb78196	0.022400659
72	0x3d03e004	0.03219606
73	0x3d0def20	0.034651875
74	0x3b459eec	0.003015454
75	0xba9fec81	-0.0012201221
76	0xbdd7006f	-0.104981296
77	0xbc166d5e	-0.009181349
78	0xbe058cd0	-0.13041997
79	0xbe4fd332	-0.20295408
80	0xbe1ba3ec	-0.1519925
81	0x3e5701dc	0.20996803
82	0xbca0e31b	-0.019639542
83	0x3de84c6e	0.11342703
84	0x3dc1b06d	0.09457479
85	0x3def8658	0.11695546
86	0x3a9558f0	0.0011394303
87	0x3d7f69d5	0.06235679
88	0x3d49a164	0.04922618
89	0xbc514c82	-0.012774589
90	0xbd903206	-0.07040791
91	0xbdaf644c	-0.08564052
92	0xbc57c6ea	-0.013169983
93	0xbda80dee	-0.08205782
94	0xbe740e9c	-0.23833698
95	0xbeaa45d8	-0.33256412
96	0xbdd675a1	-0.10471655
97	0xbe4ef286	-0.20209703
98	0x3bd0a00c	0.0063667353
99	0x3d534086	0.051575206
100	0x3dc0a9bf	0.094073765
101	0x3dfc59ac	0.12321791
102	0x3e7ba7d1	0.24575736
103	0x3e4c3981	0.19943811
104	0x3df7f4cb	0.121072374
105	0x3dac7f64	0.08422735
106	0x3d16cd84	0.03681709
107	0x3d83772b	0.06419214
108	0x3e73fff4	0.23828107
109	0xbda720af	-0.08160531
110	0xbd2dfc6f	-0.042477068
111	0x3d44bbb7	0.04803058
112	0xbceee04f	-0.029159693
113	0xbd9a8a31	-0.07545889
114	0x3e2476b9	0.16060914
115	0xbcc70d3c	-0.024298303
116	0xbe957ac9	-0.2919524
117	0x3d5aa230	0.05337733
118	0x3ba37638	0.004988458
119	0xbdf29c36	-0.11846201
120	0xbd1f797b	-0.038934212
121	0x3ce70984	0.02820278
122	0xbd8ad3a8	-0.067786515
123	0xbd16bc1e	-0.036800496
124	0xbe4223ca	-0.18958965
125	0xbda2ae8a	-0.07943447
126	0xbdafe9bd	-0.08589504
127	0x3eda77a6	0.4266941
128	0xbd0c7f89	-0.034301315
129	0xbd042a12	-0.032266684
130	0x3e1aeadd	0.15128656
131	0xbdae35d5	-0.085063614
132	0x3dc7902f	0.09744298
133	0x3df7a0cf	0.12091219
134	0xbe967041	-0.29382518
135	0xbe39fa3d	-0.18161865
136	0x3de46414	0.11151901
137	0xba6e7621	-0.0009096582
138	0xbe9762b5	-0.29567495
139	0x3e3ff721	0.18746616
140	0x3cea2be4	0.028585382
141	0xbe6cc845	-0.23123272
142	0xbd6f969b	-0.058493238
143	0x3de4fb20	0.11180711
144	0x3e84d726	0.25945395
145	0x3ec74050	0.38916254
146	0xbf060838	-0.5235629
147	0x3e9d513a	0.30726033
148	0x3f055f47	0.52098507
149	0xbf28bfb2	-0.65917504
150	0xbe0341c0	-0.1281805
151	0x3da5c598	0.08094329
152	0x3cb27d66	0.02178831
153	0xbc014a67	-0.007891274
154	0xbc894d85	-0.016760597
155	0x3e0c4bb3	0.13700752
156	0xbd0861f7	-0.03329655
157	0x3c4cbd71	0.012496338
158	0x3db4f228	0.0883525
159	0x3da4bb60	0.080435514
160	0x3ce05fe0	0.027389467
161	0xbe13e5de	-0.14443156
162	0x3e167a6a	0.14695135
163	0xbe356ab0	-0.1771648
164	0xbef5856e	-0.4795336
165	0x3e9aea84	0.30257046
166	0x3d31361b	0.04326449
167	0xbf32a160	-0.6977749
168	0xbce75b27	-0.028241707
169	0xbe769eaf	-0.2408397
170	0xbf0b1851	-0.5433398
171	0x3d8b3977	0.0679807
172	0x3e163901	0.14670183
173	0xbe8018e7	-0.25019
174	0x3df80031	0.121094115
175	0x3e0aeef5	0.13567717
176	0xbea4c499	-0.32181242
177	0x3da29d9d	0.079402186
178	0x3e0862be	0.13318917
179	0xbe0399b5	-0.12851603
180	0xbe9648c0	-0.2935238
181	0x3edc767c	0.43059146
182	0xbe7ff14d	-0.24994393
183	0xbf089c04	-0.5336306
184	0xbd848ef8	-0.064725816
185	0xbf5d8efa	-0.8654629
186	0x3e906cfa	0.28208143
187	0x3ca6617f	0.020310162
188	0xbefa8e7d	-0.48936835
189	0xbe0b8746	-0.13625821
190	0xbe700583	-0.23439603
191	0xbf3d5d4d	-0.7397049
192	0xbf4db6cb	-0.80357045
193	0xbfc4c317	-1.5372037
194	0xbf8d18f3	-1.1023239
195	0xbf3fe375	-0.74956447
196	0xbf9c54fb	-1.2213434
197	0xbf77c05c	-0.9677789
198	0x3e94276a	0.2893632
199	0x3f02b328	0.5105462
200	0xbd768b11	-0.060191218
201	0xbf1462a3	-0.5796301
202	0xbdb688c8	-0.08912808
203	0xbf149873	-0.5804512
204	0x3c93ed00	0.018057346
205	0x3e922d20	0.28550053
206	0xbf11bd94	-0.569299
207	0x3db7c932	0.08973922
208	0x3e8c1368	0.27358556
209	0x3da22dd6	0.07918899
210	0xbe56898d	-0.20950909
211	0xbe24fa63	-0.1611114
212	0xbed9ba25	-0.4252483
213	0x3ee27cf0	0.44235945
214	0x3e44645b	0.19178908
215	0x3d154809	0.03644565
216	0x3e099633	0.13436203
217	0xbebc34be	-0.3675899
218	0x3ee94cb1	0.45566323
219	0xbe9e44f1	-0.30911973
220	0xbe303ffb	-0.17211907
221	0x3e8514bf	0.2599239
222	0x3e23f851	0.16012694
223	0x3e9e5fab	0.30932364
224	0xbe2c5e11	-0.16832758
225	0x3e98e495	0.29861894
226	0xbf64be60	-0.8935299
227	0xbefa8828	-0.48932004
228	0xbeb3b104	-0.3509599
229	0xbfb4868d	-1.4103562
230	0xbf8fd1e6	-1.1235931
231	0xbe82b595	-0.2552916
232	0xbef014d5	-0.46890894
233	0xbf12fdc1	-0.5741845
234	0xbde3b367	-0.11118203
235	0xbebdaf96	-0.37048024
236	0x3e3449e7	0.17606317
237	0xbe57ae2d	-0.21062537
238	0xbd985ecf	-0.07439958
239	0x3dfe1847	0.12406974
240	0xbedb3ee8	-0.4282143
241	0xbe944fb4	-0.2896706
242	0x3cb2d62e	0.021830644
243	0x3e47d57d	0.19515033
244	0x3e73ff80	0.23827934
245	0x3e4b1b90	0.19834733
246	0x3df6a6f5	0.12043563
247	0xbd490496	-0.04907664
248	0x3c907025	0.0176316
249	0xbe88b532	-0.2670074
250	0xbeca690e	-0.39533275
251	0xbafef095	-0.0019450361
252	0xbcf30c8d	-0.02966907
253	0xbe20d303	-0.15705495
254	0x3d84915b	0.06473037
255	0xbe40c4c4	-0.1882506

features_extractor.encoder.conv.2.bias f4 [8]
0	0xbcb95f8b	-0.022628566
1	0xbd858369	-0.06519205
2	0xbd8587f8	-0.065200746
3	0xbc83e962	-0.016102497
4	0xba6c3a54	-0.0009011377
5	0xbc1c96e5	-0.00955746
6	0xbdc5c971	-0.096575625
7	0xba81359a	-0.0009857893

features_extractor.encoder.conv.4.weight f4 [16, 8, 3, 3]
0	0xbf41b8b4	-0.7567246
1	0xbed87032	-0.42273098
2	0x3f0c6cf8	0.54853773
3	0xbf7ccc97	-0.9874968
4	0xbe50f4a7	-0.20405827
5	0xbf1f2da7	-0.62179035
6	0xbebf21fb	-0.37330613
7	0xbf1c2f26	-0.6100944
8	0xbecd3e12	-0.40086418
9	0xbd1fc1cf	-0.03900319
10	0xbee2eed5	-0.4432284
11	0xbf0feab2	-0.5621749
12	0x3e29d11c	0.16583675
13	0xbeb7dae2	-0.35909182
14	0xbd9e6542	-0.07734157
15	0xbeb77a82	-0.35835654
16	0xbf1c3c27	-0.61029285
17	0xbed96dea	-0.4246667
18	0x3e23db2d	0.16001578
19	0x3e8c40d4	0.2739321
20	0x3e17a606	0.14809427
21	0x3dedf645	0.11619238
22	0x3df5d3bd	0.120032765
23	0x3db55970	0.088549495
24	0x3dea245b	0.114327155
25	0xbd14343c	-0.036182627
26	0x3da3e96a	0.080035046
27	0xbdc7ccaa	-0.097558334
28	0xbe01818e	-0.12647077
29	0x3dbed9a2	0.09318854
30	0x3d0a4068	0.03375283
31	0x3e7376d3	0.23775797
32	0xbdb73ae9	-0.08946783
33	0x3ca0a748	0.019611016
34	0x3e62da84	0.2215367
35	0x3da4b657	0.08042591
36	0x3da6acbd	0.08138416
37	0xbe93b277	-0.28847095
38	0xbe9145f0	-0.2837367
39	0x3deda42b	0.11603578
40	0x3e7909cb	0.24320142
41	0x3e0219d3	0.12705164
42	0xbd95cb76	-0.07314198
43	0x3e24ee3a	0.16106501
44	0xbeac4339	-0.33645037
45	0xbf2d239d	-0.67632467
46	0xbf2e575e	-0.6810206
47	0xbeec83fb	-0.46194443
48	0x3e854e40	0.26036263
49	0x3eb6d4ee	0.35709327
50	0xbd2cfab9	-0.042231295
51	0xbf523a47	-0.82120174
52	0xbf27df4c	-0.655751
53	0x3d8404af	0.06446206
54	0xbed07255	-0.40712228
55	0xbf0d83d9	-0.5527931
56	0x3db6925e	0.08914636
57	0x3d825353	0.06363549
58	0xbea254a9	-0.31705216
59	0xbeb56263	-0.35426626
60	0xbda8cef9	-0.08242602
61	0x3ec3633f	0.38161656
62	0x3e83a4da	0.2571171
63	0xbdccd13c	-0.10000846
64	0x3ea527cb	0.32256922
65	0x3cdabf7e	0.026702639
66	0xbdbe8739	-0.093031354
67	0xbebea3f0	-0.3723445
68	0xbe87a602	-0.2649384
69	0xbcb8a7b7	-0.02254091
70	0x3e189c4c	0.14903373
71	0x3ea4d598	0.3219421
72	0x3deeaa96	0.116536304
73	0x3e3fb5e4	0.1872173
74	0xbe2b93ca	-0.16755596
75	0x3e4463d2	0.19178703
76	0x3ede98b3	0.43475875
77	0x3d7fb079	0.062424157
78	0xbdb29749	-0.087202616
79	0x3ebe6fc7	0.37194654
80	0x3db87868	0.09007341
81	0xbe659ea8	-0.22423804
82	0xbe91a696	-0.28447407
83	0xbc59c708	-0.013292082
84	0xbe5f17a2	-0.21786359
85	0xbf40a172	-0.75246346
86	0x3d3d9745	0.04628684
87	0x3d5dce7c	0.054151997
88	0xbef8326d	-0.48475972
89	0xbd67cea9	-0.05659357
90	0xbdd892b9	-0.1057486
91	0x3eb69604	0.35661328
92	0xbe02d828	-0.1277777
93	0xbe4860f8	-0.1956824
94	0x3eb0a6f7	0.34502384
95	0xbdc03bf7	-0.093864374
96	0xbce19211	-0.02753547
97	0x3e851738	0.25994277
98	0xbd1c6d4a	-0.038190164
99	0x3de233eb	0.11045059
100	0xbeedcff0	-0.46447706
101	0xbe8bf557	-0.27335617
102	0x3e6265b3	0.22109108
103	0xbf1b4418	-0.6065078
104	0x3d481127	0.048844483
105	0x3e9a08c2	0.30084807
106	0xbecd4484	-0.40091336
107	0xbd501dae	-0.050809555
108	0xbc0f916e	-0.0087627005
109	0xbf370dc7	-0.715054
110	0x3e438509	0.19093718
111	0x3e0ab0da	0.13544026
112	0xbfd41aa4	-1.657063
113	0x3e6eb028	0.23309386
114	0x3e7782f8	0.24171054
115	0xbfa84483	-1.3145908
116	0x3e4a0ed9	0.19732226
117	0xbe1550b2	-0.14581564
118	0x3d885b22	0.06658007
119	0x3d1f516d	0.038896013
120	0xbd5db3b9	-0.054126475
121	0x3abfc825	0.0014631791
122	0x3d099ae9	0.033595
123	0xbc87c667	-0.016574098
124	0xbdb6e57a	-0.08930488
125	0x3c02023e	0.007935105
126	0xbed76624	-0.42070115
127	0x3e6a910e	0.22906896
128	0xbe789405	-0.24275215
129	0xbf75a8b4	-0.95960546
130	0x3e167061	0.14691307
131	0x3d80c405	0.06287388
132	0xbf4081c9	-0.75198036
133	0x3e2d816a	0.16943899
134	0x3e476cf9	0.19475164
135	0xbcfdc3a9	-0.030977087
136	0x3e4f007d	0.2021503
137	0xbd5a7a57	-0.05333933
138	0xba94e788	-0.0011360506
139	0x3e94b28f	0.2904248
140	0x3ca7afdd	0.0204696
141	0xbda1c64c	-0.0789915
142	0x3e812d85	0.2523004
143	0xbe17c4e2	-0.14821199
144	0xbbe75b9d	-0.0070604817
145	0xbe0b7ca5	-0.13621767
146	0xbd20fcb4	-0.039303496
147	0xbe670c3a	-0.22563258
148	0x3dbb411f	0.0914328
149	0x3d0c3d0a	0.0342379
150	0xbcb8bf9b	-0.022552302
151	0xbcec0c30	-0.028814405
152	0x3d7142c9	0.058901582
153	0x3de3b3e2	0.11118294
154	0x3eaa3346	0.33242244
155	0x3e88ea2c	0.2674116
156	0x3cb8ca5f	0.022557436
157	0x3e6fbd25	0.23411997
158	0x3e538b18	0.20658529
159	0x3d88b704	0.066755325
160	0xbdfcd64e	-0.12345563
161	0xbe39b666	-0.18135986
162	0x3d8f60b5	0.07000867
163	0x3ddcdc6a	0.10784228
164	0x3e3d4a22	0.1848531
165	0xbcd9d6a0	-0.026591599
166	0x3e90d1a4	0.28284943
167	0x3dd348aa	0.10316594
168	0xbe03f50b	-0.12886445
169	0xbcc87e26	-0.024474215
170	0xbe089d1f	-0.13341187
171	0xbe1ca112	-0.15295818
172	0xbcf09231	-0.029366584
173	0x3c058286	0.008148795
174	0xbe3a64ae	-0.18202469
175	0x3e6c9c08	0.23106396
176	0x3de92fa4	0.1138604
177	0xbe3b25bc	-0.18276113
178	0xbd9bd3d1	-0.0760876
179	0xbc7bb665	-0.01536331
180	0xbd5f009e	-0.054443948
181	0x3b9442d2	0.004524567
182	0x3d2f8a5b	0.042856555
183	0xbe0f1df4	-0.1397627
184	0x3d19d4a6	0.037556313
185	0x3e642747	0.22280608
186	0xbdf21f4f	-0.11822378
187	0xbdbb740d	-0.09152994
188	0xbcdd1008	-0.026985183
189	0xbbe71a04	-0.007052662
190	0xbed22628	-0.41044736
191	0xbece44cd	-0.40286866
192	0x3d0918fd	0.033471096
193	0xbf3daddc	-0.74093413
194	0xbf93ff5c	-1.1562304
195	0xbd445dd8	-0.04794106
196	0xbecdce09	-0.40196255
197	0xbe25e86f	-0.16201948
198	0xbe878e5e	-0.26475805
199	0xbf0a094c	-0.53920436
200	0xbe8db3b1	-0.27676156
201	0xbee3099f	-0.44343278
202	0xbf89b6d4	-1.075892
203	0xbf0b2345	-0.5435069
204	0xbe5f152f	-0.21785425
205	0xbe5bc3a4	-0.2146135
206	0xbd1a9f58	-0.03774962
207	0xbddf0c8b	-0.10891064
208	0x3e5e8f66	0.2173439
209	0x3eb84592	0.35990578
210	0xbe3a0bde	-0.1816859
211	0x3e8edd44	0.27903187
212	0x3e0fef93	0.14056234
213	0xbd888d8f	-0.06667625
214	0x3d2d567c	0.042318806
215	0x3dd4bb4c	0.103872865
216	0x3d32bec2	0.043638952
217	0xbcc0c7d1	-0.02353278
218	0xbe475a89	-0.1946813
219	0xbe427f3d	-0.1899385
220	0x3d744345	0.059634466
221	0x3ee11a17	0.43965217
222	0xbd7b7d77	-0.06139895
223	0xbced6ceb	-0.0289826
224	0x3ed80305	0.42189804
225	0xbd80c430	-0.0628742
226	0xbec61c23	-0.38693342
227	0xbe8ba946	-0.27277583
228	0x3e147e4b	0.14501302
229	0xbed5ffef	-0.41796824
230	0xbed41cfe	-0.4142837
231	0x3d14253c	0.036168322
232	0x3d0ddf29	0.03463665
233	0xbf27dc65	-0.6557067
234	0x3e1e5ab0	0.15464282
235	0xbdc86c03	-0.097862266
236	0x3ebaddad	0.3649725
237	0x3e049415	0.12947114
238	0xbdd7651b	-0.10517331
239	0x3ed0a3e3	0.40750036
240	0x3e31c097	0.17358623
241	0xbd03a89b	-0.032143217
242	0x3e3ae3c9	0.18250956
243	0x3d86e213	0.06586089
244	0x3dbe98ea	0.0930651
245	0xbe892fa2	-0.26794153
246	0xbe1420ff	-0.14465712
247	0x3e6c1040	0.23053074
248	0xbf15228a	-0.5825583
249	0xbe26ced8	-0.16289842
250	0x3e9ecdf8	0.31016517
251	0xbf085c66	-0.5326599
252	0x3c4efdfe	0.012633799
253	0x3e0d0be0	0.13774061
254	0xbf3cb717	-0.7371687
255	0xbdc2f3eb	-0.0951918

features_extractor.encoder.conv.4.bias f4 [16]
0	0xbd755026	-0.05989089
1	0xbbabc565	-0.005242037
2	0x3d1e8bfb	0.038707715
3	0xbd0003d8	-0.031253666
4	0xbea7379e	-0.3265962
5	0x3b95a6a7	0.0045669856
6	0x3c0ac585	0.008469944
7	0xbe03539f	-0.12824868
8	0xbd5bbc5c	-0.05364643
9	0xbd620eb8	-0.05518982
10	0xbd31e635	-0.043432433
11	0xbe1ad778	-0.15121257
12	0xbde4de68	-0.11175233
13	0x3cf6f895	0.03014783
14	0xbc99225d	-0.018693144
15	0xbd105d50	-0.03524524

features_extractor.encoder.conv.6.weight f4 [32, 16, 3, 3]
0	0xbe4bd1d3	-0.1990426
1	0xbc80524a	-0.015664238
2	0xbe1ef49d	-0.15523
3	0xbef71771	-0.48260072
4	0x3c7d793f	0.015470802
5	0xbf010703	-0.50401324
6	0xbe79d092	-0.2439597
7	0xbd7436ff	-0.05962276
8	0xbe5b35b2	-0.21407202
9	0xbe76710f	-0.24066566
10	0xbde42c39	-0.11141247
11	0xbe910555	-0.2832438
12	0xbf00ce78	-0.50315046
13	0xbe7f1bed	-0.24912997
14	0x3d2513f7	0.040302243
15	0xbea6403a	-0.32470876
16	0xbdea491d	-0.114397265
17	0x3e046980	0.1293087
18	0x3e1ca38d	0.15296765
19	0x3d0c1ec1	0.034209017
20	0x3d3efd42	0.046628244
21	0x3e7e40d3	0.24829416
22	0x3c8c3331	0.017114254
23	0x3e3025f0	0.17201972
24	0x3a4b9ecd	0.00077674986
25	0x3d4ffd5f	0.050778743
26	0x3d81db32	0.06340636
27	0xbe5c06dc	-0.21486992
28	0xbe8b3a29	-0.2719281
29	0xbe694d70	-0.22783446
30	0xbc89f8cd	-0.01684227
31	0xbebf5ca1	-0.37375358
32	0xbe16f24c	-0.14740866
33	0xbe1bc8b2	-0.15213278
34	0xbe84f0c4	-0.2596494
35	0xbe10b62b	-0.14131992
36	0xbe704ae5	-0.2346607
37	0xbe9a7236	-0.3016526
38	0x3e1f3788	0.15548527
39	0xbeac2f24	-0.33629715
40	0xbf0f2884	-0.55921197
41	0x3e11cdda	0.14238682
42	0xbe978938	-0.29596877
43	0xbe846b79	-0.25863245
44	0xbd29ccc4	-0.041455045
45	0xbd9a752d	-0.07541881
46	0xbc8c4a66	-0.01712532
47	0xbd89c842	-0.06727649
48	0xbdeb1c8b	-0.114800535
49	0xbd6850c2	-0.05671764
50	0x3deabc9e	0.11461757
51	0x3e0efd6b	0.13963859
52	0x3d71ae9d	0.059004415
53	0x3ca14a8e	0.01968887
54	0xbad2474f	-0.001604298
55	0xbe4a3325	-0.19746073
56	0xbc6a417b	-0.014297838
57	0xbd826401	-0.063667305
58	0xbe89fb3b	-0.26949486
59	0xbd3193c5	-0.043353815
60	0xbef74044	-0.48291218
61	0xbde1eea6	-0.11031847
62	0x3ccbca11	0.024876626
63	0xbdeee21c	-0.11664221
64	0xbe217422	-0.15766957
65	0x3e4b6fcc	0.19866866
66	0x3e956bbd	0.2918376
67	0xbe95dee7	-0.29271623
68	0x3d18b99d	0.03728639
69	0x3d2f05fe	0.042730324
70	0xbd8070dd	-0.06271527
71	0x3d91c9aa	0.071185425
72	0x3e9104ff	0.28324124
73	0xbe30221a	-0.17200509
74	0xbd321f4d	-0.043486882
75	0x3e909786	0.28240603
76	0x3e305616	0.17220339
77	0x3e2fd089	0.17169394
78	0x3c805709	0.015666502
79	0x3e43ed4d	0.19133492
80	0x3ec11c2a	0.377168
81	0xbeae8d82	-0.34092337
82	0xbe0b2a2e	-0.13590309
83	0xbecf90fb	-0.405403
84	0xbe58bd80	-0.21166039
85	0xbe645ffc	-0.2230224
86	0x3ca68185	0.020325432
87	0xbf0796ad	-0.5296429
88	0xbdc0f13d	-0.094210126
89	0xbde18cd3	-0.11013188
90	0xbf03f232	-0.51541436
91	0xbe723d43	-0.23656182
92	0xbb6b2c49	-0.003588455
93	0xbf4ec92d	-0.8077572
94	0x3defd020	0.117096186
95	0x3e7ac793	0.24490194
96	0xbe839171	-0.256969
97	0x3b7fcd91	0.003903244
98	0x3e1cfd6a	0.15331045
99	0x3d468874	0.048469976
100	0x3d7f7953	0.062371563
101	0xbd638cf8	-0.05555436
102	0xbd407533	-0.04698677
103	0x3cba19a6	0.022717308
104	0xbd619d4e	-0.055081658
105	0x3cbee336	0.023301702
106	0x3cddac8b	0.027059814
107	0xbd963f6b	-0.07336315
108	0xba4e3adb	-0.00078670465
109	0xbc727c49	-0.01480014
110	0x3c5421e8	0.012947537
111	0x3d78c4e9	0.060734663
112	0x3de34aab	0.11098226
113	0xbcb1959c	-0.021677785
114	0x3d11227d	0.03543328
115	0xbce07782	-0.027400736
116	0xbcf1a376	-0.02949689
117	0x3e0025a5	0.1251436
118	0x3e8220d6	0.25415677
119	0x3d6a76c0	0.057242155
120	0x3d3a6003	0.04550172
121	0x3e92871a	0.286187
122	0xbcf09c4a	-0.0293714
123	0xbe7a7fe0	-0.24462843
124	0x3cd80ab2	0.026372287
125	0xbe1a3639	-0.15059747
126	0x3e2ef7b0	0.17086673
127	0x3db8aa15	0.090168156
128	0xbdfff354	-0.12497583
129	0x3e986477	0.2976415
130	0x3e4da1ed	0.20081301
131	0xbec7490c	-0.38922918
132	0x3b23eca6	0.002501288
133	0x3da35205	0.07974628
134	0xbd648db8	-0.055799216
135	0xbedeb8b8	-0.43500304
136	0x3d70c516	0.058781706
137	0x3c95bda1	0.018278899
138	0xbf1b4d7f	-0.60665125
139	0x3dd40300	0.10352135
140	0x3d030abe	0.031992666
141	0xbe394f34	-0.1809662
142	0x3e35dd8f	0.17760299
143	0xbe391a4f	-0.18076442
144	0xbe69fda5	-0.22850664
145	0x3e90c218	0.28273082
146	0xbe79e0c9	-0.24402155
147	0xbd54e1cb	-0.051973145
148	0xbeb8ef36	-0.36120003
149	0xbd526d64	-0.051373854
150	0xbe9d5a05	-0.30732742
151	0xbd2134fa	-0.039357163
152	0xbd45fd97	-0.048337545
153	0xbe9e2302	-0.30886084
154	0xbeb3bd3c	-0.35105312
155	0xbd6be488	-0.05759099
156	0xbceae2b0	-0.028672546
157	0xbe616d9f	-0.22014473
158	0xbdae765f	-0.08518671
159	0x3e24a035	0.16076739
160	0x3ea0b79e	0.3139009
161	0xbbcd404e	-0.006263769
162	0xbe28015c	-0.16406769
163	0x3d0b6cae	0.034039192
164	0xbe19b76c	-0.15011376
165	0xbe9e2607	-0.30888388
166	0xbea1abc0	-0.31576347
167	0xbe11c924	-0.14236885
168	0xbe8eca08	-0.27888513
169	0xbf08633b	-0.53276414
170	0xbda828b0	-0.082108855
171	0x3da12cb1	0.07869852
172	0xbe261343	-0.16218285
173	0xbe49256a	-0.19643179
174	0xbdbd6dbe	-0.09249447
175	0x3dada168	0.084780514
176	0xbe6754ba	-0.22590914
177	0xbd00dbdd	-0.031459678
178	0x3d9c5775	0.076338686
179	0x3d34a4da	0.044102527
180	0xbe87639c	-0.26443183
181	0x3c6ec71d	0.0145738395
182	0xbe13d17c	-0.1443538
183	0xbc91f191	-0.017815383
184	0x3cc4129a	0.023934651
185	0xbec8a839	-0.39190844
186	0xbcd27da5	-0.025694678
187	0x3be536fc	0.00699508
188	0xbcefbafd	-0.029263968
189	0xbdfd63b5	-0.12372533
190	0x3d9aec8b	0.07564648
191	0xbd3acb71	-0.045604173
192	0x3d19afbd	0.037521113
193	0x3da318fd	0.079637505
194	0xbdc1cfc1	-0.09463454
195	0xbe9f9de1	-0.3117514
196	0xbf2675e0	-0.6502361
197	0xbeb0b33a	-0.3451174
198	0x3c7ee587	0.015557653
199	0x3e0209ce	0.12699053
200	0xbe743001	-0.23846437
201	0xbc594f93	-0.013263601
202	0xbf02ef26	-0.5114616
203	0xbef3a747	-0.4758856
204	0xbed46d54	-0.4148966
205	0xbf535a8a	-0.82560027
206	0xbe8cfdc2	-0.27537352
207	0xbcb89e19	-0.022536324
208	0xbe99bd9c	-0.30027473
209	0xbf11c94f	-0.569478
210	0xbed3abcf	-0.41342017
211	0xbf10f2d2	-0.56620514
212	0xbef2cac7	-0.47420332
213	0xbda9dc59	-0.08293981
214	0xbe64c7dc	-0.22341865
215	0xbcf155f4	-0.029459931
216	0x3ea80f16	0.3282401
217	0xbe8b21b1	-0.27174142
218	0x3c1ed68b	0.009694706
219	0xbf21cd40	-0.6320381
220	0xbf01e7ec	-0.5074451
221	0xbe815940	-0.25263405
222	0xbc873548	-0.016504899
223	0x3e77e118	0.2420696
224	0x3e29e1ee	0.16590092
225	0x3e12ebc5	0.14347751
226	0xbe93df85	-0.2888147
227	0x3e5623f7	0.20912157
228	0xbe5feab8	-0.21866882
229	0xbed080e6	-0.40723342
230	0xbf35532d	-0.7083004
231	0x3e19274e	0.149564
232	0x3ce8090f	0.028324632
233	0x3d37c9c9	0.04487017
234	0x3e0ebe75	0.13939841
235	0xbd9441ac	-0.072390884
236	0xbe1b05b1	-0.1513889
237	0x3e3dd2fc	0.18537515
238	0xbc4e7424	-0.012600932
239	0xbe89dcc2	-0.26926237
240	0xbcc206f3	-0.023684954
241	0xbe35e98a	-0.1776487
242	0x3e72804b	0.23681752
243	0x3a5e8aab	0.0008489291
244	0x3cffbca6	0.031217884
245	0x3c68cf36	0.014209559
246	0x3da231b7	0.079196386
247	0x3dd29dfc	0.102840394
248	0xbc3e00b6	-0.011596849
249	0xbd86a547	-0.06574493
250	0x3d883ff2	0.066528216
251	0xbda3aece	-0.07992326
252	0xbce2251a	-0.027605582
253	0xbc8e3005	-0.017356882
254	0xbd540a26	-0.05176749
255	0x3c857f6e	0.016296115

features_extractor.encoder.conv.6.bias f4 [32]
0	0x3bd6e256	0.006557743
1	0xbd643770	-0.05571693
2	0xbbb4c8df	-0.0055171098
3	0x3d9abec6	0.075559184
4	0x3cdea1fa	0.027176846
5	0xbddbe452	-0.10736908
6	0xbd2d8209	-0.04236034
7	0xbda8eb35	-0.08247987
8	0xbd098268	-0.03357163
9	0xbe0c4312	-0.1369746
10	0x3bdeae76	0.0067956997
11	0xbd9e80c9	-0.077394076
12	0xbb825426	-0.0039773164
13	0xbd715620	-0.058920026
14	0x3c9380e5	0.018005798
15	0xbd8765b4	-0.06611195
16	0xbdcc40b4	-0.09973279
17	0xbd4f2691	-0.05057389
18	0x3d071ff3	0.032989454
19	0x3c7cc344	0.015427414
20	0xbdd9d9ac	-0.10637221
21	0xbe1cfbc2	-0.15330413
22	0xbe867f09	-0.26268795
23	0x3c0011d8	0.007816754
24	0xbd9a1f1c	-0.07525465
25	0xbc57471b	-0.013139511
26	0xbb54ca45	-0.0032469195
27	0xbe361097	-0.17779766
28	0xbc85eb6e	-0.016347613
29	0xbdab2e78	-0.083584726
30	0x3c2ef9ba	0.010679657
31	0xbe124c8e	-0.14287016

features_extractor.encoder.conv.8.weight f4 [64, 32, 3, 3]
0	0x3e9977d8	0.29974246
1	0xbe909dec	-0.28245485
2	0x3c7b5c78	0.0153418705
3	0xbe2e889d	-0.17044301
4	0x3c45c992	0.012071984
5	0xbe89ae88	-0.2689097
6	0xbe11af32	-0.14226988
7	0xbd81d5ad	-0.063395835
8	0xbc899f25	-0.016799519
9	0xbfab90b5	-1.3403536
10	0x3e343371	0.17597748
11	0x3df04981	0.1173277
12	0xbe3b4d9c	-0.18291324
13	0xbf1a3856	-0.6024221
14	0x3de9e36e	0.11420332
15	0xbc617fad	-0.01376335
16	0x3eb3e9bc	0.35139263
17	0xbd6d5363	-0.057940852
18	0xbe3adc2d	-0.18248053
19	0x3e4ac654	0.19802219
20	0x3dbdf07b	0.09274384
21	0xbe8b49d3	-0.2720476
22	0x3e17f0b8	0.1483792
23	0xbd977ae2	-0.07396485
24	0xbea5f063	-0.32409963
25	0x3dd0c2d3	0.1019341
26	0x3d4cfbea	0.05004493
27	0xbeb33693	-0.35002574
28	0xbca31ef1	-0.019912215
29	0x3ebc2d65	0.36753383
30	0xbe1d2507	-0.15346156
31	0x3ed3d3ee	0.41372627
32	0x3d8eb3ec	0.06967911
33	0xbe0dd524	-0.13850838
34	0xbc5c7b08	-0.013457067
35	0x3e191118	0.14947927
36	0xbf67ddc9	-0.9057279
37	0xbe25933c	-0.16169447
38	0x3cd62ff8	0.02614592
39	0xbf0ce90f	-0.5504312
40	0xbeb890cb	-0.36047968
41	0x3b45c245	0.0030175608
42	0x3e182aec	0.14860123
43	0xbdd43bbb	-0.10362955
44	0xbd6d019d	-0.057862867
45	0xbd004986	-0.031320117
46	0xbf208f36	-0.6271852
47	0x3c8bdb83	0.017072445
48	0xbee33cc1	-0.4438229
49	0xbe77eafb	-0.24210732
50	0xbcc83b02	-0.0244422
51	0x3d379b4e	0.044825844
52	0xbe383e05	-0.17992409
53	0x3e177969	0.14792408
54	0xbe0f4928	-0.1399275
55	0xbf4f7bc8	-0.8104825
56	0x3d401728	0.046897084
57	0x3da9fdf3	0.0830039
58	0xbed26f25	-0.41100422
59	0xbe57877a	-0.21047774
60	0x3dc2b844	0.09507802
61	0x3dac3a73	0.08409586
62	0xbda3f457	-0.080055885
63	0x39f3e2df	0.00046517604
64	0xbbfd6cf3	-0.007733935
65	0xbd173cc1	-0.036923174
66	0x3ce53307	0.027978433
67	0xbc8b52b1	-0.017007204
68	0xbd929184	-0.07156661
69	0x3d81468e	0.06312285
70	0x3d424964	0.047433272
71	0xbd132abc	-0.035929427
72	0x3dbc61f2	0.09198369
73	0x3d4f317c	0.0505843
74	0x3e08c2bb	0.13355534
75	0xbe9d5def	-0.30735728
76	0xbe48cf83	-0.1961041
77	0x3e19f994	0.15036613
78	0xbd90e5c2	-0.07075073
79	0xbccc50af	-0.024940817
80	0x3e05bd5e	0.13060519
81	0xbf97eab8	-1.1868505
82	0xbe4b374d	-0.19845314
83	0x3e03aba3	0.12858443
84	0x3e0fca4a	0.14042011
85	0x3eb3b46d	0.3509859
86	0xbd7ff877	-0.062492814
87	0xbe5cffbe	-0.21581933
88	0x3f1cf33c	0.61308646
89	0xbca5b094	-0.0202258
90	0x3d2f8f4c	0.042861268
91	0x3d857f15	0.065183796
92	0xbda6ee35	-0.08150903
93	0x3f099121	0.53737074
94	0x3dfcf1c7	0.12350803
95	0x3e593448	0.2121135
96	0x3dabf8f2	0.08397092
97	0x3e36b0a9	0.17840828
98	0x3e9d86e3	0.30766973
99	0xbc97f2de	-0.018548425
100	0xbda45717	-0.080244236
101	0x3d99553a	0.07486959
102	0x3a94b089	0.0011344115
103	0xbcb5ed69	-0.022207933
104	0x3d23afcf	0.039962586
105	0xbd6102b5	-0.054934222
106	0xbd619063	-0.05506934
107	0x3d29f466	0.041492842
108	0x3dba64ec	0.091012806
109	0xbd0f8380	-0.035037518
110	0xbcfa81dd	-0.030579502
111	0x3e7daa7c	0.24772066
112	0x3e816681	0.25273517
113	0x3cbe5c3e	0.023237344
114	0x3ce57a98	0.028012559
115	0x3d3aff03	0.045653354
116	0xbe90d437	-0.28286907
117	0x3e630c32	0.22172621
118	0x3e474d7c	0.19463152
119	0x3e172fe1	0.14764358
120	0x3c875fd7	0.016525192
121	0x3ef74553	0.48295078
122	0xbcaf769a	-0.021418858
123	0xbef554c8	-0.47916245
124	0x3e920baf	0.2852454
125	0xbea4289d	-0.32062235
126	0xbe8692a4	-0.26283753
127	0xbf890630	-1.0705013
128	0xbdcd9157	-0.10037487
129	0xbf41b31e	-0.75663936
130	0xbf4414f9	-0.765945
131	0xbc8a29d0	-0.01686564
132	0xbef0d0c4	-0.47034276
133	0xbc8c3993	-0.017117297
134	0x3d3d78f1	0.046257917
135	0xbe5bdf22	-0.21471837
136	0xbf447a33	-0.7674896
137	0xbe469a05	-0.19394691
138	0xbef0e99f	-0.4705324
139	0xbee86b90	-0.45394564
140	0xbe2f4e8d	-0.17119808
141	0x3d5fa72d	0.05460279
142	0x3da60b9a	0.081076816
143	0xbe643a09	-0.22287764
144	0xbe93e7a9	-0.2888768
145	0x3e9c9d8b	0.30588946
146	0xbe3db88b	-0.18527429
147	0xbebd1d96	-0.36936635
148	0x3e53787d	0.20651431
149	0x3e17d4d2	0.14827278
150	0x3cd78548	0.02630867
151	0xbea3418e	-0.31885952
152	0x3ec21ae8	0.37911153
153	0xbdc0568d	-0.09391508
154	0xbd883a79	-0.06651778
155	0xbc402fca	-0.011730144
156	0xbdae8f65	-0.08523444
157	0xbf04d1b6	-0.51882493
158	0x3e1bc718	0.15212667
159	0xbcec52c4	-0.02884806
160	0xbed0ed55	-0.4080607
161	0x3f00d8f5	0.5033105
162	0x3f026472	0.5093452
163	0x3f2b6c1e	0.6696185
164	0x3dbe2f49	0.09286363
165	0x3e9241c8	0.28565812
166	0x3e93ef4c	0.28893507
167	0x3dbfb80b	0.09361275
168	0xbf1c4d10	-0.6105509
169	0xbe150d7b	-0.14555924
170	0x3aae8bae	0.0013316774
171	0xbce56fe6	-0.028007459
172	0x3ebed020	0.37268162
173	0x3ce9d5e9	0.028544383
174	0x3e290974	0.16507512
175	0x3ef35bab	0.47530875
176	0x3dd55b98	0.10417861
177	0xbdb6a985	-0.08919052
178	0x3e658c22	0.22416738
179	0xbe3d4846	-0.18484601
180	0xbbca1515	-0.006167064
181	0xbc3f8489	-0.011689314
182	0x3b9c031b	0.0047611124
183	0x3ac7efe6	0.001525399
184	0xbd7e16b1	-0.06203336
185	0xbd275688	-0.040854007
186	0xbd8013ce	-0.062537774
187	0xbda54d46	-0.08071379
188	0xbbac948e	-0.0052667325
189	0xbdb86ba0	-0.09004903
190	0xbe4f8149	-0.20264162
191	0x3c6b5e5d	0.01436576
192	0xbe9c339b	-0.30508122
193	0xbe3de77f	-0.1854534
194	0x3d7c5fa1	0.061614636
195	0xbd8e8fd9	-0.069610305
196	0xbe84ee02	-0.25962836
197	0x3d9eaec9	0.077481814
198	0x3d719180	0.05897665
199	0xbe601007	-0.21881114
200	0x3d3c13d5	0.04591735
201	0xbe9d636c	-0.30739915
202	0xbecf1d81	-0.40452197
203	0xbda031b8	-0.07821983
204	0xbef53abb	-0.4789637
205	0xbd853015	-0.065033115
206	0x3cf4c028	0.029876783
207	0xbf06eed9	-0.527082
208	0x3e0a4ec5	0.1350661
209	0x3da3e81a	0.08003254
210	0xbe9c64c2	-0.30545622
211	0x3e9273d0	0.28603983
212	0x3d56a666	0.052404784
213	0xbdab2176	-0.083559915
214	0x3d7c0918	0.06153211
215	0xbe65b1f7	-0.2243117
216	0xbf37bfcd	-0.7177704
217	0xbdd63ccf	-0.10460817
218	0x3db12f45	0.08651594
219	0xbecdccb5	-0.40195242
220	0xbe9ab685	-0.30217376
221	0x3da78a72	0.08180703
222	0xbcb1aa11	-0.02168754
223	0x3d2ec755	0.042670567
224	0xbd905376	-0.07047169
225	0xbec33931	-0.3812957
226	0x3e062fb3	0.13104133
227	0x3db15e3b	0.08660551
228	0xbd4cb3c2	-0.049976118
229	0x3e64a1d3	0.22327356
230	0x3d8885ef	0.06666171
231	0xbe3a2ced	-0.181812
232	0x3e3567e6	0.17715415
233	0xbe7db941	-0.247777
234	0x3e9b73f3	0.303619
235	0x3f009833	0.5023224
236	0x3dff5636	0.12467615
237	0x3ea79bb0	0.32735968
238	0x3f7ed052	0.9953662
239	0x3e61d5d5	0.22054227
240	0x3dc38cad	0.09548316
241	0x3ea67c2f	0.3251662
242	0xbcb3e9f8	-0.021962151
243	0xbd78fc31	-0.060787383
244	0x3d30f200	0.04319954
245	0xbded194f	-0.11577093
246	0x3c82f189	0.015984314
247	0xbc88f861	-0.016719999
248	0xbd419dd1	-0.047269646
249	0xbd8089fa	-0.06276317
250	0xbd87e9c5	-0.06636385
251	0xbd4761b5	-0.048677165
252	0xbd7cb3f0	-0.06169504
253	0xbda2adc5	-0.079433
254	0xbcf14179	-0.029450165
255	0x3e809867	0.25116274

features_extractor.encoder.conv.8.bias f4 [64]
0	0x3c355d93	0.011069673
1	0xbd57785b	-0.052605014
2	0x3d47878a	0.048713244
3	0xbe4cfe6f	-0.20018934
4	0x3c7d357d	0.015454647
5	0xbd9ee574	-0.077586085
6	0xbdcd83b6	-0.100348875
7	0xbd077672	-0.033071943
8	0xbdc008cd	-0.093766786
9	0xbe64d375	-0.2234629
10	0x3e32ca70	0.17460036
11	0xbd863907	-0.06553846
12	0xbd93d005	-0.07217411
13	0xbdfa7b9d	-0.122306086
14	0x3d1b6987	0.037942436
15	0xbcd074fc	-0.025446407
16	0xbd6d2169	-0.05789319
17	0xbd7462d7	-0.059664574
18	0xbdb22a37	-0.08699458
19	0xbc846248	-0.016160145
20	0xbdb0dfeb	-0.08636459
21	0xbe01081f	-0.12600754
22	0xbd42b05d	-0.047531474
23	0xbcb2f026	-0.021843027
24	0xbd83b8b5	-0.064317144
25	0xbcaf69eb	-0.02141281
26	0xba442504	-0.00074823224
27	0x3cd0a922	0.025471274
28	0x3be1c92f	0.006890438
29	0xbd889b68	-0.066702664
30	0xbdec9018	-0.11550921
31	0xbdce8dac	-0.100856155
32	0x3d64e2c1	0.055880312
33	0xbcc4f099	-0.024040507
34	0xbd4f3420	-0.05058682
35	0x3d341c10	0.043972075
36	0xbdea25fd	-0.11433027
37	0xbcdcba07	-0.026944173
38	0xbdd9fe0b	-0.10644158
39	0xbdd21a63	-0.10258939
40	0xbc732945	-0.014841382
41	0xbd290d5a	-0.0412725
42	0xbd9f806d	-0.07788167
43	0xbd0628a6	-0.03275361
44	0xbd9a63dd	-0.07538579
45	0xbca5d4cf	-0.020243077
46	0xbc0d7e4e	-0.00863607
47	0x3d2d61c9	0.042329583
48	0x3ddb361a	0.107036784
49	0xbd5f5f4f	-0.054534253
50	0xbc2e2ec6	-0.010631269
51	0x3c86e29e	0.016465481
52	0x3c269667	0.010167695
53	0xbd98eeb3	-0.07467403
54	0xbd0653df	-0.03279483
55	0x3d6a66d5	0.057226975
56	0xbba24e8c	-0.004953211
57	0xbd1a69ec	-0.03769867
58	0x3e1c9d76	0.15294442
59	0x3d87fbbc	0.066398114
60	0x3be7cfa0	0.0070743114
61	0x3dcd2a46	0.10017829
62	0x3e5fa0ef	0.21838735
63	0x3cfd8531	0.0309473

features_extractor.encoder.conv.10.weight f4 [128, 64, 3, 3]
0	0x3ca3920e	0.019967105
1	0xbd2643ff	-0.04059219
2	0x3cf91f68	0.030410483
3	0xbb8ce456	-0.0042996807
4	0xbcad67ec	-0.021167718
5	0xbc9f5a9d	-0.019452387
6	0xbd08229e	-0.03323614
7	0xbd58d042	-0.052932985
8	0x3c3cb53b	0.011517818
9	0x3c8e09bb	0.017338624
10	0xbb15ea00	-0.002287507
11	0x3c8972d8	0.016778395
12	0xbc9b71b3	-0.018975114
13	0xbca5abc0	-0.020223498
14	0x3d1a95b3	0.03774042
15	0xbc350f70	-0.011051044
16	0xbcf2f6da	-0.029658724
17	0xbdb963f5	-0.090522684
18	0x3c66413b	0.014053638
19	0xbcf48a1b	-0.02985101
20	0xbc7e8196	-0.015533825
21	0xbc874cb0	-0.01651606
22	0xbd8bbfa4	-0.06823662
23	0xbcbea618	-0.023272559
24	0xbd0600a7	-0.032715466
25	0xbda950b8	-0.08267349
26	0xbc34169b	-0.010991718
27	0x3d0a2a50	0.03373176
28	0xbc0d31a6	-0.008617794
29	0x3bad37cb	0.005286192
30	0xbc870cd3	-0.016485607
31	0xbd864423	-0.06555965
32	0xbd4a9e43	-0.049467336
33	0x3cf0258b	0.029314777
34	0xbc5054c8	-0.012715526
35	0xbd8c51ed	-0.068515636
36	0xbd24f54a	-0.04027299
37	0xbc03bcdb	-0.008040632
38	0x3bd08c96	0.0063644154
39	0xbcd36a03	-0.025807386
40	0x3c8105d1	0.015749844
41	0xbce8e949	-0.028431552
42	0xbd21e934	-0.03952904
43	0xbd6fd0fe	-0.05854892
44	0x3cb38299	0.02191286
45	0xbcf4ac96	-0.029867452
46	0xbce718f6	-0.028210144
47	0x3d0d0c46	0.034435533
48	0x3ccb8920	0.02484566
49	0x3c6cd8b6	0.014455965
50	0x3c480b4b	0.012209724
51	0x3cd2970b	0.025706789
52	0xbc9fc9b6	-0.019505363
53	0xbcdffcce	-0.027342226
54	0x3c7cc506	0.015427833
55	0xbd244e28	-0.040113598
56	0x3c304f90	0.010761157
57	0xbd08bbe8	-0.033382326
58	0xbd17d215	-0.037065584
59	0xbd8a286b	-0.0674599
60	0xbc1eeaf0	-0.009699568
61	0xbd4b0dd9	-0.049573753
62	0xbcfb533a	-0.030679334
63	0xbcb2ef5b	-0.02184265
64	0xbd03f75f	-0.032218333
65	0x3b9df2a0	0.004820183
66	0xbd228700	-0.039679527
67	0xbca3d3e4	-0.019998498
68	0xbc32eae2	-0.010920258
69	0xbd09e887	-0.03366902
70	0x3b125ba5	0.0022332456
71	0x3b00da49	0.0019661358
72	0x3ca99a5b	0.020703485
73	0x3c166510	0.009179369
74	0x3c942e9b	0.01808863
75	0xbcff8726	-0.031192373
76	0x3c82f469	0.015985684
77	0xbbc2cdde	-0.0059449514
78	0xbcdae476	-0.026720267
79	0x3c85c6d4	0.01633016
80	0xbd3a6a04	-0.04551126
81	0xbcf01130	-0.02930507
82	0x3aa4ca80	0.0012572557
83	0xbcaceff3	-0.02111051
84	0xbc27fbf6	-0.010252943
85	0xbd83d41b	-0.0643694
86	0x3d5c27d7	0.05374893
87	0x3c1a5cf0	0.009421572
88	0xbd30564b	-0.043051045
89	0xbd0e3673	-0.034719896
90	0x3c43f4f6	0.011960259
91	0x3d1b1a93	0.03786714
92	0xbcfcf83e	-0.03088009
93	0xbcb84eab	-0.02249845
94	0xbce9ed64	-0.02855558
95	0xbcac8c8c	-0.021063112
96	0xbd1e5dc4	-0.03866364
97	0xbdf0ff99	-0.117675014
98	0x3caee950	0.021351486
99	0x3cbfa2b3	0.02339301
100	0x3c4f270b	0.012643586
101	0xbcd845a0	-0.026400387
102	0x3d0ea418	0.03482446
103	0x3b17b5d6	0.0023149154
104	0x3bbe098b	0.0057994775
105	0x3d29f11c	0.041489705
106	0x3d1fd2c8	0.039019376
107	0x3d11aa27	0.03556266
108	0x3cdbe1fe	0.02684116
109	0xbcdeea1e	-0.027211245
110	0x3c1fb9eb	0.009748916
111	0x3d1fab5e	0.038981788
112	0xbcb3485b	-0.021885088
113	0xb92776ab	-0.00015970568
114	0xbc6b657b	-0.014367457
115	0xbbccac6b	-0.0062461398
116	0x3cc2f950	0.023800522
117	0x3d14736c	0.036242887
118	0xbbeeae8b	-0.0072839907
119	0x3c66519b	0.014057542
120	0x3c8cd606	0.017191898
121	0xbdbccfe5	-0.0921934
122	0xbd1e7cbc	-0.038693175
123	0x3bf701cb	0.0075380555
124	0xbc77abdd	-0.015116659
125	0x3d02f633	0.031973075
126	0x3c24a770	0.010049686
127	0xbb9c73eb	-0.0047745607
128	0xbce2aed0	-0.027671248
129	0x3c644586	0.013932591
130	0xbd802b88	-0.06258303
131	0x3ad320f3	0.0016107842
132	0x3bfc5360	0.0077003688
133	0xbd81aea7	-0.063321404
134	0x3d0335cc	0.032033727
135	0xbc40e81b	-0.011774088
136	0xbcb79bc6	-0.022413146
137	0x3cc99c6e	0.024610724
138	0xbcfaf6fb	-0.030635348
139	0xbd95bde3	-0.07311609
140	0x3cb8950d	0.02253201
141	0x3cd6cf40	0.026221871
142	0xbd05f486	-0.0327039
143	0xbcb216b5	-0.021739343
144	0x3b3d5240	0.0028888136
145	0x3b8340eb	0.0040055416
146	0xbcf66dee	-0.030081715
147	0xbb958d2b	-0.0045639477
148	0x3cbedcd6	0.023298662
149	0xbcb0bfc4	-0.021575816
150	0xbd0354ca	-0.032063283
151	0xbd2fdf3f	-0.042937513
152	0xbd7fed7b	-0.06248234
153	0xbb1fab6b	-0.0024363648
154	0xbcf78d0b	-0.030218622
155	0x3d0974f8	0.033558816
156	0xbcf9a548	-0.03047432
157	0xbd2288f6	-0.039681397
158	0xbda9fcbd	-0.08300159
159	0xbc8677e6	-0.016414594
160	0x3cb6e8c8	0.022327796
161	0xbd2997c8	-0.041404516
162	0xbcd540c8	-0.026031867
163	0xba5cf100	-0.0008428246
164	0x3c4c232b	0.012459557
165	0xb9e0acab	-0.00042853257
166	0x3bfeb96b	0.0077735684
167	0xbbc7e936	-0.006100799
168	0xbcc2b043	-0.023765689
169	0xbc582b30	-0.01319389
170	0x3c989458	0.018625423
171	0x3ce58dd6	0.028021734
172	0x3ba4cb20	0.005029097
173	0xbcbd9613	-0.02314285
174	0x3cf475c6	0.029841315
175	0xbd5487a7	-0.05188718
176	0x3d067947	0.032830503
177	0x3c6c84c0	0.014435947
178	0xbd93a7e3	-0.07209756
179	0xbc6a63de	-0.014306037
180	0xba791856	-0.00095022225
181	0x3c9b09f3	0.018925643
182	0xbcee76db	-0.02910941
183	0xbd0afe96	-0.0339342
184	0xbc93d623	-0.018046444
185	0x3ca3955b	0.01996868
186	0xbcd33143	-0.025780326
187	0xbc4fff3b	-0.012695129
188	0x3c96124e	0.018319275
189	0xbc4fe190	-0.012688056
190	0x3d0cec78	0.0344052
191	0x3d1cc4ef	0.038273748
192	0x3bd42716	0.006474386
193	0xbd53f97b	-0.051751595
194	0x3c65856d	0.014008862
195	0x3cd92c66	0.026510429
196	0xbbf59aec	-0.007495275
197	0xbd772fc8	-0.060348302
198	0x3b46b5d6	0.0030320785
199	0x3cfcc466	0.030855369
200	0x3d0334d4	0.032032803
201	0xbc4a79fb	-0.012358184
202	0xbcdde5bf	-0.02708709
203	0xbbdaa161	-0.00667207
204	0xbd199b74	-0.037501767
205	0xbd55fe1a	-0.052244283
206	0x3cf1abd4	0.02950088
207	0xbd1c96f8	-0.038229913
208	0x3c9d0bb3	0.019170618
209	0xbbefb0c0	-0.0073147714
210	0x3d0e42fb	0.034731846
211	0xbb885db1	-0.0041615595
212	0xbc3d38a2	-0.011549147
213	0xbc09d580	-0.008412719
214	0xbd732075	-0.059357125
215	0xbd0c3f97	-0.03424033
216	0x3d066fc6	0.03282144
217	0xbab6f700	-0.001395911
218	0x3cc87c03	0.024473196
219	0xbc4828a6	-0.012216723
220	0xbca9cfd6	-0.020728987
221	0xbce59c93	-0.028028762
222	0xbd15dbdb	-0.036586624
223	0x3c73fa06	0.014891153
224	0x3d0930db	0.033493858
225	0x3d16fa6c	0.036859915
226	0xbd2517ec	-0.040306017
227	0x3d131707	0.035910632
228	0x3c205880	0.009786725
229	0xbdcffe9f	-0.10155987
230	0x3c8a50d7	0.01688425
231	0x3d1b07ef	0.037849363
232	0xbdd33d30	-0.10314405
233	0xbd319da2	-0.04336322
234	0xbc021f96	-0.007942101
235	0x3ca6e746	0.020373952
236	0xbca58c28	-0.020208433
237	0x3cb6bcd8	0.022306845
238	0xbcdeb61c	-0.027186446
239	0xbd55163a	-0.05202315
240	0x3c84af13	0.016196763
241	0xbc0561fc	-0.008141037
242	0xbd3ba7c8	-0.045814306
243	0x3cd252f8	0.025674328
244	0x3ce89aa6	0.028394055
245	0xbc216676	-0.009851089
246	0xbc9c0440	-0.019044995
247	0xbd5b7371	-0.05357689
248	0xbd6226c1	-0.05521274
249	0xbbfd12e0	-0.0077231973
250	0xbd68ffff	-0.056884762
251	0x3bf4b22f	0.00746753
252	0xbd293fbb	-0.041320544
253	0x3bbfcb56	0.005853097
254	0xbd07bcb3	-0.033138942
255	0xbcda5420	-0.026651442

features_extractor.encoder.conv.10.bias f4 [128]
0	0xbd3a93c1	-0.045551065
1	0xbd0bd88b	-0.03414206
2	0x3ee99f58	0.45629382
3	0x3d61610c	0.05502419
4	0x3e9b721d	0.303605
5	0x3d6c6305	0.05771162
6	0x3e94209a	0.28931123
7	0x3e90c620	0.28276157
8	0x3e829c5c	0.25509918
9	0x3dcdfb77	0.10057729
10	0xbd729a85	-0.059229393
11	0x3e334cff	0.1750984
12	0xbe0f063d	-0.13967223
13	0xbccac320	-0.024751246
14	0xbca157a7	-0.019695116
15	0xbcc34b60	-0.023839653
16	0x3d7eaa8c	0.062174365
17	0xbd9f8aaa	-0.0779012
18	0x3e8d19b8	0.27558684
19	0xbd338e3a	-0.04383681
20	0xbc9a1984	-0.018810995
21	0x3e89bd44	0.2690221
22	0xbd636071	-0.055511896
23	0x3e15069c	0.14553303
24	0xbbf7c0a6	-0.0075608073
25	0x3e4e5422	0.20149282
26	0x3ebee19b	0.37281498
27	0xbc857796	-0.016292375
28	0x3e329004	0.1743775
29	0x3daafff9	0.08349604
30	0x3d1cbb99	0.038264845
31	0x3dd9abc8	0.10628468
32	0xbd503db6	-0.050840102
33	0xbd7abced	-0.06121533
34	0x3e130791	0.14358355
35	0xbd083a04	-0.033258453
36	0xbd8c88b2	-0.0686201
37	0x3dbf78d2	0.093492165
38	0x3e18670e	0.14883062
39	0xbd19d450	-0.037555993
40	0x3e1a7a92	0.1508582
41	0xbccf5061	-0.025306882
42	0xbd25b33b	-0.04045413
43	0xbda86781	-0.08222867
44	0xbd506b15	-0.05088337
45	0x3e8c6732	0.27422482
46	0xbd56caa7	-0.052439358
47	0x3e3a174f	0.18172954
48	0xbd0e8cca	-0.034802236
49	0xbc95e5d3	-0.018298065
50	0x3df1a670	0.117993236
51	0x3e4329b7	0.19058882
52	0x3e22910f	0.15875648
53	0xbd45050a	-0.04810051
54	0xbd1753b9	-0.03694508
55	0xbd8a1709	-0.06742675
56	0xbcff0f28	-0.031135157
57	0x3a974220	0.0011540093
58	0x3e780462	0.24220422
59	0xbbf1a8a2	-0.007374839
60	0x3e35be24	0.17748314
61	0xbd871ee6	-0.0659769
62	0x3cdf290a	0.027241249
63	0xbd0e8202	-0.034791954
64	0x3eae56ee	0.34050697
65	0xbd65b90d	-0.05608468
66	0xbd3199be	-0.04335951
67	0x3ebc3139	0.36756304
68	0x3e206ace	0.15665743
69	0xbd08a941	-0.033364538
70	0xbcf0a27a	-0.02937435
71	0xbd6c84ed	-0.057743955
72	0x3e2a42f2	0.166271
73	0x39cf4c63	0.0003953903
74	0xbbfc8721	-0.0077065383
75	0x3ed73d21	0.42038825
76	0xbc8d6a1f	-0.017262517
77	0xbcd6cbbe	-0.026220199
78	0x3ddecdc3	0.1087909
79	0x3e404aa2	0.1877847
80	0x3ebe6704	0.3718797
81	0xbd17292a	-0.03690449
82	0x3e86a3c0	0.26296806
83	0xbcbf1337	-0.023324592
84	0xb8ac8430	-8.226221e-05
85	0x3eaafdc1	0.33396724
86	0xbd2c0866	-0.042000197
87	0x3e72b39b	0.23701327
88	0xbe247d62	-0.16063455
89	0x3e00c8c2	0.12576583
90	0xbd322965	-0.04349651
91	0xbd2a813a	-0.041627146
92	0xbd9dd18a	-0.07705982
93	0xbd94590d	-0.072435476
94	0x3e83fd86	0.2577936
95	0x3e6ef7dd	0.2333674
96	0x3eb0ea42	0.34553725
97	0xbcb6430f	-0.022248773
98	0xbd3ab01d	-0.04557811
99	0xbcdb6ff7	-0.026786787
100	0x3e85f027	0.26159784
101	0x3da2e758	0.079542816
102	0xbd5780c1	-0.052613024
103	0x3e93e5b8	0.288862
104	0x3e390300	0.1806755
105	0x3e007370	0.12544036
106	0xbd60189a	-0.054710962
107	0xbd5be1d6	-0.05368217
108	0xbd085644	-0.033285394
109	0x3e7fc178	0.24976146
110	0xbcf2d1be	-0.029641028
111	0xbd3f09ea	-0.046640314
112	0x3e135265	0.143869
113	0x3c9370da	0.017998148
114	0xbd02dde9	-0.03194991
115	0xbd55ed63	-0.052228343
116	0xbd4c2b5e	-0.049846046
117	0xbd2a7eec	-0.04162495
118	0xbd222464	-0.039585486
119	0xbd6f4308	-0.058413535
120	0x3e9e4b91	0.30917028
121	0x3d9ab1ab	0.07553419
122	0xba8d8042	-0.001079567
123	0x3e175dbf	0.14781855
124	0xbd75aea3	-0.059981
125	0xbd022b1b	-0.03177939
126	0x3e6a19fe	0.22861478
127	0xbd71ed2f	-0.059064087

features_extractor.encoder.fc.weight f4 [64, 128]
0	0x3cc8f593	0.024531161
1	0x3d5a7c5d	0.05334126
2	0xbebf1e34	-0.3732773
3	0x3e28e5c6	0.16493902
4	0x3e4ae2a1	0.19813015
5	0xbe460db1	-0.1934116
6	0xbe30ee61	-0.17278434
7	0xbe4e0f6b	-0.20123069
8	0xbe55a1e9	-0.20862545
9	0xbd3cbf61	-0.04608095
10	0xbd7e7a46	-0.062128328
11	0x3d0dc4b0	0.034611404
12	0x3d7eb641	0.06218553
13	0xbd866eaf	-0.0656408
14	0x3d5e8756	0.054328285
15	0xbd3b6cb1	-0.045757953
16	0x3e2e6d3b	0.17033856
17	0xbdd4e413	-0.10395064
18	0x3cc48b40	0.02399218
19	0x3ce811eb	0.028328856
20	0x3d0b1bb1	0.033961955
21	0x3e288bca	0.16459575
22	0xbd6021f1	-0.05471987
23	0xbe288827	-0.16458188
24	0x3d84d658	0.06486195
25	0x3e0357af	0.12826417
26	0xbe25b37f	-0.16181754
27	0xbd1bd8f3	-0.038048696
28	0x3cf7ef85	0.030265579
29	0x3d9699c7	0.073535495
30	0xbe13c249	-0.14429583
31	0xbde174a9	-0.11008579
32	0xbbf7b2b1	-0.0075591435
33	0x3d407fdd	0.04699694
34	0xbe8f6acf	-0.28011176
35	0x3d7c27dd	0.061561454
36	0x3d7cd25a	0.061724044
37	0xbe57b9c9	-0.21066965
38	0xbe8e9b82	-0.27853018
39	0x3d1e6cd2	0.038677998
40	0x3cf3fcdd	0.02978366
41	0xbd8498c7	-0.064744525
42	0xbd01dcc9	-0.031704698
43	0x3d74c3e2	0.05975712
44	0x3c735ae7	0.014853216
45	0x3df69e28	0.12041885
46	0x3d5cad24	0.053876057
47	0xbea923ec	-0.3303522
48	0x3dabcbac	0.08388457
49	0x3c25ccb6	0.010119608
50	0x3e31f095	0.17376931
51	0xbe38e126	-0.18054637
52	0x3da8e6cf	0.08247148
53	0x3d629504	0.055317894
54	0x3d49a5bc	0.049230322
55	0xbd020fa6	-0.031753205
56	0x3ca685de	0.020327505
57	0x3d5559c4	0.05208756
58	0x3eb34979	0.35016993
59	0xbd5abb45	-0.05340125
60	0xbe409e02	-0.18810275
61	0x3d32a856	0.04361757
62	0xbe49477c	-0.19656175
63	0xbcad7953	-0.021176016
64	0x3d73de27	0.059538033
65	0x3cecaa1a	0.028889704
66	0xbda398c7	-0.07988124
67	0xbe294b6a	-0.16532674
68	0xbcf1e9f2	-0.0295305
69	0x3d92321c	0.07138464
70	0xbd35b660	-0.04436338
71	0xbbaa7a65	-0.005202579
72	0x3d7d1a78	0.06179282
73	0x3cc9b731	0.024623485
74	0x3dd9be2e	0.10631977
75	0xbde160bf	-0.11004781
76	0x382f183b	4.1745818e-05
77	0xbca6ade6	-0.020346593
78	0x3e22e941	0.15909292
79	0xbce0bf1f	-0.027434884
80	0xbe87c095	-0.26514116
81	0xbd41a79d	-0.04727899
82	0xbe286c5a	-0.16447583
83	0x3dbae4c6	0.09125666
84	0xbdb3eddc	-0.087856025
85	0x3d38c506	0.04510977
86	0xbd485e2f	-0.048917945
87	0xbd511693	-0.05104692
88	0x3e0da00a	0.13830581
89	0x3e57ba83	0.21067242
90	0xbd9daed9	-0.07699365
91	0x3c51419b	0.012771989
92	0xbc2b5c05	-0.010458951
93	0xbca8ba08	-0.02059652
94	0xbce364ca	-0.02775802
95	0xbdfd07d2	-0.12355007
96	0x3eb7f467	0.35928652
97	0xbc65d55d	-0.014027921
98	0xbdf21323	-0.11820056
99	0x3c49a90f	0.012308373
100	0x3da55276	0.08072369
101	0xbdd2c116	-0.102907345
102	0xbd5b4be8	-0.053539187
103	0xbe929bcd	-0.28634492
104	0x3c2ec0aa	0.010666052
105	0x3b8afe8c	0.00424177
106	0x3d583b75	0.052791078
107	0xbd59a461	-0.05313528
108	0x3d1fe427	0.039035942
109	0x3e7bbe84	0.24584395
110	0x3c32fa2b	0.0109239025
111	0xbc91289d	-0.017719561
112	0x3e8781f9	0.2646635
113	0xbdb7637d	-0.08954523
114	0xbb3602b7	-0.0027772614
115	0xbd5b0138	-0.05346796
116	0x3c305a21	0.010763676
117	0xbd95b308	-0.07309538
118	0x3e113175	0.14179023
119	0x3c959fe6	0.018264722
120	0xbdf0f95b	-0.11766311
121	0x3eb3d8ae	0.3512625
122	0x3d6f8a53	0.058481526
123	0x3dadf0b2	0.084931746
124	0xbc8274e8	-0.015924886
125	0x3c720722	0.014772208
126	0x3ebd0223	0.36915693
127	0x3cd9f33a	0.026605237
128	0xbdd2417b	-0.10266396
129	0x3d562315	0.05227955
130	0x3e80b939	0.25141314
131	0x3e3db529	0.18526138
132	0xbbe5346c	-0.0069947746
133	0x3e6af24c	0.22943991
134	0x3e83ab31	0.25716546
135	0xbdb7c666	-0.089733884
136	0xbcedb3d2	-0.02901641
137	0xbe8dd71f	-0.27703187
138	0xbd27cad5	-0.04096492
139	0xbd73dadc	-0.059534892
140	0x3d87dbff	0.06633758
141	0xbd4b951c	-0.04970275
142	0xbd92952d	-0.07157359
143	0xbbf6dbf5	-0.007533545
144	0xbb7c8052	-0.0038528633
145	0xbc787507	-0.01516462
146	0xbd4f8e46	-0.050672792
147	0xbbb5479a	-0.005532217
148	0x3d5ab141	0.0533917
149	0xbd50a418	-0.050937742
150	0xbc391462	-0.011296364
151	0xbe186b19	-0.14884605
152	0xbcadb707	-0.021205438
153	0xbebd602f	-0.36987445
154	0x3eccd828	0.40008664
155	0x3d3c35c8	0.045949727
156	0x3ded7666	0.11594848
157	0xbdabb8a9	-0.083848305
158	0x3e160c96	0.14653239
159	0x3e010500	0.12599564
160	0xbdc09151	-0.09402717
161	0xbd1536fa	-0.036429383
162	0xbd8cfd6f	-0.06884276
163	0xbd63b5df	-0.055593368
164	0x3bcd0309	0.0062564653
165	0xbe639bd8	-0.22227418
166	0xbd6fea18	-0.05857286
167	0x3c00a879	0.007852667
168	0xbddec935	-0.10878221
169	0x3df015c7	0.11722904
170	0xbd8fab20	-0.070150614
171	0x3dcac7a1	0.099013574
172	0x3dc1bd98	0.0945999
173	0xbd96d87a	-0.073655084
174	0x3d45e53e	0.048314326
175	0x3dd090f2	0.10183896
176	0xbcd34634	-0.025790311
177	0x3d544be5	0.05183019
178	0xbe38d457	-0.18049751
179	0xbd9c186e	-0.07621847
180	0x3e28ecf5	0.16496642
181	0x3d054149	0.032532964
182	0xbd8b9c72	-0.06816949
183	0x3dff9678	0.124798715
184	0xbd9a8fae	-0.07546936
185	0xbd10f96c	-0.035394117
186	0x3e2b1d28	0.16710341
187	0x3db4799b	0.08812257
188	0x3e94b13c	0.2904147
189	0xbd41e51b	-0.047337633
190	0x3e6720e9	0.22571148
191	0xbc647a27	-0.013945139
192	0x3e4425d5	0.19155057
193	0x3c8f0da9	0.017462568
194	0xbdbbced6	-0.0917031
195	0x3d00c5bc	0.031438574
196	0x3e920397	0.28518364
197	0x3cba638a	0.022752542
198	0x3cfe12f2	0.031014893
199	0xbd3d397f	-0.04619741
200	0x3e1df26d	0.1542451
201	0xbd307603	-0.043081295
202	0x39b8dbb2	0.000352589
203	0x3f1bb275	0.6081918
204	0xbd26d938	-0.0407345
205	0x3d1fcec4	0.039015546
206	0xbe8113a3	-0.25210294
207	0x3beba8f6	0.0071917726
208	0x3e2ee6fa	0.17080298
209	0xbd4d80e1	-0.050171737
210	0x3db8611b	0.090028964
211	0xba1f5bb4	-0.00060790335
212	0x3d9aa43b	0.07550856
213	0x3ec9e66e	0.39433616
214	0xbc37f890	-0.0112286955
215	0xbc189fb7	-0.009315423
216	0xbc31434d	-0.010819268
217	0xbe3560f2	-0.17712763
218	0x3d7786e8	0.06043139
219	0xbd7600b1	-0.060059253
220	0x3c099493	0.008397239
221	0xbda9d334	-0.08292237
222	0x3d9a2638	0.07526821
223	0xbcf3ced2	-0.029761706
224	0x3e231588	0.15926182
225	0x3d90cf31	0.070707686
226	0x3c9ecc38	0.019384488
227	0xbd7ddccd	-0.06197815
228	0x3e3c33f9	0.18379201
229	0x3ef95adf	0.48702142
230	0xbcfe4aad	-0.031041468
231	0x3d1ff6c9	0.039053712
232	0x3e92ebc6	0.28695506
233	0xbe3427e7	-0.17593347
234	0xbd918488	-0.071053565
235	0x3d85b3f4	0.06528464
236	0xbc9b8bf9	-0.018987643
237	0x3d941696	0.072308704
238	0x3c9ab92c	0.018887125
239	0x3c66ed0a	0.0140946
240	0x3e0da881	0.1383381
241	0xbddc4de2	-0.107570425
242	0xbcd1e239	-0.025620567
243	0x3c1e6838	0.009668402
244	0x3bad13bd	0.005281894
245	0xbd6eca7f	-0.058298584
246	0xbd80e160	-0.06292987
247	0x3e497289	0.19672598
248	0x3ee3deab	0.4450582
249	0xbd04f082	-0.03245593
250	0x3c68fd27	0.0142205125
251	0xbc66e5ff	-0.014092921
252	0xbd77ba96	-0.060480677
253	0xbd996e3a	-0.07491727
254	0xbcf1467d	-0.029452557
255	0x3da7e3d3	0.08197751

features_extractor.encoder.fc.bias f4 [64]
0	0x3da36f1d	0.079801776
1	0x3d95c14e	0.073122606
2	0x3a3b85a5	0.00071533985
3	0x3d1df0c3	0.038559686
4	0x3e3ce3eb	0.18446319
5	0x3dce6c95	0.10079304
6	0xbe57c23e	-0.21070191
7	0xbcfa7ad3	-0.030576145
8	0xbe3788e0	-0.17923307
9	0xbe214e11	-0.15752436
10	0xbda119b2	-0.07866229
11	0xbd97dfca	-0.07415731
12	0x3dbcafb5	0.09213201
13	0x3db17038	0.08663982
14	0x3d03b550	0.032155335
15	0x3eb04888	0.34430337
16	0x3e0ed1b5	0.13947184
17	0x3da80511	0.08204091
18	0xbdfaa71c	-0.12238905
19	0x3cdbccaa	0.02683099
20	0xbe27f36d	-0.16401453
21	0xbca3048f	-0.019899635
22	0x3da96b4c	0.082724184
23	0xbc961392	-0.018319879
24	0x3ddc67ed	0.1076201
25	0xbd7c70cb	-0.061631005
26	0x3d68750c	0.05675225
27	0xbd3e685e	-0.04648625
28	0xbcb76720	-0.022388041
29	0xbdb82778	-0.08991903
30	0x3d8e14de	0.06937574
31	0x3d9c1a48	0.076222
32	0xbdbc752c	-0.09202036
33	0xbe5f7041	-0.21820165
34	0x3ea3fb54	0.32027686
35	0x3d8577bb	0.065169774
36	0x3bd73d9f	0.006568625
37	0xbdc94c54	-0.098290116
38	0xbb153475	-0.0022766863
39	0x3d86695f	0.06563067
40	0xbcd638bb	-0.026150098
41	0xbcd0bb28	-0.025479868
42	0x3ce50222	0.027955119
43	0xbdccdf78	-0.10003561
44	0xbe1e849e	-0.15480277
45	0xbce77955	-0.028256098
46	0x3cbcecee	0.023062196
47	0x3e2370b2	0.15960959
48	0x3e8dd52e	0.27701706
49	0x3c46783d	0.012113628
50	0xbe2d5bf6	-0.16929612
51	0x3d62c4bb	0.055363398
52	0xbdd91130	-0.105989814
53	0x3dc5b530	0.096536994
54	0xbe13b86d	-0.14425822
55	0xbe00e504	-0.12587363
56	0x3d64a092	0.055817194
57	0xbd9fbc0b	-0.07799538
58	0x3e57bdb8	0.21068466
59	0xbe8cc8bc	-0.27496898
60	0xbbbb7fa7	-0.0057220045
61	0x3e18f487	0.1493703
62	0x3b47a880	0.0030465424
63	0xbd87913a	-0.06619497
