model/actor_critic_Image_scratch_v0.pth (torch, 461146 bytes, 24 tensors)

log_std f4 [2]
000000 c9 43 42 be 36 f4 ed 3e
       -0.1897117 0.4647538

features_extractor.encoder.conv.0.weight f4 [4, 1, 3, 3]
000000 a5 77 92 3e d7 f3 e1 3e 4f 91 34 3e a1 63 67 3e
       0.28606907 0.44131348 0.17633556 0.22596599
000010 3e b2 c4 3e 17 7b fc 3e e4 57 40 3d c3 ef ac 3e
       0.38417238 0.4931266 0.04695882 0.33776674
000020 43 86 96 bc ed 04 dc 3e 0c 3e b5 3d f1 0a d3 3e
       -0.018374568 0.42972508 0.08849725 0.41219285
000030 70 48 b0 bd b3 ee 3c 3e e4 0d 4d 3e ec 12 fb 3e
       -0.08607566 0.18450432 0.2002483 0.49037874
000040 61 8c e4 3e 95 e8 d6 bb a8 5a 4a be 68 db bc be
       0.4463835 -0.0065584877 -0.19761145 -0.36886144
000050 b6 fe 53 3e 0b e8 46 bd 00 df 96 3e 53 d3 0b 3e
       0.20702633 -0.048561137 0.2946701 0.13654833
000060 fa 17 7a bc f1 c6 4f 3e 83 fe 2f be fa fe b3 3d
       -0.0152645055 0.20290734 -0.17186932 0.08788867
000070 1e d1 3a 3e 8d 9f 2c bc 2c d5 cc 3e 85 11 d7 bb
       0.18243834 -0.010536087 0.40006387 -0.006563368
000080 a2 a6 a8 3e 45 da 0b 3f c1 ca dd 3e ef 88 ca bd
       0.3293963 0.5462993 0.4331875 -0.09889399

features_extractor.encoder.conv.0.bias f4 [4]
000000 3d 16 e4 bd fb 74 8b 3d 6c 58 5c bb f8 8d 4d 3e
       -0.11137054 0.06809422 -0.003362204 0.20073688

features_extractor.encoder.conv.2.weight f4 [8, 4, 3, 3]
000000 46 35 f7 bd 9f a6 8c bc 00 fb ce be ad b6 05 be
       -0.12070708 -0.017169295 -0.40425873 -0.13057967
000010 b3 c5 77 be a4 86 bb bb ac a6 1b be b5 93 8b be
       -0.2419651 -0.0057228375 -0.15200299 -0.2726113
000020 28 ae 95 be d8 87 de 38 14 2e 7a bd 34 07 0d 3d
       -0.29234433 0.00010611088 -0.0610791 0.034430698
000030 e2 46 49 3b 20 4a 1d be a5 51 26 be 87 3a 51 3d
       0.0030712415 -0.15360308 -0.16242082 0.051081207
000040 0f 60 96 3c c5 3f cd 3d 44 ab 50 3c 36 98 87 bd
       0.018356351 0.10021929 0.012736145 -0.06620829
000050 57 ac bb bd 19 b3 a2 bd 14 78 c2 3d 4c 41 8a 3e
       -0.091637306 -0.079443164 0.09495559 0.27002943
000060 c8 3e e0 3d 66 ac 44 be 32 5c 73 3d 2e 32 43 bd
       0.109494746 -0.1920639 0.059414096 -0.047655277
000070 b8 ce f4 3a 5b 3a 28 bd d3 12 f8 3d 4d c9 1f 3e
       0.001867733 -0.041071277 0.121129654 0.15604134
000080 a6 02 a2 3c ec 76 bc bd 59 9e 39 be a3 f6 8b bd
       0.019776653 -0.0920237 -0.18126811 -0.068341516
000090 cb 35 16 3e 26 55 b8 3c 66 7c bf 3c a9 3f 02 3e
       0.14668958 0.02250154 0.023374747 0.12719597
0000a0 d8 53 2a bc c0 f0 7d 3d 67 7a e9 bc 14 53 a3 bd
       -0.0103959665 0.061997175 -0.028500749 -0.0797483
0000b0 cf d6 33 bd f7 6a 9a 3c 1b 9d ba bd 79 a2 f2 bd
       -0.04390603 0.018849833 -0.09111997 -0.118473954
0000c0 7c f3 b1 bd 6f 9a ee bd 65 1f f4 bd eb da e8 bd
       -0.08689019 -0.116505496 -0.119200505 -0.1136988
0000d0 b2 da 0c bd 50 ed cf 3c da e5 67 bd 8e 96 9c 3c
       -0.03438825 0.025381714 -0.056615688 0.019114759
0000e0 73 a3 b2 bd ca 7c d7 3d 49 47 24 be 33 6c ff bd
       -0.08722582 0.105218485 -0.16042818 -0.12471809
0000f0 14 33 12 be 97 80 f8 b8 2c 28 f5 bc 1f 7c ce bd
       -0.14277297 -0.00011849513 -0.029926382 -0.10082268
000100 39 2a fa bd a0 70 47 bd 79 de 2f be a9 32 5c bc
       -0.122150846 -0.048691392 -0.1717471 -0.013439813
000110 be 71 63 3d 18 60 ec 3d 64 eb 25 3d 29 a0 b5 3d
       0.055528395 0.11541766 0.04050769 0.08868439
000120 be 97 2b 3e 48 a0 99 3d 45 41 2b 3c 55 3c 2f bd
       0.16757104 0.07501274 0.010452573 -0.042782146
000130 92 09 3c be 55 89 92 bd c9 e7 58 bd f8 81 be bd
       -0.18363026 -0.071551 -0.052955423 -0.09302133
000140 21 1e e1 bb be 43 9c 3d 10 88 25 3e 2a 68 2c 3e
       -0.0068700467 0.07630108 0.16165185 0.1683661
000150 01 6e 8d bc f3 36 ea bd 02 62 10 3e f6 91 48 be
       -0.017264368 -0.11436262 0.14099887 -0.1958693
000160 e6 c8 c8 bd 8f 9d bc 3d 7f 37 50 3b b5 23 b9 bc
       -0.09803943 0.092097394 0.003177136 -0.022600034
000170 8f 8d cc 3d ac 00 46 3d 64 b8 de 3d fe 36 06 3e
       0.09987938 0.048340484 0.108750135 0.13106915
000180 00 08 97 3d bf a8 bc 3d 75 cf f8 bd 65 8d 14 3c
       0.07374573 0.09211873 -0.12148944 0.009066914
000190 d8 87 0a 3c 08 1c b5 bc f0 3d c4 3d 43 b0 9e 3b
       0.008455239 -0.022108093 0.09582126 0.0048427894
0001a0 bd 16 21 be 4d b8 b7 bd f4 5a 39 be f6 e9 5e bd
       -0.1573133 -0.089706995 -0.18101102 -0.05442234
0001b0 03 7c 84 bb 7a 4c 79 bd 31 5f d2 3b bd fc 84 bd
       -0.0040431037 -0.06086395 0.006420039 -0.064935185
0001c0 d5 70 05 bd 36 2e 4c 3e 4a 5b 7b be f7 a7 da bd
       -0.032578308 0.19939503 -0.24546543 -0.10676568
0001d0 75 c2 d0 bd 51 cc 0f be 2d d4 d4 bd 6f c3 1c 3e
       -0.1019334 -0.14042784 -0.10392032 0.15308927
0001e0 04 fd af bc c0 b3 1f 3d 71 01 86 bb 87 5f 85 3d
       -0.021482952 0.038989782 -0.0040895273 0.06512361
0001f0 d9 89 ac bd ab 05 ab bd 8f 5e 09 be fb f5 0c 3e
       -0.0842473 -0.083506905 -0.13414977 0.13765709
000200 ee 9f 97 3e 76 9e 4a be fa a5 3e 3e 54 d1 15 3e
       0.29614204 -0.1978701 0.18618003 0.14630634
000210 9b d5 0f be 15 4d 01 be 6e 97 b5 bd ef b1 fa bd
       -0.14046328 -0.1262706 -0.088667735 -0.122409694
000220 ad 1e 55 be 9d 38 39 bc 54 72 08 be 93 39 95 3d
       -0.20812483 -0.011305002 -0.13324863 0.07286372
000230 47 83 09 3e cf 96 04 be 65 a3 ca bc 6b 3b 21 be
       0.13428985 -0.12948154 -0.024736116 -0.15745322
000240 dc 03 18 3d 11 dd 43 3e b1 61 04 3e 5b 9c 93 3d
       0.037113056 0.19127299 0.12927891 0.07207557
000250 b3 8d 03 3e 79 30 5e 3e f5 5c 87 3e 91 87 ea 3c
       0.12847023 0.21698178 0.26438108 0.028629096
000260 2f dc 1e 3d 41 2a 00 3e a1 0a 65 3e bf 00 b0 3d
       0.038784202 0.12516119 0.22367336 0.08593892
000270 da 6f 5d 3e 94 83 ee 3d 2a d9 2c bd f6 61 67 3e
       0.21624699 0.1164619 -0.04219929 0.22595963
000280 d0 e6 43 bd 48 a5 2c 3d e8 5a ec bd f3 37 e5 bc
       -0.04782754 0.042149812 -0.115407765 -0.02798078
000290 e8 f5 ea bc fd e6 0d 3e 51 77 88 3d 3b 63 f5 3d
       -0.02868171 0.13857646 0.06663383 0.11981817
0002a0 83 f9 82 3c ef 5a ee 3c b9 c7 3e bd e4 01 8a bd
       0.015988117 0.029096095 -0.04657719 -0.06738642
0002b0 ba f1 02 3e 55 6c 0b be 54 f2 92 bd 72 a1 38 3e
       0.12787524 -0.13615544 -0.07175127 0.18030336
0002c0 df ac 24 39 20 82 50 3e 1b 61 6c bd bb 84 d7 3c
       0.00015704658 0.20362139 -0.057709794 0.026308408
0002d0 bb fe ba bc 89 28 4f be 38 26 68 be 84 a8 1d be
       -0.022826543 -0.20230307 -0.2267083 -0.15396315
0002e0 51 c6 e2 bb 70 e1 b3 3d 7b 6a 21 3d af f4 1f 3e
       -0.006920614 0.08783233 0.03940819 0.15620683
0002f0 2c 9a e5 3d ba 4d 09 be d5 87 b6 bc be ed e2 bd
       0.112110466 -0.13408557 -0.022281567 -0.11080502
000300 18 01 43 bd 97 f5 78 bd 4b 60 a5 bd 68 0a 29 3e
       -0.047608465 -0.060781088 -0.08075007 0.16507876
000310 36 6f 81 3c 2f a7 25 3d 77 a9 04 bb e2 ce 13 be
       0.0158001 0.04044264 -0.002024261 -0.14434388
000320 37 93 64 3c d3 04 69 3e de 23 70 3d af 4b 38 3e
       0.013951114 0.22755747 0.058627956 0.17997621
000330 27 cb 79 3d c6 2f 35 3e e1 30 42 3e 58 73 6e 3d
       0.060984757 0.17694005 0.18963958 0.05821547
000340 f9 e8 30 be d8 c3 6b ba 6c eb 3b 3d af 99 3b 3e
       -0.17276372 -0.00089937216 0.045878813 0.18320344
000350 ac 12 fd bd 6c cb 80 bd 4f da 2a 3e 28 fb 31 3e
       -0.12357077 -0.062888 0.1668484 0.17380965
000360 0e fc 52 3d e5 62 20 be ab 04 9f be b2 26 24 be
       0.05150991 -0.15662725 -0.3105825 -0.16030386
000370 6a af 5f be ac c1 0c bc c5 23 65 be 2e 46 1b 3e
       -0.21844259 -0.008591097 -0.22376926 0.1516349
000380 10 71 73 3e 03 cd 28 be 96 a7 6f bd 10 ce 2b be
       0.23773599 -0.16484456 -0.05850943 -0.16777825
000390 f6 d7 7e be 31 b5 c2 3c 2a 8b 2b 3e 1e 53 3d 3d
       -0.2488707 0.02376804 0.16752306 0.046221845
0003a0 33 72 c0 3d bf a0 70 3e 24 93 b9 bd dc 03 1c bd
       0.09396782 0.2349882 -0.09061268 -0.038089618
0003b0 2e d9 b1 bc c3 ef 8b 3c 2d d6 8b 3e 02 55 ee 3d
       -0.021710005 0.0170821 0.2731184 0.11637308
0003c0 a5 4f 0e 3e 3f a4 f5 3d a4 37 86 3e c3 8d cf bd
       0.1389757 0.11994218 0.26214325 -0.10134461
0003d0 58 25 bd bd 09 4e b6 bd 6d 56 28 be 31 d8 2a be
       -0.092356384 -0.08901603 -0.16439219 -0.16684033
0003e0 bd 8d 34 bc 02 e7 30 3d ce 75 d7 bd d2 e0 08 bd
       -0.011020121 0.043189056 -0.10520516 -0.03341753
0003f0 19 ad de 3d e5 a5 96 bd cc e5 95 be e8 14 61 3e
       0.108728595 -0.073558606 -0.29276884 0.21980631

features_extractor.encoder.conv.2.bias f4 [8]
000000 bc 71 2e 3e b8 af 33 be be d2 01 3e 4d 1a 81 3d
       0.17035574 -0.175475 0.12678048 0.063038446
000010 eb c5 01 be 85 f1 4a bd 16 52 5b bd 5b 29 42 bd
       -0.12673156 -0.049546737 -0.05354508 -0.04740272

features_extractor.encoder.conv.4.weight f4 [16, 8, 3, 3]
000000 af 04 ec bc 2f 19 4d bd be 72 24 be 0d 6a c6 bd
       -0.028810827 -0.050072845 -0.16059396 -0.09688196
000010 16 4f 9e 3c 47 7e e2 3d 47 cb b0 bd 13 60 8f 3d
       0.01932482 0.11059242 -0.08632522 0.070007466
000020 92 c8 be bd f6 37 63 3d 05 48 ee 3d 7f bf af bd
       -0.093155995 0.05547329 0.116348304 -0.08581447
000030 5a 5e 08 3e 09 19 31 bd 95 5e bd bc 45 23 41 bd
       0.13317242 -0.043236766 -0.02311639 -0.047152776
000040 16 f7 9f bc 81 4d e0 3d 48 ec cc bd 6a 9a ac bd
       -0.019527 0.10952283 -0.100060046 -0.0842789
000050 80 39 f8 bd b6 f6 3f bd e5 01 11 3e 9a bb 28 3c
       -0.12120342 -0.04686614 0.14160879 0.010298634
000060 a9 b8 fd bd 81 2d 59 3c dd 9c 8c bd 2e 7c 58 bb
       -0.12388737 0.013255478 -0.06865857 -0.0033033001
000070 e6 85 bc bd 18 55 4e be b1 e2 15 3e f6 23 aa bd
       -0.092052266 -0.20149648 0.14637257 -0.0830764
000080 d8 ad 1c bd f6 41 20 3d 1a 69 ae bc 67 d0 67 be
       -0.038251728 0.039125405 -0.02129035 -0.22638093
000090 19 79 a9 bd 83 f1 d8 3d d1 c3 ab 3d 73 e0 cd bd
       -0.08275051 0.1059294 0.083869584 -0.10052576
0000a0 9c 1c 97 bc 3a de 4f bd f1 e0 30 3e 10 53 3d 3d
       -0.01844626 -0.05074904 0.17273308 0.046221793
0000b0 86 8a f4 bd 4d 2a bb 3c 52 ed 72 bd 40 55 71 3c
       -0.11940484 0.022847319 -0.059308358 0.014729798
0000c0 2f 68 7a 3b 1a 1f 08 be 43 49 73 bd 04 f1 1b 3e
       0.003820907 -0.13293114 -0.05939604 0.15228659
0000d0 3f 14 fc 3d 62 8d 10 be 56 44 98 bd 9f 17 a6 be
       0.12308549 -0.14116433 -0.07434909 -0.32439896
0000e0 24 66 87 bd 0b 80 47 bd ce b9 2d be 8d cb aa bd
       -0.06611279 -0.048706096 -0.1696541 -0.083396055
0000f0 6c 4e ba 3c 55 ed 55 3e c3 1a 72 3d 89 7f d7 3d
       0.022742473 0.20891316 0.059107553 0.10522372
000100 ab 86 82 3d fb 6b 96 3d 2a 6a b1 3c 02 a0 b4 bd
       0.06373342 0.073448144 0.021657068 -0.088195816
000110 60 45 67 3e 4d 13 91 bd e2 af 3f 3e 0f e3 34 be
       0.22585058 -0.070837595 0.18719438 -0.17664741
000120 77 7e 86 3d a4 91 b9 bd 0a bd 11 be fe e1 88 bc
       0.0656709 -0.09060982 -0.14232269 -0.016709324
000130 35 b7 5f bd a3 74 80 bd 43 85 c7 3d 6d fc a0 3d
       -0.05461808 -0.06272247 0.097422145 0.078606464
000140 a5 57 48 bd f1 7f ae bb ec c1 3b bd 09 5d c0 3d
       -0.04891171 -0.0053253104 -0.045839235 0.09392745
000150 3d a3 03 3e 15 59 9f 3c db a0 e1 3d b9 21 b4 bd
       0.12855239 0.019451657 0.11017009 -0.087954946
000160 e4 41 b0 bd 11 cb c5 3b 4d 35 53 3d d2 f7 8f 3c
       -0.08606318 0.0060361703 0.051564503 0.017574225
000170 0d 55 ce 3c f0 8a 4b bb 8d 65 d5 3d a7 98 ab bc
       0.02518704 -0.0031058155 0.1041976 -0.020946814
000180 45 2d 2f ba 52 31 c1 bd 0e f4 9d 3d bc 32 62 bd
       -0.0006682466 -0.09433235 0.07712565 -0.055224165
000190 c0 b4 64 3d 6c fb 5e 3e 63 ef bc bc 70 3a c4 bd
       0.05583644 0.21775597 -0.023063367 -0.095814586
0001a0 2c a8 44 3d 1a 39 df bc b4 29 f0 bd 2e c2 5b 3e
       0.048011944 -0.027248908 -0.11726704 0.21460792
0001b0 77 18 33 bd 8c 66 ad 3c 02 e6 ac 3b 19 24 43 be
       -0.043724503 0.021167062 0.0052764425 -0.19056739
0001c0 c3 6e c7 bd 77 56 e3 bd 52 f2 d7 3c 14 45 72 be
       -0.09737923 -0.11100476 0.026360665 -0.23659164
0001d0 4a 7d 20 3d a3 97 f6 bd 22 2a d7 3b 9a 1e 8e 3d
       0.039181985 -0.12040641 0.006566302 0.069394305
0001e0 8a 3c 39 be 8d 56 53 bd 2f 40 17 3e 30 ab d2 3d
       -0.180895 -0.051596213 0.14770578 0.10286558
0001f0 88 a5 03 be e8 f9 04 3c 35 1c ea 3d 76 f7 82 3d
       -0.12856114 0.008116223 0.11431161 0.06394856
000200 42 51 5a 3b 3b 12 8e bd 50 6f b3 3d 04 67 19 3e
       0.0033312594 -0.06937071 0.087614655 0.14980704
000210 74 57 e8 3d 11 db 1d 3e 55 eb 10 be 8d cc 83 3d
       0.11344805 0.15415598 -0.14152272 0.06435499
000220 43 99 82 3e 5c 52 75 3e 08 68 77 be f0 57 7a 3e
       0.25507554 0.23957199 -0.24160779 0.24447608
000230 81 e7 b8 3c 1d 05 88 3d 77 14 49 3c 4f 12 29 bd
       0.022571327 0.066416 0.012272946 -0.041277226
000240 4a af 42 bd 36 7e 1e be ea 3f c9 bd b8 16 04 3e
       -0.04753045 -0.15477833 -0.09826644 0.12899292
000250 0a 74 7d bc 3e 84 78 3c a4 74 79 bc e1 8d c1 3d
       -0.01546956 0.015168248 -0.015225563 0.094508894
000260 a3 c5 13 bd 06 cf 90 bb 39 d6 8b bd ae 10 8b bc
       -0.036077153 -0.0044192104 -0.06827969 -0.016975727
000270 d9 49 31 3d 10 0b 22 3d 4d 10 e1 3c 6d 54 a2 3d
       0.043283317 0.03956133 0.027473593 0.07926259
000280 9d 8e ab 3c 22 1a c9 bd b9 91 5a bc c0 9e 67 3d
       0.020942027 -0.098194376 -0.013340407 0.05654788
000290 e9 bc d3 3c 32 2d c2 3d 73 86 93 3d ab ff 11 3e
       0.025846915 0.094812766 0.072033785 0.14257686
0002a0 8e 02 70 bc 6f 20 c3 3d 86 11 e9 3d 4b c3 87 bd
       -0.014649047 0.095276706 0.113802955 -0.06629046
0002b0 9f d1 af 3d 91 c3 16 3d a8 6c 38 3c 25 0d 16 3e
       0.08584904 0.0368076 0.011256374 0.14653452
0002c0 60 17 a7 3d 9e 20 1b 3e 48 84 02 3e d9 f0 a0 bc
       0.08158755 0.15149161 0.12745774 -0.019646095
0002d0 95 cc 6a be e1 5a 0e be 34 2e 1c 3e cb d9 78 be
       -0.22929604 -0.13901855 0.15252 -0.24301831
0002e0 21 63 2b 3d 76 a5 09 be af 36 7a bd a3 4b 12 3d
       0.041842584 -0.13442025 -0.061087307 0.035716664
0002f0 73 13 23 3d 90 4a 81 bd cc 45 30 3e 05 2e e2 3c
       0.03981347 -0.0631305 0.17214125 0.027609834
000300 8b 52 44 bd 2d 67 13 3e f0 b5 d8 3c ff c3 24 3e
       -0.04793028 0.14394827 0.026453942 0.16090392
000310 7a 50 93 3d dd 4a cb bd b5 40 d9 3c 0f 43 49 3e
       0.07193084 -0.099263884 0.026520113 0.19654487
000320 54 66 e4 3d 6f a5 ce 3d f8 d6 96 bb d3 f4 49 3e
       0.1115233 0.10090148 -0.004603263 0.197223
000330 e4 7a 8a 3c 56 8c a2 3d 69 c3 10 bd dd 05 35 be
       0.016904302 0.07936923 -0.035342608 -0.17678018
000340 d1 13 96 3d 83 a4 5f 3e 83 b3 55 3e a8 45 01 3e
       0.073279984 0.218401 0.2086926 0.12624228
000350 91 e5 98 3e d2 61 de 3d f6 d1 05 3e b8 60 1a 3e
       0.29862645 0.108585015 0.13068375 0.15075958
000360 c6 06 d5 bd 0c c2 18 be f1 04 05 bb 8d cb ae 3d
       -0.104016826 -0.14917773 -0.0020297135 0.08534918
000370 bd e1 80 3d 82 c6 04 bd be 6c e9 bd b4 98 8e bd
       0.06293056 -0.032415874 -0.11397694 -0.069627196
000380 27 18 0f 3d 3b ce d7 3d ae a1 78 bd 04 1e 86 3b
       0.034935143 0.10537382 -0.060701065 0.0040929336
000390 87 0b d4 bb b9 90 b0 bd a6 11 de 3d e5 59 1b bc
       -0.0064711007 -0.08621354 0.1084321 -0.009481882
0003a0 08 cc af bd 15 eb 89 3c 3d c3 72 3d 3c a5 fc bd
       -0.08583838 0.016835729 0.059268225 -0.123362035
0003b0 a2 20 32 bc 59 3a a7 bc 6f 9f 98 3b b2 8b cb 3c
       -0.010872038 -0.020413565 0.004657678 0.024846885
0003c0 e4 00 ee 3d 0a 77 57 3d 59 02 e9 3c 05 17 d9 3c
       0.116212636 0.05260376 0.028443502 0.026500234
0003d0 2f 33 1c be 3a e0 4f be 30 91 3d bb 86 69 aa 3d
       -0.152539 -0.2030038 -0.002892565 0.08320908
0003e0 05 95 cf 3d b3 a8 d2 3c 11 9d 99 3d 3d 1a 63 3c
       0.10135845 0.025715208 0.07500661 0.013861236
0003f0 e6 a9 4c be f5 74 9b 3d 74 46 41 bd 41 9a 00 bc
       -0.19986686 0.07590667 -0.04718633 -0.007849277

features_extractor.encoder.conv.4.bias f4 [16]
000000 bb 1a 8f 3d d0 31 d0 3c 5c d3 9b bc 5c b6 72 bb
       0.0698752 0.025414377 -0.019021682 -0.0037034964
000010 99 4d 88 bd e6 b9 a2 3d 05 bd a1 b9 e6 d7 0d be
       -0.066554256 0.079456136 -0.00030849144 -0.1385189
000020 65 8f 37 bd ac b3 99 3d 14 d2 36 bd 0c 6b 21 3d
       -0.044814486 0.07504973 -0.04463394 0.03940873
000030 39 8b c6 bb da d7 16 3b 4b 8f 0a be e6 f1 f4 bd
       -0.006059077 0.002301684 -0.13531224 -0.11960201

features_extractor.encoder.conv.6.weight f4 [32, 16, 3, 3]
000000 f5 07 0a bc b1 7e e0 bc d6 a3 65 3e 98 72 ca 3d
       -0.008424749 -0.027404161 0.2242578 0.09885138
000010 e0 30 6e 3c e3 57 f8 ba 9c ff 2e bb d6 29 86 bb
       0.01453802 -0.0018947091 -0.0026702648 -0.0040943427
000020 d5 4c e1 bd d6 d5 9a bd ca 62 51 3d da ed 47 3e
       -0.11000983 -0.07560317 0.051119603 0.19524327
000030 01 af 7c 3d 89 97 47 bc b7 eb 97 3c 76 6d 9a bd
       0.061690334 -0.012182125 0.018545015 -0.07540409
000040 e8 64 55 bd 09 78 0b 3d 6d f9 f1 bd 44 05 7f 3d
       -0.052098185 0.03405002 -0.11815152 0.06226088
000050 05 58 53 3e af ab 67 3c 4a 92 d8 3d 26 12 11 3e
       0.20639046 0.014140054 0.105747774 0.1416708
000060 75 2f fa b9 a4 c4 b4 3b 1a d8 a4 bd ba ae 11 3e
       -0.00047719074 0.0055166055 -0.080490306 0.14226809
000070 e4 ff be bd b4 8a 8e 3d 89 ea 84 bd 3b c7 db 3c
       -0.09326151 0.06960049 -0.064900465 0.026828399
000080 c7 64 13 3d 41 41 01 be 8c ad 42 be 70 f2 12 be
       0.03598478 -0.12622549 -0.19011515 -0.14350295
000090 27 f1 be 3c e1 9f 38 be a2 f5 2a 3e 5d 09 b3 3d
       0.02330835 -0.18029739 0.16695264 0.0874202
0000a0 8e 9f 1b 3d 74 b3 2a 3e 58 e5 a9 bd 68 73 bb 3d
       0.03799396 0.16670018 -0.08295697 0.09152871
0000b0 c6 9e 36 bd 0b 48 a2 3c cb 85 8a 3d 2b 16 c5 ba
       -0.044585012 0.019809743 0.067638 -0.0015036514
0000c0 3a 4e f8 bc a0 ce 02 3d 54 ec b5 3d 27 1b 39 3d
       -0.030310739 0.031935334 0.08882967 0.04519191
0000d0 48 e3 e1 3d cd 74 cf bd a0 b8 66 bc bd 3b 05 3d
       0.110296786 -0.101297 -0.014082104 0.032527674
0000e0 cd 3d a1 3d ff 80 8a bc 1e c3 b8 3c 5f 18 1d 3e
       0.07873116 -0.016907213 0.022553977 0.15341328
0000f0 31 c0 4c bd 43 d0 26 3d df 64 c8 bd 09 46 9b be
       -0.049987976 0.040725958 -0.09784865 -0.3032687
000100 51 9f 6a be ea 01 09 be da 33 94 bd 06 c7 4e be
       -0.22912337 -0.13379636 -0.072364524 -0.20193109
000110 0a 10 a7 be 37 11 f2 3d 22 6c 4b be f7 37 59 be
       -0.32629424 0.1181969 -0.19865468 -0.21212755
000120 93 cd bc bd 76 f9 db 3d ef e1 2e 3e 54 a9 f4 3d
       -0.09218898 0.1074094 0.17078374 0.11946359
000130 dd 38 10 3e 95 1d 77 3e 81 8e 24 bd ab 50 bf bd
       0.14084192 0.24132378 -0.040174965 -0.09341558
000140 c0 03 cc bb 16 ba 69 bd 28 54 e2 bc 40 b4 06 be
       -0.006226033 -0.05706223 -0.02762802 -0.13154697
000150 4d 26 46 3d f4 89 52 3d 11 7e c5 bd ab 9f 6e bc
       0.04837637 0.051401094 -0.09643186 -0.014564435
000160 07 fb b6 bc 3e 38 66 bd df 1c 7f 3e 99 92 30 3e
       -0.022336496 -0.05620598 0.24913357 0.17243423
000170 8d 4c 3d 3e d6 c9 4d be f9 7e 2e 3d e8 71 d4 3d
       0.18486233 -0.20096526 0.04260156 0.103732884
000180 24 82 47 bb 58 0d 50 bd d3 8c a0 bd 31 c0 cf 3c
       -0.003044256 -0.050793976 -0.0783936 0.025360199
000190 ac f7 1c bd 1e c8 3a bc d2 01 89 bd 10 85 9f 3d
       -0.038322136 -0.011400251 -0.066898 0.077890515
0001a0 ff 12 ad 3d bc 8b c9 bd a4 f0 06 be 46 f4 29 3e
       0.08450889 -0.09841105 -0.13177735 0.16597089
0001b0 19 a8 b3 3d 4a 4e 14 3e 43 e5 94 3d 41 93 b9 3c
       0.087722965 0.1448299 0.07270291 0.022653224
0001c0 1d 76 35 3e 4c b9 af bd f6 98 c2 bd f4 90 12 be
       0.17720838 -0.085802644 -0.09501831 -0.14313108
0001d0 c4 88 32 be f7 43 22 3e d7 0c 18 3d d5 0b df 3d
       -0.17434984 0.15846239 0.03712162 0.10890929
0001e0 5a 30 c8 bd 52 40 44 3d 74 52 3b 3e 4b 0c fe bd
       -0.09774847 0.047912903 0.18293172 -0.124046884
0001f0 24 f1 e0 bb db ea ee 3c ee a7 1e be 5f d7 61 3c
       -0.0068646837 0.029164722 -0.15493748 0.013784259
000200 6e 8f 02 3d 52 b5 d3 bd 85 51 ae 3d 0b 2b 03 3e
       0.031875066 -0.103373185 0.08511642 0.12809388
000210 fe 80 d1 bc 8d 27 5f 3d 90 53 6e bd f1 45 a4 3c
       -0.025574204 0.054481078 -0.05818516 0.020052882
000220 ba 5a 11 bd c6 39 3a bd c8 2e 90 bd 4f 88 ed bc
       -0.035486914 -0.045465253 -0.07040173 -0.028995661
000230 a0 19 72 bd 08 e3 9b 3d d9 a7 b6 bd f5 42 6f be
       -0.05910647 0.07611662 -0.08918733 -0.23365386
000240 6f 69 99 bc cc 96 cf 3d 6c c3 32 3e 11 9b 2a bc
       -0.018727032 0.10136184 0.1745736 -0.010412947
000250 72 fb 79 bd 49 14 4b 3d 92 81 06 bd 63 0c 40 3b
       -0.061030813 0.049579892 -0.03283841 0.0029304258
000260 4c 79 85 bd 5d 99 b3 3c cd b8 07 be 2e bc a1 3b
       -0.06517276 0.021923715 -0.1325409 0.004935763
000270 0b 51 47 3c 6d 0c 2e 3d fa 43 e2 bc b1 a1 54 3c
       0.012165318 0.04249232 -0.027620304 0.012978003
000280 c2 a1 85 3d ab 77 10 3e f7 37 8c 3d 48 a3 e4 bc
       0.065249935 0.1410815 0.06846612 -0.02790989
000290 e3 42 65 3d cd 6a 47 bd 96 bf 16 be ea ec d9 bc
       0.05597199 -0.048685838 -0.14721522 -0.026602227
0002a0 18 c3 1b 3d eb a2 fa bd 88 9c de bc 7f 87 ff bc
       0.038027853 -0.122381054 -0.02717425 -0.03119254
0002b0 5c 29 c4 3d 5e e8 42 bd ee 52 2a bc 31 8d 27 3e
       0.09578201 -0.047584884 -0.010395749 0.16362454
0002c0 0e 3f bd 3d f7 eb f9 bd 23 2b 46 bd 9e 2b 26 be
       0.09240542 -0.1220321 -0.048380982 -0.16227576
0002d0 fd c0 b7 bc 22 1a 4e 3d b8 41 3c 3d 01 4b e9 bc
       -0.022430891 0.05031789 0.04596111 -0.028478147
0002e0 1f 62 01 bd 26 aa 52 bd e4 9a d7 bc 1c 8a d6 3d
       -0.031587716 -0.051431797 -0.026318975 0.10475561
0002f0 cb c6 3a 3c 58 31 19 3d ea 6f dd 3d 0c fe ff 3b
       0.011399935 0.037400573 0.108123615 0.007812267
000300 a1 2c ad 3d e4 aa 46 bc 15 24 8c bd 09 53 86 3d
       0.08455778 -0.012125704 -0.068428196 0.065588064
000310 6e 12 d5 bc 9e 1b 72 bc 90 91 a8 3c 72 f5 9c bc
       -0.026009765 -0.014777092 0.020577222 -0.019160006
000320 0f 6d 4e 3e 3e 8b 58 3c 30 67 8f bd 29 47 19 3e
       0.2015879 0.013216792 -0.07002103 0.14968552
000330 ff 28 aa 3d 2f 55 ad bd 5a c5 be bd 46 0d 90 3d
       0.08308601 -0.08463513 -0.093149856 0.07033782
000340 16 c1 6f 3e d4 5f 73 3d a7 01 5d 3d db af 7a 3e
       0.234135 0.05941756 0.053956654 0.24481146
000350 02 5a cb 3d f1 93 1d bd 39 7c 23 be 5e b0 4f 3c
       0.09929277 -0.038471166 -0.15965356 0.012676327
000360 f3 e2 e1 bd e7 7a 3f bd 87 d6 29 3d 4c 09 95 3c
       -0.11029615 -0.04674807 0.041464355 0.01819291
000370 a7 66 02 3d 60 16 37 bc 78 c8 cd bd e0 74 d8 bc
       0.03183618 -0.011174768 -0.10048002 -0.026422918
000380 06 37 5f be ad 3c 97 bc d0 d6 9a 3d e1 a5 1c 3d
       -0.21798334 -0.01846155 0.075605035 0.038244132
000390 97 d0 5a 3d 4f a8 77 3d 07 33 be 3d 45 f2 18 3d
       0.053421583 0.060463246 0.092870764 0.03734042
0003a0 0a ce 17 3d 85 b3 f9 3c 83 e1 28 3e 0f 7a 93 3d
       0.03706173 0.03048111 0.16492276 0.07201015
0003b0 fe 6f dc bd 7c b0 39 be 29 a4 95 bd e8 c5 15 be
       -0.10763548 -0.1813373 -0.07306702 -0.14626276
0003c0 d8 df cd 3c e3 93 32 be 96 bc 0f bc a0 57 e7 bd
       0.025131151 -0.17439227 -0.00877299 -0.1129601
0003d0 a8 c9 fb bd 35 05 d0 bc ea 7d ac 3d 7a 01 2c 3d
       -0.12294322 -0.025393108 0.08422454 0.041993596
0003e0 dd 8b 47 3e 36 77 33 3d 8a b0 4e bc 37 1f 1c 3e
       0.19486947 0.04381486 -0.012615332 0.15246283
0003f0 43 3e 3a 3d 8e 2a 92 bd 4e 8f c6 3c 5c 02 49 3d
       0.045469534 -0.07137023 0.024238255 0.049074516

features_extractor.encoder.conv.6.bias f4 [32]
000000 7f ca bf 3d 61 13 42 bc b7 97 a3 3c 11 68 84 3d
       0.09364795 -0.011845441 0.019969804 0.064651616
000010 54 21 da bb 47 4b e9 bd d5 a5 da 3c d5 21 70 bd
       -0.006656805 -0.11391311 0.026690403 -0.058626015
000020 ac 69 47 bd d6 5d ff 3c bc 1f 8d bd 16 4a 8d bd
       -0.04868476 0.031172674 -0.068908185 -0.068988964
000030 5c b4 cb bd 29 55 b4 3c 98 27 fb 3c 98 61 e7 bc
       -0.0994651 0.022013264 0.030658528 -0.028244779
000040 a8 ae da 3b 46 3b 26 bb 49 c8 9c bd d2 b3 e7 3c
       0.0066736527 -0.002536492 -0.07655389 0.028283987
000050 d9 d6 ae 3d 73 a3 64 3d b1 cb af bc 4e f8 30 3d
       0.08537073 0.05581994 -0.021459432 0.04320555
000060 02 fa dc bc 4d 13 22 3d d5 05 31 bd 95 9d 9f 3d
       -0.026974682 0.039569188 -0.043218452 0.07793728
000070 c0 9f 74 bd aa c9 1b bc b7 e1 10 bb ff 9a e1 3c
       -0.059722662 -0.00950853 -0.0022107193 0.027539728

features_extractor.encoder.conv.8.weight f4 [64, 32, 3, 3]
000000 a6 c6 d5 bc 13 ed 05 be 06 f6 a0 3d f7 66 de bd
       -0.0260957 -0.13078718 0.07859425 -0.10859483
000010 19 1f 0d 3d a3 a7 6f bd cb de 67 bd d2 6f f9 bd
       0.034453485 -0.05850948 -0.056608956 -0.12179531
000020 d0 ed 37 be af 38 a0 3c 2c 70 db bd 7e d3 55 b9
       -0.17961812 0.019558279 -0.107147545 -0.0002039205
000030 1f d8 6c be 12 a0 ae bb f3 20 b0 3c 4e 6e 94 bd
       -0.23129319 -0.0053291405 0.021500086 -0.072476014
000040 9c 78 dd 3d f0 71 16 bd 5e d3 ff ba 6c 14 16 bd
       0.1081402 -0.036729753 -0.0019517948 -0.03664057
000050 1d d0 87 bd db 05 8e bc c7 3f 30 3d 1f 70 00 3e
       -0.06631491 -0.017336776 0.043029573 0.12542771
000060 cd c7 ef bd dc 9f a9 3d c6 9e d7 3d de 81 de bd
       -0.11708031 0.08282444 0.105283305 -0.10864614
000070 13 03 19 3d d0 8c 41 bc f5 f9 1f bd eb f2 91 bd
       0.037356447 -0.0118133575 -0.039056737 -0.07126411
000080 5a 45 3a be 26 9e 71 bd 76 70 dd bd 4f 7a 4a bc
       -0.18190518 -0.058988713 -0.10812466 -0.012358262
000090 34 e1 08 bd e1 b0 ca 3d 87 43 dc 3c f6 aa a9 3d
       -0.033417895 0.09897018 0.026887668 0.08284561
0000a0 36 19 c4 bd ab c7 da bd b6 0c 23 3d fc 77 db 3d
       -0.09575121 -0.10682615 0.039807044 0.107162446
0000b0 7f 36 ce 3c 98 c5 7e bc be 1b 97 3c 5f 3a 3d bd
       0.02517247 -0.01555004 0.018445846 -0.046198245
0000c0 1b bb 8d 3c 4b a1 9b 3d 7a e9 59 3c 81 80 78 bd
       0.017301133 0.075991236 0.013300294 -0.060669426
0000d0 02 2d 2b 3d c7 58 ba bb 07 a4 d5 bb df 57 99 3d
       0.04179097 -0.0056868526 -0.0065197977 0.07487463
0000e0 04 39 82 bd f8 dc e2 3c 56 6e 1e be 0e 62 bb bc
       -0.06358531 0.027693257 -0.15471777 -0.022873905
0000f0 03 96 8b bc fd 04 84 bd 21 68 7a bc 1b 4a 91 bd
       -0.017039305 -0.06446264 -0.015283615 -0.070942126
000100 66 dd 86 3b aa 19 0b 3d c3 34 b2 3d 84 49 dc bd
       0.004115748 0.033960022 0.0870147 -0.107562095
000110 41 63 90 bd e8 3e 2d be 4a 85 dd 3d 74 ff 08 bd
       -0.07050181 -0.16918528 0.108164385 -0.033446744
000120 5f 32 ab 3d 19 45 68 bc d1 78 53 be a9 6c 0d bd
       0.08359217 -0.01417663 -0.20651557 -0.034527455
000130 c7 c9 9d bd 81 44 f9 bd de da f4 bd a4 65 ca 3d
       -0.077045016 -0.12171269 -0.11955808 0.09882668
000140 24 8f 94 bd 5e 92 7f 3c 97 3f a6 bd 06 a4 01 be
       -0.072538644 0.0155988615 -0.081175976 -0.12660226
000150 10 84 6c 3d 2f d4 e4 ba 30 d2 b0 bd 4d d2 5a bc
       0.057743132 -0.0017458255 -0.0863384 -0.013355804
000160 5d f7 74 bc d4 44 b5 bc 13 79 a5 3d fa 35 6e be
       -0.014951554 -0.022127546 0.08079734 -0.23262778
000170 45 4d ed 3d 07 58 3a be 98 a7 55 3d 66 1c 01 be
       0.115870036 -0.18197642 0.052161783 -0.1260849
000180 a0 9c b1 bd 91 b2 11 bd 73 fa 7f 3d 79 1d 87 3d
       -0.08672452 -0.035570685 0.062494706 0.06597418
000190 1c a8 c9 bd 13 2b 55 3d 90 40 6c 3c 99 59 b0 3d
       -0.098465174 0.052043032 0.01441969 0.086108394
0001a0 8a ea cf 3b 68 67 33 bd 1f 21 f1 bc 1f 20 bf 3d
       0.006345098 -0.043799788 -0.029434739 0.093322985
0001b0 f7 d9 00 3e d5 98 8a bb 66 95 2a 3d 07 c1 7e 3d
       0.12583147 -0.004229645 0.041646384 0.062195804
0001c0 30 1e 65 bc d4 b2 8e 38 de c6 4c bd af 73 c3 3d
       -0.013984248 6.804397e-05 -0.049994342 0.09543549
0001d0 68 dc fa 3b 10 94 8b bd 9e 4e ef bd 64 51 4f bd
       0.007655669 -0.0681535 -0.11684917 -0.05061473
0001e0 fd 37 91 bc d8 3b e5 3d e6 aa ae bd c2 7c 79 3d
       -0.017726893 0.11193055 -0.0852869 0.060909994
0001f0 0f 58 c2 bd 71 41 9a 3d c0 06 a1 3d b3 5c ed 3d
       -0.09489452 0.07532013 0.078626156 0.115899466
000200 cc 88 af bb ad 6f 25 3d d0 5f 7f bd d5 44 d3 bc
       -0.0053568836 0.040389705 -0.062347233 -0.025789658
000210 7a 03 f9 bd a0 01 79 3b b2 b4 4c bd a1 5f 91 be
       -0.12158866 0.0037995353 -0.049977012 -0.28393272
000220 ba 3c 4b be c6 45 6a 3d b8 4c 78 3d 61 d4 49 bd
       -0.19847384 0.057195447 0.06062004 -0.049274806
000230 be e7 0c be 65 5a ea bd 52 4d a7 bc e7 32 a0 bc
       -0.13760278 -0.11443023 -0.020422611 -0.019555522
000240 49 ff 98 bc f6 66 d5 3b ae e5 73 bd e6 4d c3 3c
       -0.018676417 0.006512518 -0.05954521 0.023840856
000250 58 5b 04 3d 54 c5 b2 bb 86 98 38 3d 49 fc aa bc
       0.032313675 -0.0054556523 0.045067333 -0.020872252
000260 c0 0c 24 3d a5 1e 0c 3e d0 b6 57 be c9 a7 ec bb
       0.04005122 0.13683565 -0.21065831 -0.00722215
000270 19 eb 3b be 90 d4 cd bc 36 61 51 3d b1 de be bd
       -0.18351401 -0.025125772 0.0511181 -0.09319819
000280 7d fd 0e 3d d2 4c 3a be 05 a5 88 3d af 85 a8 bd
       0.034909714 -0.18193367 0.066721 -0.08228623
000290 67 e3 f0 3d 3f df ef 3b a7 73 d0 3d be ec bc bb
       0.117621236 0.007320314 0.10178309 -0.0057655266
0002a0 c0 24 51 3d 6d 50 c3 bd ef d2 e2 bc dc f5 f3 bc
       0.05106044 -0.095368244 -0.027688472 -0.02978032
0002b0 ea c0 be 3b e2 fb 90 bc 96 a7 6c bd b9 91 3a 3e
       0.005821337 -0.017698232 -0.05777701 0.18219651
0002c0 a9 97 ca bd 84 4f 63 3c 79 3b d3 bd 87 52 a7 3d
       -0.09892208 0.0138739385 -0.10314078 0.08170038
0002d0 c5 20 03 bc c2 b8 be bd eb 0f 81 3d aa 28 89 3c
       -0.008003418 -0.093125835 0.06301864 0.016743023
0002e0 32 10 ed bd 97 11 16 be 8a 38 74 bd fc 38 0a bd
       -0.11575355 -0.14655147 -0.059624232 -0.03374575
0002f0 1a 22 c3 bd 10 09 2f bd b9 1f 7f be 3d bc f0 bd
       -0.09527989 -0.042733252 -0.24914445 -0.117546536
000300 d2 88 09 bb 18 7c 01 be 33 e3 02 be a1 0f 4e 3c
       -0.0020986092 -0.12644994 -0.12781982 0.012576968
000310 88 b7 93 bc 2b 43 26 3d 35 28 21 be f1 3f b1 bd
       -0.01803185 0.0405914 -0.15737994 -0.08654774
000320 aa 5e 02 3e b7 72 0b be ca 69 d2 3d 35 08 56 be
       0.12731424 -0.13617979 0.10274084 -0.20901568
000330 13 c9 8f bd cc 5e 3d bd 3d 71 6f bc a4 3b a1 bc
       -0.07020774 -0.046232983 -0.0146144 -0.01968176
000340 85 0e eb bd aa 2f d9 ba 3a 07 04 bd 54 26 da bc
       -0.11477379 -0.0016569991 -0.032233454 -0.026629604
000350 1f 92 66 bd 27 4e ba bd e7 9f 1e bd 6b 8e 31 bd
       -0.056291696 -0.090969376 -0.038726714 -0.04334871
000360 97 8b 22 3e a2 10 de 3d d0 09 d8 bd 2f 2e 93 bd
       0.15873562 0.10843016 -0.105487466 -0.07186543
000370 dd 4d 10 3d 0b 75 bb bc 9b 04 dd 3d f3 1a ad bd
       0.035230506 -0.022882959 0.10791894 -0.08452406
000380 ca f9 38 be 45 1f 16 bc 2d 74 e6 3d 0a ce bf 3d
       -0.18064037 -0.009162729 0.112526275 0.09365471
000390 3f 26 53 3d 33 90 21 be 18 3e b1 bd e5 72 f6 bc
       0.051550146 -0.15777664 -0.086544216 -0.030084083
0003a0 bf a8 f9 bd 32 89 2a be 92 0b 05 3c 4f 47 d2 bc
       -0.12190389 -0.16653898 0.008120434 -0.025668768
0003b0 c2 0c fa bd 81 5c d3 3c f0 5c bc bd b7 7d 9d 3d
       -0.122094646 0.025800945 -0.09197414 0.07689994
0003c0 e2 9b 06 be 9b 47 7c bd d8 48 e5 3c d8 de bc ba
       -0.13145402 -0.061591726 0.027988836 -0.0014409674
0003d0 12 07 3b bd 5e 3b ae bc 81 29 d0 bd 7b 7e cd bc
       -0.04566104 -0.021268543 -0.10164166 -0.025084725
0003e0 e2 6b 00 bd f5 e1 e9 bc 2e df bd bc 71 a0 f3 bd
       -0.031352885 -0.028550128 -0.02317771 -0.11895836
0003f0 b3 16 50 bc 1e 61 1f be 2b a8 65 bd 77 35 b3 3d
       -0.012700724 -0.15564391 -0.05606858 0.08750432

features_extractor.encoder.conv.8.bias f4 [64]
000000 b7 8b 7e bd 06 19 a1 bd d2 0f a2 3b b3 36 af bd
       -0.06214496 -0.07866101 0.0049457336 -0.08555355
000010 72 30 67 bd b8 89 1b 3d 85 b7 a3 bd 0b 45 a6 bc
       -0.056442685 0.037973136 -0.07993988 -0.020296594
000020 ad a9 f9 bc 53 cc 19 bc 5a 49 4d 3d c7 63 08 bd
       -0.030476416 -0.009387094 0.05011878 -0.03329828
000030 49 c7 72 bd e0 e1 d4 3b 4e 92 99 bb 04 97 6e bc
       -0.059272084 0.006496653 -0.0046866303 -0.014562372
000040 f4 aa 94 bc 72 6f 48 3d d9 2a 28 bc 76 b3 27 bd
       -0.018147923 0.048934408 -0.010264122 -0.04094263
000050 a0 01 7e bd 11 a7 0d bd 74 78 11 be 34 60 93 bd
       -0.06201327 -0.034583155 -0.14206105 -0.07196084
000060 de 04 f4 bc 13 68 94 bd 85 3e a3 3c db ac 24 bd
       -0.029787477 -0.07246413 0.019927273 -0.04020391
000070 22 cc 93 bd 78 be db bb 32 1d c1 bb 3e 7b 55 bd
       -0.072166696 -0.0067060553 -0.005893373 -0.052119486
000080 79 8c ee bc c3 50 87 3d 2d 67 cc 3c 3f 8c 0a bc
       -0.029119717 0.06607201 0.024951542 -0.008456289
000090 af 85 b4 bd f0 26 dc bd 28 fe 95 3d 88 3c 2c bb
       -0.088145606 -0.10749614 0.07323867 -0.0026281197
0000a0 49 8f 84 bd e4 e3 81 bd 10 90 2d 3c 6e 01 83 bd
       -0.06472642 -0.06342295 0.010593429 -0.06396757
0000b0 86 12 48 bd 5c 95 5b 3c c3 54 a4 bc c8 f9 48 bd
       -0.04884579 0.013402309 -0.020059949 -0.049066335
0000c0 0d 8a 49 3d c1 3e a6 3d 4e 8d 85 3b 4e d8 6a 3d
       0.04920392 0.08117438 0.0040756827 0.05733519
0000d0 e2 c4 a1 bc ff 93 02 bc 46 6d 43 3d 44 5d 3a 3c
       -0.019747201 -0.007969855 0.047711633 0.011374775
0000e0 28 ef 09 bd fc 00 69 3d b4 85 b0 3c 8f 46 e3 3c
       -0.033675343 0.056885704 0.02154813 0.027743606
0000f0 60 70 03 3d 58 2e b2 3d 80 49 cb bb 03 90 5a 3d
       0.03208959 0.087002456 -0.0062038302 0.053359997

features_extractor.encoder.conv.10.weight f4 [128, 64, 3, 3]
000000 0c fd 22 bd 8b fc fe bc af ca 0c bd 18 a1 ac bc
       -0.039792106 -0.031126281 -0.03437298 -0.02107291
000010 0e ef 24 bd fe ac 06 3d bb 4a 0c bc 73 09 11 3d
       -0.040267043 0.032879822 -0.008562739 0.035409402
000020 35 09 b1 bd 80 28 d0 3c 2b a8 64 bc 34 51 01 3d
       -0.08644334 0.025409937 -0.01395611 0.031571582
000030 48 7f 9b 3c eb 8e e6 bb e6 18 d4 bc 76 e0 29 bc
       0.01898159 -0.00703608 -0.025890779 -0.010368457
000040 fd ff 21 3c b4 4d 1a bd 0e e1 18 bd ab b9 12 bc
       0.0098876925 -0.03767176 -0.037324004 -0.0089553995
000050 db f6 1c 3c 0e da bc 3c e4 01 c7 bd 8e f9 7b bc
       0.009580339 0.023053195 -0.097171575 -0.015379323
000060 f8 81 d3 bc 81 ac 28 bd 6b ac d5 3b ab f8 38 ba
       -0.02581881 -0.041180138 0.006520798 -0.00070560974
000070 cb c4 c8 3c 60 a5 18 bc d6 a1 d9 bc c1 66 08 3c
       0.0245079 -0.009316772 -0.026566427 0.00832528
000080 9f 2f 4d bc 76 80 a4 3b 8b 2c 3e 3c 8d 43 f2 bb
       -0.012523561 0.0050201965 0.0116073 -0.0073933066
000090 43 8b 17 bd 6e cf 16 3d 80 1c 20 bb c0 62 cb 3c
       -0.036998045 0.036818914 -0.002443105 0.024827361
0000a0 5b ed e1 bc 3b f3 ba 3b 7b 44 c9 bc 51 7d f7 bc
       -0.027579 0.005705265 -0.024568787 -0.030211123
0000b0 a6 cb a5 bd 46 65 73 bc 63 e7 df bc 08 ed 1e 3d
       -0.080954835 -0.014855688 -0.027332013 0.03880027
0000c0 73 48 cb 3c fd ba 96 3c 17 00 66 bc 9f e7 07 bd
       0.02481482 0.01839971 -0.014038107 -0.033179875
0000d0 07 6c de bc e8 f2 9f bc fb c1 bf bc 76 aa 42 bc
       -0.02715112 -0.019525006 -0.023407927 -0.011881461
0000e0 9b 61 82 3c 9e 23 17 bd be 8a 2e 3d 6f 39 8f bc
       0.015915683 -0.0368992 0.042612784 -0.017483441
0000f0 ab 72 dc bb 37 fe e6 3c d1 6a 8f bd 7b 49 0c 3c
       -0.0067275367 0.028197391 -0.070027955 0.008562441
000100 00 3a b6 3b ca 24 0a 3d f8 d6 c9 bc cf 29 7e 3c
       0.0055611134 0.03372649 -0.024638638 0.015512898
000110 6b 3d 09 3d 20 8a 22 bd 09 01 c3 3c f6 5e 29 bd
       0.03350584 -0.039682508 0.023804205 -0.041350327
000120 a8 e5 23 bd db 51 14 bd 66 cd 6e 3c ab 6f 3b ba
       -0.04001394 -0.036210876 0.014575338 -0.0007150124
000130 ba 96 22 3c 14 6f b0 3c 6b 89 cd 3c f0 a5 4f 3c
       0.009923631 0.021537341 0.02508994 0.01267384
000140 22 9f 81 bd 70 50 b6 3c 60 5f 23 3d 86 8c 76 bc
       -0.0632918 0.022255152 0.03988588 -0.015048152
000150 df df 27 bd 67 3d d6 bc bb fc 61 bd 60 cf c9 3b
       -0.040984984 -0.026152326 -0.055172663 0.006158754
000160 35 5c c9 bc 64 8a 90 3c 68 4f d4 bc 33 e2 a8 bc
       -0.0245801 0.017644115 -0.02591677 -0.020615673
000170 f3 49 9d 3c 38 5c 04 3d ee 61 15 bd fd 2f 21 3c
       0.0192003 0.03231451 -0.036470346 0.009838101
000180 d0 e2 f6 bc a5 9f 8d bb 1c 97 b3 bd 9b 44 d7 bc
       -0.03013745 -0.0043220096 -0.08769056 -0.02627783
000190 b6 61 fb bc b8 d0 b1 3c e0 a6 d4 bb a6 4e e6 3b
       -0.03068624 0.02170597 -0.0064896196 0.0070284186
0001a0 f5 64 4c 3d 06 79 b0 3c 4a 2e 13 3d 71 8b 3b bd
       0.049900968 0.021542083 0.035932817 -0.04578728
0001b0 36 02 95 3c 1b 5c 16 3c 00 a0 95 b9 66 ec 06 bd
       0.01818953 0.009177233 -0.00028538704 -0.03294029
0001c0 b3 59 8c 3d c6 6f 9f 3c 36 72 20 3d 16 82 71 bc
       0.06853046 0.019462477 0.03917142 -0.014740488
0001d0 9b 8d bc 3c 80 75 59 bb a0 b6 a0 bb 3b 98 66 bc
       0.023016741 -0.0033181608 -0.004904583 -0.0140743805
0001e0 ce d3 d4 bc 14 98 bd bc f3 b0 b9 bb b3 9a 91 bc
       -0.025979903 -0.023143806 -0.005666846 -0.017773962
0001f0 8f 52 a1 3c e3 33 a5 3c 56 75 c6 bc 78 f0 a2 3c
       0.019692687 0.020166343 -0.024225872 0.019890055
000200 16 34 07 3c 16 c3 17 3c 6e 28 06 bd b3 60 8d 3b
       0.008252164 0.009262821 -0.0327534 0.004314506
000210 13 88 e3 bc 6b 5f e2 bc 15 72 aa bc 66 e2 0d 3d
       -0.027774846 -0.02763339 -0.020806352 0.03463974
000220 08 a5 c9 3c f6 63 c0 bb fe 7a 13 bd 3c e8 d0 3c
       0.024614826 -0.0058712913 -0.036005966 0.025501363
000230 56 bf dc 3c 16 ae e7 bc 44 76 3f 3c 98 73 9b bd
       0.026946705 -0.028281253 0.011685912 -0.07590407
000240 36 c0 9e 3c e3 b3 89 bc 60 4f 36 3c 20 86 c5 bc
       0.019378763 -0.01680941 0.011127323 -0.024111807
000250 a7 ab 14 bd ba e8 b9 3c f8 bf 18 3d 7c 83 8d bc
       -0.036296513 0.02269398 0.03729245 -0.01727461
000260 38 b0 8c ba 0b ea dd 3b 76 be 01 3d cb b5 00 bd
       -0.001073367 0.006772285 0.03167578 -0.03142337
000270 9a c0 14 bd f7 21 39 bc 28 e7 08 3d 96 9d e8 3b
       -0.03631649 -0.011299602 0.033423573 0.007098864
000280 03 0b 12 bb c2 b0 4b bd 06 e9 0b bc 87 b5 21 3d
       -0.0022284396 -0.049729116 -0.008539444 0.03947976
000290 40 4f 3d 3c 58 0a fc 3c 37 3d 80 3c d4 12 75 bd
       0.011554539 0.030766651 0.01565419 -0.05983241
0002a0 f6 65 17 3d 75 c0 3e bd ee c5 80 bb cb d8 83 bc
       0.036962472 -0.04657026 -0.003929845 -0.016094586
0002b0 20 fe be 3c 16 17 98 3b ef 59 21 bd 5b f5 6a bc
       0.023314536 0.004641424 -0.039392408 -0.014340724
0002c0 f7 f3 fb 3c 1e 04 99 3c c6 18 df bc a6 f3 52 3b
       0.03075598 0.018678721 -0.027233493 0.0032188683
0002d0 36 f0 9c 3c 78 80 f7 3c 08 6e 9f bc 60 86 85 bc
       0.01915751 0.030212626 -0.019461647 -0.016299427
0002e0 33 3b 02 3c b4 37 04 3d ae 03 21 3d 23 06 fc bc
       0.0079486845 0.032279685 0.03931015 -0.030764645
0002f0 17 61 bd bc 7f 5b 20 3d 30 a0 a1 3c 4f d7 1b bd
       -0.023117585 0.039149757 0.019729704 -0.03804713
000300 90 68 fa bc 94 fe 2a bd 24 b9 9e bc a0 eb 1d bd
       -0.030567437 -0.04174669 -0.019375391 -0.038554788
000310 f8 29 30 bd 9b 63 2f bd 13 f1 cd 3c 28 1a f0 bc
       -0.043008775 -0.0428196 0.025139367 -0.029309347
000320 36 81 1e 3d 1f ca 25 bd b4 85 dc bb d6 52 b9 3c
       0.038697444 -0.04047596 -0.006729806 0.022622507
000330 5b 21 23 3c ab da 00 3d 9a fa 91 bd c0 d1 0e 3c
       0.009956683 0.031458538 -0.071278766 0.0087170005
000340 b3 3a ed bc 53 f9 08 bd e6 fa 39 3c 1a 56 37 3d
       -0.028958654 -0.0334409 0.011351323 0.044759847
000350 6a b7 df 3c 90 25 98 3c 19 9e 3d bd 6d b2 31 3b
       0.027309138 0.018572599 -0.04629335 0.0027114407
000360 ee 45 1c bd 70 4a d5 3c 00 87 57 bb 3b 1f 93 3c
       -0.038152628 0.026036471 -0.0032886863 0.017959228
000370 20 c6 fa 3c e3 d9 48 bc 9b 68 2a bc 30 b9 2e bd
       0.030612051 -0.0122589795 -0.010400916 -0.042657077
000380 65 7c cd bc 9e 68 0a 3d 4b 7e c1 bc 80 d2 45 bb
       -0.02508373 0.033791177 -0.023619791 -0.0030185282
000390 7b 02 56 3c aa 19 01 bd 90 dd a4 3d b6 22 46 bc
       0.013062115 -0.031518616 0.08050072 -0.012093237
0003a0 22 05 2a 3c bc 98 68 3c ce 0f e2 bc b0 a0 12 3d
       0.0103772 0.014196571 -0.027595427 0.035797775
0003b0 d6 a3 17 3b 1e 07 10 bd d6 7c 09 3c fe 28 26 bd
       0.0023138425 -0.035163037 0.00839158 -0.040566437
0003c0 46 1d 91 bc 9b c4 ac bc fc 9b b4 3b 9b 2b 9a 3c
       -0.017714154 -0.021089843 0.005511759 0.01881962
0003d0 c0 3a 49 3c 36 86 b9 3c df cb 12 bd 4f d2 86 3a
       0.0122820735 0.022647005 -0.035838958 0.0010286066
0003e0 38 7e 42 3d f3 97 94 3c 9f f7 2d bd e4 d2 91 3b
       0.047483653 0.018138861 -0.042472478 0.004450189
0003f0 6b 40 19 bc 80 4a b0 bb 5e dc 09 bd 3b 85 45 bc
       -0.009353737 -0.005379975 -0.033657424 -0.01205569

features_extractor.encoder.conv.10.bias f4 [128]
000000 4d 08 5c bd 1d c1 53 3d 7f 04 50 bd 26 c7 a4 3c
       -0.053718854 0.05169784 -0.050785538 0.020114493
000010 4d 17 5b 3d e2 f3 f1 bc 7a 06 47 bc d8 8c 48 3d
       0.05348902 -0.029535238 -0.01214754 0.048962444
000020 74 17 59 3c 8a f7 95 3c 8a a1 68 3c 8f b1 81 bd
       0.013250221 0.018306512 0.01419867 -0.06332695
000030 50 0e 17 bd c8 37 82 3d c7 54 04 3b 0a 27 74 3d
       -0.036878884 0.06358296 0.0020192133 0.059607543
000040 ca 1c dd bc 3f e2 c2 bc a2 9b 2f bd f3 c8 1e 3d
       -0.026991267 -0.023789523 -0.042873032 0.03876586
000050 86 ac 12 3c ac 61 86 3b 4c 00 b9 3c d1 12 2f bc
       0.008952266 0.004100999 0.02258315 -0.0106856385
000060 04 4d 88 3d a5 65 3f bc 8f cb 52 3d 3d 52 62 bd
       0.066553146 -0.011681949 0.05146366 -0.05525421
000070 e2 ae 06 bd bc f6 7f 3d 7b 5f c2 3d 00 32 b6 3d
       -0.032881625 0.062491164 0.09490868 0.088962555
000080 80 f0 bc 3d ee 1b 78 bd 9c f0 28 3d 0e d6 4a 3d
       0.09225559 -0.06057351 0.041245088 0.049520545
000090 b7 e1 38 3d f8 f0 b6 3d 67 46 1c bd 67 bb 58 bd
       0.045137133 0.0893268 -0.03815308 -0.052913096
0000a0 31 b8 a1 3c e3 9f 1c 3d 01 93 30 bc 8f 8f 28 bc
       0.01974115 0.038238417 -0.010777236 -0.010288133
0000b0 dd 75 dd 3c cc da 09 bd 0c 09 4b 3d cb c6 20 bd
       0.02703374 -0.033655927 0.049569175 -0.039252084
0000c0 83 43 0b 3d 17 2a 92 bc e9 ac 60 39 13 b5 03 3d
       0.03399993 -0.017842336 0.00021426719 0.032155108
0000d0 8d 4d c2 3c e2 26 ee bc cc 06 15 3d 2e ad 3d 3d
       0.02371862 -0.029071275 0.036383435 0.046307735
0000e0 43 c5 0f bd b0 01 e2 3c 64 a0 bd bb 5f 5e d7 bb
       -0.035100233 0.027588695 -0.0057869423 -0.006572529
0000f0 9a 3d 6b bc f9 57 12 3d 17 b1 10 bd 8c 8f 08 3c
       -0.014357949 0.03572843 -0.035325136 0.0083350055
000100 e2 d6 80 3d 13 ee 9a bc 8f 13 6b 3d 25 24 0d bd
       0.06290986 -0.01891235 0.0573917 -0.0344583
000110 ec 1a f5 bc 6b 06 97 bc 60 58 09 bd ed c3 93 3c
       -0.029920064 -0.018435678 -0.033531547 0.01803776
000120 06 c9 45 3d b0 40 3e 3d bd c3 ee 3c 1a 58 4c 3d
       0.048287414 0.04644841 0.02914607 0.049888708
000130 43 7d 39 3c 74 67 87 3d cf 58 29 3c 3d c8 a9 3c
       0.011321369 0.06611529 0.010336115 0.020725364
000140 7e 3d 0c bc 25 b6 da bc 53 36 36 3b a3 c5 d7 3b
       -0.008559583 -0.026698181 0.0027803376 0.0065848394
000150 ef 08 5d bd 4f e3 80 3d 7c b2 56 bc f6 af b6 bc
       -0.053963598 0.06293356 -0.013104077 -0.022300702
000160 b7 42 ae bc 74 22 52 3d 9d 38 3f 3c f2 7f 2b 3d
       -0.021272046 0.05130239 0.0116712125 0.041870065
000170 b7 3d b7 3c 78 a9 a5 3c cd be 2d 3b bb 3e a0 3d
       0.022368295 0.02022241 0.0026511431 0.07824465
000180 bd be 5c bd b1 2d 91 bc 96 de c9 bc a1 7d 46 3d
       -0.05389284 -0.017721983 -0.02464227 0.048459653
000190 54 c7 56 bc 09 4d a1 3d d7 17 59 bd a0 4c 20 3b
       -0.013109047 0.078760214 -0.05300125 0.0024459735
0001a0 63 19 93 3c d7 2f 12 3d bc 91 0a bd 70 97 85 bc
       0.017956441 0.035690155 -0.03383039 -0.016307563
0001b0 03 67 1a 3d 82 4f d9 3c 10 a3 9a 3d 1b 13 b1 3d
       0.037695896 0.02652717 0.07550633 0.08646222
0001c0 f6 27 1b bd 3f da ef 3c 6a e2 9d bc 9a 18 6f 3c
       -0.037879907 0.029278873 -0.019273002 0.014593268
0001d0 0a dc d0 38 de 60 0e bc cd de ac ba 68 3c 80 bd
       9.959198e-05 -0.008690087 -0.0013188958 -0.062615216
0001e0 88 71 05 3d da 9f 90 3c 74 02 20 3d 47 b9 79 3d
       0.032578975 0.017654348 0.03906484 0.06096771
0001f0 4f e9 2b bd a1 df ae bc 81 e1 c2 3d 53 8c d7 bc
       -0.041970547 -0.021346869 0.09515668 -0.026312029
