model/actor_critic_Oracle_v0.pth (torch, 14020 bytes, 10 tensors)

log_std f4 [2]
000000 1a 88 10 3f fb a2 43 3e
       0.56457675 0.19105141

features_extractor.policy_net.0.weight f4 [32, 4]
000000 b8 31 b7 be 6a 16 89 3e 74 cf 83 be 29 66 52 be
       -0.3578012 0.26774913 -0.25744212 -0.20546784
000010 56 28 9e 3e 18 08 01 be 88 d0 07 3e 00 2d a4 bb
       0.3089015 -0.12600744 0.13263142 -0.005010247
000020 56 a0 90 be e0 82 13 3d c6 86 de be d0 21 e3 be
       -0.28247327 0.036013484 -0.434622 -0.44361734
000030 50 d3 6a be a4 5c f5 bd 49 0c e6 3a 63 a6 04 bf
       -0.22932172 -0.119805604 0.0017551269 -0.51816386
000040 e0 18 fe be c0 07 db be b2 44 b4 be 40 dd 8e 3e
       -0.49628353 -0.4277935 -0.3520866 0.27903175
000050 54 14 38 be c8 3b 08 be e0 94 da bc 30 5b bc 3d
       -0.17976505 -0.13304055 -0.026682317 0.0919708
000060 06 4f d6 be 56 ea f3 be 60 9f 43 bd 58 57 1b be
       -0.41857165 -0.47639722 -0.047759414 -0.15170038
000070 38 05 bb be 13 59 12 bd f1 82 30 3e da ca 2f bd
       -0.3652742 -0.03572948 0.1723745 -0.042918064
000080 da a9 9e be d8 b5 f0 3e 59 fa 34 be 02 12 7a bc
       -0.3098896 0.47013736 -0.17673625 -0.015263082
000090 3b c6 5c be 4e 22 dc 3e 00 1c 47 3c 84 00 af be
       -0.21559994 0.42994922 0.012152672 -0.3418008
0000a0 54 39 ad be f5 08 6b 3e 1d 6e a5 3e 08 1d 99 3e
       -0.338328 0.22952636 0.32310572 0.29904962
0000b0 32 26 97 3e 3d a0 9e 3d 1e bf ef be 4e e0 8a 3e
       0.29521328 0.07745407 -0.46825498 0.27124256
0000c0 a3 a2 7e 3e e8 cf ba 3e 50 f9 f0 3e c9 73 6d bd
       0.24866728 0.36486745 0.4706521 -0.05797175
0000d0 85 b2 03 3f f0 ce ce be 5f c8 92 be e4 29 b7 be
       0.51444274 -0.40392256 -0.28668496 -0.35774148
0000e0 11 62 20 be 2c a6 2a 3e 6c 1f 1c 3e 04 3a 4f be
       -0.1566241 0.16664952 0.15246361 -0.20236975
0000f0 e5 a9 40 bd dc fa 89 3e 23 4e 05 3f 6e 64 92 bd
       -0.047037024 0.26949203 0.5207235 -0.07148062
000100 33 86 0c 3f e0 ba 23 be e7 43 bb be d7 4c 09 bf
       0.5489227 -0.15989256 -0.36575243 -0.53632873
000110 c0 63 a9 3c ce 5f c7 be 91 98 b6 3d d8 0a 94 be
       0.020677447 -0.3894028 0.089158185 -0.28914523
000120 21 de 83 3d 98 8d 07 3f f3 7b 09 be 9c 52 aa be
       0.06438852 0.5295043 -0.13426189 -0.3326615
000130 bd 34 93 3d 61 22 cd 3e eb 40 9d 3e 7a 88 cd 3e
       0.071877934 0.40065292 0.3071359 0.40143186
000140 0f b5 e0 3c a9 fe 84 3e 7c 44 f0 3e 18 72 0e be
       0.027430085 0.2597554 0.4692725 -0.13910711
000150 12 bd d5 be 60 02 49 3d 42 ce a8 be 60 e1 3c be
       -0.41745812 0.04907453 -0.32969862 -0.18445349
000160 b6 c8 04 bf ea e1 c1 3e bd b4 84 bc 0e 3c d6 bd
       -0.5186876 0.3786767 -0.016199464 -0.10460673
000170 11 0e bd 3e b4 a7 80 3d 15 91 b6 3e 34 c4 cb 3e
       0.36924794 0.06281987 0.35657564 0.3979813
000180 b7 e0 de be 4d e0 9d 3e ad da 93 3e 06 08 59 bd
       -0.4353082 0.3083519 0.28877774 -0.052986167
000190 78 dd c8 be 40 6d 6d be 40 5b 20 3d 80 2f 24 3e
       -0.39231467 -0.23186207 0.039149523 0.16033745
0001a0 a0 7d 3e bd a0 c8 ac 3c b2 e0 a6 be 58 e0 a7 bd
       -0.046506524 0.02109176 -0.32593304 -0.08197087
0001b0 a4 5f f0 be ca 94 ad 3e 3b e1 48 be a2 7b f7 bc
       -0.46947968 0.3390258 -0.19617169 -0.03021032
0001c0 d1 27 02 be ee d2 f1 3e 53 30 00 be 19 fe ce 3e
       -0.12710501 0.4723124 -0.12518434 0.40428236
0001d0 37 58 0b be a1 8b 2e be 0b a9 d1 3e 74 85 e7 3d
       -0.1360787 -0.17045452 0.40949282 0.11304751
0001e0 59 43 eb be a3 60 e4 3d 64 6c a4 3d 32 49 2f bc
       -0.4594982 0.111512445 0.08028486 -0.0106986035
0001f0 ce 3d a2 3e 73 27 45 3e d7 2c c2 be 22 cb 15 3d
       0.31687778 0.1925333 -0.37924835 0.036570676

features_extractor.policy_net.0.bias f4 [32]
000000 b1 99 3e 3d e4 a3 ce be 10 19 71 bd f6 d1 bf 3e
       0.04653329 -0.40359414 -0.058861792 0.37464875
000010 1c 63 c6 be 90 1d f8 bd b0 03 ac bd f3 7f 92 3e
       -0.3874749 -0.121150136 -0.08399141 0.28613243
000020 27 4b 2c 3e 23 b2 ca 3d a8 df ae 3e 4e c8 84 be
       0.16825543 0.09897258 0.3415501 -0.2593407
000030 af 2c 0b 3e 35 a8 b9 3e dd 3d 8d 3e 1f ef 93 be
       0.13591264 0.36261144 0.2758626 -0.28893372
000040 ed 63 b2 3c d8 4e fe 3e 66 c5 f1 bd f2 ed 4d be
       0.021776164 0.49669528 -0.11805229 -0.201103
000050 74 71 03 bd a4 ae 86 be dc 41 68 be ba db 00 3f
       -0.03209062 -0.26305115 -0.22681373 0.50335276
000060 e6 71 91 3e 24 a0 e5 be 26 dd b8 be 6e 4d 0c 3f
       0.2840721 -0.4484874 -0.36106223 0.5480565
000070 d2 c2 54 3e 58 9c f9 3e 40 4e 5f 3e 85 cb a4 be
       0.20777443 0.48752093 0.21807194 -0.32186523

features_extractor.policy_net.2.weight f4 [64, 32]
000000 a6 ea f4 3d 1c 70 e5 bd da 34 0b be 89 ee 52 be
       0.11958818 -0.11203024 -0.1359438 -0.20598806
000010 7a c7 49 bc b6 02 99 3d 1c 86 e3 bc fa d5 ee bc
       -0.012315625 0.0747122 -0.02777391 -0.029154766
000020 89 60 25 3e 3a 28 8e bc d9 2d 25 be c4 76 2c be
       0.16150106 -0.017353166 -0.1613077 -0.1684218
000030 33 fe df 3d 61 2f b1 be d1 32 13 bd e7 0e 28 3e
       0.109371565 -0.3460646 -0.035937134 0.16411935
000040 fd ad ee be 31 07 e8 be 46 31 f3 be e0 45 fc bd
       -0.46617118 -0.45317987 -0.4749853 -0.12318015
000050 9e 5e e0 bd bb eb 42 bc 1d 51 0c 3e ea 7b 23 3e
       -0.10955547 -0.011897023 0.13702817 0.15965238
000060 0e 02 0f 3e 93 1e bf 3d 54 5b 97 bd 7d 67 91 3d
       0.13965628 0.093320034 -0.07390466 0.07099817
000070 1e 2f 02 be f1 36 14 be 70 13 4c be 16 53 77 be
       -0.12713286 -0.14474083 -0.1992929 -0.24152789
000080 be 44 dd be a0 98 13 bd 8f b6 0a 3e 55 5a e6 3d
       -0.4321651 -0.036034226 0.13546203 0.11247698
000090 0d a8 86 bd 3c d3 1e bd 06 11 d3 3d d0 47 13 bd
       -0.06575022 -0.038775668 0.10305981 -0.035957158
0000a0 e9 60 73 be 26 98 3e 3e 77 60 97 bd 31 39 08 3e
       -0.23767437 0.18612728 -0.07391446 0.13303067
0000b0 26 83 d3 3d 75 bc 4c 3e b6 ee 46 3e aa de 96 bc
       0.10327749 0.19993766 0.19426998 -0.018416721
0000c0 0c a0 aa 3d 67 75 ee bc 0a c8 82 3e c8 d2 0f bd
       0.08331308 -0.029108716 0.25543243 -0.035113126
0000d0 57 e6 24 3e 0f 0a 6b 3d 08 15 86 be 05 3d 28 3e
       0.16103493 0.05738264 -0.2618792 0.16429527
0000e0 7d dd 43 3d 53 1d d2 bd ea c4 a9 3d 89 86 14 3d
       0.04781865 -0.102594994 0.082895115 0.036261115
0000f0 9a 32 38 3e 88 ff 65 3e 22 dd 78 be 43 a6 00 be
       0.17988053 0.22460759 -0.24303105 -0.12563424
000100 61 c7 b1 be fd 8a 87 3d be 4b ac bd e3 57 4f be
       -0.34722427 0.06618307 -0.08412884 -0.2024837
000110 d8 3a 85 bd b8 03 d1 bd 03 a8 12 be bf fc 73 3e
       -0.06505364 -0.102057874 -0.14321904 0.23826884
000120 f5 bc 80 be 69 d7 de bb 1b 12 6d 3e 4d df 51 3e
       -0.25144163 -0.0068005812 0.23151438 0.20495339
000130 27 f4 36 3e 83 6f 4b 3e 8c 92 19 3d 56 da 5c 3d
       0.17866574 0.19866757 0.037493274 0.05391916
000140 db f0 75 3e 10 7b 39 3e e0 f4 26 3e d9 ef 01 3e
       0.2401766 0.18113351 0.1630435 0.12689151
000150 6f 8d af bd 43 d6 94 bd 42 00 2d be 6e e6 88 bd
       -0.08571898 -0.0726743 -0.1689463 -0.06684576
000160 ad db 65 3e 55 cf de 3d a0 18 b3 bc 46 c6 ea 3d
       0.22447081 0.10879389 -0.021862328 0.11463599
000170 0b 0a 5a 3e ca 32 ed bb 48 60 80 3d 69 12 c6 bd
       0.21292894 -0.0072387205 0.06268364 -0.0967148
000180 1f 58 f2 bd 88 e2 bb bd 7b 5f db 3b e4 fe 08 bd
       -0.11833214 -0.09174067 0.006694732 -0.033446208
000190 ee 5c 00 bd 70 6a 24 be f5 66 3c bd 34 f0 0f 3d
       -0.031338625 -0.16056228 -0.045996625 0.035141185
0001a0 4f d1 e2 bc 2f 9f 1e bd 4a af b9 bd ea 54 88 bd
       -0.027687697 -0.038726028 -0.09066637 -0.06656821
0001b0 55 8c 7e 3a c2 f7 f0 3d bf 97 83 bd 06 fa 02 3e
       0.0009710242 0.11766006 -0.06425428 0.12790689
0001c0 cf eb b4 3e f6 f7 5b 3e 0d 0c d5 3e 35 e4 5c bc
       0.35336158 0.21481308 0.41610757 -0.013482143
0001d0 e1 1d 1a 3e 7e 35 83 bd b9 90 46 be 48 37 f4 3d
       0.1505046 -0.06406687 -0.19391145 0.119246066
0001e0 a9 49 42 3e ba ae 21 be 33 a0 b6 bd 7e d0 66 3e
       0.18973412 -0.15789309 -0.08917274 0.22540471
0001f0 a5 f5 0a 3e ff 7d 6c bd 9d 1c 17 3d e1 4c ce bd
       0.13570268 -0.057737347 0.036892522 -0.10073257
000200 5e 23 e9 3e b2 3a f7 bc 08 7e f6 bb 1e 99 82 3e
       0.45534796 -0.030179355 -0.0075223483 0.25507444
000210 a6 58 ef bd 00 d0 91 bd 38 3e 21 3e bb fc 4c be
       -0.1168683 -0.07119751 0.15746391 -0.20018284
000220 04 0b 92 bc 9e f9 82 bd db ed 56 be 7d a6 38 be
       -0.017827518 -0.06395267 -0.20989172 -0.1803226
000230 16 40 c0 bd c0 72 3d be 00 ed cc bd 07 c7 95 3d
       -0.093872234 -0.18500805 -0.10006142 0.07313352
000240 df 3c fe bc c5 db 91 bd 12 97 12 be d8 12 9b 3d
       -0.031034885 -0.07121996 -0.14315441 0.075719535
000250 c7 03 1a be 07 3b 26 3e 22 30 c2 3d a7 1f 39 be
       -0.15040503 0.16233455 0.09481837 -0.1807848
000260 2a 8a ae 3d 90 69 c5 bd 9e cd 7c 3d 19 92 42 bd
       0.085224465 -0.09639275 0.06171953 -0.04750261
000270 43 0a 2a be 23 ae 3b bd a0 50 8f 3e 1f 65 5c bd
       -0.16605477 -0.045820367 0.279912 -0.053807374
000280 44 6d 6e 3e 1b dc 17 be 78 c6 71 3d 8c dd 3a 3e
       0.23283869 -0.14830057 0.059027165 0.18248576
000290 f9 1b c6 bd dd ba 48 b8 0f c1 00 3e 85 eb fc bb
       -0.09673304 -4.7857746e-05 0.12573646 -0.007718506
0002a0 aa e3 3b 3d 3b 21 ef 3d bc 0f 43 bc 7b e6 38 be
       0.045871414 0.1167626 -0.011905607 -0.18056671
0002b0 c7 53 86 bc 5c 20 33 be 7d f0 dc bd 0f 57 39 bd
       -0.01639737 -0.17492813 -0.10788057 -0.04524904
0002c0 55 fb 4c be 36 05 83 be 7e 35 6c be 3b 4c 58 bc
       -0.2001775 -0.25589913 -0.2306728 -0.0132017685
0002d0 75 dd 40 be bb 66 84 3d c1 54 63 3e bd a3 75 be
       -0.18834479 0.06464907 0.222003 -0.23988242
0002e0 f5 93 82 3c bb 42 1f 3e 21 09 2c 3d 6d 68 25 be
       0.015939692 0.155528 0.042000894 -0.16153117
0002f0 8e 30 ea bd f3 12 2b 3c a0 2c 9c bc 06 c4 7a 3b
       -0.11435042 0.01044153 -0.019064248 0.0038263812
000300 ee e1 4e 3e 95 ed 90 3d 0f 6b 22 3e d4 8a 06 3c
       0.20203373 0.07076565 0.15861152 0.00821181
000310 c4 50 ce 3c bf 86 ca bd 62 b5 10 3e f5 c6 91 bd
       0.025184996 -0.09888982 0.14131692 -0.07118026
000320 bf a9 97 3d e2 92 d1 bd 62 eb b1 bd 14 d0 2b bc
       0.074054234 -0.10233094 -0.08687474 -0.010486621
000330 d6 3e 0d be cc 81 59 be e5 56 6d bd d0 98 af 3d
       -0.13793501 -0.2124092 -0.057944197 0.085740685
000340 d0 d7 1c be 54 46 01 be 55 2d f0 bd fb 30 f0 3c
       -0.15316701 -0.12624484 -0.117273964 0.02932023
000350 1b 13 04 3e 5f 2b f9 bd 89 e0 80 3e 42 10 22 be
       0.12897913 -0.121664755 0.25171307 -0.15826514
000360 d9 e4 8b 3d 32 43 08 3e e4 d6 26 3e a6 e7 87 be
       0.068307586 0.13306883 0.16292912 -0.2654392
000370 39 55 c7 bd ac 2e 9d be 0d db bd bd 0d 3a 84 bd
       -0.09733052 -0.3069967 -0.09270296 -0.06456385
000380 16 37 9e bc 65 62 15 be ca 5c 06 3e 6b c6 24 bd
       -0.019313376 -0.14588316 0.13121334 -0.04022829
000390 e2 89 25 bd c6 fb 06 3e 15 30 98 bd 0a 5f 8a 3e
       -0.0404147 0.13181981 -0.07431046 0.27025634
0003a0 6a f2 d1 bd 37 d5 ca 3d 23 c0 95 3d 03 f9 12 3d
       -0.10251315 0.09903949 0.07312038 0.035882007
0003b0 9d 3d 32 3e f7 d8 ac 3e c0 73 8b 3e 33 01 0c 3e
       0.17406316 0.3375928 0.27236748 0.13672332
0003c0 b6 5c 37 3e 93 c8 b5 3c 4f 28 54 3e 87 cf 4b 3e
       0.1790646 0.022190368 0.20718502 0.19903384
0003d0 5d 3d 45 3e da 27 cc bb b1 1b 3a bd 6f 48 95 3e
       0.1926169 -0.0062303366 -0.045436565 0.29156825
0003e0 7a 7c 71 3e 50 aa ee bc b1 52 6f bd b9 d8 85 3e
       0.2358264 -0.029133946 -0.05842847 0.2614191
0003f0 2c 05 14 3d 67 5a f1 3d 3b 41 0c 3c ab 35 3d 3c
       0.036137745 0.11784821 0.008560474 0.01154844

features_extractor.policy_net.2.bias f4 [64]
000000 7d 9b bf bd 9d f9 f1 3c 4f ed 14 3e 42 dd fc 3b
       -0.09355829 0.02953797 0.14543651 0.0077168057
000010 12 9b 9b bd b5 c4 44 be fe 14 91 bd db 00 5c bc
       -0.07597937 -0.19215663 -0.07084082 -0.013427938
000020 f5 61 d6 3d 91 ce 20 3e 0f 3c 30 be 66 31 51 3e
       0.104679026 0.15703799 -0.1721041 0.20429
000030 af 3e 9c 3d d4 c7 01 be fc ff 7e bd c9 1c 3a be
       0.076291434 -0.12673885 -0.062255844 -0.18175043
000040 cf 06 e5 bb eb 7c 79 be 8f 04 a6 bd 83 42 12 be
       -0.006989337 -0.24364059 -0.08106338 -0.14283185
000050 e5 1f 7f 3c 79 96 5a 3e a9 5b 0c 3e 0d 39 59 3d
       0.015571569 0.21346463 0.1370684 0.053032923
000060 89 e7 59 3e f0 45 91 3e e3 e8 86 bd b8 8b 03 be
       0.2127973 0.2837367 -0.06587388 -0.12846267
000070 3a 1c d4 bd a4 27 25 bd 83 89 37 be 8c c4 62 bd
       -0.10356946 -0.040321007 -0.1792355 -0.055363223
000080 73 70 61 3e c2 76 47 3e 49 37 87 bb 1b ee a8 bd
       0.22015552 0.19478896 -0.0041264636 -0.0824854
000090 3e 04 bd bc 51 25 5b be e7 06 10 3e 66 5b 45 3e
       -0.023073312 -0.21400954 0.14065133 0.19273147
0000a0 81 ac 86 bd fd 1c 5c bd f6 58 3e 3e 55 87 9f bd
       -0.06575871 -0.053738583 0.18588623 -0.077894844
0000b0 73 87 b5 3d 93 7a 0f bc 4c 96 34 3e e9 60 4b be
       0.088637255 -0.008757251 0.17635459 -0.19861187
0000c0 e2 17 57 be 70 cf 50 be 2f 57 30 be 7c 06 02 bd
       -0.21005204 -0.20391631 -0.17220758 -0.031744465
0000d0 06 54 65 be 22 d5 21 3d 3b c7 5c 3e ea a4 7e be
       -0.22395334 0.0395099 0.21560375 -0.24867597
0000e0 6b 5f 16 3e 0f 5f 5e 3e dc b8 45 be ae 2a 35 be
       0.14684837 0.2171595 -0.193088 -0.17692062
0000f0 27 dc 59 be 8e cd 40 3e a0 4a 1d bd 28 24 1d be
       -0.21275388 0.18828413 -0.038401246 -0.15345824

features_extractor.value_net.0.weight f4 [32, 4]
000000 43 58 01 3f b7 c1 9c be 35 79 39 be 1f 23 94 be
       0.505253 -0.30616543 -0.18112643 -0.28933045
000010 ad 10 93 be ee 0c a4 be f1 9c 09 3e d2 dd 0d 3f
       -0.2872366 -0.32041115 0.13438775 0.55416596
000020 cc ec 3c bf ae 67 bf 3d 8d e9 9b 3e 42 aa bb 3d
       -0.73798823 0.09345947 0.30451623 0.091633335
000030 f0 f6 22 3f e4 b0 d5 3e 51 70 b2 be 73 3b 40 be
       0.63658047 0.4173652 -0.34851316 -0.18772678
000040 b2 43 d4 be c0 c4 63 3e d6 a9 8b be 56 9c 91 be
       -0.41457897 0.22243023 -0.27278012 -0.28439587
000050 80 91 24 bf 51 2f 87 3c e2 33 51 3e 9f b5 a0 bd
       -0.64284515 0.016502054 0.20429948 -0.078471415
000060 ec 73 3d be 27 3a 25 bf e2 5a ca bc 56 01 a8 3e
       -0.18501252 -0.6454186 -0.02470154 0.3281352
000070 b1 98 bd 3e 13 c3 0c bf 25 83 98 3e c9 2d 5c 3e
       0.37030557 -0.5498516 0.29787555 0.2150184
000080 86 58 af 3e 71 e6 50 3f 3a a3 09 3e 2c b2 e6 3d
       0.34247226 0.81601626 0.13441172 0.11264452
000090 00 b6 80 3d a8 98 b0 be b8 ad 3e be 50 82 8e bd
       0.06284714 -0.34491467 -0.18620956 -0.06958449
0000a0 b4 c4 8a 3d cd b0 29 3f e4 74 21 3d 6d ef 84 be
       0.067757994 0.662854 0.039418116 -0.25963917
0000b0 26 2a cb be 41 64 fb be 30 73 4c 3d 88 6f 9d 3e
       -0.39680594 -0.49099925 0.04991454 0.30749154
0000c0 fc e5 ac be 3e 22 8e 3e 70 7c 9b bd 30 19 09 bd
       -0.33769214 0.277605 -0.07592094 -0.033471286
0000d0 20 5d 79 bd 16 46 9d be 14 dc 6b 3e 76 56 81 be
       -0.060879827 -0.30717534 0.23033172 -0.25261277
0000e0 58 0d 63 bd 99 2c 14 bf ff be e3 3d 2c ba 06 3f
       -0.055432647 -0.5788055 0.11120414 0.52627826
0000f0 a3 23 89 bf af 34 07 3f c4 c9 aa bd 69 c3 30 3e
       -1.0714 0.52814764 -0.08339265 0.17262043
000100 0e b8 c7 be 11 14 c5 bc 55 95 0f 3e 5b f2 fd be
       -0.3900761 -0.02405742 0.1402181 -0.49598965
000110 84 23 68 be 81 61 68 be 3d 53 04 3f 92 0a 90 3e
       -0.22669798 -0.22693445 0.5168951 0.28133065
000120 b3 bf 4c 3e 40 8f cc 3e bd 1b d9 3c f5 a8 18 3f
       0.19995002 0.3995304 0.026502484 0.5963281
000130 07 a0 14 3f ed 6b 29 3d 06 78 65 3e ca 16 10 3f
       0.5805668 0.04136269 0.22409067 0.56284773
000140 1d a5 84 3d f4 c9 51 3f 65 ce 14 3d 07 b8 89 3e
       0.06476805 0.8194878 0.036329646 0.26898214
000150 07 31 8e 3e f5 bb ca 3d e5 93 e8 be 32 96 4f 3e
       0.2777178 0.09899131 -0.45425335 0.20272139
000160 60 4b 28 bd 68 a5 ec 3d ac ef 7e 3e 18 ed 6f be
       -0.04108751 0.11554986 0.24896115 -0.23430288
000170 9b ca 2b 3f b5 41 08 3f 7a c8 29 3f b7 23 50 3e
       0.67106026 0.5322526 0.6632153 0.20326124
000180 02 5d d5 be 6e 90 af be 2c 8f 91 bd 30 03 be 3d
       -0.41672522 -0.3428988 -0.07107386 0.09277952
000190 2d f1 80 bf d0 19 9f 3e 8d 36 92 be f2 c8 af be
       -1.0073601 0.3107438 -0.28557244 -0.34332997
0001a0 30 87 bd 3e 78 cb d6 be bc a5 a8 3e e2 36 c4 be
       0.37017202 -0.4195211 0.32938945 -0.38323122
0001b0 73 32 b7 bd 85 31 21 3f 58 3b 38 3d 94 62 11 3f
       -0.08945169 0.62966186 0.04497847 0.56791043
0001c0 84 99 67 bf 26 6a 8f bc 25 4b f4 3e be 0a 06 be
       -0.9046862 -0.01750667 0.4771358 -0.13090035
0001d0 38 aa 92 3d e0 74 39 bd 58 4b 86 be 50 b3 39 3d
       0.07161373 -0.045277476 -0.26229358 0.04533702
0001e0 92 a5 ac be 62 14 c0 3e 80 72 68 bd b8 89 5f be
       -0.3372007 0.3751555 -0.05674982 -0.2182988
0001f0 ac d5 ab be ec eb 7b 3e 0a 3d f0 be 98 02 cf be
       -0.33561456 0.24601716 -0.4692157 -0.40431666

features_extractor.value_net.0.bias f4 [32]
000000 a3 1d 23 3f 5f ad cd 3e 48 1a 0b 3f 9a 99 db be
       0.637171 0.40171334 0.54336977 -0.42890626
000010 ba fe b9 be 26 04 14 3f 1d 5e 4a 3f 7e b4 b6 3e
       -0.36327153 0.5781883 0.79049855 0.3568458
000020 97 42 5c bf 0e 18 e0 be 92 d6 a9 be 3e 7c 32 3f
       -0.8603911 -0.43768352 -0.33171517 0.6972083
000030 20 99 61 be 86 c3 fd be 23 71 e0 3e a7 cc 9a be
       -0.22031069 -0.49563235 0.43836316 -0.30234262
000040 dd ef 43 3f 53 73 77 3e be 71 f7 3c fa 08 a8 be
       0.7653788 0.24165086 0.030205604 -0.3281935
000050 9d b2 1e bd f5 79 3c 3e ec 66 f5 be 9d cf 0b bf
       -0.038744558 0.18405898 -0.47930086 -0.5461367
000060 d4 8b 49 3f c7 64 c1 3d f7 4f f8 be 42 13 5c be
       0.78728986 0.0944305 -0.48498508 -0.21491721
000070 06 63 c1 3e 14 dc 29 be ee 48 ad be ac 28 12 be
       0.3777086 -0.1658786 -0.33844703 -0.14273328

features_extractor.value_net.2.weight f4 [1, 32]
000000 95 af 82 3e 2b 3f 0b 3f 2c 44 6b 3e ec a2 8a bf
       0.25524583 0.5439326 0.22975224 -1.083097
000010 65 d9 b2 bd 54 ca b7 3e d0 c3 d4 3e b3 a4 b4 3e
       -0.08732871 0.35896552 0.41555643 0.35281906
000020 fb 49 4d bf 68 be 3a bd f3 09 51 bf 5f c4 aa 3e
       -0.8019101 -0.04559174 -0.81655806 0.33352944
000030 1e fa 82 3c 24 21 cd 3d 07 ae d9 3e 45 56 51 bf
       0.015988406 0.10016087 0.42515585 -0.8177226
000040 cf e6 8f 3e 37 5b ce 3e e8 77 27 be 0b ca 85 be
       0.2810578 0.40303966 -0.16354334 -0.2613071
000050 4c 47 d2 be 4b b1 53 3d 98 b5 a0 bd dd 56 9d be
       -0.4107002 0.05168275 -0.07847136 -0.30730334
000060 f8 f7 cf 3e a7 ad 3a bf c5 64 e2 bd cb b6 89 be
       0.40618873 -0.7292122 -0.110543765 -0.26897272
000070 87 e0 5e bf d2 ef e9 bd d0 30 34 3e 85 92 4f 3d
       -0.8706135 -0.11422695 0.17596745 0.05067684

action_net.weight f4 [2, 64]
000000 bc cc 36 3d 57 c5 05 3e e7 4e f8 3c e3 54 ae 3d
       0.044628844 0.1306356 0.030311061 0.085122846
000010 03 13 00 be 41 ff 99 3d 13 a3 f2 3c 0c 5f da bd
       -0.12507252 0.07519389 0.029618775 -0.1066266
000020 4d e9 03 3e 89 43 1e 3e ea 30 2a bd 00 3a b7 bd
       0.12881966 0.1545545 -0.041550554 -0.089466095
000030 59 5d 08 3e 1b bf f3 bd 1f 41 2d 3c 26 d0 ee bd
       0.1331686 -0.11901685 0.010574608 -0.11660795
000040 8d 42 a7 3d 9b 07 03 bd df 6d ed bc 33 76 c7 bc
       0.081669904 -0.031989675 -0.028983055 -0.024348354
000050 e9 b9 17 bd c6 47 8f 3d 8d c3 71 3d 3a 71 a4 bd
       -0.037042532 0.069961116 0.059024382 -0.08029409
000060 5d dd 0f bd 08 00 88 bd fc f6 27 bd 1e 3f 9b bc
       -0.035123218 -0.06640631 -0.041007027 -0.018950995
000070 ac 51 cb 3d c4 2b a1 bd 96 23 07 be b7 61 99 3d
       0.09927687 -0.07869676 -0.13197169 0.07489341
000080 ae f9 02 be ea 16 93 3a 93 25 ff 3c a7 ae 5b 3a
       -0.12790558 0.0011222039 0.031145846 0.0008380212
000090 08 b7 96 3d 98 0d 90 bd 78 3d b4 bd 37 9a 6a 3b
       0.07359129 -0.07033843 -0.08800787 0.0035797486
0000a0 38 66 08 3a d4 ff 74 3d a0 c7 ac 3d 9a f3 a6 bd
       0.000520322 0.05981429 0.08436513 -0.08151932
0000b0 e9 31 e7 bd ed 05 1e 3c a0 61 e8 3d d9 4c b7 3d
       -0.112888165 0.0096449675 0.113467455 0.089502044
0000c0 e5 6d 1e be 9b 26 d9 bd a7 91 9b 3d 93 a2 4b 3d
       -0.15471609 -0.106030665 0.0759614 0.04971559
0000d0 d0 b5 df bd d0 42 97 bd 66 3c 7d bd 0d f5 ac bb
       -0.1092335 -0.0738579 -0.06182518 -0.0052782358
0000e0 4f 93 bf bd 49 11 a9 3d ae 83 c9 bd 69 9e 0e be
       -0.09354269 0.0825525 -0.09839569 -0.13927616
0000f0 be b9 d8 bd b9 d0 49 be 7f c4 00 3d 6a d9 d0 bd
       -0.105823025 -0.19708528 0.031437393 -0.101977184
000100 ed 2a 13 be a4 d8 13 3e 82 79 00 3e 33 dd ae 3d
       -0.14371844 0.1443811 0.12546352 0.08538284
000110 17 35 a7 bd df b7 20 be 23 f8 03 be 99 22 18 3e
       -0.08164423 -0.15695141 -0.12887625 0.14856948
000120 1b 29 d9 3d d7 ea 43 3e 5c f1 22 be 07 f7 33 3e
       0.10603543 0.19132553 -0.15912384 0.17574702
000130 f2 2d 11 3e a0 bf a2 3d 69 30 57 3d 9d a6 b9 3c
       0.14177683 0.07946706 0.052536402 0.022662455
000140 94 22 6c 3d ae 55 49 be d1 3a f4 bd 34 74 90 bd
       0.057650164 -0.1966159 -0.11925281 -0.07053414
000150 01 e0 75 3c e3 02 08 3e dd 99 5d bc dd af c0 bd
       0.01500702 0.13282351 -0.013525453 -0.09408543
000160 50 31 38 3e 62 4d 4a 3e 43 36 77 bd d1 9a d2 bd
       0.17987561 0.19756082 -0.060354482 -0.10283435
000170 f0 15 33 3c 52 63 3c be d6 02 91 bd 60 3a ce bd
       0.010930523 -0.18397263 -0.07080619 -0.10069728
000180 ff 48 29 3e 30 52 28 3e bd 5c 54 3d d4 1a 7d bd
       0.16531752 0.16437602 0.051846255 -0.061793163
000190 c8 7f a6 3c aa 02 27 be 40 d5 ee 3d 53 47 ae 3d
       0.020324603 -0.1630961 0.11661768 0.08509698
0001a0 90 a4 10 3e 01 bc 47 be f0 ef 61 3d 5f 54 1d bd
       0.14125276 -0.19505312 0.055160463 -0.03841054
0001b0 bc 22 0e be f5 e2 88 3d cb c2 67 3d f0 41 2a be
       -0.13880438 0.066839136 0.056582253 -0.16626716
0001c0 5e c9 e0 bd 0f 40 25 be a9 0e 1f be de 42 01 3e
       -0.10975908 -0.16137718 -0.15532936 0.12623164
0001d0 47 f9 8f bd 75 bf 93 bd f5 78 3c 3e 7a b4 0f be
       -0.07029968 -0.07214252 0.18405516 -0.1403369
0001e0 22 26 12 3e b7 cd ca 3c e9 64 3e bc a3 4e ff bd
       0.14272359 0.024756296 -0.011620739 -0.12466171
0001f0 f2 d5 44 bc 3d 1a 2f 3e 47 28 3a be c8 48 61 bc
       -0.012013899 0.17099853 -0.18179427 -0.013750263

action_net.bias f4 [2]
000000 e6 3d 5e bb c5 6c 3b 3e
       -0.0033911406 0.18303211
