model/actor_critic_Reward_prediction_v1.pth (torch, 461146 bytes, 24 tensors)

log_std f4 [2]
0.7488578 1.0511457
00000000: 25b5 3f3f f18b 863f

features_extractor.encoder.conv.0.weight f4 [4, 1, 3, 3]
-0.19188027 0.024087308 0.030710371 -0.15358886 0.16128276 0.048351966 -0.27614412 0.24690688
0.04326645 0.13216384 0.21990833 0.18401492 -0.45352775 -0.38393816 0.28116703 0.25503904
0.19409224 -0.48304257 0.032811444 -0.023221355 0.16243175 -0.20206583 -0.14604281 0.1196585
-0.03989713 -0.26856425 0.24491315 0.016631767 -0.014731853 0.04437604 0.10036498 0.07308203
0.10014585 -0.05717377 0.12912385 0.079826005
00000000: 437c 44be bf52 c53c 5194 fb3c 6646 1dbe
00000010: 4f27 253e b60c 463d c362 8dbe 28d5 7c3e
00000020: 2938 313d f555 073e a62f 613e 686e 3c3e
00000030: ca34 e8be 8b93 c4be 20f5 8f3e 7a94 823e
00000040: 1ec0 463e 5b51 f7be 4b65 063d b63a bebc
00000050: 8254 263e 58ea 4ebe 3f8c 15be 840f f53d
00000060: 2c6b 23bd 4181 89be 83ca 7a3e 583f 883c
00000070: df5d 71bc a7c3 353d 288c cd3d 08ac 953d
00000080: 4419 cd3d 0b2f 6abd 0b39 043e d17b a33d

features_extractor.encoder.conv.0.bias f4 [4]
-0.021082941 -0.02572649 -0.05165015 -0.05175208
00000000: 22b6 acbc 5cc0 d2bc 1c8f 53bd fdf9 53bd

features_extractor.encoder.conv.2.weight f4 [8, 4, 3, 3]
-0.21219157 0.036588952 0.09900388 -0.6289141 -0.07609802 -0.25477344 0.21570763 0.04404823
0.1293883 0.12511127 0.039498977 0.060811672 0.22147661 0.3169441 0.09386014 -0.1244426
-0.19698024 0.0084911985 0.044687875 0.23751886 -0.111969195 -0.20773627 -0.17245364 -0.036336266
0.003374217 0.111811616 -0.06504305 -0.24282932 -0.02438982 0.00011935005 0.36846745 0.18760213
-0.37147918 -0.17522229 -0.33278635 0.06320732 0.25320706 -0.5836907 0.0338013 -0.15331863
0.0068268417 0.19995546 0.071369454 0.18790536 0.18404129 0.035744175 -0.01106742 -0.04072553
0.12809123 -0.28300637 -0.035959113 -0.11010968 0.13519385 0.01087724 0.16399021 -0.2356788
0.0032949739 -0.60854656 0.025865123 0.12593958 0.19841906 0.0726927 0.12682724 0.18446101
-0.29792702 -0.07182642 0.05133345 -0.2961983 0.005995989 -0.05527341 0.06698355 0.05206867
-0.009753961 0.025633553 -0.017262653 0.0013892729 -0.08442707 -0.039789815 -0.12671822 -0.06038408
-0.10294352 0.088117726 -0.0040186252 0.024794972 0.06287685 0.049852364 -0.046678904 -0.010901159
-0.016279379 -0.038601074 -0.07131901 -0.048107266 0.06534517 0.044041116 -0.012171491 -0.19234625
-0.083034255 -0.16431591 0.053145293 0.012174769 0.05347301 0.06362215 0.24927995 0.19108173
0.11738169 0.08879695 0.0753721 0.15266217 0.10971264 0.035278883 -0.030708384 -0.15437976
-0.029464591 0.07965609 0.091573924 0.034301624 -0.1490779 0.019211344 0.05784016 -0.1844471
0.0426945 0.08660404 -0.21217944 -0.07449377 -0.04676812 0.040174138 -0.011021237 0.36743632
-0.10311879 0.07490151 0.119901955 0.053879373 0.029601878 0.11149602 -0.072890975 -0.14990798
0.15649816 0.006681899 -0.27688724 0.21943876 0.09777859 -0.16644344 -0.042197526 0.13990635
0.12039442 0.29211432 -0.4588196 0.33463675 0.40313727 -0.7047364 -0.07288384 -0.0036488348
0.110650375 0.02387137 -0.038296793 0.10166624 0.04539786 0.027570453 0.069345325 0.109997675
0.072903804 -0.07423913 0.16336727 -0.11411836 -0.43218333 0.204423 -0.10696233 -0.75663567
0.024366947 -0.2281932 -0.28498667 0.087894686 0.14958273 -0.22320357 0.121357925 0.13891035
-0.2749088 0.05132094 0.09906828 -0.1577056 -0.45907655 0.2843885 -0.34772524 -0.7409653
-0.015058842 -0.81111246 -0.024164196 0.06910606 -0.44482723 -0.009459992 -0.3078124 -0.6906825
-0.7755073 -1.5666962 -0.61971134 -0.98197126 -1.2788672 -0.9597744 0.2617825 0.33449057
-0.014149999 -0.91687536 -0.1114741 -0.63005835 0.041007582 0.114505 -0.4693049 0.068033144
0.33673435 0.20604087 -0.3397251 -0.19731653 -0.35765263 0.30574742 0.1837121 0.11827437
-0.06017039 -0.2716418 0.4123976 -0.4483335 -0.3341785 0.2675144 0.21499088 0.08645159
-0.05552331 0.122808635 -0.8982947 -0.70272785 -0.28638196 -1.3225642 -1.0141351 -0.11950818
-0.3220216 -0.37588826 -0.16579929 -0.4870876 0.22048733 -0.15355271 -0.23367564 0.20338027
-0.28186992 -0.349073 0.082518324 0.20552734 0.1753788 0.121368475 0.15573941 -0.07038864
0.010319864 -0.122155845 -0.38426584 0.046483714 -0.017397331 -0.14987135 0.0033839208 -0.085024744
00000000: bf48 59be 4cde 153d 8cc2 ca3d 8400 21bf
00000010: 47d9 9bbd aa71 82be 76e2 5c3e eb6b 343d
00000020: 5e7e 043e 2b1d 003e aec9 213d a915 793d
00000030: c4ca 623e 7f46 a23e bf39 c03d c3db febd
00000040: 30b5 49be ab1e 0b3c a20a 373d 2538 733e
00000050: 1b50 e5bd d1b8 54be b097 30be 56d5 14bd
00000060: f821 5d3b 7dfd e43d 4a35 85bd 40a8 78be
00000070: 29cd c7bc 924b fa38 c4a7 bc3e c61a 403e
00000080: 8532 bebe 796d 33be f962 aabe d772 813d
00000090: 5ba4 813e c16c 15bf 3b73 0a3d 8fff 1cbe
000000a0: b3b3 df3b 20c1 4c3e 262a 923d 436a 403e
000000b0: 5275 3c3e 7c68 123d 2054 35bc d0cf 26bd
000000c0: 592a 033e 36e6 90be dd49 13bd 2f81 e1bd
000000d0: 4270 0a3e 7436 323c 0ded 273e c955 71be
000000e0: 7df0 573b b5c9 1bbf 18e3 d33c 4ef6 003e
000000f0: 5e2e 4b3e e9df 943d 00df 013e 59e3 3c3e
00000100: e489 98be bb19 93bd 0643 523d 4ea7 97be
00000110: 007a c43b 5f66 62bd ac2e 893d f545 553d
00000120: 14cf 1fbc 75fd d13c 686a 8dbc 4318 b63a
00000130: 1ae8 acbd a5fa 22bd 6cc2 01be 4c55 77bd
00000140: 0dd4 d2bd 1177 b43d acae 83bb d31e cb3c
00000150: 94c5 803d fe31 4c3d 6132 3fbd c69a 32bc
00000160: 555c 85bc 291c 1ebd b30f 92bd 200c 45bd
00000170: b0d3 853d 7564 343d ef6a 47bc 6af6 44be
00000180: dd0d aabd 6e42 28be e1ae 593d af78 473c
00000190: 8406 5b3d 544c 823d 3e43 7f3e eeaa 433e
000001a0: d065 f03d 2ddb b53d b05c 9a3d 7953 1c3e
000001b0: 05b1 e03d 9780 103d 2690 fbbc ba15 1ebe
000001c0: ba5f f1bc bb22 a33d 1c8b bb3d dc7f 0c3d
000001d0: e1a7 18be 1c61 9d3c cee9 6c3d b3df 3cbe
000001e0: 6ee0 2e3d 755d b13d 9145 59be 3190 98bd
000001f0: ee8f 3fbd a38d 243d 6b92 34bc 9d20 bc3e
00000200: f22f d3bd f665 993d 288f f53d 9eb0 5c3d
00000210: a37f f23c 0658 e43d dd47 95bd 7a81 19be
00000220: 0e41 203e d5f3 da3b 2ac4 8dbe 8eb4 603e
00000230: 2440 c83d 2670 2abe 50d7 2cbd 9c43 0f3e
00000240: 5a91 f63d 0290 953e 67ea eabe 8255 ab3e
00000250: 0268 ce3e 9b69 34bf 1f44 95bd 4a21 6fbb
00000260: aa9c e23d e48d c33c 19dd 1cbd 6436 d03d
00000270: 1bf3 393d 6edb e13c ec04 8e3d 7646 e13d
00000280: 974e 953d af0a 98bd c049 273e e3b6 e9bd
00000290: 2247 ddbe 4354 513e 110f dbbd e0b2 41bf
000002a0: 319d c73c 7aab 69be c6e9 91be 2102 b43d
000002b0: 372c 193e 7a8f 64be 818a f83d 843e 0e3e
000002c0: d9c0 8cbe e835 523d 4fe4 ca3d 947d 21be
000002d0: 150c ebbe 5f9b 913e 0b09 b2be e7af 3dbf
000002e0: 5cb9 76bc 11a5 4fbf fef3 c5bc 7a87 8d3d
000002f0: 65c0 e3be 15fe 1abc 9699 9dbe 91d0 30bf
00000300: a587 46bf 8089 c8bf 67a5 1ebf 7862 7bbf
00000310: ecb1 a3bf c6b3 75bf 5b08 863e 5942 ab3e
00000320: 66d5 67bc 58b8 6abf 884c e4bd 814b 21bf
00000330: 91f7 273d 9981 ea3d bb48 f0be f654 8b3d
00000340: 7268 ac3e 61fc 523e 73f0 adbe 580d 4abe
00000350: 3f1e b7be ed8a 9c3e 061f 3c3e d539 f23d
00000360: 3a75 76bd a214 8bbe c725 d33e f88b e5be
00000370: 7219 abbe a6f7 883e 9226 5c3e 880d b13d
00000380: 696c 63bd 1883 fb3d a4f6 65bf f9e5 33bf
00000390: a8a0 92be c949 a9bf 2ecf 81bf b4c0 f4bd
000003a0: 04e0 a4be 6d74 c0be 4ac7 29be 8c63 f9be
000003b0: 6ec7 613e ec3c 1dbe ab48 6fbe eb42 503e
000003c0: 4151 90be b2b9 b2be 5eff a83d c275 523e
000003d0: 8096 333e 0990 f83d 277a 1f3e eb27 90bd
000003e0: a614 293c d82c fabd 7ebe c4be b565 3e3d
000003f0: d984 8ebc e077 19be c5c4 5d3b 7421 aebd

features_extractor.encoder.conv.2.bias f4 [8]
-0.03727004 -0.018087264 -0.036851253 -0.003587983 -0.007820368 -0.01770149 -0.10376158 -0.0016798719
00000000: 78a8 18bd be2b 94bc 57f1 16bd 5e24 6bbb
00000010: 0021 00bc b702 91bc f480 d4bd 262f dcba

features_extractor.encoder.conv.4.weight f4 [16, 8, 3, 3]
-0.8979933 -0.60314846 0.42840195 -1.0528586 -0.28127462 -0.72039354 -0.3260072 -0.49130717
-0.24614908 0.019159589 -0.46094942 -0.47585094 0.16210379 -0.42262843 -0.061063737 -0.161409
-0.41631183 -0.20947748 0.03225673 0.25505054 0.1476665 0.052604884 0.1645138 0.13074721
0.11345712 -0.027079107 0.030544594 -0.038789146 -0.19231609 -0.08092525 -0.04679134 -0.025420075
-0.32209206 -0.11713953 -0.05626164 0.06028917 0.038209856 -0.22769386 -0.3263173 0.17121458
0.079174 0.045923736 -0.06520114 0.061207976 -0.20822111 -0.87216973 -0.676259 -0.20725262
0.2547751 0.22400126 -0.102358766 -0.7812483 -0.52723885 0.021196848 -0.18667918 -0.5428601
0.25481418 0.0631495 -0.32569018 -0.12028982 -0.14928879 0.36952823 0.32927614 -0.14516582
0.17674755 0.0054982784 -0.122379705 -0.3204034 -0.20458408 0.03286372 0.17821638 0.30007157
-0.0029781947 0.086469665 -0.13431908 -0.029971449 0.25256678 -0.06799935 -0.075148284 0.22356376
-0.015439335 -0.20589423 -0.25968176 0.0657111 -0.27161258 -0.8541215 0.030982941 0.03642162
-0.34339836 -0.05877105 -0.12565327 0.33323956 -0.14482452 -0.14269017 0.33572677 -0.109673575
-0.06898616 0.227351 -0.04557897 0.116711155 -0.23963696 -0.24574287 0.20530345 -0.6575356
-0.05015727 0.21184471 -0.41144854 -0.09902214 0.0042055687 -0.77607244 0.13680324 0.070619725
-1.5725218 0.18130805 0.10894011 -1.2641722 0.15456608 -0.09095795 0.15100415 0.022624584
-0.020309005 0.056432083 -0.04135141 -0.034130305 0.060954772 0.0072424905 -0.65224034 0.14933054
-0.31221473 -0.8898511 0.101868235 0.023121309 -0.71794003 0.21456678 0.029813865 -0.1479
0.13455041 -0.09732341 -0.11910446 0.18511184 -0.15985866 -0.055128247 0.13785993 -0.11505023
-0.046616573 -0.050806113 -0.02902465 -0.2194303 0.19634004 0.015146964 -0.16561471 -0.02142501
0.05277316 -0.10859161 0.13720523 0.10844489 -0.054466248 0.14511202 0.037764445 -0.022852434
-0.32616675 -0.27635095 -0.0016443103 0.052147567 0.11814133 -0.053288568 0.21162076 0.083370276
-0.040114027 -0.050871935 -0.17026292 -0.18104923 0.0107634375 0.002739567 -0.10587969 0.1763344
0.12549646 -0.1298939 -0.083305545 -0.025804983 -0.09372141 0.02313552 0.03468835 -0.16232328
0.006734353 0.25834823 -0.042993996 -0.0608373 0.018136933 0.070951186 -0.34371275 -0.37325287
0.16781741 -0.7154891 -0.9491046 0.08545998 -0.313212 -0.21504278 -0.11963433 -0.5081197
-0.16872832 -0.31138405 -0.9193575 -0.44991457 0.0043956307 -0.11881203 0.08911216 -0.10628399
0.16621909 0.30671436 -0.1869183 0.28240883 0.108391225 0.0035913954 0.011417766 0.050703116
0.012155141 -0.2552754 -0.22158189 -0.23229714 -0.1532719 0.2957829 -0.005489574 -0.017804924
0.3356791 0.12588719 -0.35742027 -0.24858487 0.1695069 -0.32374686 -0.5367541 0.09654893
0.11223417 -0.5936528 0.057346296 -0.12517129 0.34904006 -0.012721647 -0.04912976 0.38047504
0.09394253 -0.020898817 0.18511055 -0.017272495 0.080995515 -0.17314477 -0.08897028 0.18237889
-0.60549206 -0.08385034 0.2516665 -0.62240636 -0.006230695 0.06805169 -0.7880474 -0.056432903
00000000: e4e2 65bf f067 1abf 8057 db3e 12c4 86bf
00000010: 3a03 90be b66b 38bf 6aea a6be 9d8c fbbe
00000020: 810e 7cbe 92f4 9c3c 9001 ecbe bca2 f3be
00000030: 89fe 253e c162 d8be f81d 7abd 6748 25be
00000040: d326 d5be 4481 56be a21f 043d fc95 823e
00000050: e335 173e 3878 573d 4e76 283e 99e2 053e
00000060: 355c e83d 01d5 ddbc a838 fa3c 5ee1 1ebd
00000070: 82ee 44be 23bc a5bd 47a8 3fbd c33d d0bc
00000080: 40e9 a4be dae6 efbd 9b72 66bd c7f1 763d
00000090: f081 1c3d 9428 69be 1013 a7be e052 2f3e
000000a0: fa25 a23d 871a 3c3d 2d88 85bd 37b5 7a3d
000000b0: ea37 55be 8446 5fbf 4f1f 2dbf 083a 54be
000000c0: e271 823e 9660 653e 79a1 d1bd e3ff 47bf
000000d0: 20f9 06bf 03a5 ad3c d428 3fbe e1f8 0abf
000000e0: 0177 823e 8654 813d ddc0 a6be 825a f6bd
000000f0: 29df 18be ce32 bd3e e296 a83e 59a6 14be
00000100: 4ffd 343e e72a b43b 36a2 fabd ea0b a4be
00000110: 7d7e 51be 1c9c 063d 5b7e 363e fba2 993e
00000120: d12d 43bb 0217 b13d f18a 09be af86 f5bc
00000130: 6f50 813e 3e43 8bbd 58e7 99bd e6ed 643e
00000140: 44f5 7cbc f0d5 52be 02f5 84be 8b93 863d
00000150: ce10 8bbe b5a7 5abf f0cf fd3c d62e 153d
00000160: e9d1 afbe eab9 70bd 40ab 00be 609e aa3e
00000170: e14c 14be 5f1d 12be 61e4 ab3e 8a9c e0bd
00000180: 9e48 8dbd b3ce 683e 04b1 3abd 4206 ef3d
00000190: 6463 75be 05a4 7bbe 113b 523e 4154 28bf
000001a0: b671 4dbd d2ed 583e 62a9 d2be 1fcc cabd
000001b0: dece 893b afac 46bf 2616 0c3e 13a1 903d
000001c0: 6548 c9bf d1a8 393e fe1b df3d 65d0 a1bf
000001d0: 9246 1e3e 2948 babd d5a0 1a3e 3157 b93c
000001e0: 125f a6bc 5425 673d 1960 29bd 38cc 0bbd
000001f0: b6ab 793d 6a52 ed3b 39f9 26bf 1bea 183e
00000200: 9cda 9fbe 48cd 63bf 4ba0 d03d e668 bd3c
00000210: ebca 37bf 65b7 5b3e 353c f43c 1973 17be
00000220: 95c7 093e 7f51 c7bd 0aed f3bd f58d 3d3e
00000230: fdb1 23be 28ce 61bd 272b 0d3e 749f ebbd
00000240: 05f1 3ebd 121a 50bd 1ac5 edbc 56b2 60be
00000250: 5d0d 493e f92a 783c e796 29be 8183 afbc
00000260: ab28 583d 4765 debd 877f 0c3e 5b18 de3d
00000270: 0018 5fbd 3f98 143e e4ae 1a3d 0735 bbbc
00000280: 54ff a6be df7d 8dbe e685 d7ba b098 553d
00000290: 15f4 f13d 1d45 5abd 1db3 583e 09be aa3d
000002a0: 9b4e 24bd 175f 50bd 6759 2ebe f864 39be
000002b0: 2159 303c 4f8a 333b 73d7 d8bd 0191 343e
000002c0: 2582 003e e802 05be 199c aabd f964 d3bc
000002d0: 03f1 bfbd b486 bd3c 5f15 0e3d 1338 26be
000002e0: d9ab dc3b 3846 843e 791a 30bd 8830 79bd
000002f0: e893 943c db4e 913d 1efb afbe 001b bfbe
00000300: 54d8 2b3e 4b2a 37bf 85f8 72bf a405 af3d
00000310: 535d a0be 2d34 5cbe d802 f5bd 2214 02bf
00000320: 1ec7 2cbe bb6d 9fbe 035b 6bbf 345b e6be
00000330: 3909 903b b953 f3bd 7080 b63d 6cab d9bd
00000340: 5635 2a3e aa09 9d3e 8367 3fbe e497 903e
00000350: 38fc dd3d 9e5d 6b3b 9511 3b3c 12ae 4f3d
00000360: 5b26 473c 75b3 82be 5de6 62be 4ddf 6dbe
00000370: 4ff3 1cbe db70 973e e2e1 b3bb a2db 91bc
00000380: 22de ab3e 92e8 003e caff b6be 088d 7ebe
00000390: 3793 2d3e 26c2 a5be b768 09bf 72bb c53d
000003a0: 07db e53d a1f9 17bf f3e3 6a3d e72c 00be
000003b0: 61b5 b23e 746e 50bc 4a3c 49bd a0cd c23e
000003c0: f164 c03d ff33 abbc 9f8d 3d3e 0c7f 8dbc
000003d0: fae0 a53d dd4c 31be 0d36 b6bd 88c1 3a3e
000003e0: 8701 1bbf bab9 abbd 6eda 803e 0656 1fbf
000003f0: dc2a ccbb af5e 8b3d 79bd 49bf 3026 67bd

features_extractor.encoder.conv.4.bias f4 [16]
-0.08924295 -0.03161472 -0.0013005548 -0.024860615 -0.2250304 -0.015747992 -0.008249561 -0.115124345
-0.029105773 -0.08505362 -0.016596101 -0.15121257 -0.11175233 -0.010162799 -0.0019967824 -0.06356849
00000000: 02c5 b6bd 707e 01bd 6177 aaba 7da8 cbbc
00000010: 5f6e 66be ef01 81bc 2b29 07bc 50c6 ebbd
00000020: 3b6f eebc 9830 aebd 8cf4 87bc 78d7 1abe
00000030: 68de e4bd de81 26bc 73dc 02bb 3230 82bd

features_extractor.encoder.conv.6.weight f4 [32, 16, 3, 3]
-0.27189642 -0.09173473 -0.024767267 -0.36478785 -0.016215403 -0.2960082 -0.27893728 0.029771877
-0.059472565 -0.2082346 -0.023313152 -0.22561923 -0.3678549 -0.060459632 0.0043522357 -0.18293433
-0.0271418 0.0059197117 0.10968415 0.011748675 0.040776044 0.08299389 -0.021218417 0.19382538
-0.012624813 -0.089132324 0.09400998 -0.11918912 -0.2688341 -0.24816711 -0.1304511 -0.3173181
-0.124821596 -0.22337188 -0.24016087 -0.109684385 -0.35060695 -0.23438872 0.13795224 -0.45556307
-0.39532095 0.124648616 -0.31165722 -0.19971943 -0.03732245 -0.19070789 -0.10251673 -0.056012835
-0.057689432 -0.13534418 0.02020092 0.010986508 0.024819486 0.10438386 -0.20925361 -0.2927205
0.037784774 -0.31029215 -0.5463269 0.092303485 -0.24903119 -0.048147313 0.047841333 -0.11161885
-0.17494062 0.0667831 0.1776579 -0.22273178 0.15769503 0.10180068 -0.13938017 -0.0030752101
0.21319437 -0.11006554 0.01672328 0.28097168 0.030700687 0.12775673 0.19320904 0.102974586
0.19503888 -0.21500508 -0.0992776 -0.4428256 -0.30565265 -0.1211744 0.059093155 -0.5710005
-0.10450011 -0.29998714 -0.36317155 -0.3023721 -0.13279249 -0.7384581 0.04166152 0.06666541
-0.3602609 -0.11851519 0.15687028 0.048469976 0.062371563 -0.05555436 -0.04698677 0.022717308
-0.055081658 0.023301702 0.027059814 -0.07336315 -0.00078670465 -0.01480014 0.012947537 0.060734663
0.11098226 -0.021677785 0.03543328 -0.027400736 -0.02949689 0.108379416 0.21056491 0.06519638
0.048626635 0.16441639 0.07249985 -0.18581866 -0.07827553 -0.10199354 0.097474605 0.08105602
-0.078260176 0.097649716 0.2026842 -0.23043868 0.04920057 0.06097156 -0.12935096 -0.6249597
0.26834413 0.042617846 -0.52925384 0.24015953 -0.009987907 -0.18198308 0.17042056 -0.31823578
-0.18623294 0.14842653 -0.22916973 -0.08813722 -0.3433934 -0.023205157 -0.19773772 0.023295293
-0.0057020145 -0.2873397 -0.39129037 -0.17066559 -0.06280712 -0.20488095 -0.0579278 0.07660764
0.24854364 0.07356092 0.0069395658 0.11205628 -0.051491845 -0.279358 -0.23823218 -0.13821068
-0.27647245 -0.48935038 -0.08794747 -0.058188397 -0.14015353 -0.25590834 -0.069189474 0.123112805
-0.10429515 0.11820891 0.20729671 0.024756022 -0.2568837 0.0033139589 -0.14346473 0.008437691
0.030418066 -0.39190844 -0.04512556 -0.03402227 -0.088325635 -0.06500151 0.035606164 0.02619597
0.22827531 0.13364252 -0.06702524 -0.20371109 -0.5948646 -0.34355813 0.00068544253 0.19295132
-0.05980572 -0.10023795 -0.35320565 -0.39982456 -0.4233574 -0.5860211 -0.19755311 -0.12103232
-0.3094974 -0.51459706 -0.50472826 -0.5196823 -0.46554127 0.056067035 -0.09503863 -0.056076758
0.11984008 -0.24948849 -0.0763228 -0.58524287 -0.6144589 -0.37250185 0.089738324 0.347759
0.20153436 0.077970386 -0.3488242 0.20278215 -0.26259252 -0.26168332 -0.57221943 0.13783197
0.10616843 0.06449988 0.16264081 -0.0074376063 -0.17001863 0.1399333 0.032110877 -0.2516969
0.0843146 -0.0057983114 0.29771942 0.0008489291 0.031217884 0.014209559 0.079196386 0.102840394
-0.011596849 -0.06574493 0.066528216 -0.07992326 -0.027605582 -0.017356882 -0.05176749 0.016296115
00000000: 0236 8bbe 6bdf bbbd b9e4 cabc 79c5 babe
00000010: 2ad6 84bc 638e 97be ded0 8ebe 27e4 f33c
00000020: 8199 73bd 733b 55be 39fb bebc ba08 67be
00000030: 7a57 bcbe 85a4 77bd 339d 8e3b 2353 3bbe
00000040: 7b58 debc 24fa c13b 15a2 e03d 847d 403c
00000050: c804 273d b3f8 a93d 3fd2 adbc 297a 463e
00000060: 4ed8 4ebc 028b b6bd 4e88 c03d 6d19 f4bd
00000070: a0a4 89be 851f 7ebe f994 05be 8577 a2be
00000080: 77a2 ffbd 99bb 64be bbec 75be 35a2 e0bd
00000090: c182 b3be 9903 70be 5a43 0d3e 903f e9be
000000a0: 8267 cabe c647 ff3d 8991 9fbe 4083 4cbe
000000b0: 6ddf 18bd ee48 43be 4bf4 d1bd b76d 65bd
000000c0: c14b 6cbd aa97 0abe 667c a53c c100 343c
000000d0: 3c52 cb3c 35c7 d53d 9446 56be 76df 95be
000000e0: 35c4 1a3d 9dde 9ebe 14dc 0bbf 9c09 bd3d
000000f0: 0802 7fbe 1e36 45bd 46f5 433d 6c98 e4bd
00000100: a223 33be 94c5 883d f4eb 353e cd13 64be
00000110: ce7a 213e e07c d03d adb9 0ebe 7789 49bb
00000120: a04f 5a3e 0b6a e1bd 43ff 883c 85db 8f3e
00000130: 0280 fb3c a9d2 023e 97d8 453e 57e4 d23d
00000140: 46b8 473e 4b2a 5cbe 0e52 cbbd 09ba e2be
00000150: 817e 9cbe 492a f8bd aa0b 723d 172d 12bf
00000160: 2704 d6bd ea97 99be 9ff1 b9be 84d0 9abe
00000170: c1fa 07be 970b 3dbf 45a5 2a3d e087 883d
00000180: 1e74 b8be 18b8 f2bd 9aa2 203e 7488 463d
00000190: 5379 7f3d f88c 63bd 3375 40bd a619 ba3c
000001a0: 4e9d 61bd 36e3 be3c 8bac dd3c 6b3f 96bd
000001b0: db3a 4eba 497c 72bc e821 543c e9c4 783d
000001c0: ab4a e33d 9c95 b1bc 7d22 113d 8277 e0bc
000001d0: 76a3 f1bc 07f6 dd3d 549e 573e ae85 853d
000001e0: b92c 473d c55c 283e cd7a 943d 3f47 3ebe
000001f0: ec4e a0bd fde1 d0bd c4a0 c73d b300 a63d
00000200: df46 a0bd 93fc c73d 728c 4f3e 1ef8 6bbe
00000210: 8986 493d 51bd 793d 9474 04be 5cfd 1fbf
00000220: 6764 893e 0d90 2e3d 2e7d 07bf 61ec 753e
00000230: 51a4 23bc c659 3abe ba82 2e3e cdef a2be
00000240: d9b3 3ebe 20fd 173e 78ab 6abe 4981 b4bd
00000250: 42d1 afbe be18 bebc c27b 4abe c5d5 be3c
00000260: f7d7 babb 301e 93be 3657 c8be f6c2 2ebe
00000270: 05a1 80bd 50cc 51be b345 6dbd 77e4 9c3d
00000280: 3982 7e3e 1ca7 963d 4c65 e33b c37d e53d
00000290: 1de9 52bd 0308 8fbe 23f3 73be 1a87 0dbe
000002a0: cc8d 8dbe 228c fabe ce1d b4bd f556 6ebd
000002b0: 6884 0fbe 6b06 83be 36b3 8dbd 9122 fc3d
000002c0: b298 d5bd 8317 f23d 9745 543e 24cd ca3c
000002d0: 4386 83be 012f 593b 6be8 12be 3e3e 0a3c
000002e0: 4f2f f93c 39a8 c8be 94d5 38bd f05a 0bbd
000002f0: 12e4 b4bd 831f 85bd c5d7 113d ee98 d63c
00000300: 01c1 693e 96d9 083e 8744 89bd a499 50be
00000310: 0c49 18bf dae6 afbe 45af 333a 0895 453e
00000320: d8f6 74bd 8e49 cdbd 5fd7 b4be ceb5 ccbe
00000330: 4dc2 d8be 7b05 16bf 5d4b 4abe cbdf f7bd
00000340: 7176 9ebe a2bc 03bf df35 01bf e609 05bf
00000350: 6d5b eebe 8ca6 653d 9da3 c2bd beb0 65bd
00000360: b76e f53d e979 7fbe 214f 9cbd 7ad2 15bf
00000370: 2e4d 1dbf 90b8 bebe bac8 b73d 780d b23e
00000380: 065f 4e3e f0ae 9f3d 1699 b2be 20a6 4f3e
00000390: 8772 86be 5bfb 85be f97c 12bf d323 0d3e
000003a0: d56e d93d 8318 843d 508b 263e 2ab7 f3bb
000003b0: 5d19 2ebe ad4a 0f3e b286 033d 6bde 80be
000003c0: 22ad ac3d c3ff bdbb ae6e 983e ab8a 5e3a
000003d0: a6bc ff3c 36cf 683c b731 a23d fc9d d23d
000003e0: b600 3ebc 47a5 86bd f23f 883d ceae a3bd
000003f0: 1a25 e2bc 0530 8ebc 260a 54bd 6e7f 853c

features_extractor.encoder.conv.6.bias f4 [32]
-0.020648073 -0.0059678485 -0.004837553 -0.03682709 -0.012979839 -0.033554334 -0.027670588 -0.08247987
-0.040988304 -0.07991218 0.0002987943 -0.077394076 -0.017376613 -0.037567075 -0.04414009 -0.023302149
-0.035575464 -0.09711443 -0.012074969 -0.017972175 -0.10637221 -0.03566481 -0.21525617 -0.006388178
-0.035451055 -0.0053215344 -0.013460957 -0.17779766 -0.053819437 -0.0063200425 -0.030760106 -0.14287016
00000000: 2626 a9bc f18d c3bb 5684 9ebb 01d8 16bd
00000010: 64a9 54bc 4570 09bd 6ead e2bc 35eb a8bd
00000020: 5ae3 27bd ffa8 a3bd 7ea7 9c39 c980 9ebd
00000030: 6659 8ebc efdf 19bd 3dcc 34bd 26e4 bebc
00000040: 94b7 11bd eee3 c6bd 17d6 45bc 623a 93bc
00000050: acd9 d9bd 4415 12bd 1d6c 5cbe ec53 d1bb
00000060: 2035 11bd 4460 aebb 598b 5cbc 9710 36be
00000070: c571 5cbd 5c18 cfbb 9efc fbbc 8e4c 12be

features_extractor.encoder.conv.8.weight f4 [64, 32, 3, 3]
0.21210198 -0.3118836 -0.029336873 -0.124326386 -0.009218024 -0.36485228 -0.17549615 -0.10829435
-0.11975402 -1.4531686 0.18360922 0.022359736 -0.091873914 -0.5145055 -0.05559897 0.028103432
0.25482374 -0.14751157 -0.21129464 0.21997406 0.0024293994 -0.32388407 0.039233893 -0.11230367
-0.20471673 -9.92266e-07 0.049083456 -0.34020892 0.018414749 0.25654918 -0.16286923 0.22161207
-0.10423153 -0.07995392 -0.023577286 0.14005908 -0.7984742 -0.24949837 -0.046392445 -0.60871
-0.29838583 -0.031382725 0.09224722 -0.06216967 -0.023663852 -0.15927139 -0.6052476 0.055079844
-0.5910558 -0.26078483 -0.091506734 -0.16673757 -0.17316611 0.018516451 0.05119065 -0.94782144
-0.013041921 -0.023669524 -0.48374256 -0.08312763 0.098768026 0.014938308 -0.00019783263 0.00046517604
-0.007733935 -0.036923174 0.027978433 -0.017007204 -0.07156661 0.06312285 0.047433272 -0.035929427
0.048815984 0.006502185 0.0989525 -0.34958497 -0.15487371 0.18075064 -0.11931062 -0.12941149
0.22202048 -1.2429563 -0.19506194 0.07907261 -0.013393584 0.238702 -0.15465362 -0.20807949
0.48366046 -0.0269864 0.011901549 0.030248431 -0.16059448 0.4539498 0.106664844 0.043322183
0.06408847 0.10125163 0.23577175 -0.018548425 -0.080244236 0.07486959 0.0011344115 -0.022207933
0.039962586 -0.054934222 -0.05506934 0.041492842 0.09223702 0.077281795 -0.006539554 0.31402612
0.24097279 -0.12936103 -0.088268 0.17806733 -0.24100426 0.18272586 0.2380515 0.102972806
0.114818536 0.5232157 -0.016271835 -0.43432492 0.10907107 -0.122354604 -0.2351228 -0.9391881
-0.11617963 -0.7917018 -0.67231655 -0.13446793 -0.31010988 -0.19216771 0.026924353 -0.20311774
-0.6612976 -0.3217641 -0.4858796 -0.54395664 -0.2225207 -0.09388274 -0.06601651 -0.09316044
-0.22252461 0.21068852 -0.07397273 -0.34873235 0.08195011 0.010562054 -0.021088442 -0.27546996
0.186489 -0.14703177 -0.06547325 -0.15830977 -0.016352173 -0.5471541 0.074098326 -0.056834403
-0.37704924 0.42201298 0.51680106 0.5605196 0.049235806 0.34487173 0.35271195 0.10828326
-0.49377403 -0.20614661 -0.11616594 -0.049758967 0.34577203 -0.01972267 0.12931219 0.4113109
0.014071588 -0.030223556 0.14459959 -0.15847115 -0.006167064 -0.011689314 0.0047611124 0.001525399
-0.06203336 -0.040854007 -0.062537774 -0.08071379 -0.0052667325 -0.44080365 -0.25230584 0.09129759
-0.2737165 -0.13489623 -0.069257 -0.16394372 -0.22871722 -0.012113777 -0.0005350801 -0.030286353
0.09209508 -0.489198 -0.35957304 -0.107892066 -0.46889317 -0.04308273 0.087342225 -0.5257064
0.15172857 0.04954817 -0.33958733 0.18721576 -0.007879808 -0.054445025 0.09467504 -0.23302634
-0.55199575 -0.21126573 0.013782215 -0.5226275 -0.36203584 0.069774546 -0.034347 0.05645244
-0.024291229 -0.35792744 0.1758932 0.0938972 -0.08484456 0.12696065 0.0008409119 -0.13272785
0.16837732 -0.24409218 0.30826694 0.5178813 0.070640184 0.3540414 0.9529741 0.174029
0.157379 0.34240898 -0.07524079 -0.060787383 0.04319954 -0.11577093 0.015984314 -0.016719999
-0.047269646 -0.06276317 -0.06636385 -0.048677165 0.11226089 0.12674396 -0.019290095 0.33250675
00000000: 4331 593e 35af 9fbe e253 f0bc d59e febd
00000010: 3207 17bc ebcd babe 43b5 33be 6ec9 ddbd
00000020: 9841 f5bd 6e01 babf 0e04 3c3e c42b b73c
00000030: 6428 bcbd a2b6 03bf bfbb 63bd 2b39 e63c
00000040: 4278 823e 460d 17be 9f5d 58be e140 613e
00000050: 8f36 1f3b 22d4 a5be b8b3 203d 77ff e5bd
00000060: 43a1 51be 002e 85b5 bc0b 493d dd2f aebe
00000070: 87da 963c 6a5a 833e 31c7 26be 46ee 623e
00000080: 5777 d5bd e1be a3bd 2725 c1bc a66b 0f3e
00000090: ce68 4cbf 807c 7fbe 0106 3ebd 6bd4 1bbf
000000a0: 07c6 98be 2c8b 00bd 1cec bc3d a0a5 7ebd
000000b0: b2da c1bc 0a18 23be 82f1 1abf 679b 613d
000000c0: 6f4f 17bf 9785 85be e267 bbbd 41bd 2abe
000000d0: 7552 31be d0af 973c 49ad 513d 6da4 72bf
000000e0: c8ad 55bc 97e6 c1bc 1bad f7be d23e aabd
000000f0: e446 ca3d cebf 743c 4b71 4fb9 dfe2 f339
00000100: f36c fdbb c13c 17bd 0733 e53c b152 8bbc
00000110: 8491 92bd 8e46 813d 6449 423d bc2a 13bd
00000120: 45f3 473d 4810 d53b 9ca7 ca3d cdfc b2be
00000130: 3797 1ebe b216 393e 2059 f4bd 7284 04be
00000140: 5659 633e 3119 9fbf 51be 47be d2f0 a13d
00000150: c370 5bbc 4c6e 743e 855d 1ebe ca12 55be
00000160: 58a2 f73e 9512 ddbc b7fe 423c 8fcb f73c
00000170: e172 24be 1c6c e83e 1973 da3d 9a72 313d
00000180: d140 833d 045d cf3d 266e 713e def2 97bc
00000190: 1757 a4bd 3a55 993d 89b0 943a 69ed b5bc
000001a0: cfaf 233d b502 61bd 6390 61bd 66f4 293d
000001b0: c3e6 bc3d eb45 9e3d c149 d6bb 08c8 a03e
000001c0: 92c1 763e 3877 04be dac5 b4bd 4857 363e
000001d0: d2c9 76be 7d1c 3b3e c6c3 733e 68e3 d23d
000001e0: fb25 eb3d 77f1 053f 834c 85bc d65f debe
000001f0: a760 df3d 0d95 fabd 08c4 70be a26e 70bf
00000200: 96ef edbd f8ac 4abf f01c 2cbf f6b1 09be
00000210: b9c6 9ebe 9dc7 44be 7690 dc3c 19fe 4fbe
00000220: cd4a 29bf 44be a4be 36c5 f8be be40 0bbf
00000230: 77dc 63be 9845 c0bd aa33 87bd e7ca bebd
00000240: 7edd 63be bbbe 573e 047f 97bd 0c8d b2be
00000250: 76d5 a73d 770c 2d3c abc1 acbc 660a 8dbe
00000260: f9f6 3e3e 7f8f 16be d716 86bd f51b 22be
00000270: fef4 85bc 4b12 0cbf ddc0 973d 31cb 68bd
00000280: 990c c1be 1612 d83e 134d 043f 367e 0f3f
00000290: 7cab 493d 0793 b03e a996 b43e 9dc3 dd3d
000002a0: f3cf fcbe 1918 53be 69e8 edbd 0fd0 4bbd
000002b0: 0809 b13e 7091 a1bc 6a6a 043e 5897 d23e
000002c0: 858c 663c 6497 f7bc ea11 143e 4346 22be
000002d0: 1515 cabb 8984 3fbc 1b03 9c3b e6ef c73a
000002e0: b116 7ebd 8856 27bd ce13 80bd 464d a5bd
000002f0: 8e94 acbb 04b1 e1be 3b2e 81be 3bfa ba3d
00000300: 9224 8cbe 3d22 0abe 9dd6 8dbd dde0 27be
00000310: d934 6abe dd78 46bc 9e44 0cba 161b f8bc
00000320: 589c bc3d 2978 fabe f519 b8be 84f6 dcbd
00000330: c412 f0be 8477 30bd 7be0 b23d b294 06bf
00000340: bc5e 1b3e 06f3 4a3d 64de adbe 7db5 3f3e
00000350: 4f1a 01bc bf01 5fbd fde4 c13d 759e 6ebe
00000360: 984f 0dbf 0b56 58be cdce 613c eaca 05bf
00000370: c35c b9be f5e5 8e3d 71af 0cbd ac3a 673d
00000380: 66fe c6bc 4442 b7be 591d 343e 2d4d c03d
00000390: fcc2 adbd f901 023e a470 5c3a cfe9 07be
000003a0: 1b6b 2c3e 4df3 79be 2ad5 9d3e de93 043f
000003b0: cdab 903d ea44 b53e 1cf6 733f a834 323e
000003c0: f627 213e 3b50 af3e d817 9abd 31fc 78bd
000003d0: 00f2 303d 4f19 edbd 89f1 823c 61f8 88bc
000003e0: d19d 41bd fa89 80bd c5e9 87bd b561 47bd
000003f0: 0ae9 e53d 2bc9 013e 4306 9ebc 533e aa3e

features_extractor.encoder.conv.8.bias f4 [64]
-0.048578955 -0.015887458 -0.019784916 -0.20153777 -0.0007419449 -0.077586085 -0.07354484 -0.08366081
-0.08536746 -0.17488924 0.18307133 -0.06553846 -0.07217411 0.015242543 0.03298892 -0.05307857
-0.046382688 -0.018819202 -0.08699458 -0.014389423 -0.08636459 -0.009017044 -0.046428103 -0.02669283
-0.064317144 -0.030514358 -0.0018973742 -0.021174233 -0.011582428 -0.066702664 -0.11550921 -0.100856155
-0.014792274 -0.02604923 -0.013472966 -0.0275885 -0.11433027 -0.036965184 -0.034757968 -0.10258939
-0.021140324 -0.043018706 -0.026443029 -0.07213606 -0.033937987 -0.026655916 -0.034401935 -0.0061663017
-0.0039318763 -0.07931419 -0.03574839 -0.02724808 -0.0043246467 -0.05097889 -0.026460769 0.026545182
-0.0287814 -0.024559136 0.13498415 0.00094888126 -0.005453706 -0.016422974 0.19947578 -0.017784225
00000000: bafa 46bd 6a26 82bc fa13 a2bc eb5f 4ebe
00000010: 147f 42ba 74e5 9ebd ad9e 96bd 5c56 abbd
00000020: 23d5 aebd 2a16 33be 0d77 3b3e 0739 86bd
00000030: 05d0 93bd dcbb 793c 641f 073d ea68 59bd
00000040: c6fb 3dbd ba2a 9abc 372a b2bd 9dc1 6bbc
00000050: ebdf b0bd 39bc 13bc 652b 3ebd ecaa dabc
00000060: b5b8 83bd 3ff9 f9bc 50b1 f8ba 9675 adbc
00000070: 39c4 3dbc 689b 88bd 1890 ecbd ac8d cebd
00000080: 4b5b 72bc 3265 d5bc b7bd 5cbc 4701 e2bc
00000090: fd25 eabd ce68 17bd 5f5e 0ebd 631a d2bd
000000a0: 792e adbc 6234 30bd 0d9f d8bc 12bc 93bd
000000b0: 8f02 0bbd 825d dabc 0be9 0cbd b00e cabb
000000c0: f8d6 80bb 7a6f a2bd e76c 12bd 5e37 dfbc
000000d0: c4b5 8dbb 3ecf 50bd 41c4 d8bc 4875 d93c
000000e0: f8c6 ebbc 3e30 c9bc 4939 0a3e 58be 783a
000000f0: 00b5 b2bb 7989 86bc 6143 4c3e 39b0 91bc

features_extractor.encoder.conv.10.weight f4 [128, 64, 3, 3]
0.019967105 -0.04059219 0.030410483 -0.0042996807 -0.021167718 -0.019452387 -0.03323614 -0.052932985
0.011517818 0.017338624 -0.002287507 0.016778395 -0.018975114 -0.020223498 0.03774042 -0.011051044
-0.029658724 -0.090522684 0.014053638 -0.02985101 -0.015533825 -0.01651606 -0.06823662 -0.023272559
-0.032715466 -0.08267349 -0.010991718 0.03373176 -0.008617794 0.005286192 -0.016485607 -0.06555965
-0.049467336 0.029314777 -0.012715526 -0.068515636 -0.04027299 -0.008040632 0.0063644154 -0.025807386
0.015749844 -0.028431552 -0.03952904 -0.05854892 0.02191286 -0.029867452 -0.028210144 0.034435533
0.02484566 0.014455965 0.012209724 0.025706789 -0.019505363 -0.027342226 0.015427833 -0.040113598
0.010761157 -0.033382326 -0.037065584 -0.0674599 -0.009699568 -0.049573753 -0.030679334 -0.02184265
-0.032218333 0.004820183 -0.039679527 -0.019998498 -0.010920258 -0.03366902 0.0022332456 0.0019661358
0.020703485 0.009179369 0.01808863 -0.031192373 0.015985684 -0.0059449514 -0.026720267 0.01633016
-0.04551126 -0.02930507 0.0012572557 -0.02111051 -0.010252943 -0.0643694 0.05374893 0.009421572
-0.043051045 -0.034719896 0.011960259 0.03786714 -0.03088009 -0.02249845 -0.02855558 -0.021063112
-0.03866364 -0.117675014 0.021351486 0.02339301 0.012643586 -0.026400387 0.03482446 0.0023149154
0.0057994775 0.041489705 0.039019376 0.03556266 0.02684116 -0.027211245 0.009748916 0.038981788
-0.021885088 -0.00015970568 -0.014367457 -0.0062461398 0.023800522 0.036242887 -0.0072839907 0.014057542
0.017191898 -0.0921934 -0.038693175 0.0075380555 -0.015116659 0.031973075 0.010049686 -0.0047745607
-0.027671248 0.013932591 -0.06258303 0.0016107842 0.0077003688 -0.063321404 0.032033727 -0.011774088
-0.022413146 0.024610724 -0.030635348 -0.07311609 0.02253201 0.026221871 -0.0327039 -0.021739343
0.0028888136 0.0040055416 -0.030081715 -0.0045639477 0.023298662 -0.021575816 -0.032063283 -0.042937513
-0.06248234 -0.0024363648 -0.030218622 0.033558816 -0.03047432 -0.039681397 -0.08300159 -0.016414594
0.022327796 -0.041404516 -0.026031867 -0.0008428246 0.012459557 -0.00042853257 0.0077735684 -0.006100799
-0.023765689 -0.01319389 0.018625423 0.028021734 0.005029097 -0.02314285 0.029841315 -0.05188718
0.032830503 0.014435947 -0.07209756 -0.014306037 -0.00095022225 0.018925643 -0.02910941 -0.0339342
-0.018046444 0.01996868 -0.025780326 -0.012695129 0.018319275 -0.012688056 0.0344052 0.038273748
0.006474386 -0.051751595 0.014008862 0.026510429 -0.007495275 -0.060348302 0.0030320785 0.030855369
0.032032803 -0.012358184 -0.02708709 -0.00667207 -0.037501767 -0.052244283 0.02950088 -0.038229913
0.019170618 -0.0073147714 0.034731846 -0.0041615595 -0.011549147 -0.008412719 -0.059357125 -0.03424033
0.03282144 -0.001395911 0.024473196 -0.012216723 -0.020728987 -0.028028762 -0.036586624 0.014891153
0.033493858 0.036859915 -0.040306017 0.035910632 0.009786725 -0.10155987 0.01688425 0.037849363
-0.10314405 -0.04336322 -0.007942101 0.020373952 -0.020208433 0.022306845 -0.027186446 -0.05202315
0.016196763 -0.008141037 -0.045814306 0.025674328 0.028394055 -0.009851089 -0.019044995 -0.05357689
-0.05521274 -0.0077231973 -0.056884762 0.00746753 -0.041320544 0.005853097 -0.033138942 -0.026651442
00000000: 0e92 a33c ff43 26bd 681f f93c 56e4 8cbb
00000010: ec67 adbc 9d5a 9fbc 9e22 08bd 42d0 58bd
00000020: 3bb5 3c3c bb09 8e3c 00ea 15bb d872 893c
00000030: b371 9bbc c0ab a5bc b395 1a3d 700f 35bc
00000040: daf6 f2bc f563 b9bd 3b41 663c 1b8a f4bc
00000050: 9681 7ebc b04c 87bc a4bf 8bbd 18a6 bebc
00000060: a700 06bd b850 a9bd 9b16 34bc 502a 0a3d
00000070: a631 0dbc cb37 ad3b d30c 87bc 2344 86bd
00000080: 439e 4abd 8b25 f03c c854 50bc ed51 8cbd
00000090: 4af5 24bd dbbc 03bc 968c d03b 036a d3bc
000000a0: d105 813c 49e9 e8bc 34e9 21bd fed0 6fbd
000000b0: 9982 b33c 96ac f4bc f618 e7bc 460c 0d3d
000000c0: 2089 cb3c b6d8 6c3c 4b0b 483c 0b97 d23c
000000d0: b6c9 9fbc cefc dfbc 06c5 7c3c 284e 24bd
000000e0: 904f 303c e8bb 08bd 15d2 17bd 6b28 8abd
000000f0: f0ea 1ebc d90d 4bbd 3a53 fbbc 5bef b2bc
00000100: 5ff7 03bd a0f2 9d3b 0087 22bd e4d3 a3bc
00000110: e2ea 32bc 87e8 09bd a55b 123b 49da 003b
00000120: 5b9a a93c 1065 163c 9b2e 943c 2687 ffbc
00000130: 69f4 823c decd c2bb 76e4 dabc d4c6 853c
00000140: 046a 3abd 3011 f0bc 80ca a43a f3ef acbc
00000150: f6fb 27bc 1bd4 83bd d727 5c3d f05c 1a3c
00000160: 4b56 30bd 7336 0ebd f6f4 433c 931a 1b3d
00000170: 3ef8 fcbc ab4e b8bc 64ed e9bc 8c8c acbc
00000180: c45d 1ebd 99ff f0bd 50e9 ae3c b3a2 bf3c
00000190: 0b27 4f3c a045 d8bc 18a4 0e3d d6b5 173b
000001a0: 8b09 be3b 1cf1 293d c8d2 1f3d 27aa 113d
000001b0: fee1 db3c 1eea debc ebb9 1f3c 5eab 1f3d
000001c0: 5b48 b3bc ab76 27b9 7b65 6bbc 6bac ccbb
000001d0: 50f9 c23c 6c73 143d 8bae eebb 9b51 663c
000001e0: 06d6 8c3c e5cf bcbd bc7c 1ebd cb01 f73b
000001f0: ddab 77bc 33f6 023d 70a7 243c eb73 9cbb
00000200: d0ae e2bc 8645 643c 882b 80bd f320 d33a
00000210: 6053 fc3b a7ae 81bd cc35 033d 1be8 40bc
00000220: c69b b7bc 6e9c c93c fbf6 fabc e3bd 95bd
00000230: 0d95 b83c 40cf d63c 86f4 05bd b516 b2bc
00000240: 4052 3d3b eb40 833b ee6d f6bc 2b8d 95bb
00000250: d6dc be3c c4bf b0bc ca54 03bd 3fdf 2fbd
00000260: 7bed 7fbd 6bab 1fbb 0b8d f7bc f874 093d
00000270: 48a5 f9bc f688 22bd bdfc a9bd e677 86bc
00000280: c8e8 b63c c897 29bd c840 d5bc 00f1 5cba
00000290: 2b23 4c3c abac e0b9 6bb9 fe3b 36e9 c7bb
000002a0: 43b0 c2bc 302b 58bc 5894 983c d68d e53c
000002b0: 20cb a43b 1396 bdbc c675 f43c a787 54bd
000002c0: 4779 063d c084 6c3c e3a7 93bd de63 6abc
000002d0: 5618 79ba f309 9b3c db76 eebc 96fe 0abd
000002e0: 23d6 93bc 5b95 a33c 4331 d3bc 3bff 4fbc
000002f0: 4e12 963c 90e1 4fbc 78ec 0c3d efc4 1c3d
00000300: 1627 d43b 7bf9 53bd 6d85 653c 662c d93c
00000310: ec9a f5bb c82f 77bd d6b5 463b 66c4 fc3c
00000320: d434 033d fb79 4abc bfe5 ddbc 61a1 dabb
00000330: 749b 19bd 1afe 55bd d4ab f13c f896 1cbd
00000340: b30b 9d3c c0b0 efbb fb42 0e3d b15d 88bb
00000350: a238 3dbc 80d5 09bc 7520 73bd 973f 0cbd
00000360: c66f 063d 00f7 b6ba 037c c83c a628 48bc
00000370: d6cf a9bc 939c e5bc dbdb 15bd 06fa 733c
00000380: db30 093d 6cfa 163d ec17 25bd 0717 133d
00000390: 8058 203c 9ffe cfbd d750 8a3c ef07 1b3d
000003a0: 303d d3bd a29d 31bd 961f 02bc 46e7 a63c
000003b0: 288c a5bc d8bc b63c 1cb6 debc 3a16 55bd
000003c0: 13af 843c fc61 05bc c8a7 3bbd f852 d23c
000003d0: a69a e83c 7666 21bc 4004 9cbc 7173 5bbd
000003e0: c126 62bd e012 fdbb ffff 68bd 2fb2 f43b
000003f0: bb3f 29bd 56cb bf3b b3bc 07bd 2054 dabc

features_extractor.encoder.conv.10.bias f4 [128]
-0.045551065 -0.03414206 0.38538724 -0.04034024 0.2867047 0.0014870575 0.2164525 0.28410152
0.29866934 0.029531341 -0.059229393 0.1581415 -0.13967223 -0.024751246 -0.019695116 -0.023839653
0.07165482 -0.0779012 0.23147187 -0.04383681 -0.018810995 0.21599826 -0.055511896 0.13943751
-0.0075608073 0.0901776 0.2885907 -0.016292375 0.1861389 0.05372138 0.054415554 0.09213263
-0.050840102 -0.06121533 0.1608443 -0.033258453 -0.0686201 0.0741387 0.19833462 -0.037555993
0.074042425 -0.025306882 -0.04045413 -0.08222867 -0.05088337 0.33375567 -0.052439358 0.1725599
-0.034802236 -0.018298065 0.08394522 0.17003912 0.14425065 -0.04810051 -0.03694508 -0.06742675
-0.031135157 0.0011540093 0.19452189 -0.007374839 0.16927578 -0.0659769 0.034905847 -0.034791954
0.30804312 -0.05608468 -0.04335951 0.3431895 0.15440133 -0.033364538 -0.02937435 -0.057743955
0.16490443 0.0003953903 -0.0077065383 0.37140474 -0.017262517 -0.026220199 0.09989124 0.1586758
0.37058488 -0.03690449 0.26051933 -0.023324592 -8.226221e-05 0.28774917 -0.042000197 0.18058574
-0.15961817 0.13181277 -0.04349651 -0.041627146 -0.07705982 -0.072435476 0.21989995 0.2264816
0.25229856 -0.022248773 -0.04557811 -0.026786787 0.23333599 0.0837974 -0.052613024 0.35481516
0.22722745 0.19274385 -0.054710962 -0.01452465 -0.033285394 0.25311643 -0.029641028 -0.046640314
0.12279587 0.02507115 -0.03194991 -0.052228343 -0.049846046 -0.04162495 -0.087612085 -0.07020344
0.265405 0.086115755 -0.001079567 0.18541002 -0.059981 -0.03177939 0.20301776 -0.059064087
00000000: c193 3abd 8bd8 0bbd 7a51 c53e cf3b 25bd
00000010: f5ca 923e 5fe9 c23a b9a5 5d3e c175 913e
00000020: 30eb 983e b6eb f13c 859a 72bd d8ef 213e
00000030: 3d06 0fbe 20c3 cabc a757 a1bc 604b c3bc
00000040: c3bf 923d aa8a 9fbd f606 6d3e 3a8e 33bd
00000050: 8419 9abc a62e 5d3e 7160 63bd b5c8 0e3e
00000060: a6c0 f7bb 09af b83d 29c2 933e 9677 85bc
00000070: 329b 3e3e f30a 5c3d d8e2 5e3d 08b0 bc3d
00000080: b63d 50bd edbc 7abd 5eb4 243e 043a 08bd
00000090: b288 8cbd 08d6 973d 3b18 4b3e 50d4 19bd
000000a0: 8ea3 973d 6150 cfbc 3bb3 25bd 8167 a8bd
000000b0: 156b 50bd 06e2 aa3e a7ca 56bd 8bb3 303e
000000c0: ca8c 0ebd d3e5 95bc 79eb ab3d bc1e 2e3e
000000d0: 71b6 133e 0a05 45bd b953 17bd 0917 8abd
000000e0: 280f ffbc 2042 973a bf30 473e a2a8 f1bb
000000f0: a156 2d3e e61e 87bd 6ff9 0e3d 0282 0ebd
00000100: d4b7 9d3e 0db9 65bd be99 31bd 89b6 af3e
00000110: 621b 1e3e 41a9 08bd 7aa2 f0bc ed84 6cbd
00000120: b5dc 283e 634c cf39 2187 fcbb c328 be3e
00000130: 1f6a 8dbc becb d6bc c793 cc3d e97b 223e
00000140: 4dbd bd3e 2a29 17bd ca62 853e 3713 bfbc
00000150: 3084 acb8 dc53 933e 6608 2cbd 78eb 383e
00000160: f272 23be edf9 063e 6529 32bd 3a81 2abd
00000170: 8ad1 9dbd 0d59 94bd 742d 613e cbea 673e
00000180: 472d 813e 0f43 b6bc 1db0 3abd f76f dbbc
00000190: a1ef 6e3e f99d ab3d c180 57bd 55aa b53e
000001a0: 50ae 683e a55e 453e 9a18 60bd ccf8 6dbc
000001b0: 4456 08bd 7a98 813e bed1 f2bc ea09 3fbd
000001c0: 677c fb3d 0362 cd3c e9dd 02bd 63ed 55bd
000001d0: 5e2b 4cbd ec7e 2abd f76d b3bd d2c6 8fbd
000001e0: 2ae3 873e 755d b03d 4280 8dba 20dc 3d3e
000001f0: a3ae 75bd 1b2b 02bd e3e3 4f3e 2fed 71bd

features_extractor.encoder.fc.weight f4 [64, 128]
0.024531161 0.05334126 -0.14478178 0.16006044 0.19471271 -0.23564512 -0.29241285 -0.24345484
-0.15283449 0.11151565 -0.062128328 0.03279406 0.06218553 -0.0656408 0.054328285 -0.045757953
0.15482324 -0.10395064 -0.020293532 0.028328856 0.033961955 0.15202999 -0.05471987 -0.23098285
0.06486195 0.105596416 -0.03043171 -0.038048696 0.035088148 0.081699885 -0.11844827 -0.096313015
-0.0075591435 0.04699694 -0.16066241 0.061561454 0.061724044 -0.15671325 -0.27214134 0.038677998
-0.103782184 -0.064744525 -0.031704698 0.05975712 0.014853216 0.21304235 0.053876057 -0.3015183
0.08388457 0.010119608 0.22455934 -0.18965128 0.09678846 0.055317894 0.049230322 -0.031753205
0.020327505 0.05208756 0.38158235 -0.05340125 -0.26799408 0.04361757 -0.23858726 -0.021176016
-0.04697108 0.028889704 -0.07988124 -0.24150845 -0.16061874 0.07138464 -0.04436338 -0.005202579
0.06685473 0.024623485 0.10631977 -0.10254309 4.1745818e-05 -0.020346593 0.1348953 -0.047540776
-0.31740332 -0.04727899 -0.069013834 0.09125666 -0.087856025 0.04580145 -0.048917945 -0.13306227
0.06672865 0.22065608 -0.07699365 0.012771989 -0.010458951 -0.02059652 -0.03591036 -0.16262947
0.36844698 -0.014027921 -0.11820056 0.012308373 0.0025523247 -0.11127163 -0.053539187 -0.31537545
-0.035371307 -0.058198266 0.052791078 -0.07216365 0.039035942 0.18321624 0.0109239025 -0.017719561
0.21508761 -0.06958418 -0.0027772614 -0.05346796 0.010763676 -0.07309538 0.11474708 -0.07909876
-0.1940585 0.3388503 0.058481526 0.18794563 -0.015924886 0.014772208 0.33050635 0.026605237
-0.10266396 0.05227955 0.3468994 0.17732018 -0.024572836 0.22887444 0.32472175 -0.08295984
-0.01151825 -0.050938945 -0.04096492 -0.09482141 0.06633758 -0.04970275 -0.07157359 -0.007533545
-0.037768666 -0.01516462 -0.13590981 -0.005532217 0.0533917 -0.08563927 -0.011296364 -0.15259434
-0.021205438 -0.26340416 0.42361033 0.045949727 0.12527034 -0.052816104 0.1654412 0.16681032
-0.09402717 -0.036429383 -0.03895312 -0.055593368 0.0062564653 -0.21170285 0.015692236 0.007852667
-0.020945089 0.11722904 -0.070150614 0.099013574 0.0945999 -0.17739077 0.048314326 0.105820686
-0.025790311 0.05183019 -0.09320119 -0.0876808 0.20054571 0.032532964 -0.06816949 0.124798715
-0.07546936 -0.035394117 0.1319781 0.08812257 0.23511082 -0.047337633 0.15118907 -0.013945139
0.0869829 0.017462568 -0.0917031 0.03621551 0.2366945 0.022752542 0.031014893 -0.04619741
0.13942516 -0.043081295 0.000352589 0.40875104 -0.0407345 0.039015546 -0.24584244 0.028721558
0.18024671 -0.050171737 0.022534292 -0.00060790335 0.07550856 0.3297281 -0.0112286955 -0.006796725
-0.07972357 -0.20073666 0.06043139 -0.060059253 0.008397239 -0.08292237 0.08402975 0.03640867
0.027076032 0.070707686 0.019384488 -0.06197815 0.15086947 0.52008873 -0.031041468 0.063732184
0.2889843 -0.23990616 -0.071053565 0.08393027 -0.018987643 0.03220914 0.018887125 0.0140946
0.13691652 -0.08740243 -0.025620567 0.009668402 0.005281894 -0.058298584 -0.026260998 0.044553798
0.3963464 -0.08154999 0.0142205125 0.0126257 -0.060480677 -0.07491727 -0.0569452 0.08197751
00000000: 93f5 c83c 5d7c 5a3d ad41 14be e2e6 233e
00000010: c562 473e f44c 71be 23b7 95be 3a4c 79be
00000020: a580 1cbe 5162 e43d 467a 7ebd 1053 063d
00000030: 41b6 7e3d af6e 86bd 5687 5e3d b16c 3bbd
00000040: fc89 1e3e 13e4 d4bd 9f3e a6bc eb11 e83c
00000050: b11b 0b3d c0ad 1b3e f121 60bd c586 6cbe
00000060: 58d6 843d ef42 d83d ec4b f9bc f3d8 1bbd
00000070: 97b8 0f3d 4552 a73d 0295 f2bd c23f c5bd
00000080: b1b2 f7bb dd7f 403d b084 24be dd27 7c3d
00000090: 5ad2 7c3d 7079 20be 1c56 8bbe d26c 1e3d
000000a0: c18b d4bd c798 84bd c9dc 01bd e2c3 743d
000000b0: e75a 733c c627 5a3e 24ad 5c3d 9b60 9abe
000000c0: accb ab3d b6cc 253c e2f2 653e f233 42be
000000d0: 0739 c63d 0495 623d bca5 493d a60f 02bd
000000e0: de85 a63c c459 553d c35e c33e 45bb 5abd
000000f0: 8536 89be 56a8 323d 3850 74be 5379 adbc
00000100: bf64 40bd 1aaa ec3c c798 a3bd fe4d 77be
00000110: 3d79 24be 1c32 923d 60b6 35bd 657a aabb
00000120: 22eb 883d 31b7 c93c 2ebe d93d 1d02 d2bd
00000130: 3b18 2f38 e6ad a6bc fe21 0a3e 1eba 42bd
00000140: b082 a2be 9da7 41bd 2057 8dbd c6e4 ba3d
00000150: dced b3bd 4d9a 3b3d 2f5e 48bd 7a41 08be
00000160: 08a9 883d abf3 613e d9ae 9dbd 9b41 513c
00000170: 055c 2bbc 08ba a8bc be16 13bd 5788 26be
00000180: 15a5 bc3e 5dd5 65bc 2313 f2bd 0fa9 493c
00000190: e744 273b 61e2 e3bd e84b 5bbd e478 a1be
000001a0: 81e1 10bd 4e61 6ebd 753b 583d 89ca 93bd
000001b0: 27e4 1f3d 0a9d 3b3e 2bfa 323c 9d28 91bc
000001c0: ed3f 5c3e 2782 8ebd b702 36bb 3801 5bbd
000001d0: 215a 303c 08b3 95bd 8400 eb3d 88fe a1bd
000001e0: 45b7 46be c97d ad3e 538a 6f3d d274 403e
000001f0: e874 82bc 2207 723c 2138 a93e 3af3 d93c
00000200: 7b41 d2bd 1523 563d cc9c b13e 6c93 353e
00000210: f94c c9bc 105e 6a3e ee41 a63e d9e6 a9bd
00000220: 0bb7 3cbc 5ba5 50bd d5ca 27bd ba31 c2bd
00000230: ffdb 873d 1c95 4bbd 2d95 92bd f5db f6bb
00000240: 51b3 1abd 0775 78bc f12b 0bbe 9a47 b5bb
00000250: 41b1 5a3d a463 afbd 6214 39bc b141 1cbe
00000260: 07b7 adbc e9dc 86be 74e3 d83e c835 3c3d
00000270: de46 003e b355 58bd 6b69 293e 53d0 2a3e
00000280: 5191 c0bd fa36 15bd 4f8d 1fbd dfb5 63bd
00000290: 0903 cd3b a2c8 58be 018d 803c 79a8 003c
000002a0: 0995 abbc c715 f03d 20ab 8fbd a1c7 ca3d
000002b0: 98bd c13d eda5 35be 3ee5 453d 84b8 d83d
000002c0: 3446 d3bc e54b 543d 44e0 bebd fe91 b3bd
000002d0: db5b 4d3e 4941 053d 729c 8bbd 7896 ff3d
000002e0: ae8f 9abd 6cf9 10bd 4425 073e 9b79 b43d
000002f0: e4c0 703e 1be5 41bd 4fd1 1a3e 277a 64bc
00000300: 1724 b23d a90d 8f3c d6ce bbbd b756 143d
00000310: 0b60 723e 8a63 ba3c f212 fe3c 7f39 3dbd
00000320: 78c5 0e3e 0376 30bd b2db b839 d147 d13e
00000330: 38d9 26bd c4ce 1f3d 1fbe 7bbe 7949 eb3c
00000340: 9892 383e e180 4dbd d699 b83c b45b 1fba
00000350: 3ba4 9a3d 1fd2 a83e 90f8 37bc 10b7 debb
00000360: 1c46 a3bd e98d 4dbe e886 773d b100 76bd
00000370: 9394 093c 34d3 a9bd ca17 ac3d 4221 153d
00000380: 8ece dd3c 31cf 903d 38cc 9e3c cddc 7dbd
00000390: 877d 1a3e 8924 053f ad4a febc 0586 823d
000003a0: c0f5 933e f6a9 75be 8884 91bd a2e3 ab3d
000003b0: f98b 9bbc bbed 033d 2cb9 9a3c 0aed 663c
000003c0: d833 0c3e 0c00 b3bd 39e2 d1bc 3868 1e3c
000003d0: bd13 ad3b 7fca 6ebd 4e21 d7bc 0b7e 363d
000003e0: eaed ca3e ae03 a7bd 27fd 683c 06dc 4e3c
000003f0: 96ba 77bd 3a6e 99bd 5f3f 69bd d3e3 a73d

features_extractor.encoder.fc.bias f4 [64]
0.03988751 0.07424218 -0.03635733 0.023564955 0.15591784 0.10026191 -0.18892655 -0.043340143
-0.121198654 -0.17981097 -0.11014164 -0.044978313 0.047818918 0.06974018 0.086874604 0.2927934
0.106966764 0.04093838 -0.12332912 0.05919688 -0.08091213 -0.03831088 0.048865158 -0.029823883
0.09357164 -0.042568572 0.045007966 -0.03138204 -0.022134585 -0.08867204 0.07272768 0.0871299
-0.12387626 -0.173874 0.3043042 0.08056282 0.0055280826 -0.059210207 0.032418314 0.028119989
-0.04177438 -0.044967324 0.08396484 -0.10972442 -0.07548598 -0.02454855 0.050331537 0.112735525
0.28426826 0.010775763 -0.14048646 0.038498625 -0.030038135 0.104884 -0.1434921 -0.13397534
0.018053649 -0.026230844 0.22092895 -0.23273484 -0.017642315 0.09654431 0.00799267 -0.043195534
00000000: 1661 233d 490c 983d 6ceb 14bd 4b0b c13c
00000010: eda8 1f3e 1e56 cd3d f675 41be 6f85 31bd
00000020: 0037 f8bd 5e20 38be f191 e1bd 2e3b 38bd
00000030: c5dd 433d f1d3 8e3d 50eb b13d 04e9 953e
00000040: 6411 db3d 01af 273d fa93 fcbd 6d78 723d
00000050: 42b5 a5bd dfeb 1cbd d526 483d 3751 f4bc
00000060: 7da2 bf3d 625c 2ebd 465a 383d 748a 00bd
00000070: 9753 b5bc b099 b5bd 40f2 943d 2971 b23d
00000080: d6b2 fdbd 070c 32be c3cd 9b3e 1ffe a43d
00000090: eb24 b53b 6786 72bd 11c9 043d e45b e63c
000000a0: 9d1b 2bbd a82f 38bd c2f5 ab3d 32b7 e0bd
000000b0: 6598 9abd 0a1a c9bc 7128 4e3d e2e1 e63d
000000c0: 9c8b 913e d38c 303c afdb 0fbe bcb0 1d3d
000000d0: 8912 f6bc 6ccd d63d 98ef 12be d530 09be
000000e0: 3fe5 933c 11e2 d6bc 333b 623e 0b52 6ebe
000000f0: 9e86 90bc 06b9 c53d b0f3 023c cded 30bd
