model/actor_critic_CNN_v0.pth (torch, 444146 bytes, 16 tensors)

log_std f4 [2]
000000 69 6d 9a 3c 97 0e de 3e
       0.018850999 0.43370506

features_extractor.cnn.0.weight f4 [16, 1, 3, 3]
000000 9a a7 8a bd 2d f5 2b be 6c da 8e 3e de e1 dc 3d
       -0.06770249 -0.16792746 0.27901018 0.10785268
000010 c9 69 a9 3e e3 27 00 bf 5f 01 3b bd 89 40 68 be
       0.3308852 -0.5006086 -0.045655604 -0.22680868
000020 4c 97 93 3e 33 25 d4 3c ae 91 26 3e 3d 9f 21 3e
       0.28826368 0.025896644 0.1626651 0.15783401
000030 35 aa 4a bd 2a 51 0c 3e 13 30 6a be 95 31 01 be
       -0.04947873 0.13702837 -0.22869901 -0.1261657
000040 83 d6 19 be ee 61 23 3c 2c 6f 13 bd f5 b3 91 bd
       -0.15023236 0.009972079 -0.035994694 -0.07114402
000050 78 7f cd bd 26 08 38 be 4f ec ff bd ec 4d 15 bd
       -0.10034078 -0.17971858 -0.12496244 -0.036451265
000060 9c e5 ee 3c 8c f5 aa 3e fb 55 1b 3e 5c 59 4f be
       0.02916222 0.33390462 0.15169518 -0.20248932
000070 7b 66 84 3e 2e bd c0 be 59 39 85 be 2a d1 ee 3d
       0.25859436 -0.37644333 -0.26020315 0.11660989
000080 d7 c1 81 3c 4e e8 10 be f5 25 b0 bd 29 94 58 3e
       0.0158395 -0.14151117 -0.0860099 0.21150269
000090 a0 ea cb 3e e9 6d da be d9 81 47 3d 09 56 b9 be
       0.39827442 -0.4266198 0.048707817 -0.36198452
0000a0 58 f0 52 3e 59 2f 1e 3e db 3e 7e bd 32 f2 97 3e
       0.20599496 0.15447749 -0.062071662 0.29676968
0000b0 11 0f 82 be 05 2b ac 3e 00 8b 2f 3e 17 bf ae 3e
       -0.2540212 0.3362657 0.17142868 0.34130165
0000c0 fc e9 a3 bd 41 4c 0f 3e d6 26 1d 3d 55 82 bd 3d
       -0.08003613 0.13993932 0.038367115 0.092533745
0000d0 67 21 67 be ee 3b 4f be 1d a1 3c be f1 b6 a8 be
       -0.22571336 -0.20237705 -0.18420835 -0.32952073
0000e0 4b 80 af 3d 6b 0c bb 3c f6 fa 84 3e bc b4 d6 be
       0.08569392 0.02283307 0.25972718 -0.41934764
0000f0 7a d3 96 3e 8b 22 30 be 8f d1 44 bd 0f ba 20 be
       0.2945822 -0.17200677 -0.048051413 -0.15695976
000100 cf 1b cf be 4d c6 d6 bd 59 3d 9d 3d ab 30 87 3e
       -0.40450904 -0.104870416 0.07677717 0.26404318
000110 6a fe aa 3e 0f b9 69 be 0f 94 bc be 42 00 90 bd
       0.33397228 -0.228245 -0.3683171 -0.07031299
000120 83 f1 16 bd 85 c7 80 3e 12 1e 5f 3e 98 15 54 3e
       -0.036851417 0.2515222 0.21788815 0.20711362
000130 35 a0 75 bd a7 2f af 3d 5f 71 a9 3e b0 66 2e be
       -0.05996724 0.08554011 0.33094308 -0.1703136
000140 89 9c 40 be e8 68 23 3e 66 65 0d 3e a6 5d c1 3c
       -0.18809713 0.15957987 0.13808212 0.023604225
000150 79 74 4c 3e a4 cc 97 3e 7c d8 56 be 2b c5 0a bd
       0.19966306 0.29648316 -0.2098102 -0.03387944
000160 16 d5 31 bb 78 04 1d be aa af 17 bd 0e 83 9b bd
       -0.0027135066 -0.15333736 -0.03703276 -0.07593356
000170 62 04 df 3c 5a 20 96 3d 44 9c 9c be de a6 91 3e
       0.02722377 0.07330389 -0.3058797 0.28447622
000180 6f 3f c2 3c d8 f1 c8 be bc 55 a3 be 37 22 a3 3e
       0.023711888 -0.39247012 -0.31901348 0.3186204
000190 75 47 67 3e 75 cc ba bd 84 03 6e be cf 3a 2f 3e
       0.22585852 -0.09121028 -0.23243529 0.17112277
0001a0 a6 75 6d 3e 37 a8 98 bd 44 41 ad be f3 d3 e9 bd
       0.2318941 -0.074539594 -0.33838856 -0.11417379
0001b0 97 17 0a 3c c6 44 9e bc 6a 22 69 be 53 41 56 3e
       0.008428476 -0.019319903 -0.22767034 0.20923357
0001c0 46 c0 5a 3d 37 0a c4 3d ec f8 de bd 66 f0 3b be
       0.053406022 0.09572261 -0.10887322 -0.18353423
0001d0 74 95 ab be 6b de 14 be 68 8a 63 3e 4e 11 51 bc
       -0.3351246 -0.1453797 0.22220767 -0.012760473
0001e0 eb f0 8d 3e ff ac 36 be 60 ee a5 bc f1 ac ba 3b
       0.27722868 -0.1783943 -0.020255268 0.0056968858
0001f0 44 33 93 3e 3f 2b 6f be d5 f9 94 be c4 71 f6 bd
       0.2875005 -0.23356341 -0.29096857 -0.12033418
000200 da d1 5c 3e a7 49 98 be fc e6 ad be f4 37 d8 be
       0.21564427 -0.29743692 -0.3396529 -0.4223019
000210 c8 72 7e 3e a8 d0 c4 3b 0a ed 6d 3e 81 c5 95 3e
       0.24848473 0.006006319 0.23234954 0.29252246
000220 04 70 68 bd 62 14 7c bd 73 53 b4 3e d0 46 a2 3d
       -0.05674745 -0.061542876 0.35219917 0.07923663
000230 27 df 16 3e 20 d2 c9 3d 4a d4 cb bd 02 06 e3 bd
       0.14733563 0.09854531 -0.099526 -0.1108513

features_extractor.cnn.0.bias f4 [16]
000000 e2 77 73 bb 2e 30 63 3e 9e 0d 9d 3d 67 61 26 bd
       -0.0037150313 0.22186348 0.07668613 -0.040620234
000010 c8 56 03 bd bc 03 76 3d d1 5c f1 3a 68 93 32 be
       -0.032065183 0.060062155 0.0018414502 -0.17439044
000020 fb 6d 9d bd eb 94 fa 3d 01 bc e9 bd 4a 3a 10 bc
       -0.07686993 0.12235435 -0.11412812 -0.00880296
000030 e4 4c 61 3e a1 24 a8 bd 8a be a3 be b1 9e 5a bc
       0.22001988 -0.082101114 -0.31981307 -0.013343499

features_extractor.cnn.2.weight f4 [16, 16, 3, 3]
000000 fd 25 5d 3e 93 3e 06 3e 0c 5c c9 3d 6e 19 4d 3e
       0.21596523 0.13109808 0.0983201 0.20029232
000010 d1 cf 80 3e 70 5b 29 3e 5f a9 08 3e 3a dd be 3e
       0.2515855 0.16538787 0.1334586 0.37278157
000020 05 07 cb 3d 4e 68 d8 bb a4 4f 93 3d c5 4d 6f bc
       0.09913448 -0.006604231 0.071929246 -0.014605944
000030 6b 9c 8e bd 7a 04 32 3d 85 38 ae bd ea 86 13 bd
       -0.06963428 0.0434613 -0.08506874 -0.036017336
000040 17 93 f0 bc 4c 49 ab bc 3f a9 87 3d d1 81 99 bd
       -0.029367013 -0.020908974 0.06624078 -0.07495464
000050 52 8a f7 3b 48 a6 28 3d b3 4c 8c 3d fd 20 25 3c
       0.007554331 0.041174203 0.06850567 0.010078666
000060 26 75 4d bb c9 42 1e 3c c8 70 77 bd e9 c2 ff 3c
       -0.0031350343 0.0096594775 -0.06041029 0.03122087
000070 22 73 91 bd 3a b1 57 3d f5 e5 5f 3b 0e f2 de 3d
       -0.07102038 0.05265925 0.0034164165 0.10886012
000080 0a b1 68 3d 6b 3f d7 3d 46 c7 a0 bc ee c7 aa bb
       0.056809463 0.10510143 -0.019626271 -0.0052118218
000090 8a 05 83 3e 88 c2 3f 3e 89 e1 20 3e 26 91 a3 3e
       0.25590163 0.18726552 0.15711035 0.31946677
0000a0 8c 2a 1a 3e fc 26 ca 3e 50 64 93 3e 58 71 b7 3e
       0.15055293 0.39482868 0.2878747 0.35828662
0000b0 02 af 9f 3e 0a d7 a5 bd 31 b1 36 3d 7d 4a be 3c
       0.31188208 -0.08097656 0.044602577 0.023228878
0000c0 16 0a 8c 3c 78 1f 35 3d 7c 2a a2 3c d6 8c cc 3c
       0.017094653 0.044219464 0.019795649 0.0249695
0000d0 06 aa 2c bd 60 87 2a 3d c1 18 d1 3d 8e 5d 79 3d
       -0.042154334 0.04163301 0.102097996 0.060880236
0000e0 2a 87 48 bb 70 37 13 3e e3 54 14 3e ae 3d 1b 3e
       -0.0030598142 0.14376616 0.14485507 0.15160248
0000f0 19 7e 04 be d4 82 0c 3e ce 64 82 3e 90 13 b7 3d
       -0.12938727 0.13721782 0.25467533 0.08939278
000100 56 ff a8 3e 06 63 00 3c 59 f1 8b 3e 8d 24 82 3e
       0.33007306 0.007836109 0.2733257 0.2541851
000110 5e 72 8d 3e cb f2 e1 3d cf 11 ce 3e bd 99 b1 bb
       0.27626318 0.11032637 0.40247962 -0.0054199384
000120 4b 32 c5 3d 74 de 7e 3d fb 37 59 bd c1 bb 07 3c
       0.09628733 0.062223867 -0.053031903 0.00828451
000130 ac f0 8f bb c6 83 0e bd 6d ba 75 bd c7 62 32 bd
       -0.004392704 -0.034793638 -0.059992243 -0.043551233
000140 c5 a7 dc 3d d3 7b 6f bd f2 9c 90 3d 29 d9 e3 3c
       0.10774187 -0.058467697 0.07061185 0.027813511
000150 07 83 4f 3d 0a 1a 22 bd c1 57 bd bd b4 ee 95 bd
       0.050662067 -0.039575614 -0.09245253 -0.0732092
000160 27 95 eb bd 51 f8 a4 3d 6b 6e b9 3d 58 a3 86 3e
       -0.11503058 0.08055175 0.09054264 0.26296496
000170 18 92 a0 3c 66 78 82 3e be a1 a8 3d 98 6e 11 3e
       0.019600913 0.25482482 0.08233975 0.14202344
000180 04 71 df 3b 8e 37 91 3e 95 02 93 3e 13 42 64 bd
       0.0068188924 0.28362697 0.28712907 -0.055727076
000190 2f 73 df 3d 76 b4 35 3d 4b c7 d6 3a 42 95 4a 3d
       0.109106414 0.044361554 0.0016386298 0.04945875
0001a0 05 e1 4f 3c 44 61 46 3d da 17 4c 3d 8d 80 29 3e
       0.012687926 0.048432603 0.049827434 0.16552944
0001b0 ed 02 5e bd 4a 85 43 3b a1 f8 b2 bc 9a 2c 07 bb
       -0.05420201 0.0029834085 -0.021847071 -0.002062595
0001c0 39 95 88 bc e9 83 11 bb 25 56 9d bc 76 97 44 bd
       -0.016672717 -0.0022203869 -0.019206116 -0.047996007
0001d0 36 78 7d bd 21 b6 ac 3c 65 30 ae 3d 40 bb 28 3e
       -0.06188222 0.02108294 0.08505324 0.1647768
0001e0 cd 31 de 3d c7 08 c8 3d 97 f1 17 bb b3 c3 23 bd
       0.108493425 0.09767299 -0.002318477 -0.039981555
0001f0 49 bd bf 3c d8 d5 15 3e a8 88 19 bc 6c 1c 8f be
       0.023405688 0.14632356 -0.00937096 -0.27951372
000200 c8 4f 3e be 17 fe 40 be 88 bd 06 bd c7 74 1f be
       -0.18585122 -0.18846928 -0.032895595 -0.15571891
000210 9b 70 84 be b8 56 95 bd 1b 8e ad bd 84 98 13 bc
       -0.2586716 -0.07291931 -0.0847437 -0.0090085305
000220 49 3c aa bc c9 66 f0 bc 5e ed 8a 3d 39 6a 58 3c
       -0.0207807 -0.029345887 0.067835554 0.013208919
000230 9b f5 15 be 2a 86 1d 3a c0 58 eb 3c f4 57 84 3d
       -0.14644472 0.0006009067 0.028728843 0.06462088
000240 60 0a 23 3e 10 51 e5 3d 57 f6 28 3e 27 cd 71 3e
       0.15921926 0.11197102 0.16500221 0.23613416
000250 e9 61 1c 3e 97 38 27 3d 96 45 7d 3d 8b 89 44 3e
       0.15271725 0.040825453 0.06183394 0.19193093
000260 08 8a a3 3d 5a 94 e7 bc 03 e1 14 3d 7e 94 ac bd
       0.07985312 -0.028268982 0.0363474 -0.0842676
000270 be 7e 13 bd f8 5b a7 bd 9c 10 a8 bd 68 61 6f bc
       -0.036009543 -0.081718385 -0.08206293 -0.014610626
000280 9e 3c 7a bd 5a a2 57 3c 89 64 13 bd 8e c5 64 bc
       -0.061092965 0.013161266 -0.03598455 -0.013963116
000290 fc aa 03 3d bd b5 ff 3c 17 f9 40 bd 10 34 a0 bd
       0.032145485 0.03121459 -0.04711255 -0.0782243
0002a0 2c 0f 15 be 67 e2 3e bc 1a 85 b0 bd 3f 55 ab 3d
       -0.14556569 -0.011650658 -0.08619137 0.08365869
0002b0 01 d8 d4 3d 4e a9 4f 3d 2e 98 66 3d 44 3c 9a 3d
       0.10392762 0.05069857 0.056297474 0.07531026
0002c0 15 da 16 3b c6 69 82 3d 39 ee 0c 3e 98 dd 2b be
       0.002301817 0.06367831 0.1376275 -0.1678375
0002d0 28 1f 3a 3d fe cf bc 3e 34 e7 19 3e 8c 07 07 3f
       0.04543987 0.36877435 0.15029603 0.5274589
0002e0 e9 36 88 3e 56 bd 90 3d cc a3 a8 3e 01 68 18 3e
       0.26604393 0.07067363 0.32937467 0.14883424
0002f0 34 7b 00 3e 58 6d ec bc e1 73 c1 bc 56 8e 12 be
       0.12546998 -0.028860733 -0.023614826 -0.1431211
000300 78 8d 6b 3c bf 16 09 3d 18 ff d5 bd 90 c9 01 3b
       0.0143769905 0.033468958 -0.10449046 0.0019803979
000310 c1 1a 8f 3d 2a d7 a5 bd fa 84 33 3e bc 65 f9 3d
       0.06987525 -0.0809768 0.17531195 0.121776074
000320 5f 51 08 3e 8b f4 14 3e ab a3 61 3d f9 c3 84 3e
       0.1331229 0.1454641 0.055087727 0.25930765
000330 8c f2 91 bc ae 89 94 bd 6a fb 39 3e 73 c1 0a 3e
       -0.01781585 -0.07252823 0.18162313 0.13550358
000340 5c 89 50 3e 7d 15 7e bd 27 65 d1 3d f2 6e f1 3d
       0.20364898 -0.06203221 0.102243714 0.11788739
000350 f6 86 b8 3d 9b 25 93 3d 50 3c b4 3e e3 6f b7 3c
       0.09010117 0.07184907 0.35202265 0.022392219
000360 69 3c 01 bc 4d 75 63 3d 60 0d 11 be e0 3b f3 3d
       -0.007887938 0.05553179 -0.14165258 0.118766546
000370 60 ca 42 bd d5 74 2d bd 16 7e 92 3d ed 87 27 bd
       -0.04755628 -0.042347748 0.07152955 -0.040901113
000380 d3 38 0f bd 48 ab c9 bd 31 22 7c bd 3d c8 6b 3b
       -0.0349663 -0.098471224 -0.061556045 0.0035977506
000390 c1 11 fa bb bc 77 19 bd c8 86 32 bd 73 20 f2 3c
       -0.007631511 -0.037467703 -0.04358557 0.029556489
0003a0 34 84 2e bd de 53 33 bd 69 01 8e 3d 68 a2 86 be
       -0.042606547 -0.043781154 0.06933863 -0.2629578
0003b0 47 04 11 bd 4d ea 2e 3e b3 a0 d6 bd 72 03 ab 3c
       -0.03540447 0.17081566 -0.1047987 0.020875666
0003c0 47 b4 20 3e 2b 42 b4 3e 1a a3 05 3d 4f 9c 83 bd
       0.1569377 0.35206732 0.03262625 -0.06426298
0003d0 6a 2c 21 3d 42 29 43 3d 30 99 ec 3d 90 ac ae 3d
       0.039348997 0.04764677 0.11552656 0.085290074
0003e0 65 08 09 bd 0d a5 bc 3d a9 a3 bc 3d c2 5d f3 3c
       -0.03345527 0.092111684 0.09210903 0.029707793
0003f0 a7 c9 63 bd a9 a9 7a bd fe 63 c4 3d 94 85 9c bd
       -0.055612233 -0.061196957 0.095893845 -0.076426655

features_extractor.cnn.2.bias f4 [16]
000000 7a b5 2a 3b c7 9b a1 3c cb 82 12 3d b3 f5 9b bc
       0.002604811 0.0197276 0.035769265 -0.019038057
000010 71 d0 83 3b 7c 70 aa 3b f2 b3 ec 3c c1 7a 40 bc
       0.004022651 0.0052013975 0.028894398 -0.011748017
000020 fa b4 89 bd 4e 12 9a 3c 42 d5 64 bd 80 36 d3 3b
       -0.06723972 0.018807556 -0.05586744 0.006445706
000030 dc 22 b7 bb 2d 13 8c bd 41 4f 44 bd 8f 58 7c 3d
       -0.0055888724 -0.06839595 -0.047927145 0.061607894

features_extractor.cnn.4.weight f4 [16, 16, 3, 3]
000000 b2 37 42 bd cb d6 df bc 89 00 b4 bd d7 cf 0a be
       -0.047416396 -0.027324101 -0.087891646 -0.13555847
000010 b4 0f c9 3d d5 0b c9 3d b5 5f a9 bd e5 97 aa ba
       0.09817448 0.0981671 -0.08270208 -0.0013015239
000020 d6 dd 07 3c a4 fe 2d bd 4c ee 49 bd ae d2 f2 bd
       0.008292636 -0.042479172 -0.049299523 -0.1185659
000030 ed ff 5c 3d 9f 8f 91 3d d0 bd f8 3b 55 7d b6 bd
       0.053955007 0.07107472 0.007590987 -0.08910624
000040 c6 64 43 3d 55 5d 72 3d be 18 6b 3d 8b e5 d8 bd
       0.047703527 0.05917104 0.057396643 -0.10590657
000050 f6 2c 38 3d 14 a5 d4 3d 8b 86 2a 3e 69 5d a8 3c
       0.044964753 0.10383049 0.16652887 0.020552354
000060 d8 3f 43 3b 00 b2 dd 3d be ac 4f bd 5f b4 2f 3d
       0.0029792693 0.108249664 -0.05070185 0.042896625
000070 b8 22 6b bc ac 88 06 be ca d3 1b 3d ec 36 96 3d
       -0.014351539 -0.13138074 0.038043775 0.07334694
000080 3d 7b 5e 3d 75 4a 9f 3d 3f 5f 5d 3e af 73 5c bd
       0.054316748 0.077778734 0.21618365 -0.053821262
000090 5e 95 ab bd a3 0e ec bd ad 2f 4c be 80 92 27 3e
       -0.08378099 -0.11526229 -0.19940062 0.16364479
0000a0 d2 6b 7b bd b6 ed eb bd 31 45 c8 3d 39 b8 c0 3c
       -0.061382122 -0.11519949 0.09778822 0.023525344
0000b0 7d b8 ea bd e0 d5 b0 bd 77 3e 77 be 3a 12 2c be
       -0.114609696 -0.086345434 -0.24144922 -0.16803828
0000c0 77 b2 4d bd 50 59 3f be 64 e5 14 be 4a a5 f2 3d
       -0.050219025 -0.18686414 -0.1454063 0.11847933
0000d0 66 82 57 bc 0d fb cb bd cf 9b 95 3d 93 20 af bd
       -0.013153648 -0.099599935 0.07305109 -0.08551135
0000e0 3d 2e 3a be 6c dc 28 3d 48 44 fb 3d 84 52 dd bd
       -0.18181701 0.041225836 0.12268883 -0.10806754
0000f0 c4 42 81 3d 94 ee 0b 3c b5 c3 84 bd e0 06 2c bd
       0.06311563 0.008540768 -0.06482641 -0.041998744
000100 3e 14 ce bd e1 ff bd bd 7a 86 68 bd a0 57 07 3e
       -0.10062455 -0.09277321 -0.05676887 0.1321702
000110 2e 69 d2 bb ce 23 cd 3c 2f d3 13 3e 14 de 56 3c
       -0.00642123 0.025041487 0.14436029 0.013114471
000120 53 d7 91 3c 29 77 ee bd ce 47 4c be 54 80 3a bd
       0.01780287 -0.11643822 -0.19949266 -0.04553254
000130 2c 5e 1c 3e 18 0b a5 3d 27 a2 a7 3d 7f 96 0a 3e
       0.15270299 0.080587566 0.08185225 0.13533972
000140 b1 25 d3 bc a0 09 31 3d 60 5c 11 be 73 82 17 be
       -0.025774809 0.04322207 -0.14195395 -0.14795856
000150 bf 93 7e bd 6b f5 16 3e 23 fd a9 3d e9 bc 28 3e
       -0.06215262 0.14742057 0.08300235 0.16478314
000160 38 41 15 3e 94 23 04 3d b9 07 1e be d9 b3 20 3e
       0.1457566 0.032260492 -0.15432633 0.15693606
000170 da 72 3f 3c 92 e3 52 3d f2 75 8f 3c 4f 43 d4 3d
       0.011685098 0.05148656 0.017512295 0.103644006
000180 e8 1d 2e 3d 6b 83 b3 bd 26 16 24 be 15 72 d3 3c
       0.04250899 -0.087653 -0.16024074 0.025811234
000190 8a 27 6e bc 06 0a 3e be ab 4b 27 bc 4e e1 3a 3e
       -0.014535794 -0.18558511 -0.010210912 0.1825001
0001a0 98 1b 9c bd b3 7f 24 bd 0f 36 6a 3b 97 ec f3 bb
       -0.076224506 -0.040160846 0.0035737788 -0.007443975
0001b0 c4 ba 3f bc f6 0e 09 be 1a 9b 75 be 61 2b f0 3b
       -0.011702243 -0.13384613 -0.23984948 0.00732939
0001c0 62 dc 3a 3e 7f fa 08 3d 78 c1 24 3e 0c 17 38 3e
       0.18248132 0.033442017 0.16089427 0.17977542
0001d0 79 ee 1a 3e 28 d8 7a bd ea af a0 bd 7d 8d 41 be
       0.15130033 -0.0612413 -0.07846053 -0.1890163
0001e0 16 a2 f9 3c a7 b1 1a 3d 4c 63 60 3d f2 c5 51 bc
       0.030472796 0.03776708 0.054782197 -0.0128035415
0001f0 28 38 25 3d c0 bd e0 3c 8d 4f c6 3c c0 ee 99 bd
       0.040336758 0.02743423 0.024207855 -0.07516241
000200 7e 86 c2 bd cf 13 95 3d af 4a a6 bc f9 11 b8 bc
       -0.094983086 0.07279169 -0.020299284 -0.022469508
000210 58 01 0c 3d b2 a2 b6 3c 57 0f 8b 3d ce c4 ff bb
       0.03418097 0.022294376 0.06790035 -0.0078054434
000220 ff f7 bd bc ea ff 0e be 78 36 24 bd 47 96 3d 3e
       -0.023189543 -0.13964811 -0.040091008 0.18514358
000230 8e 5b a6 3d 5a 12 04 3e c4 16 15 3e 5e c6 ba 3d
       0.081229314 0.12897626 0.14559466 0.09119867
000240 4a e6 11 bd 1f bf ac bc 1b 02 dc bc 2d 97 48 be
       -0.03562001 -0.021087227 -0.026856473 -0.19588919
000250 09 23 02 be 05 e0 f4 3d 03 27 c0 3d 03 33 a3 bd
       -0.12708677 0.11956791 0.09382441 -0.07968714
000260 5f 88 c5 bd 07 0a 12 be 3e c6 58 be 75 5f 60 be
       -0.09645151 -0.14261638 -0.21169373 -0.21911414
000270 64 79 0d bd 83 40 92 be a9 dd ad bd 97 4b ad 3c
       -0.034539595 -0.28564844 -0.08489544 0.021154208
000280 c9 b9 0e be 50 b6 9e bd 66 62 81 bd ea 16 8e be
       -0.13938059 -0.07749617 -0.06317596 -0.27751857
000290 b2 42 93 be 82 cf 1c be 54 c2 88 bd 95 03 4c be
       -0.28761822 -0.15313533 -0.0667769 -0.19923241
0002a0 19 12 d9 3d 58 e0 fb 3b 20 39 77 be ad 55 10 3c
       0.10599155 0.007686656 -0.24142885 0.008809489
0002b0 3c 00 4b be 3d bd 13 be 72 dc 4a be 29 4c d6 bd
       -0.19824308 -0.14427657 -0.19810656 -0.10463745
0002c0 6b 7a 83 3e 7b da dd 3d 43 a6 96 be 3e 7b 2a 3e
       0.25679335 0.108326875 -0.29423723 0.16648576
0002d0 17 12 b8 3d c4 4b d0 bd f5 de 2b 3e ed f2 5d 3d
       0.08987825 -0.10170701 0.1678427 0.05418675
0002e0 14 fc 4f 3c e0 1a c8 3d 0f 2b b3 3d 6c 03 59 be
       0.012694377 0.09770751 0.08748447 -0.21192712
0002f0 78 78 25 bd b8 60 c5 3d f3 4e 88 bd ac f4 0c 3e
       -0.04039809 0.09637588 -0.06655683 0.1376521
000300 2e 82 2f 3d 54 c5 b2 bc 0f 2e 09 3c c9 86 01 3e
       0.04284876 -0.021822609 0.008372798 0.12649073
000310 6f e5 37 bd b1 3f aa bb ba 32 04 be 27 24 05 be
       -0.04489654 -0.005195581 -0.12909976 -0.13002072
000320 eb fa 3a be 48 f1 81 bd bc fa a1 bd 5b a0 16 be
       -0.1825978 -0.06344849 -0.07909152 -0.14709608
000330 ce f4 39 3c 97 0d fc bd 68 f7 0d be ef 5e ae bd
       0.01134987 -0.123072796 -0.13863909 -0.08514201
000340 d0 7c 5a be d0 20 ef bd 76 7d dd 3c 56 2a 10 be
       -0.21336675 -0.1167618 0.027037363 -0.1407865
000350 9d bd 75 bd 1e fb ac bc 29 36 5c 3d 90 41 76 3d
       -0.059995282 -0.021115836 0.05376259 0.06012112
000360 b3 1d 17 be 3d a3 38 be 08 76 a8 be 27 05 cf bd
       -0.14757423 -0.1803102 -0.3290255 -0.101084046
000370 a7 cd 17 bd 13 de e1 bd 3b bf fd 3d 60 ec e3 bc
       -0.03706136 -0.110286854 0.1238999 -0.027822673
000380 a9 c9 27 be 8a 0d 02 be 57 86 78 be c3 fe 5b be
       -0.16385521 -0.12700477 -0.24269997 -0.21483903
000390 39 59 f5 bd 62 f6 34 be 5d 0e 1a bd 9d b7 8a bc
       -0.119799085 -0.17672113 -0.037611354 -0.016933257
0003a0 7e b2 f7 bd 2c eb e9 bd 47 39 46 3e d6 ef b2 3d
       -0.120945916 -0.114218086 0.19357787 0.08737151
0003b0 80 98 09 bd f4 b8 66 be 91 01 c7 bc 4f c9 10 3e
       -0.0335927 -0.22531492 -0.02429274 0.14139293
0003c0 64 7c 86 bd f5 95 0e bd 19 62 3e 3d 2d b1 31 be
       -0.065666944 -0.03481098 0.046480272 -0.17352743
0003d0 76 fb 90 3c 5d c4 e0 3d 2c 68 13 be 1e 43 c4 bd
       0.01769803 0.10974953 -0.14395207 -0.09583114
0003e0 c0 13 4a 3e 8b 50 fa 3d f5 c6 1f bd b6 61 34 3e
       0.19734097 0.122223936 -0.0390081 0.17615399
0003f0 ce 31 9e 3d 10 99 48 be f1 c1 ba bc c7 f7 48 3c
       0.07724343 -0.19589639 -0.022797557 0.012266106

features_extractor.cnn.4.bias f4 [16]
000000 d6 ec 6d bc 73 d8 11 3c f1 e3 5b bd 0d b8 79 bd
       -0.014521798 0.008901703 -0.05368418 -0.06096654
000010 5e ba d4 ba 28 9f 13 be cb 6c 49 be b6 29 2e bc
       -0.0016229858 -0.14416182 -0.19670407 -0.010630062
000020 fa 84 54 bd 96 06 25 bd 2b d1 5f 3c 2b 77 fd 3c
       -0.05188463 -0.040289484 0.013660709 0.030940613
000030 2a 17 90 bd 6b 2d be bd 0a 1a 11 bd a8 14 c7 bc
       -0.07035668 -0.092860065 -0.035425223 -0.024301842

features_extractor.policy_net.0.weight f4 [64, 784]
000000 8e 30 e8 3d 8d 18 3a bd e4 c8 37 be f6 33 a0 3d
       0.11337386 -0.04543357 -0.17947727 0.07822411
000010 23 93 82 bd 68 59 f2 bd cc 93 01 bc 30 dc 07 bc
       -0.0637572 -0.11833459 -0.007908773 -0.008292243
000020 48 d4 84 3d 6f 5b 5a bc 29 4a 70 3e 35 71 c4 3d
       0.06485802 -0.0133274635 0.2346579 0.09591905
000030 c0 17 28 3e ea e2 3f 3d 1a 8d e7 bd 8e be 9b bd
       0.1641531 0.04684726 -0.1130621 -0.07604705
000040 94 11 13 be ea b1 9c bd 52 90 98 bd ef 5c ad 3d
       -0.14362174 -0.07651122 -0.07449402 0.08464991
000050 eb 3a ed 3c 5b 3c 33 bd 39 f4 17 3c b3 bc e6 bc
       0.028958758 -0.04375873 0.009274536 -0.02816615
000060 0b 42 f7 3c b8 c9 a2 3d 6d 3b b2 bd 20 f6 4d 3d
       0.030182859 0.07948631 -0.08702741 0.05028355
000070 d9 6e 04 bc f3 cd 24 3e 8d f7 c4 3d d5 c6 37 3e
       -0.008083069 0.16094188 0.09617529 0.17946942
000080 6a d0 ff 3c 52 ac 01 be 77 ff 2a 3e 43 c1 32 3d
       0.03122731 -0.12663391 0.16699015 0.04364134
000090 6a ec 06 bd ca 9c f8 bd 62 7d 86 bd 14 bd 5e bd
       -0.032940306 -0.1213928 -0.065668836 -0.054379538
0000a0 99 b5 d9 3c b0 7a 79 bd 00 64 88 3d fa 77 82 bc
       0.02657585 -0.06090802 0.066596985 -0.01592635
0000b0 a4 b9 15 be 91 cb 01 3d 3e d9 0a be 39 d6 63 3e
       -0.14621598 0.031688277 -0.13559434 0.22249688
0000c0 47 ab 30 3e 1b 50 ab 3c c0 2c 08 3e 80 67 19 be
       0.17252837 0.02091222 0.13298321 -0.14980888
0000d0 44 12 5f bb 94 67 cc 3d 1d 5c c8 bd d5 c8 71 bd
       -0.0034037987 0.099806935 -0.09783194 -0.05902942
0000e0 1c 6e 07 3d 1c 22 56 bc ff a6 de bd d7 a2 b9 bc
       0.033063993 -0.013069656 -0.10871696 -0.022660656
0000f0 e4 52 4e bd ef 1c c0 3d f2 6c c4 bd f1 85 fc bd
       -0.05037202 0.09380519 -0.09591092 -0.12330235
000100 3e a6 4f bd 94 b6 17 bd 17 ed c7 bd 7d dd 8c 3d
       -0.05069565 -0.037039354 -0.09762018 0.06878183
000110 f9 4f 9b 3d cc e5 3b 3c 91 83 ca bd fd aa 87 bd
       0.07583613 0.011468362 -0.098883756 -0.0662441
000120 de d6 ba bd 08 2c 36 3c 01 47 cf 3d 66 c8 d0 bc
       -0.09123014 0.011118896 0.10120965 -0.025486182
000130 1d 02 c2 3c 8b cc e0 3b 1f 5f 29 be f5 3e 31 3d
       0.023682648 0.006860321 -0.16540192 0.04327293
000140 e6 ae 64 3d fe a9 bc 3d 8f b2 4a be 91 c9 37 bd
       0.05583086 0.09212111 -0.19794677 -0.044869963
000150 eb ca 3c bc 8b dc 36 3e f2 d9 73 3d 53 be e6 3c
       -0.011522989 0.17857568 0.05953402 0.028166926
000160 57 c4 32 3c 7f 9e ac 3c f8 f3 ab 3d 46 db 61 3d
       0.010911069 0.02107167 0.08396143 0.055140756
000170 bc 73 96 bd c2 9f 05 bd c6 1c 73 bd c8 76 1f be
       -0.07346293 -0.03262306 -0.059353612 -0.15572655
000180 b4 c9 ce 3d 31 5a 10 3d 5a b4 0f be 30 0d b8 bd
       0.100970656 0.035242263 -0.14033642 -0.0898689
000190 62 d6 d8 bd 9f f5 89 be ef 35 00 be ae 06 7f be
       -0.10587765 -0.26945207 -0.12520574 -0.24904892
0001a0 18 68 00 be 89 f6 ab bc 08 e6 21 3c 34 9c 6f 3d
       -0.12539709 -0.02099158 0.009881504 0.058498576
0001b0 f0 14 f4 3d 2c 47 0f 3d 64 1c 73 3c ee 5d 2b 3e
       0.11918056 0.034979984 0.014838312 0.1673505
0001c0 0e 2b 8e bd d2 e9 0d be 9d 4f d0 bd 37 d5 5b bd
       -0.06941806 -0.13858727 -0.10171435 -0.053670134
0001d0 bf 1f 1d 3d 03 e6 e8 bd dc 8d e2 bc f4 65 80 bc
       0.038360354 -0.11371996 -0.027655534 -0.015673615
0001e0 75 57 86 bb 35 c9 4e 3d c2 23 1b 3d e5 47 1e be
       -0.004099781 0.050484855 0.0378759 -0.15457113
0001f0 70 e8 9c bd 4b 4c 18 be 00 fa 24 3e 26 37 0a 3d
       -0.076615214 -0.14872853 0.16110992 0.033744
000200 5c 38 02 3e 20 18 3c 3e b5 ba 4b bd ea 4d c6 3c
       0.12716812 0.18368578 -0.049738605 0.024207074
000210 b8 75 a2 3d 4a 12 3d 3c 35 7c 38 bd b2 7d 0a 3e
       0.07932609 0.011540005 -0.045040328 0.13524511
000220 cd 4e 3a 3d 6f 19 77 bc ac e1 4f bd bc ee 20 3d
       0.045485307 -0.015081747 -0.050752327 0.039290175
000230 16 e1 5e 3e 30 bc ad 3c 81 bb bb 3d 55 70 0f 3d
       0.21765551 0.021207899 0.09166623 0.035019238
000240 2c 61 50 3e 73 5d 49 bd fa b5 ac 3c 1d dc b0 3d
       0.20349568 -0.049161386 0.021082867 0.08635733
000250 8d 39 a2 bd 45 70 c1 bd 51 ac 38 bd 86 b2 0d bd
       -0.07921133 -0.09445242 -0.04508621 -0.03459408
000260 b9 62 df bd e9 1d ff bd f1 30 6d bd 77 a4 4c 3c
       -0.10907502 -0.12456877 -0.057908002 0.012490383
000270 73 c8 1a bd 57 4d 32 3d 95 0d 6f 3d dc 28 42 3c
       -0.03778882 0.04353079 0.058362562 0.011850562
000280 23 50 ed 3d 50 0b 74 bd 39 7f 6d bc 07 9d a1 bc
       0.115875505 -0.0595811 -0.014495664 -0.019728197
000290 e5 17 92 bd a6 7c 44 3d f6 ff af bc 21 11 98 3d
       -0.07133464 0.047970437 -0.021484356 0.07425142
0002a0 5c bf ac 3c 04 4a af bd 5e 98 a9 bc f1 3d cb 3c
       0.021087341 -0.08559039 -0.020702537 0.02480981
0002b0 eb 88 e8 bb 57 03 56 3d fe 74 07 3e ed 14 a9 3d
       -0.0070964 0.05224928 0.13228223 0.082559444
0002c0 33 41 b8 bd 12 95 25 3d 0f ca 25 3e 6b ca fb 3d
       -0.08996811 0.040425368 0.1619036 0.122944675
0002d0 05 85 f5 bc 79 91 e3 3b 57 38 f5 3d 66 45 cc bd
       -0.029970655 0.006944832 0.119736366 -0.09974174
0002e0 74 93 7b bd ca 9a 97 bc 96 a1 d7 3d 13 dd 76 3d
       -0.06141992 -0.018506426 0.10528867 0.060269427
0002f0 7e d8 dd bc 38 ab 22 3e bc 47 92 3c 06 bd d1 3d
       -0.02708077 0.15885627 0.017856471 0.102411315
000300 e6 91 eb 3b a6 c9 5e 3d 4a 26 5f 3e 5d 5d 07 bd
       0.0071890233 0.054391526 0.2179195 -0.033048023
000310 45 da fe 3d 39 9d e4 bc ca bd 77 3d 08 92 b3 3d
       0.12443975 -0.027907 0.06048373 0.087680876
000320 c7 b9 9b bd 95 fa e7 bd 5d e7 e0 bc a8 52 04 3d
       -0.076037936 -0.113270916 -0.027454073 0.03230539
000330 ca 60 dd 3d 26 f5 1f 3d 7c c1 82 3e 06 eb a2 bd
       0.10809477 0.03905215 0.25538242 -0.079549834
000340 4d 96 e9 bd 59 eb 2c be f8 54 ac bd 05 77 04 bd
       -0.11405621 -0.16886653 -0.08414644 -0.03234007
000350 9c 88 e9 3c 61 d1 79 3e e8 92 bc 3d 64 b2 88 3d
       0.028507523 0.24396278 0.09207708 0.0667465
000360 3b a1 3e be 24 7c 93 3d d0 33 37 bd c0 fb b9 bd
       -0.18616192 0.07201412 -0.044727147 -0.090812206
000370 54 6b cc 3d 9c 9e ec bd 94 d7 b9 3b a6 24 22 be
       0.09981409 -0.1155369 0.005671451 -0.15834293
000380 ec e6 a8 3d ea 70 38 3e 68 f9 2c 3c 24 87 4e bd
       0.0824717 0.18011823 0.01055751 -0.05042185
000390 5c 44 f0 bd 97 01 2f be b6 79 5b 3d 7d d3 08 3d
       -0.117317885 -0.1709045 0.05358287 0.033404816
0003a0 eb f1 46 3d 7f cd b9 3d a5 5b 07 3e bb 83 85 3b
       0.048570555 0.090723984 0.13218553 0.0040745414
0003b0 25 d2 31 be d7 69 09 3e 56 4d a6 bc 3a 7a 20 3d
       -0.1736532 0.13419281 -0.020300549 0.039179064
0003c0 19 90 6c bc 48 bb 9b bd 64 23 01 3c 2e d5 6f 3d
       -0.014438652 -0.076040804 0.007881973 0.058552913
0003d0 3d cc 49 bd 08 1d 94 3e d4 45 3c bd c7 06 d8 3c
       -0.049267042 0.289284 -0.04596503 0.02637042
0003e0 a9 ab 6a 3d 78 c2 2e 3e 4e bb 4c bd a3 b5 24 bd
       0.057292614 0.17066371 -0.049983315 -0.040212285
0003f0 29 bf 24 bd 77 a9 71 3d ba c5 b5 bd 30 fd 99 bd
       -0.040221367 0.058999505 -0.08875604 -0.07518995

features_extractor.policy_net.0.bias f4 [64]
000000 97 03 2e 3d 30 18 0c 3c 0f 8f b4 3d 08 f5 20 3d
       0.042483892 0.008550689 0.08816349 0.03929618
000010 f1 ce 24 3d 08 77 d4 3c 8d 91 96 3d 3b 9a 11 3d
       0.040236417 0.025935665 0.0735198 0.035547476
000020 e1 f8 e9 bc a5 62 0f bd 6f 36 7d bc de d9 1e 3d
       -0.028561058 -0.035006184 -0.0154548725 0.038781993
000030 96 03 2e 3d fa e4 92 bb 5f 5c 87 bb 2f 84 31 3d
       0.04248389 -0.0044828625 -0.0041308845 0.04333895
000040 52 50 c3 3d f0 45 1e 3d a9 77 80 3c d1 76 1e bd
       0.09536804 0.038640916 0.015682058 -0.03868753
000050 38 15 da bc 01 e5 16 3d 36 71 9f bb 64 2f 8c 3d
       -0.026621446 0.03683949 -0.0048657907 0.068449765
000060 0b d6 3c 3d 5e df 3a 3d 7f 9d b5 bd 56 56 50 3c
       0.046102565 0.045623176 -0.088679306 0.012715897
000070 a4 c8 2f bd c1 39 4d 3d de 09 c7 bc fe 5e a5 3c
       -0.042915955 0.050103907 -0.024296697 0.020186897
000080 2e d5 ca 39 0a d8 49 3d 3b b3 09 3b a2 15 4b bc
       0.00038687274 0.049278297 0.002101137 -0.012395294
000090 b3 59 f8 bc 7e 49 19 3d a2 31 50 bd 6e 39 26 3d
       -0.03031621 0.037423603 -0.050828584 0.040582113
0000a0 e8 45 40 3c 5d 9a 97 3d 91 ff 5c bc f7 8d c5 bc
       0.011735417 0.07402489 -0.013488666 -0.024115546
0000b0 89 18 c0 3d 4a 9c 9f bc 48 47 8a 3d 6a ab 50 3d
       0.0937968 -0.019483704 0.06751877 0.050944723
0000c0 79 3b 8a bd 23 bb 84 bc 95 c8 23 3d 33 90 3d bc
       -0.06749625 -0.016202515 0.03998621 -0.011570024
0000d0 df 62 63 bd 81 33 84 3d d1 53 cc bb b4 70 e0 3c
       -0.055514213 0.06455136 -0.0062355776 0.027397491
0000e0 f5 95 49 3d b7 4f d4 3c 8c cd cb 3d dd 64 18 bd
       0.049215276 0.025916917 0.09951314 -0.037205566
0000f0 43 ee c9 3c e5 74 c8 bd c8 67 16 3d c7 9d 92 bb
       0.024649745 -0.09787921 0.036720067 -0.004474375

features_extractor.policy_net.2.weight f4 [64, 64]
000000 57 b5 0b 3d 16 cc 0f be 3b d0 c4 bc fb 2b bf bd
       0.034108486 -0.14042696 -0.024025073 -0.093345605
000010 15 5b 0c bd dd d2 c6 3b 7e 5f 39 3c 2c 6a 53 3d
       -0.03426655 0.0060676173 0.011314271 0.051614925
000020 9c 95 f6 3d f8 83 27 be 5c 0a ab bd 29 a6 cb bd
       0.120402545 -0.16358936 -0.08351585 -0.09943802
000030 39 b8 c1 bc 2d f8 4c 3c 8e 67 74 bd 82 94 f5 3d
       -0.023647415 0.012510342 -0.05966907 0.11991216
000040 4d 7b 47 3c 7f 47 ab 3b a0 5e c4 3d 45 06 a4 3d
       0.012175393 0.005227029 0.09588361 0.08009008
000050 22 b8 3e 3e 58 c0 4f 3c 88 4f 19 3e f2 cd 29 be
       0.18624929 0.012680136 0.14971745 -0.16582468
000060 d3 63 51 be ee f7 4d be e2 b5 45 3e be 98 05 3e
       -0.20448236 -0.20114109 0.19307664 0.13046548
000070 a1 82 7b bd 8c 4b df bb a5 2f 99 bd bf cc 19 3e
       -0.061403874 -0.006814426 -0.074797906 0.1501951
000080 49 c5 05 be a4 30 ee bd e8 c2 1d 3d f6 e4 04 3a
       -0.1306354 -0.11630371 0.038515955 0.0005069518
000090 70 fc 6f 3c 7e 6a 20 bd 2e 61 12 3e f1 00 cf bc
       0.014647588 -0.03916406 0.14294884 -0.025269004
0000a0 4c b4 f5 bd 0f 68 0f be 5a b7 a9 3d c8 e1 af bd
       -0.119972795 -0.14004539 0.08286925 -0.08587986
0000b0 93 ab e5 bc a1 79 7f 3d db 8d 19 bd a2 f8 07 3e
       -0.028035915 0.062371854 -0.0374888 0.1327844
0000c0 e7 fd 07 be 11 46 96 3d ac f3 b3 bd 8c 2c ba 3d
       -0.1328045 0.07337583 -0.08786711 0.09090528
0000d0 a4 7e a1 bd a6 3b 02 be f1 e9 32 3e bd 2d 0f be
       -0.07885483 -0.12718067 0.17472054 -0.13982292
0000e0 14 01 74 3e 5f 08 71 bc f0 36 bc bc 8d db cc bd
       0.23828536 -0.0147114685 -0.022975415 -0.100028135
0000f0 b2 b8 7c be 64 a5 4e 3d 9e 78 1b bd 38 ec 02 3e
       -0.2467983 0.050450698 -0.037956826 0.12785423
000100 9c 5a b6 3d 2d 9f 56 bd a8 a7 ac bd 57 43 36 3e
       0.08904001 -0.052397896 -0.084304154 0.17799126
000110 e1 66 e8 bd f5 92 03 3e 96 d6 77 bc 37 79 58 be
       -0.113477476 0.12849028 -0.015126845 -0.2113999
000120 0a 39 44 3e 06 06 19 3e 93 63 52 3e f8 66 64 3e
       0.19162384 0.14943704 0.20545797 0.22304904
000130 78 66 98 bc e4 10 20 3e 95 1b 58 3e a6 bf c9 bd
       -0.018603548 0.15631443 0.21104272 -0.09851007
000140 6e 0b 10 be 93 1f e7 3c bd 11 6e be 55 4d 1b be
       -0.1406686 0.028213298 -0.23248954 -0.15166219
000150 5a bb eb bd 15 97 9b 3d 08 ae f5 bc d0 e9 87 bd
       -0.11510344 0.07597176 -0.029990211 -0.06636393
000160 4b 12 dd bc 99 9e 0d bd 01 21 cb bc cc ea 26 bd
       -0.026986262 -0.03457508 -0.02479601 -0.040751263
000170 8e ca b6 3d f6 67 5e 3e e1 db 24 be 5c 8f c8 bd
       0.08925353 0.21719345 -0.16099502 -0.09792969
000180 5c 35 45 bd ff 8c 70 3e f1 07 c0 bd e0 c0 7e 3d
       -0.04814659 0.23491286 -0.09376515 0.06219566
000190 48 41 48 3c 69 9c 36 ba 2b 0a fc 3d 35 40 31 3e
       0.0122225955 -0.0006966056 0.12306627 0.1730965
0001a0 dd 1a 76 3d 26 92 10 3e 54 1c ad bd 57 7d a5 bd
       0.060084213 0.14118251 -0.08452669 -0.08080547
0001b0 f7 26 43 3d fc a7 9e 3d 27 a2 d5 bd 8e 78 4e be
       0.04764458 0.07746884 -0.10431319 -0.20163175
0001c0 21 8b ac 3e 1e ef 82 be 83 3e fa 3d e3 b6 df 3d
       0.33699897 -0.25573057 0.122189544 0.10923555
0001d0 b3 6b 56 3e 6c ea 2d be f9 02 4e be 3b ec 0a 3e
       0.20939521 -0.16983956 -0.20118321 0.13566677
0001e0 88 7f 68 be 27 8f 46 3e 20 c6 55 bc 1b 68 52 bc
       -0.227049 0.19390546 -0.013047725 -0.0128422035
0001f0 11 83 d2 bc 6e fe 23 3e 24 a4 b7 3d 79 bc 1c 3e
       -0.025697263 0.16015026 0.08966854 0.15306272
000200 c3 34 bc 3c 33 86 45 bd c6 75 c8 3d 3d eb be bc
       0.022974377 -0.048223685 0.097880885 -0.02330553
000210 28 b8 92 bc 2b 40 c6 bd d7 f3 0a 3e 80 43 ad 3d
       -0.017910078 -0.09680208 0.1356958 0.0846014
000220 da fe db 3b 9c 74 1b be 6d 13 2d be e4 00 6f be
       0.0067137303 -0.15181202 -0.16901942 -0.23340183
000230 16 02 d5 3d c6 74 46 be 4a f7 7b be d3 99 3c 3e
       0.104007885 -0.19380483 -0.24606052 0.18418054
000240 a7 ec 83 bc 40 12 2b 3e 2a 73 6f 3e a5 b4 85 3d
       -0.016104056 0.1670618 0.23383775 0.06528596
000250 2e 94 a6 3d 2c ba 11 3d 30 cd a7 3c d3 7b b4 bd
       0.08133732 0.035577938 0.020483583 -0.0881268
000260 c7 48 98 3d 54 97 17 be 94 87 12 be 26 1f fb bd
       0.07435756 -0.14803821 -0.14309531 -0.122618005
000270 c3 75 3a be f1 90 48 be a7 c1 3d 3e 88 39 3b bb
       -0.18208985 -0.19586541 0.18530904 -0.0028568227
000280 36 af da bc 8c e5 f6 bd 1d 94 ad 3c f4 f6 0b bd
       -0.026694875 -0.12055501 0.02118879 -0.03417106
000290 1f 59 ad 3d a7 81 a1 bd f3 07 e1 3c 38 5c ad bd
       0.08464264 -0.07886057 0.02746961 -0.08464855
0002a0 be 36 29 be 6c 6c 24 be 3e f6 81 3d b5 0a 6a bd
       -0.16524789 -0.16056985 0.06345795 -0.057139117
0002b0 d7 e9 9f 3d 2f f4 5b be 20 59 09 3d 85 12 5a 3e
       0.07808273 -0.21479867 0.03353226 0.21296127
0002c0 a5 d3 81 be 46 39 20 3e d3 b2 c7 bb 08 32 07 be
       -0.25356784 0.15646848 -0.0060943156 -0.13202679
0002d0 6c 15 ab bd fa cf 52 3e 38 5a 90 3d f0 2e b9 bd
       -0.08353695 0.2058715 0.07048458 -0.09042156
0002e0 91 59 ff 3b 64 18 50 be 4c 21 33 be e1 52 90 bd
       0.0077926596 -0.20321804 -0.1749317 -0.07047058
0002f0 45 83 64 3c 2f 97 8d bd 4a dd 5e 3d 04 be 90 3d
       0.013947313 -0.069136016 0.054410256 0.070674926
000300 90 37 e3 3d f6 79 54 3e 4c 91 eb bd a0 3a 5f be
       0.11094582 0.2074965 -0.115023226 -0.21799707
000310 a3 c2 ad 3d e6 5d 3d be a8 8c bc bc 13 9e a8 3d
       0.0848439 -0.1849285 -0.023016289 0.08233275
000320 a3 52 b1 3c d6 d3 37 be 6e 43 f8 bd 49 f6 68 be
       0.02164585 -0.17951903 -0.12122236 -0.227502
000330 58 d0 a8 3d 41 39 62 bb 2d d1 44 be c0 4a 47 3e
       0.082428634 -0.003451899 -0.19220419 0.19462109
000340 96 1d e3 3d dd 89 2d 3e cd da 2c 3e 52 84 77 3e
       0.110896274 0.16947122 0.16880341 0.2417157
000350 88 93 83 bd 22 bd 9a 3b 81 d7 92 bd ec 33 20 bd
       -0.06424624 0.0047222534 -0.0717001 -0.039112017
000360 79 66 a1 3d 8d a3 d7 bd d8 79 25 be 02 82 4c be
       0.07880873 -0.10529242 -0.16159761 -0.19971469
000370 26 d7 a3 bd 80 3f ab bd ad 5b b0 3c 7a df 8f 3d
       -0.08000021 -0.08361721 0.02152809 0.07025047
000380 ed 11 a9 bd 80 6b 87 be b2 5e 93 3b 80 ee 6b 3d
       -0.08255372 -0.26449203 0.0044973725 0.0576005
000390 6c 4a 63 3d 96 ff 03 be bc e0 bc bd 7c 2a a3 bd
       0.055490896 -0.12890467 -0.09222552 -0.079670876
0003a0 c4 c3 30 be 9c ff 1d 3d e2 c8 75 bd c2 1e 6e 3d
       -0.17262179 0.038573846 -0.06000603 0.0581348
0003b0 83 a3 92 3d e1 b6 18 bd fa 66 db 3d 8c ce ca 3d
       0.07160094 -0.037283782 0.107130006 0.09902677
0003c0 67 10 99 be a9 8b ef 3d 82 a0 a0 3d 3f f7 2c bd
       -0.29895326 0.1169656 0.078431144 -0.04222798
0003d0 dd e2 d1 bd 7d 01 47 3c 94 1c 0a 3e 1c f4 9a 3d
       -0.10248349 0.012146351 0.13487464 0.075660914
0003e0 2a ae 04 bd b8 4b 5a be 10 35 09 be e6 88 47 bd
       -0.03239266 -0.21317947 -0.13399148 -0.04871454
0003f0 45 0f 94 3d 3c 88 1e be 16 99 0b 3e 0f 34 8d bd
       0.07229475 -0.15481657 0.13632616 -0.06894695

features_extractor.policy_net.2.bias f4 [64]
000000 14 6a dd bb da 91 a5 bc 29 83 ba bd cf 56 2c 3c
       -0.0067570303 -0.020211149 -0.09107048 0.010518744
000010 ca 6f df bc 0a 70 3b bc 0d be 0b be 6d cb 10 3d
       -0.027274985 -0.011440286 -0.13646717 0.035350252
000020 99 54 00 3e e6 03 84 3d fd 49 97 bd fe b8 a6 bc
       0.12532271 0.06446056 -0.07387159 -0.020351883
000030 10 cf e9 3d 72 02 b8 bd 36 83 77 bd d5 c6 b3 3d
       0.11416447 -0.089848414 -0.060427867 0.087781586
000040 ab 26 9e bc d1 f1 8a 3d 1d 16 c2 bd 4b fa 36 3d
       -0.019305548 0.06784404 -0.09476874 0.04467229
000050 e7 32 23 bd 7e b2 82 bc de 3d 00 3e eb 93 dc bd
       -0.039843466 -0.015954252 0.125236 -0.107704006
000060 7f b0 72 3d 78 46 a4 bd 40 f4 91 3d b1 45 62 3d
       0.05925035 -0.08021253 0.07126665 0.055242244
000070 84 de 0e 3d 5a 44 aa bd 87 16 0d 3c 8b 63 36 3c
       0.034880176 -0.08313818 0.008611328 0.011132131
000080 e2 ca 31 bd 7e 5b 10 bd 67 ab 18 3e bc 6f 23 bd
       -0.043406375 -0.035243504 0.14909135 -0.03990148
000090 7f 44 ca 3d a5 da de bd e2 40 e7 3d eb 85 79 bd
       0.09876346 -0.10881547 0.11291672 -0.06091873
0000a0 94 8d 9b bd 85 bd ed bd bd a6 fd bd 3f ad 97 3d
       -0.07595363 -0.116084136 -0.123853184 0.07406091
0000b0 f3 c7 41 3d 05 02 7b 3d e7 91 98 3d 14 d3 5f 3d
       0.047309827 0.061281223 0.07449704 0.05464466
0000c0 ee 6f 9a 3d 4c a5 10 bd 38 fc 21 3d 95 f2 99 bd
       0.0754088 -0.03531389 0.039547175 -0.07516972
0000d0 8a 79 e2 3d e2 45 10 3b 9a 17 05 3d 12 24 76 3d
       0.11058338 0.002201431 0.03249321 0.060092993
0000e0 48 5b cf bc 2e ec 08 bd ae 16 8b bc 9c 02 a3 bd
       -0.025312081 -0.033428364 -0.016978588 -0.07959482
0000f0 e4 be ef 3d 94 92 3a 3b 51 d2 75 bd dc f6 0c 3e
       0.11706331 0.0028468715 -0.060015026 0.13766044

features_extractor.value_net.0.weight f4 [64, 784]
000000 71 62 96 3d 69 49 14 3e 8b 69 d3 3d d3 a8 99 3d
       0.07342995 0.14481129 0.10322865 0.07502904
000010 5d 12 e8 3c 0b 40 95 3d 60 f8 09 3c f1 79 03 3e
       0.028329069 0.07287606 0.008421034 0.12839486
000020 02 a9 23 3e 08 8a 0c b9 dd 5f e2 3d 5b f6 d0 3d
       0.1598244 -0.00013402861 0.11053441 0.102032386
000030 16 fe c6 3d 1f b3 d9 bd fa e5 44 3e fe c2 60 3e
       0.09716432 -0.10629868 0.19228354 0.21949384
000040 4b e4 b9 bc 74 59 e3 bd f6 46 29 3e ec cd a1 3e
       -0.022691866 -0.11101046 0.16530976 0.31602418
000050 52 49 2f 3e 80 10 87 3e 31 4b 9d 3c a9 fd 7f 3d
       0.17117813 0.26379776 0.019200893 0.06249777
000060 9e e4 0d be f7 ff af 3d 37 26 2b 3e 07 2d bd 3c
       -0.13856742 0.08593743 0.16713797 0.02309276
000070 bf 29 3b 3e 9d 3f ea 3d 01 39 99 bc c6 26 18 3e
       0.18277644 0.114379145 -0.01870394 0.14858541
000080 f2 2f bd 3d 1c 0a 35 3b 4d 96 39 be ad 1e a7 3c
       0.092376605 0.0027624434 -0.18123741 0.02040037
000090 6e 42 43 3e cb 06 d2 3d d7 4c f6 3d d0 54 e9 bd
       0.1906831 0.10255202 0.12026375 -0.1139313
0000a0 02 85 48 bd 39 9b c6 bb 1b 72 9d 3c 3d 84 0d 3d
       -0.04895497 -0.0060609845 0.019219449 0.03454994
0000b0 53 bd 42 3e d5 31 f6 3d d2 fc 3b 3e de d7 ed 3d
       0.19017534 0.120212235 0.18358162 0.11613439
0000c0 64 92 27 bd 70 16 d9 3c c3 c2 d1 3d 4c 8e 98 3d
       -0.040911093 0.026499957 0.10242226 0.07449016
0000d0 0d e9 87 bc 28 16 c6 bd e0 ad a9 3d cc 08 d6 ba
       -0.01659062 -0.09672195 0.08285117 -0.0016329526
0000e0 78 ff eb 3d 93 2f 68 3e 29 37 03 bd 29 c1 a3 3d
       0.11523336 0.22674398 -0.032035027 0.07995827
0000f0 82 6a 6a bc f0 cc 83 bc cc 11 57 bd 53 37 7b 3d
       -0.01430762 -0.016088933 -0.052507207 0.06133206
000100 0c c8 33 3e 15 dc 9e bd 9b 03 f9 bc 45 31 63 3d
       0.1755678 -0.07756821 -0.030397227 0.05546691
000110 22 75 dd 3c 28 ae d4 bc 72 3c a7 3d 06 54 89 3d
       0.027033392 -0.02596195 0.08165826 0.06705479
000120 e6 ae 18 bc b3 54 44 be c7 bd 2d bd ee a1 af 3d
       -0.009319043 -0.19172935 -0.042417314 0.085758075
000130 0a a5 cd bd 78 f9 71 3d 26 b2 a5 3c 48 ea 58 3d
       -0.10041244 0.059075803 0.02022655 0.052957803
000140 e2 92 a4 bd e5 08 58 3d 0e af 7a ba de a9 34 be
       -0.08035828 0.052742857 -0.00095628283 -0.17642924
000150 49 00 92 3c f2 37 8f 3d 9a ad 97 bc c5 13 c4 bd
       0.017822402 0.069930926 -0.018515397 -0.09574083
000160 75 e8 8b be ff f3 85 be 10 56 36 be 08 e8 05 3e
       -0.27325788 -0.26162717 -0.17806268 0.13076794
000170 a5 37 b7 bd 27 24 8e 3c 8b dd 04 be f1 3c 97 be
       -0.0894616 0.017351223 -0.12975137 -0.29538682
000180 34 f9 9a bd 8b 07 a7 3b 3a 31 d7 3d a0 9f 38 3e
       -0.07567063 0.0050973347 0.10507436 0.18029642
000190 e6 fe a8 3b 9d 91 46 3c fa 7c ad 3c 90 b8 c1 bd
       0.0051573394 0.012119678 0.021177758 -0.09459031
0001a0 5d 2d c2 bd 85 33 29 3e 4e a3 8d 3d bd c1 fa 3c
       -0.094813086 0.1652356 0.069159135 0.03060996
0001b0 48 7d 93 3d 18 f2 aa 3d bc 32 d5 3c 2f ce 8d bd
       0.0720163 0.08346957 0.026025169 -0.06924092
0001c0 6d 17 1a 3e c0 d3 8a bd bf 36 92 be c4 95 61 bc
       0.15047999 -0.06778669 -0.28557393 -0.013768617
0001d0 2a 66 50 3e 1f b3 bd 3d ff 6c 47 3d df 12 ae 3d
       0.20351472 0.0926268 0.04868793 0.08499693
0001e0 6c 7c ff bd 47 2f 7c 3d 45 e4 19 be a0 2c 44 ba
       -0.124749035 0.061568525 -0.15028484 -0.0007483456
0001f0 6d eb 2f 3d 44 fa 12 3d e6 ab 45 3d 3f 20 5c bc
       0.04294913 0.035883203 0.04825964 -0.013435422
000200 46 a4 c4 3d 47 6e 74 3c 80 45 93 bd f4 84 c8 bc
       0.09601645 0.01491887 -0.071909904 -0.02447746
000210 37 96 4d 3d 4e 78 1a bb 37 c0 33 3d 87 2e 99 3d
       0.050192084 -0.0023570242 0.043884482 0.074795775
000220 87 20 88 bd 1e 9b 1d bc 09 93 bb bd 9a 88 2b bd
       -0.06646829 -0.009619502 -0.09158904 -0.04187832
000230 7c d6 7d 3c b6 72 1a 3d 8a 5e c5 3d 5e cd 25 3e
       0.015493032 0.037707053 0.096371725 0.16191623
000240 db 7a 16 3d 31 fc f9 bc fb e8 98 bd 92 8b 0e 3d
       0.036738258 -0.030515762 -0.074663125 0.034801073
000250 4d 16 22 3d 04 23 30 be bd 6f 95 bd 6f 72 ce 3d
       0.03957205 -0.17200857 -0.07296703 0.1008042
000260 ad 51 2c 3d 9a 64 a2 bd e9 a3 0d 3e e7 7d 00 3d
       0.04207008 -0.079293445 0.13832058 0.03137007
000270 7b 63 97 bd 2a 04 99 3c 2f b2 e4 3c 12 f0 75 bc
       -0.07392021 0.018678743 0.027916996 -0.0150108505
000280 d9 7b f8 bd c6 e0 00 3e e2 01 30 3c 06 78 f4 bd
       -0.12132997 0.12585744 0.010742636 -0.11936955
000290 b7 fe 47 be 60 17 f3 3d 6f eb fc 3d 2a e4 51 3d
       -0.1953076 0.11869693 0.12349593 0.051242985
0002a0 af 3c 06 3e 46 27 ae bc a2 97 e7 bd 6e cd 25 3c
       0.13109086 -0.021258961 -0.113082185 0.010119779
0002b0 8e d6 b3 3d 55 9c 8f 3d ce 5f 81 bd fa c8 79 3d
       0.087811574 0.0701224 -0.063171014 0.06098268
0002c0 5f f2 a3 3b 63 d6 54 3c 90 84 13 3e 0e 04 ed 3d
       0.005003258 0.012990567 0.14406037 0.11573039
0002d0 38 f3 a5 bd 06 c0 03 be f9 22 a3 3d 68 35 bc 3d
       -0.08103031 -0.1286622 0.07965655 0.09189874
0002e0 84 18 95 3d a6 b8 ba 3d 98 a2 ef bd ba 54 0c be
       0.072800666 0.0911725 -0.11700934 -0.13704196
0002f0 59 84 a0 bd 4d 19 f8 3d 60 8b 15 3e aa 4c 38 3e
       -0.07837743 0.12114201 0.14603949 0.17997995
000300 e7 45 74 3d 87 46 55 3c 14 2d c5 bd 26 75 87 3d
       0.059636977 0.013017303 -0.096277386 0.06614141
000310 12 8d df 3d 97 b0 3b 3e 8c fe 2d 3d 97 d7 b6 3a
       0.10915579 0.18329082 0.042479083 0.0013949749
000320 c0 55 13 3d 84 35 b6 bc f7 a2 87 3d 76 b2 3d 3e
       0.03597045 -0.022242315 0.0662288 0.18525109
000330 86 08 2f 3e 0c 5c de 3d b2 05 93 3d c8 d4 e4 3c
       0.17093095 0.108574 0.07178821 0.027933493
000340 cf 86 8f bd 06 48 3f bd 96 84 62 3e d5 9c 10 3e
       -0.070081346 -0.046699546 0.2212089 0.14122327
000350 3d 4d cf 3d 44 32 d6 3d 5c 41 c5 3d 95 92 e6 3d
       0.10122154 0.10458806 0.09631607 0.11258427
000360 52 d1 c9 bd 5c ca 07 3e c2 54 5c 3d 31 0e 06 bd
       -0.09854378 0.13260788 0.05379177 -0.032728378
000370 0d c0 0e bd d9 3e 77 3d 13 3e a9 3d a5 1f 10 3e
       -0.034851123 0.06036267 0.08263793 0.14074571
000380 5e 5b a1 bd f3 76 8f bb 27 ba 5c bd 67 78 39 be
       -0.07878755 -0.0043781935 -0.053888466 -0.18112336
000390 1b 6c ec 3b 31 55 a3 bd 3e dc be bc 5d f8 cc 3c
       0.0072150356 -0.07975233 -0.023298379 0.025020773
0003a0 7c 09 29 bc f3 6a 14 3d f8 59 1c be 90 f7 32 be
       -0.010317203 0.036234807 -0.15268695 -0.1747725
0003b0 92 f3 14 be 0d 1a b2 bd a8 46 27 bd 88 a3 30 3d
       -0.1454604 -0.08696375 -0.040838867 0.043124706
0003c0 ae dd 40 bd 45 43 0d be 1e 63 3b be fc 0f 16 bd
       -0.04708641 -0.13795193 -0.18299529 -0.036636338
0003d0 53 a0 96 bd 6d d0 31 bc 24 43 e3 3d 2d 7b a3 bd
       -0.07354798 -0.010852915 0.110967904 -0.07982478
0003e0 22 4f 25 be 8b 75 62 3d 9a a8 01 3c f3 d1 16 bd
       -0.16143468 0.05528788 0.007913733 -0.036821317
0003f0 07 ca d8 3d 30 1e be 3d dc ea 01 be cd dd ba 3d
       0.10585409 0.092831016 -0.12687248 0.091243364

features_extractor.value_net.0.bias f4 [64]
000000 31 a1 c2 bd 6a f3 20 be a1 b1 7b be 69 21 87 be
       -0.09503401 -0.15717855 -0.24579479 -0.26392677
000010 f1 a3 de bd 1f 59 59 be 57 73 9a 3d 7b 85 c4 bd
       -0.10871113 -0.21225403 0.075415306 -0.09595772
000020 a8 ac 9a 3c 3b eb 2a 3c 2d 19 a9 bd c4 80 1a 3d
       0.018881157 0.01043206 -0.08256755 0.037720457
000030 01 10 00 be 55 e1 b4 3d 43 5c e7 bd 14 6e 90 b9
       -0.12506105 0.08832041 -0.112968944 -0.00027547835
000040 b9 93 25 be 6d 0e 3c 3d 90 91 72 be 36 98 93 bd
       -0.16169633 0.045912195 -0.2368834 -0.07206766
000050 88 08 17 bd 59 13 ed bd b7 1b 3e 3d 8f 85 22 be
       -0.03687337 -0.11575956 0.04641315 -0.15871261
000060 43 b6 08 3d b6 1b 6d be f5 dc 1e be c4 d7 85 bc
       0.033376943 -0.23155102 -0.15513976 -0.016338237
000070 88 3f 44 be 1f e5 61 3d 89 ab 2a be 46 ca 28 bc
       -0.1916486 0.055150148 -0.16666998 -0.010302132
000080 58 00 91 be e3 9e b0 bd 94 7a 73 be 77 ca ff bd
       -0.28320575 -0.08624055 -0.23777229 -0.12489789
000090 0c 0d e6 bc 5f 30 66 bc 6c 13 05 3d 3b 3a af bc
       -0.028082393 -0.0140496185 0.032489225 -0.021390071
0000a0 1f b2 81 be a0 2c 1d be d8 80 ee 3c e6 9b 1b bb
       -0.25331208 -0.15349054 0.029114172 -0.0023744046
0000b0 9b 12 33 be 7d d5 8c bd e9 d5 80 bd fe 25 1e 3d
       -0.17487566 -0.06876657 -0.062908 0.03861045
0000c0 00 c4 a3 bd 1f 92 1f be fe 4a 3a bc 9e 3c 9c bd
       -0.079963684 -0.15583085 -0.011370419 -0.07628749
0000d0 2c b9 8b 3d df 86 9f bd 59 5f 38 be 6c a7 32 be
       0.06822428 -0.077893965 -0.18005122 -0.17446679
0000e0 64 0f b6 bd 16 d5 77 be 4e 5d 3f bd 6b c5 b7 be
       -0.08889654 -0.2420238 -0.04671984 -0.35892805
0000f0 3d 41 67 be 44 7c 6a be 29 26 61 be 0c 52 b0 bb
       -0.2258348 -0.22898966 -0.21987213 -0.0053808745

features_extractor.value_net.2.weight f4 [1, 64]
000000 bd 4e e0 3c a5 0a 30 3e 9e 99 59 3e 93 56 89 3d
       0.027381295 0.1719156 0.21250007 0.06705966
000010 24 54 c7 bd 4e 41 49 3e e3 fb f9 bc 2d 9c db 3d
       -0.097328454 0.19653818 -0.030515617 0.107231475
000020 4a 30 86 bd 0d 31 80 bd 4d e1 78 3d f2 1d f6 bd
       -0.06552179 -0.06259356 0.06076174 -0.1201743
000030 31 b6 03 3d 2a 97 81 bd 29 48 81 bd 34 13 db bd
       0.032156173 -0.063276604 -0.063125916 -0.10697022
000040 e7 49 2d 3e 8a c4 94 bd a2 18 40 3d 05 4c 66 bd
       0.16922723 -0.07264049 0.04689849 -0.05622484
000050 b9 d9 e1 bc 76 0d ba 3d 58 2a 6d bd 52 cf 1f 3e
       -0.027569639 0.09084599 -0.05790171 0.1560643
000060 50 7d ee bd 3b b4 48 3e e6 21 5e 3e 04 33 50 bd
       -0.11644995 0.19600002 0.21692619 -0.050829902
000070 cb 20 88 3d 4d dc 99 bc 28 8e e8 3d ed 13 e1 bd
       0.0664688 -0.018781805 0.11355239 -0.10990129
000080 37 9f 07 3e 82 61 47 bd e8 30 84 3d 22 55 c8 3d
       0.1324433 -0.048676975 0.064546406 0.09781863
000090 98 39 06 bd 9b 3f c2 3d 1e b5 08 be e0 8b 35 bc
       -0.03276977 0.09484788 -0.1335034 -0.011080712
0000a0 b5 4d 66 3d 60 6a dc 3d 22 f8 60 bd d0 6d 13 be
       0.05622645 0.10762477 -0.054924138 -0.14397359
0000b0 01 3e be 3d b3 fc 0b 3e 39 e7 f0 bc 19 0c b3 bd
       0.0928917 0.13670616 -0.02940713 -0.08742542
0000c0 03 76 08 3e 9e 04 a1 3d 37 31 af bd 61 c5 d1 3d
       0.13326268 0.07862209 -0.08554309 0.10242725
0000d0 39 e9 57 bd 7f 6c 4c 3d 40 fb cd 3d 6e 37 87 3d
       -0.052712653 0.049908157 0.10057688 0.06602369
0000e0 ef 3d 5b 3d 55 bd 16 3e b8 32 92 bd 5a de 9e 3e
       0.05352586 0.14720662 -0.0713858 0.31029016
0000f0 ba 25 0a 3e 9e b2 3a 3e 2a d1 6c 3e 4b ef 89 bd
       0.13490954 0.182322 0.23126665 -0.06735095
