model/actor_critic_Reward_prediction_v0.pth (torch, 461146 bytes, 24 tensors)

log_std f4 [2]
00000000: 0c6d a43e 8e17 e0bd
0.32114446 -0.10941993

features_extractor.encoder.conv.0.weight f4 [4, 1, 3, 3]
00000000: 09c5 76be 26d0 693c 95cb e33b 125e 22be
00000010: af35 6d3e 6884 d03d 7cb8 94be aa01 853e
00000020: cadf 513d ea03 f53d 34e3 273e 1236 1b3e
00000030: 55a1 f7be f6f7 e7be 3ac9 b53e b54f 8d3e
00000040: 0419 243e 3e00 07bf e99a ef3c 1614 02bd
00000050: e29a 263e 5d2f 37be ec6f 2fbe 6a08 ec3d
00000060: edf0 03bd 8a43 bebe 758b 833e 295e 523d
00000070: 4f74 83bc 8d2f 8a3d c175 103e 8041 af3d
00000080: d45f 083e b580 4cbd 9717 193e d588 933d
-0.240986 0.014270818 0.006951759 -0.15856197 0.2316501 0.101815045 -0.29047 0.25977832
0.051238813 0.11963637 0.16395265 0.15157345 -0.48365274 -0.45306367 0.35505086 0.27599874
0.16025168 -0.52734745 0.029248672 -0.031757437 0.1627002 -0.17889161 -0.17132539 0.11525042
-0.032212187 -0.37160903 0.25692335 0.05135933 -0.016046671 0.06747351 0.1410742 0.08557415
0.13317806 -0.049927432 0.14950405 0.07203833

features_extractor.encoder.conv.0.bias f4 [4]
00000000: c6c7 b2bc 7726 4fbb fe90 d4bc 69f8 25bc
-0.021823775 -0.003160862 -0.025948044 -0.010130026

features_extractor.encoder.conv.2.weight f4 [8, 4, 3, 3]
00000000: 2dea 82be c225 60bc 8cf6 ff3d 5a3d 2fbf
00000010: 256e 37bd 52a6 0cbe 2cf8 9d3d 61e8 9cbc
00000020: cb14 043e 9060 763e 2d19 bd3d bb05 163e
00000030: eeb6 8f3e c933 c73e 69bc 7a3d d0a0 06be
00000040: abda 19be e9fa c5bd 6b40 513e 4300 8e3e
00000050: 2c0c 78bd c335 20be b41b 4abe c320 2ebe
00000060: 2cad 88bd 7339 a53c 3c63 a13c c2c8 0bbe
00000070: 320a 2c3d 8659 c53c fa54 c73e c6ce 273e
00000080: 3034 a6be 7a5c 6cbe 8a18 0dbf 9d1b 0d3c
00000090: 8059 7a3e e14e ddbe 2204 073c 3daf 14be
000000a0: d560 32bd bc7c 513e 5641 2a3e edaf 4c3e
000000b0: 1fe6 703e bffe 3b3e 8adf 3dbd 9284 5bbd
000000c0: c2e1 053e 0f38 cabe 269b a53d 815c 6fbe
000000d0: a53c 763e d0f3 803d 517d 183e a69d bbbe
000000e0: 2538 1fbd f416 2fbf 87f9 9c3c 9ba9 0c3e
000000f0: fb4c 403e b652 f43d 2272 e13d 68bd 453e
00000100: 268c 31be 1966 4abd 8959 253d 47c1 acbe
00000110: ccb2 adbc a842 fcbb 59a3 a53d 7726 6e3d
00000120: 6c94 32bd e25e 1b3d 9fa6 cfbd bea2 1abd
00000130: 1ec5 ddbd 49c8 933c 3af5 6ebe 99c4 abbc
00000140: 6fe8 a4bd 39c7 be3d 77bf 223d 92c7 1f3d
00000150: a1c5 043e 8441 413e cdf3 34bd 2ed7 b7bd
00000160: 7c33 403e 80e5 19be 82f3 f8bd e7ea 94bd
00000170: 2a7f 6a3e c08d 24bd 4b70 28bd 621c 6ebd
00000180: 5ee9 64be 50f7 c8bd c373 493e a9d0 cc3c
00000190: 141e 403d c97c cf3c 48d6 8d3e 075b 1c3e
000001a0: 4f94 983d cc05 a33d 4fbd 44bc 17c7 6b3d
000001b0: ac99 c23d a734 073d cf48 66bd cc58 36be
000001c0: ba5d 18be a1bd cc3d 88f7 7a3d 529d aa3d
000001d0: 96e9 02be 6097 a4bd 0520 a63d cca7 85be
000001e0: b593 963d d9db f43d 887a 65be 4b6c b6bd
000001f0: 1fad bcbd 1d6d 213d 556e b1bc e602 de3e
00000200: 84b1 4ebd 7564 d73d dae8 203e 9e09 863d
00000210: ad0c 033c a53d 443e 88d4 28be de3c 03be
00000220: c491 3d3e 34fd 103d 6a53 8bbe fcce 6a3e
00000230: e5c5 df3d 9a05 39be 9a35 16bd 99c0 133e
00000240: 8b05 dc3d ae7b 0c3f 6b4d a5be 60f9 8b3e
00000250: 048a 063f 2047 41bf 28bd 47bd 785f 373d
00000260: 03be 503e 5f44 d13c 3213 9bbb 6452 373e
00000270: 6dd9 643c d5cd da3d 4ef7 6e3d 6f89 673d
00000280: 4ccb 153e cdb1 06be a627 e13d 7425 ebbd
00000290: f1be 07bf 5247 553e 46a2 74be 47bc 4fbf
000002a0: 12a0 c8bc a179 40be 6cf9 9bbe fd34 d43d
000002b0: a9ea 183e 7c87 78be 4a18 003e 36ed 0d3e
000002c0: d69f 90be 1832 8d3d b1f5 dc3d 508d 18be
000002d0: 4209 2cbf 8be3 7e3e 081a e9be 3a39 4dbf
000002e0: 59fe 963d 934a 3fbf 9139 a53d 4f7e 213e
000002f0: 29d1 b0be c96b b1bd face b8be e16b 08bf
00000300: 214f 5abf 509f c3bf 30f2 3bbf f23f 5fbf
00000310: 6dfa b6bf b146 52bf 62a6 463e 48a6 b53e
00000320: b973 453d eedc 60bf b477 3fbc 5d33 fbbe
00000330: de79 42bd ab95 443e a57b d2be ad33 dd3d
00000340: f9a0 a53e 6b94 2f3e 45ce a6be f693 54be
00000350: 70a5 c6be 3e13 b13e 04d9 593e 4b94 233e
00000360: e361 c5bd 2789 17be 7ceb d43e 4e57 d1be
00000370: 8f7d 52be b88d 8d3e 5f85 763e 0b6e dabd
00000380: 78d5 1e3c 5c31 27bd c6fe 91bf fa72 59bf
00000390: e559 95be 0aa4 b7bf e908 8dbf e8bc 4cbe
000003a0: 8681 8abe 79ff f3be a646 45be 5732 2abf
000003b0: 0a12 033e 4faa 8dbe 781d 63be 0bf4 1e3e
000003c0: 222b a0be ff23 d6be 0f04 af3d 28ff 513e
000003d0: ab29 3d3e 3f94 0b3e bd70 543e adbe 23bd
000003e0: 0406 313d ead6 f8bc ddf0 c0be 3983 e83d
000003f0: 9837 7bbc 80e2 07be 7701 873b 3928 8abd
-0.25569287 -0.013680877 0.12498197 -0.6845299 -0.044782776 -0.13735321 0.07713351 -0.019153776
0.12898557 0.24060273 0.092333175 0.14650624 0.28069252 0.38906696 0.06121484 -0.13147283
-0.15024821 -0.09666998 0.2043473 0.27734575 -0.060558483 -0.15645508 -0.1973713 -0.17004685
-0.06673655 0.020168995 0.019700639 -0.13650802 0.04200191 0.02409054 0.3893202 0.16387472
-0.3246169 -0.23082152 -0.5511557 0.008612541 0.24448204 -0.43224242 0.008240731 -0.14519973
-0.043549377 0.20457739 0.16626486 0.19988985 0.23525284 0.18358897 -0.04635576 -0.053593226
0.13074401 -0.39495894 0.08086233 -0.23375131 0.24046572 0.062965035 0.14891554 -0.36643714
-0.038871903 -0.683944 0.019161953 0.13736574 0.18779366 0.11929838 0.11008097 0.19310534
-0.17338619 -0.049413774 0.04036859 -0.3374121 -0.021203421 -0.0076983757 0.08087797 0.05814215
-0.043598577 0.037932284 -0.10139202 -0.03775286 -0.10828613 0.01803984 -0.23335734 -0.020967769
-0.08052146 0.093153425 0.039733376 0.039008684 0.12966014 0.18872648 -0.04417782 -0.08976589
0.1876964 -0.15028954 -0.121558204 -0.072713666 0.22900072 -0.040174246 -0.041122716 -0.058132537
-0.22354648 -0.09812796 0.19673066 0.02500184 0.046903685 0.025328057 0.27702546 0.15269099
0.074501626 0.0796009 -0.012008025 0.057562914 0.09501967 0.033009198 -0.05622178 -0.17807311
-0.14879504 0.09997106 0.06127122 0.08330788 -0.12784418 -0.08036685 0.08111576 -0.2610458
0.07352392 0.11955995 -0.22410023 -0.08907374 -0.09212708 0.0394107 -0.021659056 0.43361586
-0.05046226 0.105172075 0.15713826 0.06544803 0.007998628 0.1916414 -0.16487324 -0.12816188
0.18512636 0.035397723 -0.27212077 0.22930521 0.10926417 -0.18068543 -0.036672212 0.14428939
0.10743245 0.5487622 -0.32285628 0.27338696 0.52554345 -0.75499153 -0.048764378 0.04476878
0.20384984 0.025545297 -0.004732513 0.17902523 0.013967854 0.106837906 0.058341317 0.05652755
0.14628333 -0.13153763 0.109938905 -0.11481753 -0.5302573 0.20827988 -0.23890027 -0.81146663
-0.02449039 -0.18796398 -0.3046373 0.10361669 0.14933266 -0.24270433 0.12509266 0.1386002
-0.28246945 0.0689432 0.107890494 -0.14897656 -0.67201626 0.24891488 -0.45527673 -0.80165446
0.07372732 -0.74723166 0.080676205 0.15770839 -0.34534577 -0.086631365 -0.3609541 -0.5328961
-0.8527699 -1.5282993 -0.73416424 -0.8720695 -1.4295174 -0.82139117 0.19399408 0.35478425
0.048206065 -0.8783711 -0.011686254 -0.49062625 -0.047479503 0.19197719 -0.41109958 0.10800872
0.32349375 0.1714646 -0.32579246 -0.20759568 -0.38798094 0.34584993 0.21274191 0.15974538
-0.09637811 -0.14798413 0.4158591 -0.4088692 -0.2055571 0.27647185 0.24074315 -0.1066552
0.00969445 -0.040818557 -1.1405876 -0.84941065 -0.29170147 -1.4346936 -1.1018344 -0.19993937
-0.27051944 -0.47655848 -0.19265231 -0.6648306 0.1279985 -0.27668998 -0.2217921 0.15522783
-0.31282908 -0.41824338 0.08545696 0.2050749 0.18472926 0.1363077 0.20746131 -0.039976764
0.043218628 -0.030375917 -0.37683764 0.11353154 -0.015333079 -0.13269997 0.0041200477 -0.06745953

features_extractor.encoder.conv.2.bias f4 [8]
00000000: 1106 2bbd 67e9 42bc 8199 9bbc ec0c e3bb
00000010: 5826 bcbc 2be9 923c 8a1b e8bd 3f3b f4b9
-0.041753832 -0.011896468 -0.018994095 -0.0069290306 -0.022967502 0.017933449 -0.11333378 -0.00046583448

features_extractor.encoder.conv.4.weight f4 [16, 8, 3, 3]
00000000: 5abd 6dbf 49a8 c8be d3ef 0a3f 4323 81bf
00000010: f7c0 44be 7660 3bbf dc09 c4be d802 debe
00000020: 4641 93be af28 283c 82c3 b2be d00a fdbe
00000030: 91c6 2d3e 89eb e1be e94b 063c 55d1 5cbe
00000040: 54bd e8be ec92 c5be 6e16 243e d615 963e
00000050: 7e4d 203e 0ae1 223e 1095 153e 0553 c03d
00000060: 62e1 693e 9618 52bc 482b c93d d577 8dbd
00000070: 55b0 eebd 4dae 5cbe f284 67bd a51d 27bc
00000080: 9fa0 92be 6589 45be f54d bebb 2cbd af3d
00000090: 8f4c 453e 41f4 1fbe b6e0 3abe a879 823e
000000a0: 9d66 363e 63d8 b93d 0b17 af3c 0750 983d
000000b0: 2ce7 0abe 1cee 6ebf 0106 50bf baff 39be
000000c0: 488e cc3e 7512 a53e 7989 85bd 15d7 2dbf
000000d0: 9f63 1ebf 9fa5 8dbd 405c 1abe 05c1 b1be
000000e0: ca6c a03e 9886 b83d 3c26 9abe 09f5 4cbe
000000f0: 37d1 90bd 3424 9c3e d6ab 8b3e 2e4e a5bd
00000100: 9996 713e 4343 8dbd 0679 28be c000 afbe
00000110: 079c 76be e261 7c3c b50a 3b3e 86a7 5d3e
00000120: 651c 45bd f501 f0bb eb68 1bbe 8792 433e
00000130: c7cd 033f 32a8 0c3e 0749 7cbd 3437 2f3e
00000140: 35ac e0bb ec22 58be 76a0 adbe 9622 c73d
00000150: 5f83 96be 4a9a 5cbf e34b 3c3e cc20 1c3e
00000160: a104 75be 3e57 11bd 16ac f5bd 1b1a c23e
00000170: 0b1a e8bd ff4b babd 0f4d ab3e 6855 3fbe
00000180: 9b69 e9bd 9863 833e 54f0 a4bd 711e fb3d
00000190: faaa 82be 153b 62be 174a 3c3e 415b 2dbf
000001a0: 5ee1 c4bd 7fe8 6b3e 0e6e edbe 8d10 0ebe
000001b0: 69f5 423c 6ba9 70bf ae88 6a3e e7e3 5c3d
000001c0: bc59 cbbf 6efb 683e dd67 cf3c 62b3 a2bf
000001d0: 4b96 5b3e 1fe1 20be 6dd6 f33d ff55 503c
000001e0: f3fa c0bd 6cd7 63bb 9e37 01be 0001 5dbd
000001f0: 87c9 5f3d f74f 5fbd ecd7 2ebf 4a13 3a3e
00000200: 8560 94be bbba 51bf 8bf1 b03d 8354 f9bb
00000210: f7bf 1ebf 8de9 fd3d 5712 e1bd a969 42be
00000220: 40c8 a23d fa8c 89be 7701 0bbe d7c1 493e
00000230: d4e3 2cbe 428a 843d 9e98 8e3e 3288 0cbe
00000240: a830 1dbe b8db 1cbd 6517 233d 236e a3be
00000250: b6fc 7d3e 12dd 873d 72dc 923c 2e8f d63d
00000260: 435c 2c3e 7657 b4bd 4c1c 1f3e 41f8 1d3e
00000270: fb1c 1dbe 08c2 513e 96a1 983d 41bc bb3b
00000280: ba99 72be e6e0 5dbe 836d c63d 5b6c 103e
00000290: 1659 233e 1b4d dc3c 3cde 823e ffef b13d
000002a0: 318a 20be 8ebb 44be 18e0 0fbe 491d 0dbe
000002b0: 8820 533d c692 323c 6fb4 8cbd 0306 403e
000002c0: ab16 593e 6753 eebd 9938 09bb 85f5 8ebc
000002d0: 6754 a23c 96ce b93d 3830 233e 7f8e ffbc
000002e0: c655 883d 5ab4 a33e 05e6 b33b 51cd a3bd
000002f0: 63c8 a53d 80a8 093d caf2 b0be 3f44 f1be
00000300: c6af 543e 529c 24bf ba08 5fbf ebe8 373b
00000310: cd55 abbe f7a9 8abe 36ce 0fbd a46b 0ebf
00000320: a585 27be 28f4 9dbe 8646 84bf 1f5c b1be
00000330: cc63 adbd 68a5 50be 2169 323e 43e8 47bc
00000340: f9d0 643e 39bd d43e be7e 9dbe 9e58 8a3e
00000350: 614a 103e 7420 3bbe fa87 053d 60cd 1cbc
00000360: bab8 793d 8a06 34be 506b 253d 5e8b 95be
00000370: fbe1 91bc e38b 9e3e 4ed1 fa3c e7d6 503d
00000380: b4f0 b83e 84b3 413d 590f e6be 350d e5be
00000390: c3bd fa3d 5495 b8be c4cf 11bf 1d4a 8d3d
000003a0: e789 813e d33e 07bf 8f95 b23d fe08 c1bd
000003b0: 838a a73e 072b 573d 6bb3 e3bc 09bc b73e
000003c0: 0fd5 503e 733c cabc 346d 443e 645a a9bc
000003d0: 2791 013e 6e61 a0bd 8d47 6cbe c456 643e
000003e0: 6526 18bf 402d 0abe 5508 9d3e b61c 33bf
000003f0: e406 ef3c ecf2 023e d0db 5fbf 0238 bdbd
-0.9286705 -0.3919089 0.5427219 -1.0088886 -0.19214235 -0.7319406 -0.38288772 -0.43361545
-0.28760737 0.010263606 -0.34914786 -0.49422312 0.16970278 -0.44125012 0.008196809 -0.21564229
-0.45456946 -0.38588655 0.16024181 0.29313534 0.15654561 0.15906158 0.14607644 0.09390835
0.22839883 -0.012823245 0.09822708 -0.06907622 -0.116547264 -0.21550865 -0.05652327 -0.010199939
-0.2863817 -0.19290693 -0.005807633 0.085810035 0.19267486 -0.15620519 -0.18249783 0.2548344
0.17812581 0.090744756 0.021373292 0.07437139 -0.13564748 -0.93332076 -0.8125916 -0.18163958
0.39952302 0.32240644 -0.065203615 -0.67906314 -0.6187076 -0.06916355 -0.15074253 -0.34717575
0.31333 0.09010047 -0.30107296 -0.20015348 -0.070711546 0.3049637 0.27279538 -0.08071552
0.23592605 -0.06897595 -0.16452417 -0.3418026 -0.24082957 0.015404196 0.18265803 0.21645936
-0.048122782 -0.007324452 -0.15176742 0.19098864 0.51485866 0.13736036 -0.06159308 0.17110902
-0.006856466 -0.21107072 -0.33911484 0.097233936 -0.29397103 -0.86172926 0.18388323 0.15246886
-0.23927547 -0.03548359 -0.119957134 0.37910542 -0.11333092 -0.09096526 0.3345723 -0.18684924
-0.11397096 0.25661922 -0.080536515 0.122616656 -0.2552107 -0.2209285 0.18387638 -0.6771737
-0.09613298 0.23037909 -0.46373028 -0.13873501 0.011899331 -0.9400851 0.22903702 0.053928282
-1.588676 0.22752163 0.02531808 -1.2710993 0.21444051 -0.15710877 0.11906133 0.012715816
-0.09422865 -0.0034765853 -0.12618873 -0.05395603 0.05463555 -0.05451962 -0.6829822 0.1817142
-0.2897989 -0.81925553 0.08639821 -0.0076089515 -0.62011665 0.12398062 -0.10989826 -0.18985619
0.07948351 -0.2686537 -0.13574778 0.1970285 -0.16883785 0.06471683 0.27850813 -0.1372383
-0.15350592 -0.038295478 0.039817233 -0.31919965 0.24803433 0.06633963 0.017927382 0.10476528
0.1683207 -0.08805744 0.15538138 0.15426733 -0.15343086 0.20484173 0.07452695 0.0057292287
-0.23691455 -0.21667823 0.096888565 0.14103834 0.15951952 0.026892236 0.25560176 0.08688354
-0.15677716 -0.19212171 -0.14050329 -0.13780703 0.051544696 0.010899251 -0.068703525 0.18752293
0.21200053 -0.116370015 -0.0020938276 -0.017451057 0.019815637 0.09072606 0.15936363 -0.031195877
0.06656985 0.31973535 0.005490067 -0.07998145 0.08094861 0.03360796 -0.34560233 -0.4712238
0.20770177 -0.64301026 -0.8712269 0.0028062414 -0.33463898 -0.27082798 -0.035108767 -0.55632997
-0.16359575 -0.3085034 -1.0334022 -0.34640595 -0.084663 -0.20375597 0.17422916 -0.012201372
0.22345342 0.41550615 -0.3076076 0.27020735 0.14090873 -0.18274099 0.03260038 -0.00957045
0.060967185 -0.1758062 0.040385544 -0.2920789 -0.017807951 0.309661 0.030617382 0.050986197
0.36121142 0.04729034 -0.44933584 -0.4473664 0.122432254 -0.36051428 -0.5695765 0.068989016
0.25300524 -0.5283024 0.08719932 -0.09425543 0.32722864 0.05253127 -0.027795514 0.35885647
0.20393775 -0.024687028 0.19182283 -0.020672984 0.12653027 -0.07831083 -0.2307417 0.22298723
-0.59433585 -0.13493824 0.3067042 -0.69965684 0.02917809 0.1278798 -0.8744478 -0.09239198

features_extractor.encoder.conv.4.bias f4 [16]
00000000: 8fcf 54bd 8215 3d3b 528d b53c 01e0 9abc
00000010: c681 42be ce73 68bc c0c6 8a3b 44f6 39bd
00000020: 3e9a 56bc e65b 80bd f8d7 593d 78d7 1abe
00000030: 68de e4bd 69ba e23b da98 493c 75fe 8abc
-0.051955756 0.002885193 0.022162113 -0.018905642 -0.18994817 -0.014187766 0.0042351186 -0.045400873
-0.013098298 -0.06267528 0.05318448 -0.15121257 -0.11175233 0.0069191945 0.012304509 -0.016967038

features_extractor.encoder.conv.6.weight f4 [32, 16, 3, 3]
00000000: 74a0 4bbe 1e10 5cbd 9dce c43b 7e7a f2be
00000010: 6210 ca39 57f1 bdbe 3f02 00bf 1252 0e3d
00000020: fc78 85bd 8739 aebd bd32 943d cac1 85be
00000030: 91b8 45be e826 07be b6b7 4c3d cf30 33be
00000040: 97fc 993a 0c32 e53d f6b8 043d 3fe1 e0bd
00000050: 86e0 b43d 4e52 403e cdcb 7e3c 8c43 cb3e
00000060: ec7d dfbc d147 58be 9a94 c23d 61fa 57be
00000070: 5c61 76be b964 a6be 0dbb 3ebe a5b3 66be
00000080: 60d6 c6bd f6b7 2abe 7c3d 8abe 3fa0 d9bd
00000090: e170 cfbe 6cc0 6cbe 9c0f bb3e 1553 edbe
000000a0: 213c a7be 6e93 ad3d c75b a1be e740 25be
000000b0: 2e96 09bc f512 63be 7d0e 12be d41a 3abd
000000c0: 400a 18bd 27e5 5bbe 1d36 4a3c d913 92bc
000000d0: 6544 0f3e f116 703e 42d3 33be 235a e1be
000000e0: 79e6 c13d 36be 89be ed6c 11bf 713f 763d
000000f0: 52b6 90be 89af 3ebd 7726 583d 7a31 78bd
00000100: 0858 37be 705b 453e 6c62 563d 6d00 36be
00000110: c3f2 6a3e 8757 653d a3ad 3fbe 75ea dbbc
00000120: 3ad6 b03e af30 97bb 915d ef3d 8ba0 493e
00000130: 986f 703d 7266 af3e c7a7 093e 9fe5 5dbc
00000140: 6759 793e 01e3 1dbe 068e a4be 1c8c f2be
00000150: 5b2e adbe efc5 2bbe 8d58 64bd 2791 1fbf
00000160: 362d d2bd 4364 3cbe 4ad7 e3be 1268 6fbe
00000170: 3105 0bbe 1f8b 3dbf b804 db3d ad3c 923d
00000180: 873f bebe 32f2 b2bd 61be 753e 7488 463d
00000190: 5379 7f3d f88c 63bd 3375 40bd a619 ba3c
000001a0: 4e9d 61bd 36e3 be3c 8bac dd3c 6b3f 96bd
000001b0: db3a 4eba 497c 72bc e821 543c e9c4 783d
000001c0: ab4a e33d 9c95 b1bc 7d22 113d 8277 e0bc
000001d0: 76a3 f1bc 3265 d23d fd4c 3d3e cc1b 403e
000001e0: 7e97 a13d 4d54 283e aca5 5d3e 4139 79be
000001f0: bfc5 c0bd 172e 96bc caa1 0d3e b7d8 c83c
00000200: 0078 83bb 2a48 da3d 0a04 333e 2b5c 29be
00000210: 1837 58bc b5cf ae3d e3a9 3fbe 6a87 debe
00000220: 3819 383e c205 1e3e e221 eabe 3caf da3e
00000230: fde4 9f3d fa35 b2be 8e14 1b3e c4ae 3dbe
00000240: abdf 9cbe 09f3 213d 3450 6dbe 8ec2 4abe
00000250: fa1d d2be 1b70 8fbd d4bf 9abe 14ef fb3c
00000260: 17ac 2a3c 17f4 90be 6085 9abe d4de 74be
00000270: d4d7 0bbe 3098 a1be 9b04 643d 1b5d 3abb
00000280: c222 843e 9bd4 4f3e 67bb acbd 7be4 993d
00000290: 611e 0cbb f5d0 77be 9d3d d6be 191c 1fbe
000002a0: edc8 c1be 186e 03bf 24ac 97bd 4d98 33be
000002b0: 0ce4 5cbe dab5 83be 788b 70be 08bc 9939
000002c0: 1330 8ebe f2e9 3e3d 02e2 793e b3d0 64bd
000002d0: c072 84be d7b2 38bc a266 0cbe 31f7 2cbb
000002e0: 0d2d 733d 5788 a5be 94c4 733e ac2a 4fbd
000002f0: 5169 f73c af7b 25be 4ec9 debb f15c 14bd
00000300: 8810 113e 068e ecbd c349 c8bd eef1 90be
00000310: b12a 09bf ef7d 8abe 7db4 0a3d 7ad2 753d
00000320: 7b76 40be 748b 18be d8c2 e7be 160c cebe
00000330: c322 10bf b8a4 14bf 9ee8 acbe e657 c8bd
00000340: 2f9c c0be 4525 19bf 3cf0 cfbe ff75 18bf
00000350: d70c 34bf 8eff 0cbe 32d1 dcbd f71d 09be
00000360: 412b e93d 2109 49be 8f6a 3bbe 9974 c1be
00000370: 1f6d 27bf d9c2 0dbf c49f bb3d b3a0 713e
00000380: e03d e23d 0d45 1cbe cea1 aebe fc02 883e
00000390: 9496 f3bd 16dd a0be a998 fcbe d993 323e
000003a0: 7920 58bc 14b1 663d e1e0 523e f3fb 1a3c
000003b0: 80cd 34be 654a 7b3e eb4f 523d ff08 88be
000003c0: bc74 543e 0206 9a3d dfc1 d43e ab8a 5e3a
000003d0: a6bc ff3c 36cf 683c b731 a23d fc9d d23d
000003e0: b600 3ebc 47a5 86bd f23f 883d ceae a3bd
000003f0: 1a25 e2bc 0530 8ebc 260a 54bd 6e7f 853c
-0.19885427 -0.053726308 0.0060060755 -0.4735908 0.00038540649 -0.3709819 -0.5000343 0.034746237
-0.065172166 -0.08507066 0.0723624 -0.26124412 -0.19308688 -0.13198435 0.049979888 -0.17499088
0.0011748251 0.11191186 0.032402955 -0.10980462 0.08831887 0.18781397 0.01555152 0.39699972
-0.027281724 -0.21121146 0.09501 -0.21091606 -0.24060577 -0.3249872 -0.18626042 -0.22529466
-0.097088575 -0.16671738 -0.27000034 -0.10626268 -0.40515807 -0.23120278 0.36535347 -0.4635245
-0.32663062 0.084753856 -0.31515333 -0.1613804 -0.008397622 -0.221752 -0.1426334 -0.04543574
-0.03711915 -0.21474133 0.012342003 -0.01783173 0.13990934 0.23446251 -0.17561057 -0.4401408
0.09467787 -0.26902932 -0.5680683 0.060119096 -0.282641 -0.046554122 0.052771058 -0.06059406
-0.17904675 0.19273162 0.052339956 -0.177736 0.22944169 0.055991676 -0.18718581 -0.026845196
0.34538442 -0.004613958 0.11687768 0.19690149 0.058700174 0.34257847 0.13442908 -0.0135435155
0.2435051 -0.15418626 -0.32139605 -0.4737252 -0.3382443 -0.16774724 -0.05574851 -0.6233086
-0.102625296 -0.18397622 -0.4450019 -0.23379543 -0.13576199 -0.74040407 0.106942594 0.07140479
-0.37157843 -0.08737601 0.23998405 0.048469976 0.062371563 -0.05555436 -0.04698677 0.022717308
-0.055081658 0.023301702 0.027059814 -0.07336315 -0.00078670465 -0.01480014 0.012947537 0.060734663
0.11098226 -0.021677785 0.03543328 -0.027400736 -0.02949689 0.10273208 0.184864 0.18760604
0.07890223 0.16438408 0.2164523 -0.24338247 -0.09412717 -0.018332524 0.13831249 0.0245174
-0.004012108 0.106582955 0.1748201 -0.16539066 -0.013196729 0.08535711 -0.1871715 -0.43462688
0.1797837 0.15431884 -0.45728976 0.42711818 0.07807348 -0.34806806 0.1514456 -0.18523699
-0.30639395 0.039538417 -0.23175126 -0.19800779 -0.41038495 -0.07003804 -0.30224478 0.03075365
0.010417006 -0.28311226 -0.30179882 -0.23913127 -0.1365655 -0.31561422 0.055668455 -0.0028436843
0.25807768 0.20295946 -0.08434182 0.07514282 -0.0021380412 -0.24200805 -0.41843882 -0.15538062
-0.37848607 -0.51339865 -0.0740588 -0.17538567 -0.21571368 -0.2572468 -0.23490703 0.00029322528
-0.27771053 0.046609826 0.24402621 -0.055863094 -0.25868797 -0.0112731075 -0.13711026 -0.0026392455
0.059369136 -0.32330582 0.23805457 -0.050577804 0.030201586 -0.16160463 -0.0067988997 -0.03622145
0.14166462 -0.11550526 -0.09779694 -0.28309578 -0.53580767 -0.27049205 0.033863533 0.06001518
-0.18795197 -0.14896947 -0.4526584 -0.40243596 -0.5630304 -0.5806384 -0.33771223 -0.0978239
-0.3761916 -0.59822494 -0.40612972 -0.5955505 -0.7033209 -0.13769361 -0.10782088 -0.13390337
0.11385203 -0.19632389 -0.18302368 -0.3778427 -0.6540088 -0.5537544 0.09161332 0.23596458
0.11046958 -0.15260716 -0.34107822 0.26564777 -0.11893955 -0.31418675 -0.4933522 0.17439212
-0.013191336 0.05632122 0.20593597 0.009459483 -0.17656517 0.24540098 0.051345747 -0.26569363
0.20747656 0.07520677 0.41554162 0.0008489291 0.031217884 0.014209559 0.079196386 0.102840394
-0.011596849 -0.06574493 0.066528216 -0.07992326 -0.027605582 -0.017356882 -0.05176749 0.016296115

features_extractor.encoder.conv.6.bias f4 [32]
00000000: 06f8 0c3b a74f d63c 7ca2 7d3d 14ed d1bc
00000010: 78e3 ce3a 7a45 653b e871 efbd 35eb a8bd
00000020: 63be 7ebd 1ae0 19be 7ba2 e73c 1fc8 b1bd
00000030: d80c 7ebc 7101 343d 9760 9e3c e7b0 43bd
00000040: ced2 f8bc e4bc cebd e24b f83c 11c5 7bbb
00000050: acd9 d9bd 278c 4bbc 9ecf 49be 5d1b d4bc
00000060: 713b 0cbe 2af5 9f3c e2d9 1ebd 9710 36be
00000070: c426 a3bd 8e34 69be 2f92 02be 8e4c 12be
0.0021510138 0.026161028 0.061922535 -0.025625743 0.0015784344 0.0034984038 -0.11691648 -0.08247987
-0.062193286 -0.15026894 0.028275719 -0.08680748 -0.015505992 0.043946687 0.019333167 -0.04777613
-0.030373957 -0.10094622 0.030309621 -0.0038417021 -0.10637221 -0.012423552 -0.19708106 -0.025891954
-0.1369455 0.019526083 -0.038782008 -0.17779766 -0.07966378 -0.22773954 -0.12751077 -0.14287016

features_extractor.encoder.conv.8.weight f4 [64, 32, 3, 3]
00000000: 75cb b33d 2a89 c5be ad8f 4fbe 815c 10be
00000010: 006e c4bc b1ff c3be 16ef 18be 830d dfbe
00000020: 5806 38be 305e b1bf 9000 333e 71a8 903d
00000030: c673 e3bd b983 f2be 00fd 0ebd d045 e63d
00000040: c627 843e 4c5d a0be 46b4 58be c27d 973e
00000050: 6595 de3c 582f bdbe 7ba7 a53d 89c7 12bd
00000060: fcb7 62be 0ba2 b63d 7ecc eb3d 89ab c5be
00000070: 563a 423e b6f9 9e3e 4210 64be 6feb 2b3e
00000080: cdb2 09be 6c7b 5bbe f7ea f6bc f1ba 7b3e
00000090: c5fb 5dbf 6c0e 6bbe 663d bdbd bee8 1abf
000000a0: bdb1 edbe 64d5 30bc 620c dfbd 0651 45be
000000b0: c573 3c3c 9ba1 90be 7ea7 07bf 1e9c 7e3d
000000c0: 62cf f3be e2a0 a1be 1624 6ebe bcf2 74bd
000000d0: 59e6 48be fa5d bc3d 2aa0 0a3e 2c52 6ebf
000000e0: 3828 513c fb3f 1dbe b4bc edbe b01c d2bd
000000f0: 4a8f c63d 9ba3 953d 2cd4 5a3c dfe2 f339
00000100: f36c fdbb c13c 17bd 0733 e53c b152 8bbc
00000110: 8491 92bd 8e46 813d 6449 423d bc2a 13bd
00000120: 60d4 d93d d12e 413d 7195 8c3d efdf babe
00000130: 063d a9bd 854b 463e 2aaf 0ebe 3fa2 7fbe
00000140: 9a5a 8c3e 848f 98bf 2947 9abe e8b4 c63d
00000150: 2bf6 0e3c 48df be3e 4344 7bbd 90f0 0dbe
00000160: a56e 7b3e 093c 1fbc 70f4 9cbb a70f 993c
00000170: 5a13 aebd c75e da3e c441 003e b66e 4c3d
00000180: 89e6 613d 452b 8bbd 9aa6 6f3e def2 97bc
00000190: 1757 a4bd 3a55 993d 89b0 943a 69ed b5bc
000001a0: cfaf 233d b502 61bd 6390 61bd 66f4 293d
000001b0: cba2 813c f822 843d 92d4 633c 5de0 5a3e
000001c0: ba10 113e 2d42 5dbc 5e14 1abe ba13 da3d
000001d0: 156a 88be c9d9 893e 2828 543e b5da 9ebb
000001e0: 24bf babc c722 0f3f 79b4 aa3d 88fe e8be
000001f0: ccf5 ff3d fdc6 3fbe 61b7 69be 6456 66bf
00000200: 85a3 f2bd 853d 56bf cac4 44bf 4bfc dabd
00000210: f849 52be 1f03 37be 7d79 afbc 1eb1 80be
00000220: c1c5 39bf 017a 00bf 6874 04bf ce38 32bf
00000230: e4dc 90be b32c 36be 5878 38be 3231 55be
00000240: 6328 c4bd a297 a33e 97de 7dbe 426c 02bf
00000250: afd3 053e b53f 9a3d ad09 6ebc fda4 c4be
00000260: a2ca 643d 6a76 c2bd b90f aebd 0443 a0be
00000270: c111 1bbd cb8b 0fbf 4d1b 2f3e cef4 c2bd
00000280: f35f e4be 41e7 cf3e 088e ed3e f703 103f
00000290: d138 4c3d 8aac ca3e 195a e93e b29a 393e
000002a0: b600 0abf d973 5fbe 6cdc 3dbd ec2b a8bd
000002b0: 6041 a23e effb 6ebd fbff d33d 56dd df3e
000002c0: 517c dc3d 0156 fdbd dfe8 ba3d a31a bdbd
000002d0: 1515 cabb 8984 3fbc 1b03 9c3b e6ef c73a
000002e0: b116 7ebd 8856 27bd ce13 80bd 464d a5bd
000002f0: 8e94 acbb bdcb bcbe cd6a 5abd 3360 6ebd
00000300: e829 65be 8eca 8abd 7a62 babd a0c4 c1bd
00000310: e117 e5be af75 54bd d289 96bd 471d 98bd
00000320: b3d3 44bd cf39 cabe c6e3 8abe 3511 dcbd
00000330: fdea 60be 49ec a4be 9ab8 ad3d f27f 1dbf
00000340: f613 433e 5e15 c93d 2514 e1be 903a 483e
00000350: 61b4 30bc 9079 53bd d4ae 58be 5630 41be
00000360: c6cc 1bbf 2886 2abe 5e5f 3f3d cc68 ecbe
00000370: 5315 e0be b6f4 073d 58a7 c9bd 380a adbd
00000380: c1e9 96bd fecf d7be f5cd 763e 0992 083e
00000390: 79a3 a1bd c617 5a3d 0e02 363d 49f9 32be
000003a0: ee0c 393e b553 3abe b789 863e 094a 063f
000003b0: d902 c63d 772d 763e d72c 833f b45f 5f3e
000003c0: e56b ebbc 57a6 373e 0d10 5b3c 31fc 78bd
000003d0: 00f2 303d 4f19 edbd 89f1 823c 61f8 88bc
000003e0: d19d 41bd fa89 80bd c5e9 87bd b561 47bd
000003f0: d4e5 a23d 5af1 f83d a345 1e3d 0ddb c33e
0.08779041 -0.3858121 -0.20269652 -0.14097787 -0.023978233 -0.38281015 -0.14934954 -0.43564996
-0.1797117 -1.3856869 0.17480683 0.07063378 -0.111060664 -0.4736612 -0.03490925 0.112437844
0.25811595 -0.3132118 -0.21162519 0.29588133 0.027170846 -0.36950183 0.08088585 -0.035834823
-0.22140497 0.08917626 0.11513613 -0.38607433 0.18967566 0.3104989 -0.22271827 0.1678903
-0.13447113 -0.214338 -0.030141337 0.24583031 -0.86712295 -0.2295472 -0.092402264 -0.60511386
-0.46424666 -0.010793064 -0.10891034 -0.19269189 0.011502211 -0.28248295 -0.5298995 0.062160604
-0.47619158 -0.31568056 -0.23255953 -0.059801802 -0.1961912 0.09197612 0.1353766 -0.93094134
0.012765937 -0.15356438 -0.46433032 -0.10259378 0.09695299 0.07306596 0.01335625 0.00046517604
-0.007733935 -0.036923174 0.027978433 -0.017007204 -0.07156661 0.06312285 0.047433272 -0.035929427
0.106362104 0.04716379 0.06864441 -0.36498973 -0.082635924 0.19364746 -0.13934007 -0.24964236
0.27412874 -1.1918797 -0.30132416 0.09702474 0.008725683 0.37279725 -0.061344396 -0.13861299
0.24553926 -0.009718903 -0.0047898814 0.018684221 -0.08499785 0.42650434 0.12525088 0.04991027
0.055151496 -0.067953624 0.23403397 -0.018548425 -0.080244236 0.07486959 0.0011344115 -0.022207933
0.039962586 -0.054934222 -0.05506934 0.041492842 0.015824696 0.06451982 0.013905661 0.2137465
0.14166537 -0.013504547 -0.15046832 0.10648294 -0.26643434 0.2692397 0.20718443 -0.0048478493
-0.022796221 0.5591244 0.08335204 -0.45506692 0.12498054 -0.18728252 -0.2282386 -0.8997557
-0.11847595 -0.8368762 -0.76862776 -0.10692652 -0.2053603 -0.17872284 -0.021420235 -0.2513513
-0.72567374 -0.50186163 -0.5174012 -0.6961793 -0.28293526 -0.17790489 -0.18014657 -0.20819548
-0.09578016 0.31951624 -0.24791943 -0.5094644 0.13069032 0.075316824 -0.014528674 -0.38407126
0.05585731 -0.09495242 -0.084990926 -0.3130113 -0.03785873 -0.5607268 0.17100258 -0.09519349
-0.44604453 0.4060612 0.46397424 0.5625605 0.04985887 0.39584762 0.45576552 0.18125418
-0.53907335 -0.21821536 -0.04635279 -0.082115024 0.31690502 -0.05834573 0.10351559 0.43723553
0.10765899 -0.123699196 0.09126448 -0.09233596 -0.006167064 -0.011689314 0.0047611124 0.001525399
-0.06203336 -0.040854007 -0.062537774 -0.08071379 -0.0052667325 -0.3687419 -0.05332451 -0.05819721
-0.22379267 -0.067769155 -0.09100814 -0.09461331 -0.4474478 -0.051870044 -0.07350506 -0.07427459
-0.048053455 -0.3949723 -0.27126902 -0.107454695 -0.21964641 -0.3221152 0.084824756 -0.61523354
0.19050583 0.098185286 -0.43960682 0.1955359 -0.010785193 -0.051629603 -0.21160442 -0.18866095
-0.60859334 -0.16652739 0.04672181 -0.46173704 -0.4376627 0.03319236 -0.098463714 -0.08449215
-0.07368804 -0.42150873 0.24102004 0.13336958 -0.07892508 0.05324533 0.044435553 -0.17477907
0.18071339 -0.18195994 0.26276943 0.5245672 0.09668512 0.24040781 1.0248059 0.21813852
-0.028737972 0.17934547 0.013370526 -0.060787383 0.04319954 -0.11577093 0.015984314 -0.016719999
-0.047269646 -0.06276317 -0.06636385 -0.048677165 0.079539925 0.12155409 0.03864063 0.3825306

features_extractor.encoder.conv.8.bias f4 [64]
00000000: ef90 d13b 109c 063d 0b13 173d fef4 59be
00000010: 5350 0f3e 74e5 9ebd 340b 74bd dddb 1fbe
00000020: 405d debd c6e0 50be 959f 913e 0739 86bd
00000030: 05d0 93bd 1f56 813d 3713 1a3d 668d 57bc
00000040: ef25 90bd 0588 c4bd 372a b2bd d20b b13d
00000050: ebdf b0bd 503d 503c ca0f e8bd 0805 003d
00000060: b5b8 83bd a950 713d 5036 5d3c 2c31 283d
00000070: 8197 943d 689b 88bd 1890 ecbd ac8d cebd
00000080: 24a1 6f3d 79d7 8cbd b4c9 15bd e443 91bd
00000090: fd25 eabd 68b7 eb3b 6fc4 90bc 631a d2bd
000000a0: 5ebf 94bd 8c73 273b 3214 983c 1d25 03bc
000000b0: c6da a5bd 17aa d83a 8825 d3bd 23e3 ba3c
000000c0: ed14 32bd b950 c5bd 729e 453d 22ef 71bd
000000d0: 73b1 ce3d dfdf 4b3c 9a56 23bd e194 edbc
000000e0: 1c02 8bbd dcd2 babb 24eb 663e d77b 943d
000000f0: 269b 0f3c aa88 0c3d d47e 6c3e f7bb 6bbd
0.0063954513 0.032863677 0.036883395 -0.21284863 0.13995485 -0.077586085 -0.059580997 -0.15611215
-0.1085763 -0.20398244 0.28442064 -0.06553846 -0.07217411 0.063152544 0.03761598 -0.013156271
-0.07038485 -0.09596256 -0.08699458 0.08644833 -0.08636459 0.012709931 -0.113311365 0.0312548
-0.064317144 0.058914814 0.013501719 0.04106252 0.072554596 -0.066702664 -0.11550921 -0.100856155
0.058503285 -0.06877036 -0.036569312 -0.07093027 -0.11433027 0.0071934946 -0.017671792 -0.10258939
-0.07263063 0.002555105 0.018564317 -0.008004454 -0.08098368 0.0016530183 -0.10309893 0.022813385
-0.043476988 -0.09634537 0.04824681 -0.059065945 0.100924395 0.012443512 -0.03987751 -0.029001655
-0.06787512 -0.005701406 0.22550637 0.07250183 0.008765018 0.03431002 0.23095256 -0.057552304

features_extractor.encoder.conv.10.weight f4 [128, 64, 3, 3]
00000000: 0e92 a33c ff43 26bd 681f f93c 56e4 8cbb
00000010: ec67 adbc 9d5a 9fbc 9e22 08bd 42d0 58bd
00000020: 3bb5 3c3c bb09 8e3c 00ea 15bb d872 893c
00000030: b371 9bbc c0ab a5bc b395 1a3d 700f 35bc
00000040: daf6 f2bc f563 b9bd 3b41 663c 1b8a f4bc
00000050: 9681 7ebc b04c 87bc a4bf 8bbd 18a6 bebc
00000060: a700 06bd b850 a9bd 9b16 34bc 502a 0a3d
00000070: a631 0dbc cb37 ad3b d30c 87bc 2344 86bd
00000080: 439e 4abd 8b25 f03c c854 50bc ed51 8cbd
00000090: 4af5 24bd dbbc 03bc 968c d03b 036a d3bc
000000a0: d105 813c 49e9 e8bc 34e9 21bd fed0 6fbd
000000b0: 9982 b33c 96ac f4bc f618 e7bc 460c 0d3d
000000c0: 2089 cb3c b6d8 6c3c 4b0b 483c 0b97 d23c
000000d0: b6c9 9fbc cefc dfbc 06c5 7c3c 284e 24bd
000000e0: 904f 303c e8bb 08bd 15d2 17bd 6b28 8abd
000000f0: f0ea 1ebc d90d 4bbd 3a53 fbbc 5bef b2bc
00000100: 5ff7 03bd a0f2 9d3b 0087 22bd e4d3 a3bc
00000110: e2ea 32bc 87e8 09bd a55b 123b 49da 003b
00000120: 5b9a a93c 1065 163c 9b2e 943c 2687 ffbc
00000130: 69f4 823c decd c2bb 76e4 dabc d4c6 853c
00000140: 046a 3abd 3011 f0bc 80ca a43a f3ef acbc
00000150: f6fb 27bc 1bd4 83bd d727 5c3d f05c 1a3c
00000160: 4b56 30bd 7336 0ebd f6f4 433c 931a 1b3d
00000170: 3ef8 fcbc ab4e b8bc 64ed e9bc 8c8c acbc
00000180: c45d 1ebd 99ff f0bd 50e9 ae3c b3a2 bf3c
00000190: 0b27 4f3c a045 d8bc 18a4 0e3d d6b5 173b
000001a0: 8b09 be3b 1cf1 293d c8d2 1f3d 27aa 113d
000001b0: fee1 db3c 1eea debc ebb9 1f3c 5eab 1f3d
000001c0: 5b48 b3bc ab76 27b9 7b65 6bbc 6bac ccbb
000001d0: 50f9 c23c 6c73 143d 8bae eebb 9b51 663c
000001e0: 06d6 8c3c e5cf bcbd bc7c 1ebd cb01 f73b
000001f0: ddab 77bc 33f6 023d 70a7 243c eb73 9cbb
00000200: d0ae e2bc 8645 643c 882b 80bd f320 d33a
00000210: 6053 fc3b a7ae 81bd cc35 033d 1be8 40bc
00000220: c69b b7bc 6e9c c93c fbf6 fabc e3bd 95bd
00000230: 0d95 b83c 40cf d63c 86f4 05bd b516 b2bc
00000240: 4052 3d3b eb40 833b ee6d f6bc 2b8d 95bb
00000250: d6dc be3c c4bf b0bc ca54 03bd 3fdf 2fbd
00000260: 7bed 7fbd 6bab 1fbb 0b8d f7bc f874 093d
00000270: 48a5 f9bc f688 22bd bdfc a9bd e677 86bc
00000280: c8e8 b63c c897 29bd c840 d5bc 00f1 5cba
00000290: 2b23 4c3c abac e0b9 6bb9 fe3b 36e9 c7bb
000002a0: 43b0 c2bc 302b 58bc 5894 983c d68d e53c
000002b0: 20cb a43b 1396 bdbc c675 f43c a787 54bd
000002c0: 4779 063d c084 6c3c e3a7 93bd de63 6abc
000002d0: 5618 79ba f309 9b3c db76 eebc 96fe 0abd
000002e0: 23d6 93bc 5b95 a33c 4331 d3bc 3bff 4fbc
000002f0: 4e12 963c 90e1 4fbc 78ec 0c3d efc4 1c3d
00000300: 1627 d43b 7bf9 53bd 6d85 653c 662c d93c
00000310: ec9a f5bb c82f 77bd d6b5 463b 66c4 fc3c
00000320: d434 033d fb79 4abc bfe5 ddbc 61a1 dabb
00000330: 749b 19bd 1afe 55bd d4ab f13c f896 1cbd
00000340: b30b 9d3c c0b0 efbb fb42 0e3d b15d 88bb
00000350: a238 3dbc 80d5 09bc 7520 73bd 973f 0cbd
00000360: c66f 063d 00f7 b6ba 037c c83c a628 48bc
00000370: d6cf a9bc 939c e5bc dbdb 15bd 06fa 733c
00000380: db30 093d 6cfa 163d ec17 25bd 0717 133d
00000390: 8058 203c 9ffe cfbd d750 8a3c ef07 1b3d
000003a0: 303d d3bd a29d 31bd 961f 02bc 46e7 a63c
000003b0: 288c a5bc d8bc b63c 1cb6 debc 3a16 55bd
000003c0: 13af 843c fc61 05bc c8a7 3bbd f852 d23c
000003d0: a69a e83c 7666 21bc 4004 9cbc 7173 5bbd
000003e0: c126 62bd e012 fdbb ffff 68bd 2fb2 f43b
000003f0: bb3f 29bd 56cb bf3b b3bc 07bd 2054 dabc
0.019967105 -0.04059219 0.030410483 -0.0042996807 -0.021167718 -0.019452387 -0.03323614 -0.052932985
0.011517818 0.017338624 -0.002287507 0.016778395 -0.018975114 -0.020223498 0.03774042 -0.011051044
-0.029658724 -0.090522684 0.014053638 -0.02985101 -0.015533825 -0.01651606 -0.06823662 -0.023272559
-0.032715466 -0.08267349 -0.010991718 0.03373176 -0.008617794 0.005286192 -0.016485607 -0.06555965
-0.049467336 0.029314777 -0.012715526 -0.068515636 -0.04027299 -0.008040632 0.0063644154 -0.025807386
0.015749844 -0.028431552 -0.03952904 -0.05854892 0.02191286 -0.029867452 -0.028210144 0.034435533
0.02484566 0.014455965 0.012209724 0.025706789 -0.019505363 -0.027342226 0.015427833 -0.040113598
0.010761157 -0.033382326 -0.037065584 -0.0674599 -0.009699568 -0.049573753 -0.030679334 -0.02184265
-0.032218333 0.004820183 -0.039679527 -0.019998498 -0.010920258 -0.03366902 0.0022332456 0.0019661358
0.020703485 0.009179369 0.01808863 -0.031192373 0.015985684 -0.0059449514 -0.026720267 0.01633016
-0.04551126 -0.02930507 0.0012572557 -0.02111051 -0.010252943 -0.0643694 0.05374893 0.009421572
-0.043051045 -0.034719896 0.011960259 0.03786714 -0.03088009 -0.02249845 -0.02855558 -0.021063112
-0.03866364 -0.117675014 0.021351486 0.02339301 0.012643586 -0.026400387 0.03482446 0.0023149154
0.0057994775 0.041489705 0.039019376 0.03556266 0.02684116 -0.027211245 0.009748916 0.038981788
-0.021885088 -0.00015970568 -0.014367457 -0.0062461398 0.023800522 0.036242887 -0.0072839907 0.014057542
0.017191898 -0.0921934 -0.038693175 0.0075380555 -0.015116659 0.031973075 0.010049686 -0.0047745607
-0.027671248 0.013932591 -0.06258303 0.0016107842 0.0077003688 -0.063321404 0.032033727 -0.011774088
-0.022413146 0.024610724 -0.030635348 -0.07311609 0.02253201 0.026221871 -0.0327039 -0.021739343
0.0028888136 0.0040055416 -0.030081715 -0.0045639477 0.023298662 -0.021575816 -0.032063283 -0.042937513
-0.06248234 -0.0024363648 -0.030218622 0.033558816 -0.03047432 -0.039681397 -0.08300159 -0.016414594
0.022327796 -0.041404516 -0.026031867 -0.0008428246 0.012459557 -0.00042853257 0.0077735684 -0.006100799
-0.023765689 -0.01319389 0.018625423 0.028021734 0.005029097 -0.02314285 0.029841315 -0.05188718
0.032830503 0.014435947 -0.07209756 -0.014306037 -0.00095022225 0.018925643 -0.02910941 -0.0339342
-0.018046444 0.01996868 -0.025780326 -0.012695129 0.018319275 -0.012688056 0.0344052 0.038273748
0.006474386 -0.051751595 0.014008862 0.026510429 -0.007495275 -0.060348302 0.0030320785 0.030855369
0.032032803 -0.012358184 -0.02708709 -0.00667207 -0.037501767 -0.052244283 0.02950088 -0.038229913
0.019170618 -0.0073147714 0.034731846 -0.0041615595 -0.011549147 -0.008412719 -0.059357125 -0.03424033
0.03282144 -0.001395911 0.024473196 -0.012216723 -0.020728987 -0.028028762 -0.036586624 0.014891153
0.033493858 0.036859915 -0.040306017 0.035910632 0.009786725 -0.10155987 0.01688425 0.037849363
-0.10314405 -0.04336322 -0.007942101 0.020373952 -0.020208433 0.022306845 -0.027186446 -0.05202315
0.016196763 -0.008141037 -0.045814306 0.025674328 0.028394055 -0.009851089 -0.019044995 -0.05357689
-0.05521274 -0.0077231973 -0.056884762 0.00746753 -0.041320544 0.005853097 -0.033138942 -0.026651442

features_extractor.encoder.conv.10.bias f4 [128]
00000000: c193 3abd 8bd8 0bbd 9204 f03e 4e15 fabd
00000010: 480c 8a3e c32d 31bd f144 7f3e 8ddc a13e
00000020: 3180 ab3e 412e b13d 859a 72bd 751f fe3d
00000030: 3d06 0fbe 20c3 cabc a757 a1bc 604b c3bc
00000040: 174a 1a3e aa8a 9fbd b4ee 883e 3a8e 33bd
00000050: 8419 9abc f5c5 a93e 7160 63bd ed3b 2e3e
00000060: a6c0 f7bb 61e4 093e 19fe c63e 9677 85bc
00000070: c24c 8a3e cce6 ce3c 1ef7 873d 8823 833e
00000080: b63d 50bd edbc 7abd baa7 583e 043a 08bd
00000090: b288 8cbd 82af be3d 0054 553e 50d4 19bd
000000a0: e53d bc3d 6150 cfbc 3bb3 25bd 8167 a8bd
000000b0: 156b 50bd 5a01 d53e a7ca 56bd 29fd 123e
000000c0: ca8c 0ebd d3e5 95bc b6c9 fc3d 8c21 223e
000000d0: 86ae 5f3e 0a05 45bd b953 17bd 0917 8abd
000000e0: 280f ffbc 2042 973a f3b2 423e a2a8 f1bb
000000f0: 680a fa3d e61e 87bd fc77 3d3d 0282 0ebd
00000100: 193b ad3e 0db9 65bd be99 31bd 4d47 c23e
00000110: 27ea 623e 41a9 08bd 7aa2 f0bc ed84 6cbd
00000120: 945e 503e 634c cf39 2187 fcbb a631 ab3e
00000130: 1f6a 8dbc becb d6bc 1040 9e3d fb8c 313e
00000140: 4c04 b93e 2a29 17bd bae4 8b3e 3713 bfbc
00000150: 3084 acb8 f71b b33e 6608 2cbd 4cc8 4d3e
00000160: 7679 3abe 8230 123e 6529 32bd 3a81 2abd
00000170: 8ad1 9dbd 0d59 94bd b67c 4e3e c88a 8c3e
00000180: c345 c53e 0f43 b6bc 1db0 3abd f76f dbbc
00000190: 3a48 843e 9bef 4d3d c180 57bd 0ed3 b23e
000001a0: 7989 843e fc9a 3a3e 9a18 60bd 94b1 4ebd
000001b0: 4456 08bd 3f6e 8e3e bed1 f2bc ea09 3fbd
000001c0: 39b4 b93d b210 b2bb e9dd 02bd 63ed 55bd
000001d0: 5e2b 4cbd ec7e 2abd e3b6 91bd d506 08be
000001e0: 4bea a83e 96dd 9d3d 4280 8dba 60a7 603e
000001f0: a3ae 75bd 1b2b 02bd ad18 5c3e 2fed 71bd
-0.045551065 -0.03414206 0.46878487 -0.12211095 0.26962495 -0.043256532 0.24928643 0.3161358
0.3349624 0.086514 -0.059229393 0.12408344 -0.13967223 -0.024751246 -0.019695116 -0.023839653
0.15067326 -0.0779012 0.26744616 -0.04383681 -0.018810995 0.33158842 -0.055511896 0.17015047
-0.0075608073 0.13466026 0.38865736 -0.016292375 0.27011687 0.025256537 0.06638931 0.25613046
-0.050840102 -0.06121533 0.21157733 -0.033258453 -0.0686201 0.09310819 0.20832825 -0.037555993
0.09191493 -0.025306882 -0.04045413 -0.08222867 -0.05088337 0.41602594 -0.052439358 0.14354385
-0.034802236 -0.018298065 0.12343161 0.1583311 0.21843919 -0.04810051 -0.03694508 -0.06742675
-0.031135157 0.0011540093 0.19013576 -0.007374839 0.12209016 -0.0659769 0.046257004 -0.034791954
0.3383415 -0.05608468 -0.04335951 0.37945023 0.22159635 -0.033364538 -0.02937435 -0.057743955
0.20348579 0.0003953903 -0.0077065383 0.33436316 -0.017262517 -0.026220199 0.07727063 0.17338936
0.3613609 -0.03690449 0.27322942 -0.023324592 -8.226221e-05 0.34982273 -0.042000197 0.20095938
-0.18210396 0.14276317 -0.04349651 -0.041627146 -0.07705982 -0.072435476 0.20164761 0.27449632
0.38529786 -0.022248773 -0.04557811 -0.026786787 0.25836354 0.050277334 -0.052613024 0.34926647
0.25886133 0.18223184 -0.054710962 -0.05046232 -0.033285394 0.27818486 -0.029641028 -0.046640314
0.09067578 -0.005434119 -0.03194991 -0.052228343 -0.049846046 -0.04162495 -0.07114961 -0.13283856
0.3299125 0.0770828 -0.001079567 0.21938848 -0.059981 -0.03177939 0.21493788 -0.059064087

features_extractor.encoder.fc.weight f4 [64, 128]
00000000: 93f5 c83c 5d7c 5a3d 78c4 50be b8e7 013e
00000010: d231 933e af91 a1be 2359 8cbe 0f54 59be
00000020: cf54 ddbd 682b d73d 467a 7ebd d3fd 633d
00000030: 41b6 7e3d af6e 86bd 5687 5e3d b16c 3bbd
00000040: b1a0 473e 13e4 d4bd cc4e 513c eb11 e83c
00000050: b11b 0b3d 695f 433e f121 60bd 600b 84be
00000060: 58d6 843d 9ea0 3d3e 34c9 c33d f3d8 1bbd
00000070: 8093 bd3d df4a a83d a1b6 c0bd 5b51 a0be
00000080: b1b2 f7bb dd7f 403d 1732 22be dd27 7c3d
00000090: 5ad2 7c3d a841 f3bd 8816 8dbe d26c 1e3d
000000a0: 85fe b1bd c798 84bd c9dc 01bd e2c3 743d
000000b0: e75a 733c 07bd 833e 24ad 5c3d 69ea 9dbe
000000c0: accb ab3d b6cc 253c 5965 b43e 251b 21be
000000d0: a960 943d 0495 623d bca5 493d a60f 02bd
000000e0: de85 a63c c459 553d 6c88 013f 45bb 5abd
000000f0: a5e8 81be 56a8 323d 3de6 71be 5379 adbc
00000100: 0f04 943d 1aaa ec3c c798 a3bd 93a5 8fbe
00000110: 9229 edbd 1c32 923d 60b6 35bd 657a aabb
00000120: dc06 913e 31b7 c93c 2ebe d93d 5e4e 99bd
00000130: 3b18 2f38 e6ad a6bc a482 173e 6090 dc39
00000140: e537 8ebe 9da7 41bd 636d d3bc c6e4 ba3d
00000150: dced b3bd daf9 693d 2f5e 48bd b96f 52bd
00000160: 82a3 563e 71df 893e d9ae 9dbd 9b41 513c
00000170: 055c 2bbc 08ba a8bc 33e4 93bc 9edb 26be
00000180: 4243 f93e 5dd5 65bc 2313 f2bd 0fa9 493c
00000190: 9f87 ee3d a3e1 d8bd e84b 5bbd 58c7 84be
000001a0: f833 86be 0ef1 a83b 753b 583d dbfb 11bd
000001b0: 27e4 1f3d dd3b 143e 2bfa 323c 9d28 91bc
000001c0: 8416 6a3e 5f49 45bd b702 36bb 3801 5bbd
000001d0: 215a 303c 08b3 95bd 616a df3d ac57 123e
000001e0: 1035 98be a01f c83e 538a 6f3d 7712 6a3e
000001f0: e874 82bc 2207 723c 94f1 a63e 3af3 d93c
00000200: 7b41 d2bd 1523 563d 0336 bb3e 1d03 583e
00000210: 80bb a2bd f487 8f3e fb0f 7e3e 374f e9bd
00000220: 4f3f b53c f2fc bcbd d5ca 27bd d9f3 a1bd
00000230: ffdb 873d 1c95 4bbd 2d95 92bd f5db f6bb
00000240: 7d74 3cbe 0775 78bc 6a29 21bd 9a47 b5bb
00000250: 41b1 5a3d 2db2 89bd 6214 39bc 3b58 04be
00000260: 07b7 adbc 9b1b 5cbe 0633 953e c835 3c3d
00000270: 06d3 af3d 05df 5fbd 19ac 663e 32d7 543e
00000280: 5191 c0bd fa36 15bd 80f4 43bd dfb5 63bd
00000290: 0903 cd3b b8e1 6dbe ae90 bd3b 79a8 003c
000002a0: 724e 63bd c715 f03d 20ab 8fbd a1c7 ca3d
000002b0: 98bd c13d f9a1 51be 3ee5 453d 6189 d83d
000002c0: 3446 d3bc e54b 543d e986 25bd cd43 dbbd
000002d0: 01c2 313e 4941 053d 729c 8bbd 7896 ff3d
000002e0: ae8f 9abd 6cf9 10bd f1f1 d33c 9b79 b43d
000002f0: d2df 9a3e 1be5 41bd 7398 383e 277a 64bc
00000300: 8548 2f3e a90d 8f3c d6ce bbbd c10d 2d3d
00000310: be72 823e 8a63 ba3c f212 fe3c 7f39 3dbd
00000320: b0be 8a3d 0376 30bd b2db b839 f10f d73e
00000330: 38d9 26bd c4ce 1f3d b9e1 47be f476 553d
00000340: 6626 073e e180 4dbd f26a ac3d b45b 1fba
00000350: 3ba4 9a3d 2777 c53e 90f8 37bc 6ad6 d33d
00000360: 778a 47bd 9cd3 5cbe e886 773d b100 76bd
00000370: 9394 093c 34d3 a9bd eee8 a03d 6b49 8a3d
00000380: 7ca3 c83d 31cf 903d 38cc 9e3c cddc 7dbd
00000390: 717b 533e d9c2 063f ad4a febc 2161 b03d
000003a0: 2198 a93e 5286 7abe 8884 91bd 5bc7 363d
000003b0: f98b 9bbc 7211 d23c 2cb9 9a3c 0aed 663c
000003c0: 555f f53d acb6 9bbd 39e2 d1bc 3868 1e3c
000003d0: bd13 ad3b 7fca 6ebd a4ed 73bc f684 823d
000003e0: f656 bb3e 1f06 d2bd 27fd 683c aaa0 debc
000003f0: 96ba 77bd 3a6e 99bd fd17 8fbd d3e3 a73d
0.024531161 0.05334126 -0.20387447 0.1268605 0.28748947 -0.3155646 -0.27411756 -0.21223472
-0.108071916 0.10506326 -0.062128328 0.055661988 0.06218553 -0.0656408 0.054328285 -0.045757953
0.19494893 -0.10395064 0.012775134 0.028328856 0.033961955 0.19079365 -0.05471987 -0.25789928
0.06486195 0.18518302 0.09559861 -0.038048696 0.09256649 0.082174055 -0.09409834 -0.3131207
-0.0075591435 0.04699694 -0.1583942 0.061561454 0.061724044 -0.11877757 -0.27556252 0.038677998
-0.08691124 -0.064744525 -0.031704698 0.05975712 0.014853216 0.25730154 0.053876057 -0.30842903
0.08388457 0.010119608 0.35233572 -0.15733011 0.07244999 0.055317894 0.049230322 -0.031753205
0.020327505 0.05208756 0.5059879 -0.05340125 -0.25372806 0.04361757 -0.23622985 -0.021176016
0.072273366 0.028889704 -0.07988124 -0.2805601 -0.115801945 0.07138464 -0.04436338 -0.005202579
0.28325546 0.024623485 0.10631977 -0.074856505 4.1745818e-05 -0.020346593 0.14795929 0.00042069238
-0.2777702 -0.04727899 -0.025808996 0.09125666 -0.087856025 0.057123043 -0.048917945 -0.05137608
0.20960811 0.26928285 -0.07699365 0.012771989 -0.010458951 -0.02059652 -0.01805315 -0.16294715
0.48684126 -0.014027921 -0.11820056 0.012308373 0.116469614 -0.10589912 -0.053539187 -0.25933337
-0.26211524 0.005155689 0.052791078 -0.03564058 0.039035942 0.14475961 0.0109239025 -0.017719561
0.22860152 -0.048165675 -0.0027772614 -0.05346796 0.010763676 -0.07309538 0.10908962 0.14291257
-0.29727983 0.39086628 0.058481526 0.22858606 -0.015924886 0.014772208 0.32606184 0.026605237
-0.10266396 0.05227955 0.36564645 0.21094938 -0.07945919 0.28033412 0.24810784 -0.11392062
0.022124914 -0.09227933 -0.04096492 -0.079078384 0.06633758 -0.04970275 -0.07157359 -0.007533545
-0.18403812 -0.01516462 -0.039346136 -0.005532217 0.0533917 -0.067234375 -0.011296364 -0.12924282
-0.021205438 -0.21494906 0.2914049 0.045949727 0.085851714 -0.054656047 0.22526588 0.20785215
-0.09402717 -0.036429383 -0.047840595 -0.055593368 0.0062564653 -0.23230636 0.0057850694 0.007852667
-0.055494733 0.11722904 -0.070150614 0.099013574 0.0945999 -0.20471944 0.048314326 0.10573078
-0.025790311 0.05183019 -0.040411863 -0.10706291 0.17359163 0.032532964 -0.06816949 0.124798715
-0.07546936 -0.035394117 0.025872203 0.08812257 0.30248886 -0.047337633 0.18026905 -0.013945139
0.17117508 0.017462568 -0.0917031 0.042249445 0.25478166 0.022752542 0.031014893 -0.04619741
0.06774652 -0.043081295 0.000352589 0.4200435 -0.0407345 0.039015546 -0.195197 0.052115396
0.13198242 -0.050171737 0.08418836 -0.00060790335 0.07550856 0.3856747 -0.0112286955 0.103436306
-0.048716035 -0.21565098 0.06043139 -0.060059253 0.008397239 -0.08292237 0.07856928 0.067522846
0.09796807 0.070707686 0.019384488 -0.06197815 0.20652558 0.52641064 -0.031041468 0.08612276
0.33123878 -0.24465302 -0.071053565 0.044623714 -0.018987643 0.025643084 0.018887125 0.0140946
0.11981074 -0.07603201 -0.025620567 0.009668402 0.005281894 -0.058298584 -0.014888201 0.063730165
0.36589783 -0.10255074 0.0142205125 -0.02717622 -0.060480677 -0.07491727 -0.06986997 0.08197751

features_extractor.encoder.fc.bias f4 [64]
00000000: 2bc4 633d a6d1 5f3d e955 c5bc 64ff fb3c
00000010: a997 d73d e5e5 ad3d 65b1 63be 2e93 bebb
00000020: af4b f0bd c07f 5abe 1aaf eebd b834 d5bd
00000030: 988c b33d e5d2 8c3c 4ce6 423d 1d89 953e
00000040: 6cf1 f93d 4e7d 0e3d 8c1f 02be b848 853d
00000050: bb71 debd a892 e1bc c094 7a3d 11db ccbc
00000060: 58c3 c83d d973 88bd 4dd1 2a3d 9025 263b
00000070: 084b 85bb af1b 04be 20f4 933d 710f af3d
00000080: d7db cdbd b693 6fbe 98ac a73e c4c1 8c3d
00000090: 8dd3 913a f0b1 bdbd b48d b03c d3f2 083e
000000a0: 4d54 15bc 72e0 4fbd cc07 443d 02b6 f0bd
000000b0: 6f51 a9bd 3e53 66bc 36ff 033d affd 0a3e
000000c0: 457e 913e 713a 4cbb fa04 0cbe 8308 48bd
000000d0: 0ffc a7bc 7ec3 e93d 087d 14be 7b84 1cbe
000000e0: e6fe 2d3c ef99 6ebd fb2c 503e 8469 87be
000000f0: a865 8bbd e774 fc3d 7000 f0bc e713 9cbc
0.055607002 0.054643296 -0.024088817 0.030761428 0.10526974 0.084911145 -0.2223564 -0.005815885
-0.117331855 -0.21337795 -0.11654492 -0.10410446 0.087670505 0.017190406 0.04758291 0.29206172
0.12204251 0.03478747 -0.12707347 0.065080106 -0.10861536 -0.027535751 0.061177015 -0.025006803
0.09802884 -0.06662721 0.04170351 0.002535198 -0.0040677823 -0.12901185 0.072242975 0.08547867
-0.10051697 -0.23396191 0.32748866 0.06872895 0.0011125669 -0.092624545 0.021551944 0.1337388
-0.009114337 -0.050751157 0.047859 -0.11753465 -0.08267485 -0.014057932 0.03222581 0.13573335
0.28416649 -0.0031162763 -0.13673773 -0.048836242 -0.020505933 0.1141424 -0.1450082 -0.15284912
0.010619855 -0.05825227 0.20329659 -0.2644769 -0.06806499 0.12326985 -0.029297084 -0.019052459
