model/actor_critic_CNN_v2.pth (torch, 444146 bytes, 16 tensors)

log_std f4 [2]
00000000: 350d 003c a0e3 84bc
0.007815649 -0.016221821

features_extractor.cnn.0.weight f4 [16, 1, 3, 3]
00000000: 072c 97be 6774 a5bd 86d0 b33e 596a ae3d
00000010: 46cd 50be 931c 4bbc 9483 b4be f548 943e
00000020: c88b 113e 1465 023d df4c e73c c4c1 0abe
00000030: d152 0a3e 2c3d ac3e 77c2 a23e 94a4 1cbe
00000040: dc1b fcbc 4425 803e 56f9 5f3e b547 76be
00000050: 3f65 453e 1aed 7cbc 4e82 633e 7ca2 54be
00000060: 7492 3fbe 0bdd 393e 2d61 95be c276 433e
00000070: 65e7 f13c 4d35 8b3e 7296 023e 438b 4abe
00000080: fb7b 3f3e 44c4 0cbe e00a 44be 9bba a63e
00000090: 33cc 883e fb27 46be f01e adbe fe61 e33d
000000a0: d379 4abe 2d29 983e 5a48 92be 0d1a 673e
000000b0: 7528 e7bd abc3 b23d d45f 06be 05a3 bb3e
000000c0: 696f bcbd 3aa1 9b3d 8461 53bd 7dc7 00be
000000d0: 24b0 9a3e b51f b93e 043d 36be 716c a63d
000000e0: 1896 adbc 3576 6bbe ca11 9b3e 6f1d b53e
000000f0: 888d 0d3e ff87 8c3e 68d3 9c3d be05 6b3e
00000100: bee7 7fbd 27f1 e5bd 31e5 6f3e b1d7 02be
00000110: 4bd7 ad3d 880f 693e b913 c43d 42af 43be
00000120: ae01 1e3e 76bb 19bd 7811 873e 3524 9dbd
00000130: 523e 543e b9fd cd3c 21cd 59bd 8560 66be
00000140: f094 8ebe 1b24 933e 0ec3 373e 4d76 36be
00000150: e2ab 343e ce64 c43d 68f4 973e dd5d 693d
00000160: ba84 433e 3a16 943d 0010 b43e 1139 903c
00000170: 4886 c5bd 7fcf 183e 345b 68bd 4b31 83be
00000180: ecdd e0bd 24ad 09be d4c7 903c aca4 b53e
00000190: fef7 40be 18e2 fe3d 8341 9bbe 2e1a cdbc
000001a0: 55bd 793e b863 06be bcbd 943e 8596 ae3e
000001b0: 0ac1 223d a22c aa3b 8b44 6abe efc9 a3be
000001c0: 3191 963e a6d0 a83e 7188 5cbd 7ac4 933e
000001d0: 69b0 183d 103d a3be 6ac6 a23d 41aa 91be
000001e0: 214a a9bd 36c6 1e3e bd55 0ebe b1ba 1bbe
000001f0: e94a a4bd c4db 76be 5575 1d3e 1300 23bd
00000200: ed78 55be 8892 393e 3fed 843e ce37 383e
00000210: c078 a3be 16b7 a9be 7999 bebd 024c c0bd
00000220: e196 513e bd53 5b3e 4f18 263d 1c8a 8c3d
00000230: d6c2 e1bd a8d6 8e3c 1cd8 a8be 63c7 b3bd
-0.29525778 -0.080788426 0.35120028 0.08516378 -0.20390806 -0.012396949 -0.35256636 0.28961912
0.14213479 0.031834677 0.028234897 -0.13550478 0.13508154 0.3364042 0.3178899 -0.15297157
-0.030775003 0.2502843 0.21872458 -0.24050792 0.19276904 -0.015437389 0.22217676 -0.20765108
-0.18708211 0.18150727 -0.29175702 0.19088271 0.029529283 0.27189103 0.12752703 -0.19779687
0.18699639 -0.13746744 -0.19144773 0.32564244 0.26718292 -0.19351189 -0.33812666 0.11102675
-0.19773035 0.29718915 -0.28570825 0.22568531 -0.112870134 0.08728727 -0.13122493 0.36647812
-0.09200937 0.07599111 -0.05160667 -0.12576099 0.3021251 0.36157003 -0.17796713 0.08126152
-0.021189734 -0.22994311 0.3028701 0.3537402 0.13823521 0.27447507 0.0765751 0.22951409
-0.062476866 -0.11227637 0.23427273 -0.12777592 0.084883295 0.22759831 0.09574074 -0.19109824
0.15430328 -0.037532292 0.26380515 -0.076729216 0.20726898 0.025145398 -0.05317414 -0.22497757
-0.27848005 0.28738484 0.17945501 -0.17818566 0.17643693 0.095895395 0.29678655 0.05697428
0.190936 0.07230802 0.35168457 0.017605336 -0.09644753 0.14922903 -0.056727603 -0.25623545
-0.10979828 -0.13444954 0.01767341 0.35477197 -0.18844602 0.12445468 -0.3032342 -0.025036898
0.2438863 -0.13123977 0.29051006 0.34099212 0.039734878 0.005193309 -0.2287771 -0.3199
0.29407647 0.32971686 -0.05384106 0.28860837 0.037277613 -0.31882524 0.07948001 -0.28450206
-0.08266092 0.15505299 -0.13899894 -0.15207936 -0.080221005 -0.24107271 0.1537679 -0.039794993
-0.20846911 0.18122303 0.25962254 0.17990038 -0.31928062 -0.33147496 -0.09306616 -0.09389497
0.20467712 0.21418662 0.040550526 0.0686228 -0.1102349 0.01743634 -0.32977378 -0.087782644

features_extractor.cnn.0.bias f4 [16]
00000000: 2729 46be 1abd 35be 72ed 063e f124 f03d
00000010: 317e ddbc e7ad 1ebe 2ab3 8ebe 62e8 123e
00000020: 54a0 413d 2e30 73be ebaf 78be 63dc c43c
00000030: 4c2f b2bd f56c a23e df6d 16be a039 983d
-0.19351636 -0.17747918 0.13176516 0.11725796 -0.027037712 -0.15496026 -0.27871066 0.1434646
0.04727204 -0.23748848 -0.24285857 0.02403087 -0.087004274 0.31723753 -0.1469035 0.07432866

features_extractor.cnn.2.weight f4 [16, 16, 3, 3]
00000000: fd3a 64bd 5808 a3bd 8ebd acbc 6aa1 29bd
00000010: e2c8 6d3d 3535 bf3c 1c4c 47bc 2276 6f3d
00000020: c2dd 78bd 4475 a0bc 8784 bb3d 3168 ca3c
00000030: dc2d 97bd f0f1 bd3c 16f2 53bb 5fcb 16bc
00000040: e47f 10bb cc47 84bd fcee 9c3d f776 52bd
00000050: adf0 40bc 0fea 173d 4ce1 37bd bc6f debb
00000060: 7659 873d 5953 0e3d 9fd2 79bb 5e63 9c3c
00000070: 6bc9 4ebd b9e8 0abd b64d 383a 14ec b7bd
00000080: ed36 babd 151c 73bd 7c6b f5bb f01e 82bc
00000090: da90 413c 5f86 d33d 95dc 763d 04c1 81bd
000000a0: b74b 8dbd 5832 84bc c52b 20bd 0a77 c6bd
000000b0: 5beb 783c 558a 353d 3e71 613d 2fd2 ed3b
000000c0: d497 84bc ac06 2f3c 3a35 d23c e988 54bd
000000d0: 4cd8 303c 254c 003d 0c55 f4bb 7cf3 80bc
000000e0: c37c 15bd cd3d 63bd 7b67 1d3c 9374 4abc
000000f0: 8233 b3bc d9f5 4c3d 392b f0bc b47e 81bc
00000100: 65a0 cb3c 71e7 68ba a78c 203c c7b3 823d
00000110: fe57 8ebc 6852 62bd 7660 70bd 5887 9f3c
00000120: a516 b4bc 8d60 953c ef2d 683d 76f1 c53c
00000130: e3c0 9bbc 07d1 cd3c 936c 1c3c 3e6e 97bd
00000140: 231f 553d 4245 35bd ee7b 8e3d b2e3 6f3d
00000150: 82c0 4d3c db12 553d aa7f 403d 1a1d 063d
00000160: b523 53bd e00a f5bc df1d 3bbc f49f de3a
00000170: 5d4a 3b3b 53d6 883d 7ab7 803d b162 23bd
00000180: 9fde 953b 78c3 debc ecc8 4c3d ccfd c53c
00000190: 14c1 32bd e28a cb3a 74c4 a5bd b31a 13bd
000001a0: dd73 aebd f1e5 0ebd 59d4 5e3d 9cb5 afbd
000001b0: 9d41 75bd 64bf 5d3d 7683 6abd 5ea0 cbbd
000001c0: c323 a33c 5674 c43c 125d 2ebd 0166 4dbd
000001d0: 8e31 f03c 14e2 063d 83f2 a13c c2ab ebbd
000001e0: 109c 9d3d da5c 803d 16d4 63bd 4066 9a3d
000001f0: 6453 8cbd 31cf 4ebd 3c5d d03d e585 c8bc
00000200: 9f52 8d3d b66c 3bba 205c 4d3d 4f0e 95bd
00000210: bf42 82bd f636 ccbc 4403 c3bc cc6a 993c
00000220: dc38 ac3d e9fa c23d ab12 67bd d56e fbbc
00000230: 365d 2dbd 8e10 4cbd 1177 6ebd 40aa abb8
00000240: a1f3 533d acd0 ac3d 8323 86bc f8f3 2cbd
00000250: 0df2 353d 020f e93d 3384 49bd 59c9 c9bb
00000260: 0b74 abbb 3be5 733d 90dd 89bc 6ae1 c63c
00000270: 0fee 70bd 5483 863c 2580 9c3c 3f2a babc
00000280: fcb3 10bd 5ee8 8c3d e242 3cbd b91e f7bc
00000290: 777e 423c 529e 4cbd 88c0 46bd 3adb 883d
000002a0: adaa 383d fc49 59bc e16f 7f3c b61b 9d3d
000002b0: 6337 d93d b2e7 793d a45b f63c dc58 fa3c
000002c0: 7b6b 8a3c e903 7d3d 24bc 6e3c b2a7 9c3c
000002d0: 7803 8b3c 39e0 4d3d 63c7 c1bd bb09 543c
000002e0: 8045 1c3c dd16 6bbc ddd2 aabc 778c d8bd
000002f0: e377 6c3d bdaf 733d 04c6 933d 9648 06bd
00000300: baeb 45bd fb2d cdbb 14a2 da3c 4ee6 89bd
00000310: 4b0d 21bc edf3 0cbc 2019 ad3d bb7e b83d
00000320: ed19 2fbd 93be 0c3d 653b 4abd 30b4 ed3a
00000330: 695e 2b3d f966 65bd bc81 99bd 7360 053c
00000340: e4f5 fa3b 963d 603b 27fd 74bd de25 793b
00000350: c472 f03c 3ffd 483d a7d6 393d 9fdf 34bc
00000360: 1aa0 62bd ce13 273c ac87 a03c 000a e2bb
00000370: 9d12 533c 2005 853d d230 8dbd 29ec 853d
00000380: acae dcbc e316 833d ff2a 7d3d 2dca 703d
00000390: a2df a8bd 43ec b43c 19c3 bb3b 2fe4 89bc
000003a0: 04d9 643d 9511 40bd 5b90 06bd 5486 41bd
000003b0: 2701 363d de80 7ebd 304f 35bd 8365 72bc
000003c0: 6beb 863d 47db 9bbd 3db6 62bd 84e4 c5bc
000003d0: bd80 a03d 16cd 143d 14a7 25bd 4adc 39bc
000003e0: 171c 3abd 069b 02bd a26c 5ebd 8fad 3abd
000003f0: 50b3 52bc 986e a13d 4d02 c93c 6183 193d
-0.055720318 -0.07960576 -0.02108648 -0.041413702 0.058052905 0.0233408 -0.012164142 0.05846227
-0.06075836 -0.019587167 0.09156137 0.024707885 -0.07381794 0.023186654 -0.003234034 -0.009203761
-0.0022048885 -0.06459007 0.0766277 -0.051382985 -0.011776132 0.03708845 -0.044892594 -0.006788222
0.0660886 0.034747455 -0.0038119925 0.01909035 -0.050485056 -0.033913348 0.0007030623 -0.08980575
-0.090925075 -0.059352953 -0.00748962 -0.015883893 0.01181432 0.103283636 0.060268957 -0.06335643
-0.06899207 -0.016137287 -0.039104242 -0.09690674 0.015192832 0.044321377 0.055039637 0.007257722
-0.016185679 0.010682743 0.025660146 -0.05188838 0.010793757 0.031322617 -0.0074564274 -0.015741102
-0.036495935 -0.05547886 0.009607191 -0.012356895 -0.021875147 0.050039146 -0.029317485 -0.015807487
0.024856756 -0.0008884585 0.009799159 0.06381946 -0.017375942 -0.05525437 -0.058685742 0.019473717
-0.021983454 0.018234516 0.05668443 0.02416299 -0.019012874 0.025124086 0.0095473705 -0.07394074
0.052031647 -0.044255503 0.069572315 0.058566757 0.0125581045 0.052019935 0.04699675 0.032742597
-0.051547725 -0.029912412 -0.011420696 0.0016984926 0.002857826 0.06681504 0.062849954 -0.03988904
0.0045736576 -0.027192816 0.0499963 0.024168871 -0.043641165 0.0015529061 -0.08094111 -0.035914134
-0.08518193 -0.034887258 0.05440173 -0.08579561 -0.059877027 0.054137602 -0.057254277 -0.09942697
0.019914513 0.023981255 -0.042569228 -0.050146107 0.029320505 0.03293045 0.019768959 -0.115073696
0.07695782 0.0626771 -0.055622183 0.07539034 -0.06851843 -0.050490562 0.10174033 -0.024477908
0.06900524 -0.0007149683 0.050136685 -0.0727812 -0.06360387 -0.024928551 -0.023805268 0.018727683
0.084092826 0.095205136 -0.056414288 -0.030692497 -0.04232522 -0.049820475 -0.05821902 -8.185627e-05
0.051746015 0.084382385 -0.016374355 -0.042224854 0.04442029 0.11379816 -0.04919834 -0.0061580357
-0.0052323393 0.059544783 -0.016829282 0.024277408 -0.05882078 0.016420044 0.019104073 -0.022725223
-0.035327896 0.06880258 -0.045962222 -0.030166017 0.011870972 -0.049955674 -0.048523456 0.06682439
0.045084644 -0.013262268 0.015590639 0.07671301 0.10606267 0.061011977 0.030072995 0.03055995
0.016896954 0.061771307 0.014571223 0.019122932 0.016969427 0.050262664 -0.09461858 0.012941773
0.0095380545 -0.014348713 -0.0208525 -0.105736665 0.05773152 0.05949377 0.07215503 -0.032784067
-0.04832051 -0.006261585 0.026688613 -0.0673338 -0.009829829 -0.008603078 0.08452058 0.09008547
-0.042749334 0.034361433 -0.04937305 0.0018135365 0.041838083 -0.056006406 -0.07495448 0.008140671
0.007658707 0.0034216396 -0.059811737 0.0038016955 0.0293516 0.04906964 0.045370724 -0.011039644
-0.055328466 0.010197593 0.019595943 -0.0068981647 0.012882856 0.06495118 -0.06894077 0.065391846
-0.026938759 0.0640085 0.061808582 0.05878656 -0.082457796 0.022085315 0.0057300446 -0.01683244
0.055871025 -0.046891768 -0.03285251 -0.047247246 0.044434693 -0.062134616 -0.044264972 -0.01479471
0.06587871 -0.07610183 -0.055349577 -0.024156816 0.07837055 0.036328398 -0.04044254 -0.011344025
-0.045436945 -0.031886123 -0.05430282 -0.045575675 -0.012860134 0.07882422 0.02453723 0.03747881

features_extractor.cnn.2.bias f4 [16]
00000000: f6af cebc ed45 2fbd 0fef 45bd dfa2 9abd
00000010: 9961 31bd a0ad 47bd 8623 6cbd 28c3 24bd
00000020: bd55 3abd 0a4e 893d 742e 17bb 7055 61bd
00000030: a08d 03bb c677 65bb 445a 493d 103f 513d
-0.02523039 -0.042791296 -0.048323687 -0.075505964 -0.043305967 -0.048749566 -0.057651065 -0.040225178
-0.045491923 0.06704338 -0.002306846 -0.05501312 -0.0020073429 -0.0035014017 0.04915835 0.05108553

features_extractor.cnn.4.weight f4 [16, 16, 3, 3]
00000000: 87f0 8cbc f3f3 b63d dd3f 59bd f830 95bd
00000010: 5f8e b33b 6cb3 953c d716 643c 5b22 4fbd
00000020: 7c21 9c3c 9cf3 ea3c c736 20bd bd1e 66bd
00000030: e69a dcbb adb7 623d 7986 393d 71f8 713c
00000040: 694b 993d 00f4 923c d246 ec3c d34f 453d
00000050: 9052 2f3d b0c8 e63c 66d6 413c 853d f03d
00000060: 4a61 33bd fb40 763d 785e 9a3d 30c2 873d
00000070: 05fd 1f3b 7077 51bd 7cea 57bd cb91 a5bc
00000080: 42c8 8f3b c3e2 a0bd 37c1 5cbd 5c3d 833d
00000090: 12c4 8fbd 8afb 133d 47ba 673d 9d76 513b
000000a0: c9a7 a73d f94c a83d 1023 be37 9736 40bd
000000b0: 81d7 81bc 5203 15bd 9a1c 753d 46fd dbbc
000000c0: ce43 26bb 6b51 e33d 5573 863c 3f44 73bd
000000d0: d6d8 793d a82e b83c 7aa7 5fbd 6b5c 87bb
000000e0: 9f2e 92bc 8294 4d3d 34c5 9b3c b401 1f3d
000000f0: 0790 28bd 1cc5 263d 414c 373a ccf5 99bd
00000100: df2e 043d 00ba 8abd dd4f 353d 9407 a83b
00000110: 64bf b83d d73c d3bc e175 763c 84db d23d
00000120: d01e 5bbc 9321 8abc 5967 d73d a0ae 0abc
00000130: 6408 47bd 0410 44bd 5434 a7bc a65e 1f3d
00000140: fe1a dbbc 1396 013d 7f0f 04bd d4f5 88bb
00000150: 1357 863c 4651 6fbc 4e61 80bc 4e6f 71bd
00000160: 92be 43bd e682 943c a987 bb3c 828d d83d
00000170: 5d77 743d 8a95 8abc d7d1 a23c 6d65 c9bc
00000180: 2290 8b3d e16c 42bc 402c 083d 81f6 3c3d
00000190: 9035 623c ff72 35bd 732d ab3d d57a 1f3a
000001a0: 3d53 a03d 1e36 a33c 2c0b 0c3d 2be0 ec3b
000001b0: 4acf 633d e626 55bd f4f8 acbb 0c9d 9dbc
000001c0: d2a7 18bd 13ae 57bd f762 b73c 3c7b d13d
000001d0: d6c3 393b fead 7eb9 8a83 c13d 5fd8 a03d
000001e0: faf2 8f3d 2edc ab39 e6ee 773c 2dd5 7bbc
000001f0: ad08 0fbd b2d5 8a3d 0950 77bc 30ff 2a3b
00000200: fed8 51bd 6c4d c73b ebf4 693d debf 1d3d
00000210: bca0 633d c4d5 19bd 4674 1dbc e2d6 8d3d
00000220: 0238 9bbb 8bdc ff3c 85d6 41bd 3a32 d23d
00000230: 3749 4b3d 9af2 473c 979f ba3d 174b 33bc
00000240: 93ca 8e3d ff90 033d 4a27 e939 8772 64bd
00000250: b38f 9cbc a23e 983d 777d d2bc 82cc 24bc
00000260: 2cc9 04bc cb19 7f3d aae2 763d d824 2bbd
00000270: 7743 d0bc 6216 82bd 2f26 2f3d 1bf3 5abd
00000280: e4a2 e9bc 89c3 9b3d 42b3 7b3d bf4c b23d
00000290: 2c3e 11bb e792 503d 4cf6 833d c111 c3bd
000002a0: 1ae2 1b3d 93eb 0a3d df77 1bbd f9d8 c5bc
000002b0: 840b c63b 69f3 b23c 44b4 6b3d bb78 613c
000002c0: fac8 8cbd 8c00 2ebc 1e5c 72bb 0039 383d
000002d0: 9a0f 6a3c d3fd 0ebc 0b17 3f3c c3d8 a5bd
000002e0: 02f4 9dbd 0335 a5bd 18af 043d 3f68 523d
000002f0: ba67 80bc 4a18 f83c 0d2c 7fbd 7f43 553d
00000300: 16fc 573d fcd5 ccbb e834 adbd 0e9e 7abd
00000310: ef75 95bd bf7e aabc 8449 823c eb77 a0bd
00000320: 9cb0 1abc 263b 8b3d 0536 f03b bd61 803d
00000330: 6b6b 473d c6dd aabd 9e5a 4ebd b903 6fbd
00000340: bfdc 5bbd f01b 6b3d 1450 09bd e99a 363c
00000350: aba9 183d 3379 44bc 197a 15bc 1d13 47bc
00000360: 41f9 e4bc 8c0d eebd 4775 293d 87e5 9ebd
00000370: 3e6a e1bd 0218 563c 73b6 1f3d 498d 2dbd
00000380: d07c babc 35ea 51bd 1ba4 3b3d d6b9 233d
00000390: 9356 f93b e397 9f3d c46d 433d 4b3d bdba
000003a0: fb27 9b3c dee8 403d 5914 5b3d 6212 a2bb
000003b0: bc57 d4bd fb50 4e3d 5a7f 0f3d 5c82 c0bd
000003c0: d1f3 b5bd 4256 ccbd 8fae 3bbd 46bb 1abb
000003d0: 874d 7b3d 865c 1ebb 0b2b 86bd 7a50 debb
000003e0: 17e8 5f3d 5178 00bd 9db0 9e3c 44d1 2b3d
000003f0: 174c 5abc 80bb 233d 0353 bebd 7d72 04bb
-0.017204536 0.08933248 -0.05303942 -0.07284731 0.0054796184 0.018274032 0.013921461 -0.050569873
0.019058935 0.028680615 -0.03911474 -0.056181658 -0.0067323325 0.055350948 0.04529426 0.014768706
0.074850865 0.017938614 0.028842364 0.04817183 0.042803347 0.028171867 0.011830902 0.11730484
-0.043793954 0.060120564 0.0753755 0.06628835 0.0024412286 -0.051139295 -0.052713856 -0.020211121
0.0043878863 -0.07855751 -0.0538952 0.06408188 -0.07019819 0.03612856 0.056574132 0.0031961568
0.08186299 0.08217806 2.2666092e-05 -0.04692706 -0.01584983 -0.03638012 0.05984173 -0.026854169
-0.0025370005 0.110995136 0.016412416 -0.059391256 0.060997806 0.022483185 -0.054603077 -0.00413089
-0.017844496 0.050190456 0.019014932 0.038819984 -0.04115298 0.040715322 0.0006992259 -0.07517585
0.032271262 -0.06773758 0.044265617 0.0051278565 0.0902088 -0.025785847 0.015042753 0.102957755
-0.0133740455 -0.016861713 0.10517759 -0.008464485 -0.048591986 -0.047866836 -0.020410694 0.038908623
-0.02674627 0.031637263 -0.03224134 -0.0041796956 0.016398942 -0.014606779 -0.015671398 -0.05894404
-0.047789164 0.018128823 0.022891836 0.105738655 0.059684146 -0.016917009 0.01987545 -0.024584496
0.068146005 -0.011866779 0.033245325 0.046133522 0.013806716 -0.044299122 0.08358278 0.0006083672
0.078283764 0.019923266 0.03419034 0.0072288713 0.055617608 -0.05203905 -0.005278701 -0.019239925
-0.03726942 -0.052656244 0.022386057 0.10228583 0.0028345487 -0.00024288145 0.09448917 0.078537695
0.07028766 0.00032779708 0.015132641 -0.015370649 -0.034920383 0.067790404 -0.015094765 0.0026092045
-0.05123233 0.0060822275 0.057118338 0.038513057 0.05557321 -0.03755738 -0.009610241 0.06925751
-0.0047369013 0.031233093 -0.047323722 0.10263486 0.04963037 0.012203837 0.091124706 -0.010943196
0.06972232 0.0321207 0.00044470496 -0.055773284 -0.01911149 0.07433821 -0.025694592 -0.010058524
-0.008104604 0.062280457 0.060274757 -0.041783184 -0.025422795 -0.063519254 0.042761024 -0.0534545
-0.028520055 0.07605655 0.06145025 0.087060444 -0.0022162301 0.050921347 0.06443462 -0.09524871
0.038057424 0.033916067 -0.037956115 -0.024151312 0.0060438532 0.021844583 0.05754496 0.013761695
-0.06874271 -0.010620248 -0.0036981176 0.044976234 0.014285946 -0.008727509 0.011663209 -0.08097985
-0.077125564 -0.08066752 0.032393545 0.051368948 -0.01567446 0.03028502 -0.06229787 0.052066322
0.052730642 -0.006251095 -0.08457357 -0.06118589 -0.07297885 -0.02081239 0.015904196 -0.078353725
-0.009441521 0.06798391 0.0073306584 0.06268642 0.048686426 -0.08343081 -0.050379388 -0.05835316
-0.053677317 0.05739969 -0.033523634 0.011145332 0.037271183 -0.011991787 -0.009123349 -0.012150553
-0.027950885 -0.116236776 0.04137161 -0.077586226 -0.11006592 0.013067247 0.038992357 -0.04237107
-0.022764593 -0.051248748 0.0458108 0.03997215 0.0076091974 0.07792642 0.047712103 -0.0014437822
0.018939963 0.04709708 0.053486202 -0.004946039 -0.103682965 0.050370198 0.03503356 -0.09399864
-0.08884395 -0.0997739 -0.04582077 -0.0023610159 0.061353233 -0.0024164035 -0.065511785 -0.006784496
0.054664697 -0.031364743 0.019371325 0.041947618 -0.013323805 0.039973736 -0.09293177 -0.0020209842

features_extractor.cnn.4.bias f4 [16]
00000000: 3e02 b5bc 0951 233d 0b09 213d a093 bcbc
00000010: 56c9 c7bc d259 f43c 5e38 37bd 4610 983d
00000020: 1509 923c 7cda 72bd e43e 773c 4d25 0ebd
00000030: 3778 1d3d 35c0 53bd 1039 183d a055 393d
-0.022095796 0.039872203 0.039315265 -0.023019612 -0.024387997 0.029827986 -0.04473149 0.07424979
0.017826596 -0.059290394 0.015090678 -0.03470354 0.038444724 -0.051696975 0.037163794 0.045247674

features_extractor.policy_net.0.weight f4 [64, 784]
00000000: a728 2bbd be23 3bbc 6622 c53d abcc c43c
00000010: dcfd b23c 2870 ad3c 7cc6 ff3c 9899 c23c
00000020: 1c41 d73b 9c1d 593d bd2c 123d 44bd aebc
00000030: e46e 10bb bb50 5f3d 1d31 7ebc 6fca 3f3c
00000040: f500 8d3c 0054 4cbc a3d8 a73c 7f3f 253c
00000050: 12d5 84bb afc2 55bb 08aa 3ebd 02bd b5bc
00000060: b9a3 42bc c33e 773c 0dad 273d 94b7 75bc
00000070: ec51 ed3b 43ec afbc 03f1 14bd 3e5b a3bc
00000080: 9c19 5b3b 0957 2d3a fb36 adbc fbba 283d
00000090: b702 013d dd74 003d 91bc d4ba cf35 c13c
000000a0: 2431 33bb 3c53 a03c badf 4bbc 41a6 803d
000000b0: f854 343d e439 d3bb 08eb 963d 1bac 76bc
000000c0: 2ff6 a8bb 3337 00bd 0520 bc3c a73e 0fbd
000000d0: 84e3 f23c cf91 a53b 8aae 4e3c 6485 a7ba
000000e0: 1036 73bc db46 2b3c 48e6 5cbb 242d 393d
000000f0: 7dc9 b03c ba96 d5bc ddce c6bc 0f83 973b
00000100: 4fa5 4b3d 0d2e 0b3b f61e f0bb f8b9 56bc
00000110: 4720 2fbb 67ce b0bc 19ff 113d 1fd5 253d
00000120: df3a 0f3c d77e ae3c f580 f9bc 4dc0 1fbd
00000130: 1cae c53b b88e 86bb 2344 573c 1ca7 133d
00000140: 8c41 9cbc c8ec 093d c770 8dbc a507 6b3b
00000150: 8807 ca3b 5699 313d 5726 10bc 14d0 80bc
00000160: 6df5 263c 3acf a1bc bf01 bc3c 170c e73b
00000170: 27ac b13c 541a 9bbc 6f40 183d 4e34 be3c
00000180: 3bf8 763c eb23 1a3c ed48 70bc 880b c23b
00000190: 3285 c53c 592c e039 3666 6e3c bf74 763d
000001a0: b541 df3c 040c 683d 770f 30bc 4e1d 693d
000001b0: 97da 623d 5ceb feba 135a 80bc 7348 233d
000001c0: c462 9a3b e2c7 6b3d 7260 4c3d f46e 093c
000001d0: 6b07 b93c 80ad 203d df55 b13c 18f4 97bc
000001e0: 1564 263d 4ba2 113d 3512 e03c 4a52 b1bc
000001f0: a08e 243d ccff 1a3c 9b91 30bc bd78 c4bc
00000200: 98a6 e8bc d2fc 12bd 2a2b ba3c 856c f7bc
00000210: dfe5 b83c 97fb 4c3d c6aa 1f3c 658f aabc
00000220: 14e7 ef3c 5f2f 0cbc 0f31 de3c 41ab 02bb
00000230: ddd8 173d 61ac 85bb 180a 45b9 0439 03bd
00000240: 18a2 853c 39c6 35bd 2595 edbb a057 233b
00000250: 5f7f 76bc ecb9 17bb ecce 783d e770 a3bc
00000260: 6f11 02bd 3563 a43d e470 9b3b 2af2 113d
00000270: 2e39 a7bc b8ff 0fbc 60d1 42bd b2e8 4abd
00000280: 8a0b 06bd a708 9abc c594 d3bc e03e 01bd
00000290: d001 293d 27ad 313d f7db 253d 296c 113d
000002a0: c3b3 21bd d48a 043b c46d 2dbd cdc3 3fbd
000002b0: 2933 1fbc 56f5 133d 933b cd3c d5e3 503c
000002c0: fbb1 533b a03d 0ebd 08c2 d5bc 66e2 0ebc
000002d0: bcdb 4e3c f896 f3bb 75cb 0bbd 8212 d83c
000002e0: 3919 3d3c 5334 133c ece3 623c cebc cf3a
000002f0: 0e90 043c 9fce 5fbb bcd3 5f3d 3e2c edba
00000300: 80f9 813d 041e 0d3c 3fe4 133d b90b 08bc
00000310: b89b 04bc 3b57 e13c ce57 4b3c 0ca3 c03c
00000320: a306 1fbd ee01 923c c6fd 853d db61 aa3c
00000330: 67d9 3f3d 32a4 133c 03a5 7e3d b585 07bd
00000340: fafd 013d 6e3e 89bc 264f 953b f3f7 75bc
00000350: f838 acbc 45a2 1dbc 8f27 dbbb 7de9 143d
00000360: ac16 2e3c c31a 723b a0ed 02bc 5beb 3abb
00000370: e49c 32bd 0e52 6b3b 805d 1cbc 7dad 283b
00000380: 11f9 81bc c402 1f3b 5cec 87bd b896 b7b9
00000390: 8002 45bc 0af8 7739 e535 8bbc 553e 5d3c
000003a0: 9a1b 70bb ee4b ba3c 045f 0cbb 8c81 143d
000003b0: fe39 bcbb 648d 723b caff 333c d925 7c3d
000003c0: 9d90 093d 38c1 ca3c 7e28 78bb 13bb 1a3d
000003d0: 60bc 85bc 4c96 573c 8e97 d7bb b189 93bc
000003e0: b7f2 163d 8042 373c 76f3 a2bc b6a6 f13b
000003f0: 13a0 bd3b fbbd b23b c2ba 1d3d 03ab 11ba
-0.041786816 -0.011422096 0.096257016 0.024023375 0.021849565 0.021171644 0.031222574 0.02375488
0.006569041 0.053006753 0.035687197 -0.021330483 -0.0022038752 0.05452035 -0.015514639 0.011705979
0.01721237 -0.012471199 0.020489043 0.010085939 -0.0040537203 -0.0032617261 -0.046548873 -0.022184853
-0.011879855 0.015090647 0.04093652 -0.014997382 0.007242432 -0.021474963 -0.03636266 -0.019940969
0.0033432012 0.00066123955 -0.02114438 0.041193943 0.03149673 0.03136145 -0.0016230514 0.023585228
-0.0027342523 0.01957094 -0.012443477 0.062817104 0.044026345 -0.00644611 0.073690474 -0.015055682
-0.0051563005 -0.031302642 0.022964487 -0.03497186 0.029649504 0.005052782 0.012614856 -0.0012780842
-0.0148444325 0.010453905 -0.0033706594 0.045209065 0.021580452 -0.026072849 -0.024268562 0.0046237777
0.049718197 0.0021237165 -0.0073279096 -0.013105862 -0.002672212 -0.021582795 0.03564367 0.04048645
0.008742063 0.021300716 -0.030457 -0.03900175 0.0060327183 -0.004106369 0.013138804 0.03604804
-0.019074224 0.033673078 -0.01726569 0.003586271 0.0061654486 0.043359123 -0.008798203 -0.01572422
0.01019035 -0.019752134 0.022950051 0.007051002 0.021688534 -0.018933453 0.037170824 0.0232183
0.015073831 0.009407978 -0.014665824 0.005921785 0.024111364 0.0004275765 0.014550736 0.06016993
0.027253011 0.056652084 -0.010745875 0.056912713 0.055384245 -0.0019448805 -0.01566795 0.039864015
0.004711481 0.05756367 0.049896665 0.00838827 0.022586545 0.039227962 0.021647392 -0.01854901
0.04062279 0.035555165 0.027352432 -0.021645684 0.04017508 0.009460401 -0.010776903 -0.023983354
-0.02839975 -0.03588564 0.02272566 -0.030203113 0.022570549 0.050044622 0.009745305 -0.020820329
0.029284991 -0.008556216 0.027123002 -0.00199385 0.03707205 -0.004079387 -0.00018791144 -0.032036796
0.016312644 -0.044378493 -0.0072504454 0.0024924055 -0.015045016 -0.002315159 0.06074421 -0.019951297
-0.031754907 0.08026735 0.004743682 0.035631336 -0.020413008 -0.008788995 -0.047562957 -0.04953832
-0.03272585 -0.018802954 -0.025827775 -0.031554103 0.041261494 0.04337802 0.040492978 0.03550354
-0.039478075 0.002022435 -0.04234101 -0.04681759 -0.009716787 0.036122642 0.025052821 0.012749632
0.003230213 -0.03472674 -0.026093498 -0.00872097 0.012625631 -0.0074337684 -0.03412958 0.026376013
0.011541658 0.008984643 0.013848286 0.0015849115 0.008090986 -0.0034150255 0.054645285 -0.001809485
0.063464165 0.008613113 0.036106344 -0.008303576 -0.008093767 0.027507415 0.012411071 0.023515247
-0.03882469 0.017823186 0.06542544 0.020798614 0.04683819 0.009011315 0.062169086 -0.033086497
0.03173635 -0.016753402 0.0045565544 -0.015012729 -0.021023259 -0.009621208 -0.0066880654 0.036355484
0.010625523 0.003694222 -0.0079912245 -0.002852163 -0.043606654 0.0035907063 -0.0095437765 0.0025738173
-0.015865834 0.0024263123 -0.06636879 -0.00035016774 -0.012024522 0.00023648157 -0.016993472 0.013503631
-0.0036637546 0.022741284 -0.0021418938 0.036256358 -0.005744218 0.0037010545 0.010986278 0.06155953
0.03358518 0.024750337 -0.0037865932 0.037776064 -0.016325176 0.013158392 -0.006579346 -0.018009992
0.036852565 0.011185288 -0.019891482 0.00737461 0.0057869046 0.0054547763 0.038508184 -0.0005556794

features_extractor.policy_net.0.bias f4 [64]
00000000: c558 11bb 9621 503d 333f d63c 27a0 3cbb
00000010: c6bf 173c 2d1f 81bc 55f4 f03c 367c 1d3d
00000020: 8dc5 55bc c5b9 1a3d 1afc f33c d344 013d
00000030: e6c7 793c c5fb 0ebd 0ba8 28bd 23d5 1e3c
00000040: 412d b7bc d4a1 b33c 9857 a83c 7890 863b
00000050: ed05 7e3b 8d4a e8bc e67e 9ebc 4ef4 55bc
00000060: ef84 e3bb b733 743c 32fc aa3c 91c6 f4bc
00000070: f233 1b3d 16d5 61bc 8143 14bd e59e 743b
00000080: a7a8 cfbc fb5d e03c 44c0 163d b304 a53b
00000090: 58b6 213d e6cf 983c bfd0 fcbc fdeb 383c
000000a0: 3999 b5bc 0ce4 f5b9 6651 523c 4c43 a93c
000000b0: 6e0b f5b9 40fa 6d3c 8824 7fbc 1858 14bb
000000c0: cc9b e13c 987f 7bbc 7e26 d43c f81a 96bb
000000d0: c464 2b3d 3971 e8bc 009e 0337 799a 2d3d
000000e0: 0128 b7bc 785a fd3c 42d8 14bd 6a5a 003d
000000f0: 56c1 aebc 396d 743c 1eb0 043c 8a65 68bb
-0.0022178155 0.05081328 0.026153183 -0.0028781982 0.009262031 -0.015761936 0.029413382 0.038448535
-0.013047588 0.03777482 0.029783297 0.031559777 0.015245413 -0.034908075 -0.041175883 0.00969437
-0.022360446 0.021927752 0.02054958 0.0041065775 0.0038760856 -0.028355861 -0.01934762 -0.013058735
-0.006943337 0.014904908 0.02087221 -0.02987984 0.037891336 -0.013783714 -0.03619719 0.0037326154
-0.025348974 0.027388563 0.036804453 0.0050359606 0.039480537 0.018653821 -0.030861257 0.011286733
-0.022167789 -0.0004689995 0.01283679 0.020661972 -0.00046738557 0.014524996 -0.015572675 -0.0022635516
0.02754011 -0.015350245 0.02589726 -0.0045808516 0.041844144 -0.028374301 7.844996e-06 0.042383645
-0.022357943 0.030926928 -0.036339052 0.031336226 -0.021332424 0.014918619 0.00809863 -0.0035460913

features_extractor.policy_net.2.weight f4 [64, 64]
00000000: 9db6 b9bd 619d ddbd c1ad cdbd 8242 ccbd
00000010: 1a38 56bd c2cc 5abd 9851 b53d f354 bf3d
00000020: 61bf 23bd 97e7 f03d e8fb e93b 56f4 c2bd
00000030: 0190 363d 3278 3fbc 25f9 53bd 5b21 44bd
00000040: 4a12 0dbe f23d 8a3c 2db3 e43d ab66 063d
00000050: fd16 323d 879e f7bc 56a2 473d 94c1 04be
00000060: 2117 93bd a9c2 c2bd 46f7 8c3b 020b bdbd
00000070: 6995 22bc ea82 313d 8a91 92bd ea02 c7bd
00000080: bbb5 093e 32ab f93d fd34 d0bd ed1b ceba
00000090: 7e3a 183d 49b9 34bd 2f0d ed3d f128 b2bd
000000a0: 345b ce3d 24f2 d5bd 238c 55bc 13b8 17bd
000000b0: 9a05 673d 5013 fd3d c999 82bd 9f3c d43b
000000c0: c778 363d ff92 d33d b3e7 383d ebe4 d9bd
000000d0: 817f 70bd b565 98bd c612 a93d bf74 b13d
000000e0: 51b4 963b c463 e3bd 8dea ec3d 9268 89bd
000000f0: 0cdc 673b e945 bbbd d812 d93d bea7 dbbd
00000100: f70d aebd 070b f13d 7336 19be 00e1 b1bc
00000110: 1f5a c13d 780b 99bd 53d0 77bc d2ac b73d
00000120: 4bbe 53bd dbaf 1b3e 73e8 f9bd 1bf0 6fbd
00000130: f45c 93bd e9f4 f73d 4bf4 e43c 3b15 16bd
00000140: db11 6bbd 91e6 473d 2819 05bd 2803 b2bd
00000150: acba 4a3d d27f 603d 9c45 d83c bc08 83bd
00000160: c363 fa3d d583 563c 0f54 8fbd 3a72 8fbc
00000170: 5440 b33d 0800 ad3d a770 7abd 2a99 cabb
00000180: 034c 96bd c679 31bd 9925 d3bd 928e de3b
00000190: 3356 153e a3af e7bd 32f5 afbd 43bc b63d
000001a0: 30f7 8ebc 0681 713d 5716 813d f0b9 83bc
000001b0: 0ca3 233c 63b9 cfbd 3d0f fb3d 8bf7 073e
000001c0: e957 48bd b3e0 bd3d 625f 18be 084e 81bd
000001d0: 95d7 30bd 9a5d 87bd 8478 7cbd cf38 1ebd
000001e0: 55f4 a73d 292b b0bd 2baf 133d 4c64 a43d
000001f0: e29f 0c3b 258a 21be f0ad d6bd 6c1f d33d
00000200: db96 023d 5777 e63c 769c 99bb 2560 493c
00000210: 0466 893d 52b0 02be 02f7 853d f6ad 94bd
00000220: 000c 833c 30a2 2c3c 4d3f 083d 40e4 243d
00000230: de54 453d dfd3 adbd c08c da3d a538 3dbd
00000240: 8e0d 8bbd ff18 e73c 6728 e83d 616d aebd
00000250: 95d4 913d 7910 03be 960f 023d 5685 473d
00000260: 8910 8ebc 1b06 6d3d bc5c a0bd 765c 9fbc
00000270: 54f0 0f3d 5e79 a93d a625 0f3e e2d9 debd
00000280: 39cb 32bd 7290 8e3d 424f fb3c aa06 a1bd
00000290: d33a b03d 7633 793d 02e1 8f3d 8a14 f8bd
000002a0: bae8 f63d ee1b 1bbc c006 eabd d97c e0bd
000002b0: 7ffb ecbd b80c 473d a244 94bd 0e8e e93d
000002c0: df46 67bd e2c3 1bbc a35c c7bd 3288 0b3d
000002d0: e4e9 bcbd a4c3 02bd 6217 49bd 61f8 08bd
000002e0: 39fd b03d 9750 3d3d 4235 3f3d 698c 40bd
000002f0: aee8 e8bb ce93 fabd 874d 0c3d 05f8 6e3d
00000300: 3591 a83d 4238 fdbc cd8c 623d a069 b33d
00000310: 2bda 00bd 9141 c4bd e754 f6bc 5c90 923c
00000320: 4e68 ffbc 5e11 0cbd c549 f03c b5f0 6cbd
00000330: 2f5c 9cbd 7667 13be db86 fa3c 60f2 ab3a
00000340: c937 80bd 8086 6a3c faa3 d0bd d62b efbd
00000350: a6c4 f33d b58e 0b3e 3f68 e33c 5ca3 b6bd
00000360: 1f34 c6bd 69f0 ab3c f82c 4ebd 658a 5d3d
00000370: 9381 4ebd c0eb 52bd 478e 91bb d4a4 d33d
00000380: b471 0c3e 740e 77bd 6055 18be 1e86 9b3d
00000390: a318 1abd d84c 993d fc77 08bd a1d6 a93d
000003a0: 9e73 39bd 9d46 6a3d 4d59 bbbd 3a25 f23b
000003b0: f7c5 243d 1260 79bd dadf ebbd 7201 08bb
000003c0: 030e af3d 216b 08be b192 093d 3a2f 0dbe
000003d0: b368 3bbd 203a bcbc 272f 8e3d ffe8 c3bd
000003e0: 56b6 5dbd 6d00 cfbd bec3 be3d af49 1bbd
000003f0: 4e27 fcbd eca8 e73d 300c 67bd fc7d c23d
-0.09068034 -0.10821033 -0.100429066 -0.09973623 -0.052299596 -0.05341793 0.088534534 0.09342375
-0.039977435 0.11762922 0.0071406253 -0.0951926 0.044570927 -0.011686372 -0.051751275 -0.047883373
-0.13776508 0.016875241 0.111669876 0.032812756 0.043478955 -0.030226959 0.0487388 -0.12964469
-0.07182146 -0.09509785 0.004301938 -0.09230615 -0.0099233175 0.04333774 -0.071566656 -0.09717353
0.13448231 0.12190856 -0.10166357 -0.0015724875 0.037165157 -0.044122014 0.1157478 -0.08699215
0.10075989 -0.10446575 -0.0130338995 -0.03704078 0.056401826 0.12357199 -0.063769884 0.006476953
0.044548776 0.10330772 0.04514284 -0.10639366 -0.058715347 -0.07441274 0.08255534 0.08664846
0.004599132 -0.11103013 0.115681745 -0.06709398 0.003537896 -0.09144194 0.10599297 -0.10725354
-0.08498757 0.117696814 -0.14962177 -0.021713734 0.09441017 -0.074728906 -0.015125352 0.0896851
-0.05169515 0.15203802 -0.12202539 -0.05857859 -0.07195464 0.1210726 0.02794852 -0.03664134
-0.057390075 0.04880387 -0.032494694 -0.08692008 0.04949443 0.0548094 0.02640038 -0.0639815
0.12226059 0.013092955 -0.06998455 -0.017510522 0.08752504 0.084472716 -0.06114259 -0.0061828094
-0.07338717 -0.043329023 -0.103099056 0.006791898 0.14583664 -0.11312797 -0.08591689 0.08922627
-0.017451853 0.058960937 0.06303089 -0.016079873 0.009987604 -0.101427816 0.12258766 0.13278024
-0.048911963 0.092713736 -0.14880136 -0.063137114 -0.043174345 -0.0660965 -0.06163837 -0.038628396
0.082008995 -0.08601982 0.036055725 0.080269426 0.0021457602 -0.15775354 -0.10482395 0.103087276
0.03188215 0.028133078 -0.004687841 0.012290989 0.06708911 -0.12762573 0.065412536 -0.07259743
0.015996933 0.010536715 0.033263493 0.04025674 0.04817664 -0.08487677 0.10671377 -0.0461966
-0.06789695 0.028210161 0.11335831 -0.08516956 0.07120625 -0.12799253 0.031753145 0.048711143
-0.017341869 0.05786715 -0.07830188 -0.019453268 0.035141304 0.08275102 0.13979205 -0.108814016
-0.04365084 0.069611445 0.030677442 -0.07862599 0.0860497 0.060840093 0.07025339 -0.121132925
0.12056108 -0.009467108 -0.11427069 -0.10961313 -0.115714066 0.048596114 -0.07239653 0.11404048
-0.056464072 -0.009507151 -0.09734466 0.034065433 -0.092242986 -0.03192486 -0.049094565 -0.033439998
0.086420484 0.046219435 0.04668165 -0.047008906 -0.0071078157 -0.12235223 0.034253623 0.058342
0.08230821 -0.030910615 0.05531006 0.08760381 -0.03145806 -0.09582818 -0.030069781 0.017891102
-0.031177666 -0.03419625 0.029332051 -0.057846744 -0.0763477 -0.14394936 0.030581882 0.0013118498
-0.0626064 0.014314294 -0.10187526 -0.11678283 0.11902742 0.13628657 0.02775967 -0.08917877
-0.0967791 0.02098866 -0.050335854 0.05408706 -0.05041654 -0.05149436 -0.0044420096 0.10334173
0.1371525 -0.060316518 -0.14876318 0.0759394 -0.03762115 0.0748536 -0.03331755 0.0829289
-0.045276277 0.05719625 -0.09147892 0.0073896917 0.040227856 -0.060882635 -0.11517306 -0.0020752815
0.085475944 -0.13322116 0.03358716 -0.13787547 -0.045754146 -0.022976935 0.06942587 -0.09565925
-0.054128967 -0.10107503 0.093146786 -0.037912067 -0.12312184 0.11311516 -0.056408107 0.09496686

features_extractor.policy_net.2.bias f4 [64]
00000000: b1e4 ccbc 1fea e13c 3b95 da3c dfbd 913d
00000010: d1ec 45bd 3c75 32bd 43c1 99bc 382f 4a3d
00000020: 4ec4 bebd 4c8d e2bc 37ec d0bd b02e cb3d
00000030: 9dd8 8f3d 84ce e2bb 2aa0 65bd c19a 1f3d
00000040: cce2 723d 2540 053d b1af 513d 093f a43d
00000050: f123 033e ea57 b63d 54f6 35bd 0f85 cfbd
00000060: 138f bb3b 6ba9 183d 3ac9 7a3a ab4e eb3d
00000070: 20bb f13d ed00 893d 11eb db3d 54ca aebd
00000080: 26b8 d93d 2bab 41bd fc96 85bd 1aa3 ca3d
00000090: 8621 e93d a964 a53b b441 09bc 7a0f 3bbc
000000a0: f952 493d 1222 febd a545 c6bd 7890 72bd
000000b0: 444c a43d 9720 03be 84b9 623d f740 803d
000000c0: 4346 06be c430 e43c cbb3 a8bb 3c2b d83d
000000d0: e367 b6bd 112f d3bc 4af2 a6bd 5bbf 37bd
000000e0: 7d03 8a3d c0eb 983b 357b cb3d c10c 8abd
000000f0: 6038 603d 0c59 143d a51e c63c 8130 933d
-0.025011392 0.027577458 0.026682487 0.07116293 -0.04832155 -0.043568835 -0.018768912 0.049361438
-0.09314786 -0.027655266 -0.102013044 0.09921014 0.070237376 -0.0069215912 -0.056060947 0.038965944
0.05929832 0.032531876 0.051192943 0.080198355 0.1280668 0.08903487 -0.04442437 -0.10132801
0.005723843 0.037270945 0.0009566728 0.11489614 0.118032694 0.0668963 0.10738195 -0.08534685
0.10630827 -0.04728238 -0.065229386 0.098943904 0.11383347 0.0050474 -0.008377481 -0.011417264
0.049151395 -0.12408842 -0.096812524 -0.059219807 0.08022359 -0.12805401 0.055352703 0.06262391
-0.1311274 0.027855285 -0.005148386 0.10555121 -0.089065336 -0.025779279 -0.08151682 -0.044860225
0.067389466 0.0046667755 0.09935609 -0.06740714 0.054741263 0.036217734 0.024184534 0.07186986

features_extractor.value_net.0.weight f4 [64, 784]
00000000: 5e41 e33c 3037 023c b1be 3fbc 9ced c93b
00000010: 2c2e 823c d9d2 2dbd 6221 d3bc 6098 a43c
00000020: dc4f 033d 2c6c 99bc 367d 8ebc cee1 ef3b
00000030: 716e 8abc 24cd 5bbd 141f d63c 9304 963c
00000040: b0f6 94bc 1e1f 953a 1065 b5bc a59b 1ebd
00000050: 9f6a 92bd bf91 403d 9c3c 6c3b 7e9d f83c
00000060: 8162 7d3c 2bbd a73a cc00 613c 246c d8bc
00000070: bae1 433d bdaf 00bc 8c2a 383d 4a3c 913c
00000080: 0213 0fbc b52a a6bb 7252 59bd d7d8 323d
00000090: b699 babc bbb6 3abc 2396 113d c565 0f3b
000000a0: 80ad 61bc 4284 1cbc ae02 613d 4cde 4b3c
000000b0: 198b f3bc 64c9 c63c fce5 dbbc dd3b a4bc
000000c0: a0a2 21bd 78f6 0d3c c0c9 453c ef92 e9bb
000000d0: f47d 77bc 23f3 fabc 6a4e 30bb a305 91bc
000000e0: 03a6 4dbc e9eb 09bd dde3 cc3c f361 153d
000000f0: 9bc9 bfbb 10bf 683d 89fd 1bbd e657 29bc
00000100: 36e3 72bd c89e 1abd ed28 96bb 3351 4bbc
00000110: 3d2c fcbb e093 913c 4189 39bd 0302 db3c
00000120: b459 f8bb 33e8 cfbc 13a3 14bd 624c adbc
00000130: 5aee b3bb 6ca3 3e3b c220 523c 1f6e 26bd
00000140: fd0a 81bd d92b a63c beda fbbb cca1 56bb
00000150: a662 bd3b a7da 293c bd57 8dbc 5f80 d23c
00000160: 932f 003d c763 1c3d 2f00 04bd 0c50 c03c
00000170: cbbc 3abc 790b 8f3b cd57 a83c 637e 503a
00000180: c62b fc3c fa08 2abd c0d5 a93c ddb9 9fbc
00000190: d38c 8e3c 138f ec3b a414 ecbb e489 e1bc
000001a0: 5a6d c63c e345 8e3c ba1d babb b7a9 91bc
000001b0: e1c9 8ebc fd3c d3bc dbdd 8cbc bc75 62bc
000001c0: 9cd3 ac39 f7f7 46bc 1878 b6bb 7f4d 36bd
000001d0: 4e37 03bd 7de2 87bd 2611 10bc 4a0a eabb
000001e0: 27fd b13c 0955 c5bc 93b1 b3bb 3315 39bd
000001f0: b90a 95bc d33c 133c 5a02 c43c 1e39 ccbc
00000200: d1b6 6d3c 0998 6abc 9231 12bb 6804 01bd
00000210: 6246 ca3b 22be d8ba 690b f4bc 1b59 8e3c
00000220: d3b4 96bc 0fa7 9b3c e77f aabc 037f 1b3c
00000230: b1dc 553c ade5 5c3b b982 d6bc faa3 f1bc
00000240: fa4c c6bb cb74 82bd 7a82 8ebc 8ad8 393d
00000250: 39a5 403d a052 ac3c db24 293d f9d4 5a3c
00000260: b297 f63b ee9d 70bc 2f12 423c f0ae 3e3d
00000270: 6fdc cbbc 957a 4d3c f2c9 c8bc 7d08 cfbb
00000280: 0c17 22bd 3fce 4c3d 97dc 14bb 9518 fb3c
00000290: a411 a9bc fbe0 02bc e9ee 11bd 5c27 dbbc
000002a0: de66 8fbc 1946 213d f873 3f3d af9b f8bb
000002b0: 3236 bdbb c59e f33c 6bf8 39bd db09 10bc
000002c0: 9bf2 3e3d 6208 30ba 5e6f 1f3c d211 a43c
000002d0: 2a73 5f3c 68d7 47bd 6c52 7b3b 234e 0d3d
000002e0: e240 b1bc 2600 5b3d e75c 153c 4e20 4d3c
000002f0: c3a0 8fbc 3330 24bd 00d6 4a3d 5112 4c3d
00000300: b382 c53c 2412 a9ba beff 9cbb 56de 66bd
00000310: d2de b93c 9821 eebc fdb1 7c3c 8a9a 123d
00000320: b057 dcbc f75d 083c 921e 6abd 322d 9b3c
00000330: 9c26 a2bb 327f 0bbc 1d96 1dbc 5543 1c3c
00000340: 00d4 23bd b9ef 87bd 4ecc ad3c 3e7c 76bc
00000350: 7f2f c53c a407 323c 5a26 98bd c230 253c
00000360: 375f 80bd d080 df3c 8080 9ebb 31a1 2d3d
00000370: c7b4 893b 4f3e b2bb 07e5 d6bc dfb8 96bb
00000380: c42a 653c 09e4 3d3c 84e4 d9bb 0048 d63b
00000390: 0974 2ebd 4d82 45bc 04a6 2d3a 028a 12b9
000003a0: 7aa9 643d f643 6dbc 8445 a53c 9d66 c93b
000003b0: de3a 26bc 3902 2cbd 005e cdba c20f 593d
000003c0: 3c56 16bc a2af 9fbc 5a23 87ba 1c37 a5bc
000003d0: d765 4ebd 9e34 a83c 3426 fdbb 1d95 73bd
000003e0: c752 4dbd a760 ce3c e5c3 26bc 0f55 ffbc
000003f0: b8bb b53c b86c 5ebd 3552 513c ac6b 8ebc
0.02774113 0.007947728 -0.011703179 0.0061623584 0.015891157 -0.042437408 -0.025772754 0.02009219
0.03205858 -0.018728338 -0.01739369 0.007320619 -0.016898366 -0.053662434 0.026137866 0.018312728
-0.018184036 0.0011377071 -0.022142917 -0.038722653 -0.071492426 0.047013994 0.0036046868 0.030348536
0.01546538 0.0012797465 0.0137331 -0.026418753 0.04782269 -0.007854399 0.04496245 0.017728943
-0.008732559 -0.005071009 -0.05305714 0.043663826 -0.022778373 -0.011396105 0.035543572 0.0021880728
-0.013774276 -0.009553017 0.054934196 0.012443136 -0.029729413 0.024265952 -0.026843064 -0.020048076
-0.039461732 0.00866472 0.012072027 -0.0071281116 -0.015105713 -0.030633515 -0.0026902207 -0.017702883
-0.012551787 -0.033672247 0.025010997 0.036470365 -0.0058528907 0.056822836 -0.038083587 -0.010335898
-0.059298716 -0.03774908 -0.0045825155 -0.012409496 -0.0076957033 0.017770708 -0.04529691 0.026734358
-0.007579053 -0.025379276 -0.036288332 -0.021154586 -0.00549106 0.0029089106 0.012825193 -0.040632363
-0.06300924 0.02028458 -0.007685988 -0.0032750247 0.005779582 0.010367072 -0.017253751 0.025695978
0.03129537 0.038181093 -0.032226738 0.02347567 -0.011397551 0.0043653813 0.02054968 0.00079534034
0.030782592 -0.041512467 0.020731807 -0.019497806 0.017401135 0.007219204 -0.007204609 -0.027531572
0.024222065 0.017367309 -0.005679813 -0.017781122 -0.017430248 -0.025785917 -0.017195633 -0.013822015
0.00032964058 -0.01214408 -0.0055685155 -0.0445075 -0.032035165 -0.06634996 -0.008793151 -0.00714234
0.021727158 -0.0240884 -0.005483815 -0.045186233 -0.01819359 0.00898667 0.023926903 -0.02492958
0.014508919 -0.014318475 -0.0022307378 -0.031498343 0.006172941 -0.0016536156 -0.029790597 0.017376473
-0.01839677 0.019000558 -0.020812942 0.009490731 0.013053105 0.0033706233 -0.02618538 -0.029497135
-0.006051657 -0.06369933 -0.0173962 0.045372523 0.04703257 0.021035492 0.041294914 0.013356441
0.0075254077 -0.014686091 0.011845156 0.046553552 -0.024885384 0.012541433 -0.024510358 -0.0063181506
-0.03957276 0.05000138 -0.002271449 0.03065137 -0.020638295 -0.00798821 -0.035628233 -0.026752166
-0.017505106 0.03937349 0.046741456 -0.0075869183 -0.005774283 0.029738793 -0.045402925 -0.008791412
0.046618085 -0.00067151163 0.009731142 0.020028029 0.013638297 -0.04878941 0.0038348688 0.034498345
-0.021637384 0.05346694 0.009116388 0.012519909 -0.017532712 -0.04008503 0.049520493 0.049822155
0.024110174 -0.0012899083 -0.004791229 -0.05636438 0.022689257 -0.029068753 0.015423295 0.03579191
-0.026897281 0.008323184 -0.05715806 0.01894245 -0.0049484503 -0.008514212 -0.009618309 0.009537538
-0.0399971 -0.0663752 0.021215584 -0.01504427 0.0240705 0.0108660795 -0.0742919 0.010082426
-0.06268161 0.027283102 -0.0048370957 0.042390052 0.0042024585 -0.0054395567 -0.026232256 -0.004599675
0.013987247 0.011590012 -0.0066495556 0.006539345 -0.04259113 -0.012054992 0.00066241645 -0.00013975057
0.055825688 -0.014481535 0.02017475 0.0061462657 -0.010145871 -0.041994307 -0.0015668273 0.052993543
-0.009175833 -0.019492928 -0.0010310218 -0.02016788 -0.05039009 0.020532902 -0.0077255014 -0.059468377
-0.05012777 0.025192572 -0.010178541 -0.031168489 0.022184238 -0.0543029 0.012775947 -0.017385326

features_extractor.value_net.0.bias f4 [64]
00000000: 8731 edbc c7e1 023d b3f0 713c 2f96 1ebd
00000010: 8e3b 833c d0ea f8bc 61e6 7ebc 3a76 03bc
00000020: 4783 b9bc b267 693c 401c 023b acdf d7bc
00000030: 8ad0 6fbc 64ab 0ebd 9dcc 25bc 6fd1 0d3d
00000040: 478d 023b 2dca 62bc 41c9 3ebd 3a12 873c
00000050: 89a5 9abb 382b edbc c1e9 dd3c 7edb afbc
00000060: 11a8 0cbc 585f 06bc 9b8f 35bd a022 1c3d
00000070: 669c 153d 8bcf f3bc c181 b9bc dbda 913c
00000080: 2a5a d9bc d30b 46bc 477f e63c 48b6 5f3a
00000090: 5528 7bbb d747 a2bc 5ec0 32bd e63e 8abb
000000a0: 470d 6a3a d7f3 443c 022d f7bb 1491 0a3d
000000b0: 4460 18bd fb52 0bbd dadf 4bba 3338 2fbd
000000c0: caeb 8abc 9f9a f73c 17c1 173c 7809 acbc
000000d0: a826 89bc b708 59bc 7aad a7bc afa5 b7bc
000000e0: 0b24 d73c 649a 023d e40e cc3c 2827 a83c
000000f0: 63ec 8f3c ac7f 453c 520e d73c e99b dd3c
-0.02895428 0.0319536 0.01476686 -0.038717445 0.016019609 -0.030385405 -0.015557856 -0.008023793
-0.022645606 0.014245914 0.0019853264 -0.026351772 -0.014637122 -0.03483142 -0.010119584 0.03462356
0.0019920634 -0.013842148 -0.04657865 0.016488183 -0.0047194404 -0.028951272 0.027089002 -0.021466967
-0.008584992 -0.008201443 -0.044326406 0.03811896 0.036526106 -0.02976205 -0.02264488 0.017804554
-0.026532251 -0.01208778 0.028136862 0.0008533937 -0.00383236 -0.019809647 -0.043640487 -0.004218924
0.000892837 0.012021027 -0.007543207 0.033829764 -0.03720118 -0.034014683 -0.0007777192 -0.042778205
-0.016958136 0.030225096 0.009262345 -0.021000609 -0.016742066 -0.013246707 -0.020468462 -0.022417871
0.026262304 0.03188552 0.024909444 0.020526484 0.017568773 0.012054365 0.026251946 0.027051883

features_extractor.value_net.2.weight f4 [1, 64]
00000000: 1287 c73d 9490 b23d a302 973d a0b2 f43c
00000010: f39d c63d faf5 d33d 6734 3fbd 9283 f93d
00000020: 0b09 32bc 15cd 35bd 4f72 bdbd 2ac9 8fbd
00000030: f82e f2bd e2ca 91bd ac00 ae3d 0bef 87bd
00000040: 97c0 be3d 22f3 07be 010d c4bd 3f24 72bd
00000050: 57de 933d be3c cbbd 234f 363d 4752 d8bd
00000060: 5321 8a3d 8f61 033d 28d0 b83d 6196 4f3d
00000070: 9b24 73bd 7651 773d 8888 893b dee5 bc3d
00000080: 7991 4ebd 3dfd 1dbd 013e e4bc 394d d93c
00000090: e18e 973d 6500 163d 01cd 80bd 5f32 06bd
000000a0: 1bff f53d 8d72 ee3d 2769 063e a73b 33bd
000000b0: 1b46 ebbc 87bf eb3d bb25 39bd 5693 98bd
000000c0: e243 253d cd1e 833d 3569 8bbc dfe1 06be
000000d0: dcec a13d fd5b e2bd 11c9 ccbd f4c7 b3bc
000000e0: 4941 3bbd d506 103e bd2f c2bd d390 81bd
000000f0: c3d9 173e 5862 71bd 08b9 f13d 9124 64bd
0.097425595 0.08718982 0.0737355 0.029870331 0.09698095 0.10349651 -0.046680834 0.12183298
-0.010866414 -0.044385035 -0.09250318 -0.07020791 -0.11825365 -0.07118775 0.08496222 -0.06637391
0.09314077 -0.13276342 -0.09572793 -0.0591166 0.07220142 -0.09923695 0.044509064 -0.10562568
0.06744637 0.03207546 0.09024078 0.050680522 -0.05936108 0.06038042 0.004197184 0.09223531
-0.050431702 -0.038571585 -0.027861597 0.02652608 0.07400299 0.03662147 -0.062891014 -0.03276288
0.12011548 0.116429426 0.1312605 -0.04375806 -0.028719952 0.1151114 -0.045202 -0.07449977
0.04034794 0.06402359 -0.01701794 -0.131721 0.079065055 -0.110527016 -0.09999288 -0.021945931
-0.045716558 0.14065106 -0.094817616 -0.06326451 0.14829163 -0.05893168 0.1180287 -0.055698935

action_net.weight f4 [2, 64]
00000000: 50a4 efbd 48a9 24bd bc2e 41bd 9c59 bfbc
00000010: c1d0 59bd eb0a a8bd 1870 cd3d ab42 5b3d
00000020: b32e da3d 165a cebd 8124 67bd 991f b53c
00000030: 7ff5 9ebc e315 d4bc 6800 67bd 848d 7b3d
00000040: bd52 e1bd aa0c 0f3d 358a 403d 956c 0f3d
00000050: 6b79 3abc dcd0 803d d7f3 aabd d40a 0abd
00000060: b074 85bd 4ca3 9fbd 288b babd bdf0 d33b
00000070: 31dc c1bc af8b d13d b195 f0bd 2789 9ebd
00000080: 2982 743b 7342 f43d 1136 d8bd 012b 733d
00000090: 7434 31bd 182e d73d a4a6 7cbd cabc 1d3d
000000a0: ac49 a2bd 4a7d 703d f011 053e acd5 e139
000000b0: 83a7 bfbc 5d5e d0bd c3c1 f53b 80e6 9a3c
000000c0: bda2 763d 1b09 8a3d 81a9 d5bd 9cb8 41bd
000000d0: fbe1 4b3d bf0a 27bc c4c6 a03d 0cb6 a63c
000000e0: bfd4 e83d fc03 a03d 113c b23d e938 223d
000000f0: fbf6 d3bd 898c 603d a5f8 133d 8a7c b9bd
00000100: 3661 1b3c c87c 353d 5475 f93c 7266 afbd
00000110: d1db 0ebb 138c be3d 8160 b3bd d9c6 d53d
00000120: b89b 79bd 5db7 b63c 176d b3bd 2412 88bd
00000130: 15eb cebd d521 1dbc f180 a73d aa45 793d
00000140: b454 a0bd 32fa 413d 8ed1 9dbc acc3 97bd
00000150: 0664 813c f986 e2bd b76b 203b b917 2e3d
00000160: 1dcc a13c 5016 cebd 4c76 41bd b519 123e
00000170: 2362 f53d e638 b7bd ace3 9a3d 88c9 643d
00000180: 3029 12bd 5962 dd3d 5f72 48bd 67ca 063e
00000190: bde3 9ebd d4d4 213c b00d 03be 259f 0d3e
000001a0: 042d edbd e04a 48bd 1ad7 a6bc a739 1fbd
000001b0: 9c23 ae3c acb6 76bd 6776 4fbb 12a9 02be
000001c0: 2e05 aebd 554a 4cbd dbd8 18be aeab 8e3d
000001d0: 2953 203b a54a 4e3d 1a64 35bd 02c1 153c
000001e0: 927b a4bd 73c3 e03d 2254 9ebd 3f05 963d
000001f0: 0f91 413b 4ff1 d8bd fc8e 90bd ea67 2bbc
-0.11701262 -0.0402005 -0.04716371 -0.023358159 -0.0531776 -0.082052074 0.10031146 0.053530376
0.106534384 -0.10075776 -0.056431297 0.022109793 -0.019404171 -0.025889343 -0.05639687 0.061414257
-0.11002109 0.034924187 0.047006804 0.03501566 -0.011381487 0.06289837 -0.0834729 -0.033701733
-0.06516397 -0.07794818 -0.09108573 0.006467907 -0.023664566 0.10231721 -0.11747301 -0.077410035
0.0037309027 0.11926737 -0.10557187 0.059367184 -0.043262914 0.105068386 -0.06168236 0.03851012
-0.07924208 0.058713235 0.12995124 0.00043074542 -0.023395305 -0.10174248 0.007499905 0.01890874
0.060213793 0.06740018 -0.10432721 -0.047295198 0.04977606 -0.010195433 0.078504115 0.020350479
0.11368703 0.0781326 0.08702863 0.039605055 -0.10349842 0.054821525 0.036125798 -0.09056957
0.009483626 0.044308454 0.030451454 -0.08564462 -0.0021798501 0.09304061 -0.08758641 0.10438318
-0.06093952 0.022304231 -0.087610416 -0.06644085 -0.10103432 -0.009590586 0.081788905 0.060857452
-0.07828656 0.047357745 -0.019264963 -0.07410368 0.015794765 -0.110609 0.0024478266 0.042503092
0.01975065 -0.100628495 -0.047231957 0.14267619 0.11981609 -0.089463994 0.07562956 0.055856258
-0.03568381 0.10809774 -0.048937198 0.13163148 -0.077582814 0.009877402 -0.1279819 0.1383024
-0.11580852 -0.04889953 -0.02036624 -0.03887334 0.021257214 -0.060232803 -0.0031656267 -0.12759808
-0.08497082 -0.049875576 -0.14926474 0.06966339 0.002446363 0.050364155 -0.044284917 0.009140255
-0.08031382 0.10974779 -0.07730891 0.07325219 0.0029535925 -0.10592901 -0.07058522 -0.010461787

action_net.bias f4 [2]
00000000: 80fd 4b3d 5e10 94bc
0.049802303 -0.01807421
