model/actor_critic_Image_scratch_v1.pth (torch, 461146 bytes, 24 tensors)

log_std f4 [2]
000000 15 46 34 be e5 25 2a 3f
       -0.17604859 0.6646407

features_extractor.encoder.conv.0.weight f4 [4, 1, 3, 3]
000000 db 17 2d bd 5d 6d 88 3d 97 0f b4 bd 66 e3 9e 3d
       -0.04225908 0.066614844 -0.08792036 0.077582166
000010 04 7c c6 3e bd 56 e8 be 87 8f ca bd 75 dd 04 bf
       0.3876649 -0.45378676 -0.09890657 -0.51900417
000020 46 d6 dc be b1 bc 14 bd 9e a8 27 3e c3 3f 17 3d
       -0.43132228 -0.036312763 0.16372916 0.036926042
000030 16 62 9e be d3 09 2d 3d ac 3e 61 3e e0 4b f2 bd
       -0.3093421 0.042245697 0.21996564 -0.11830878
000040 02 c0 88 be 7e 0b bb 3e 58 32 dd 3e d9 ce 9d be
       -0.2670899 0.36532205 0.43202472 -0.30821875
000050 66 31 28 bd 29 f9 9f be b7 be 97 3e e4 d9 71 3d
       -0.041062735 -0.31244782 0.2963769 0.059045687
000060 9a f0 ea bd ed 09 43 3e ae 85 04 be 88 90 b4 3e
       -0.11471672 0.19046755 -0.1294162 0.3526652
000070 e7 a0 09 be 2a b1 a7 bd 65 77 af 3e 4a d6 77 3e
       -0.13440286 -0.08188088 0.34270778 0.24202839
000080 ff bf bc 3d f8 9f 47 3e ed e9 b4 bb 8b 7c d9 3e
       0.09216308 0.19494617 -0.00552105 0.4247783

features_extractor.encoder.conv.0.bias f4 [4]
000000 e6 50 7d 3d ab 18 70 3d 3d 0a 9e bd cb 0b a7 3d
       0.06184473 0.058617275 -0.077167965 0.08156546

features_extractor.encoder.conv.2.weight f4 [8, 4, 3, 3]
000000 d4 ee 08 3e 85 3f b3 3d aa ac e3 bb 47 b2 e7 bc
       0.13372356 0.0875235 -0.0069480734 -0.028283251
000010 d3 27 8e 3e 2f b3 7e 3e ab de 9a 3d 3e 1e 90 3e
       0.27764758 0.2487304 0.07562002 0.28148073
000020 e0 8d cd ba 48 cd e1 3d b6 d3 a7 bc e0 53 25 be
       -0.0015682541 0.110254824 -0.020486694 -0.16145277
000030 d0 e2 72 bb c9 04 6f 3d b5 c6 1f be 52 53 c5 bd
       -0.003706146 0.058354173 -0.15603144 -0.09635033
000040 90 86 56 be 5a 08 0d be 1e 09 69 3e 9e ca 0a 3f
       -0.20949769 -0.13772717 0.22757384 0.5421542
000050 ad d1 86 3e ef 78 0d 3f ce 35 dd 3e 32 f5 f9 3e
       0.26331845 0.55262655 0.43205112 0.48819882
000060 41 e1 52 3e 67 c6 c5 3e 7d 96 c2 3b e6 53 89 bd
       0.2059374 0.3862793 0.0059383498 -0.067054555
000070 82 4c 17 3e 3c 59 e7 bc a6 0f c9 3d 05 e0 9e bd
       0.14775279 -0.028240792 0.09817438 -0.07757572
000080 25 a8 05 bc c0 35 36 3e 00 28 6c bc a3 45 1a be
       -0.008157765 0.17793941 -0.014413834 -0.15065627
000090 49 2f ef bd 68 12 78 bd b9 f9 ad 3d 53 cc 1b be
       -0.11678941 -0.06056443 0.084948964 -0.15214662
0000a0 b1 fb 12 3e e2 37 68 bd 59 c1 f0 bc 65 97 ab bd
       0.14353825 -0.05669392 -0.02938907 -0.083784856
0000b0 8f a1 fe bd cf b4 ff 3c 58 51 cd 3d 93 d3 c8 3d
       -0.124331586 0.031214146 0.10025281 0.098059796
0000c0 14 2e a4 be 70 1b 61 bd e1 56 20 be db f4 2e 3e
       -0.32066405 -0.054957807 -0.15658142 0.17085592
0000d0 98 c0 46 be f0 60 6d 3e c9 6d fa 3e bc c9 c9 3e
       -0.19409406 0.2318151 0.48911884 0.39411724
0000e0 c3 df 8a 3e 62 4d 8f bc ef 7e 2c 3f 66 0d ab 3e
       0.27123842 -0.017492954 0.67381185 0.3340866
0000f0 44 1d a9 3d f1 fd 9d be 54 49 1b 3e 70 07 b0 bd
       0.08257535 -0.30857804 0.15164691 -0.085951686
000100 0c f1 ce 3d 23 f1 1e 3d a5 b0 93 be 29 e6 85 bc
       0.1010457 0.038804185 -0.28845707 -0.0163451
000110 0a ea 1a 3e 37 5d 99 bd fc 7c b2 bd f9 f0 6d bd
       0.15128341 -0.074884824 -0.08715245 -0.058091138
000120 d1 ad 88 bd 8a 9b cf bd d8 9e cf 3d 5a de 99 3d
       -0.06673778 -0.101370886 0.10137719 0.07513113
000130 2f e1 ec 3d 77 e2 b5 3d 31 98 d1 bd 42 9c d7 3d
       0.11566388 0.08881085 -0.10234106 0.10527851
000140 f7 d1 c9 3d 1f 97 61 3e d1 79 1a 3e c5 10 2f 3e
       0.09854501 0.22030304 0.15085532 0.17096241
000150 c4 29 31 3c c5 5f c4 3d 50 de 20 be 27 d1 3e be
       0.01081318 0.09588579 -0.15709805 -0.18634473
000160 06 55 d1 3d ff 31 3f 3e 14 1c 90 3a 8e fd 79 bd
       0.10221295 0.18671416 0.0010994696 -0.061032824
000170 67 2f 2a 3e b2 cc b5 3e 5f 97 73 3e 27 ff 9e 3e
       0.16619645 0.35507733 0.23788212 0.3105404
000180 97 a3 1e bd e3 dc 9d 3e 96 b9 b0 3e e7 f9 32 3d
       -0.03873023 0.30832586 0.3451659 0.043695357
000190 a1 d4 24 bd 96 27 35 3e cf 82 42 bd 1c d2 59 bb
       -0.04024184 0.17690882 -0.04748803 -0.0033236807
0001a0 67 6d 46 3e 2e ab 85 bd f2 ee 86 bd 99 52 7d bc
       0.19377671 -0.065267906 -0.06588544 -0.015461587
0001b0 13 03 ad 3d ff 45 7c bd d1 5c ed bb 8f fa 0d 3e
       0.08447852 -0.06159019 -0.0072437306 0.13865112
0001c0 97 9e 78 3e 58 f3 20 3e 1e 4e 0b 3d 31 16 86 3c
       0.24279247 0.15717828 0.034010045 0.016368004
0001d0 ab 74 19 3e 30 40 68 bd 72 aa ce bd 36 9e 18 be
       0.14985912 -0.05670184 -0.100911036 -0.14904103
0001e0 f9 e7 5c 3c aa 81 73 be f9 5f f0 3c 69 cd 37 be
       0.013483041 -0.23779932 0.029342638 -0.17949452
0001f0 4f db 50 3d 75 53 34 be 53 fe 06 3e 28 e3 6e 3e
       0.0509904 -0.17609961 0.13182954 0.2332884
000200 ed d8 7e 3e 23 8a 42 3e 06 16 07 3f 30 e4 e6 3c
       0.24887438 0.18998007 0.5276798 0.02818498
000210 40 2b 95 3e bc 3c f4 3e ee 43 23 3f f8 6c 08 3e
       0.2913456 0.47702587 0.6377553 0.13322818
000220 90 90 15 be 1a c7 c8 3d 41 02 d7 3b 0b 4f be 3d
       -0.14605927 0.098036006 0.006561548 0.0929242
000230 b0 84 f5 bc 6d b5 ef bd 1a c2 35 3a bd f5 58 be
       -0.029970497 -0.11704526 0.00069335254 -0.21187492
000240 7e 72 2d be f9 04 8e 3d 1a 1e 57 be cd cb 11 be
       -0.16938207 0.06934542 -0.21007577 -0.142379
000250 60 21 2c 3d 85 cf fb bd 20 56 39 bd d8 bb f5 bd
       0.042024016 -0.122954406 -0.04524815 -0.11998719
000260 d5 96 f7 3d e9 ee 02 3e db f5 0d be b9 da 0d bd
       0.12089316 0.1278645 -0.13863318 -0.03463242
000270 8a 4b 38 3d 17 65 1a 3e 6c c7 0f 3c 0b bd 7f 3d
       0.044993915 0.15077625 0.008775573 0.062436145
000280 dc 14 3a 3d 07 29 49 3e ed 24 d8 3d 61 b4 33 be
       0.04543005 0.19644557 0.10553918 -0.17549278
000290 47 8b 73 3e e0 22 9c 3d 3d 65 2d 3c 77 41 e4 3c
       0.23783599 0.076238394 0.010583219 0.027863247
0002a0 f1 e8 e0 3a e7 7c 68 be 37 fd 32 3d 08 2d 29 3d
       0.0017159266 -0.22703896 0.043698516 0.04130271
0002b0 e9 29 0b 3e 07 d6 fc 3c 68 7a a7 3d ed 8a 2e 3e
       0.13590206 0.030863775 0.08177644 0.17045183
0002c0 7f 97 d3 3d f8 da d5 3b 6c 35 a4 3d eb 05 2f 3e
       0.1033163 0.0065263472 0.08018002 0.17092101
0002d0 2f 68 e4 bd c2 1b 6d be 47 75 68 3d b3 ef de bc
       -0.11152684 -0.2315512 0.05675247 -0.027213907
0002e0 f6 5f 90 3d 19 91 d9 bd 06 5f df 3d fa c5 85 3d
       0.07049553 -0.10623378 0.10906796 0.06531902
0002f0 e9 33 6f 3d bf 65 59 3e c6 6b cf bd 15 f2 bc bd
       0.058399115 0.2123022 -0.10127978 -0.09225861
000300 79 ef 99 bd 70 82 a2 bc 78 ab 13 bd 41 16 c1 3d
       -0.07516379 -0.019837588 -0.036052197 0.09428073
000310 31 9d a3 bb 56 de a0 3d 7e f4 12 3e c1 17 8a 3d
       -0.004993104 0.07854907 0.14351079 0.06742812
000320 ac 30 c4 3e 05 a6 4d 3e a2 35 9a 3e 74 b7 bb 3b
       0.38318384 0.20082863 0.30119044 0.0057286564
000330 b2 03 dd 3e f3 fe b5 3e 4d 39 1f 3e 65 6d 48 3e
       0.43166882 0.35546073 0.15549202 0.1957298
000340 ee 51 f2 3c dc a6 c8 3d 9c e4 d4 bc d9 6d 54 3e
       0.029580083 0.09797451 -0.025987916 0.20745029
000350 69 74 be 3c d5 a1 03 be 59 85 b3 bd 93 82 f5 3a
       0.023248868 -0.12854703 -0.087656684 0.0018730931
000360 df f5 a1 bd 9f 2c 09 3e fa 8f 69 3e 57 77 9c 3d
       -0.07908224 0.13395928 0.22808829 0.0763995
000370 41 4e 4c bd 43 02 da 3d ef 25 95 bb 51 d0 80 3d
       -0.049879316 0.10644963 -0.004551641 0.06289733
000380 ec 81 67 3c c1 a4 00 bd b4 14 06 bd 93 25 85 3d
       0.014130097 -0.03140712 -0.032734588 0.06501307
000390 63 4b 77 3e ef ca cb 3b 7a 63 d9 3b 55 5d c0 3d
       0.24149852 0.00621926 0.006634173 0.09392802
0003a0 fd b0 17 3e 7c d6 2a be 3b 77 9d 3e bc d5 7e 3e
       0.1481361 -0.16683382 0.30755028 0.2488622
0003b0 af 5e 71 3e 9b 15 fb 3e 55 9a 2c 3f 66 84 fa 3e
       0.23571275 0.4903992 0.6742299 0.48929137
0003c0 72 3e e4 3d c6 a1 bd 3e 70 6d f2 3e 3e 21 e7 bc
       0.11144723 0.37037486 0.4734912 -0.028214093
0003d0 f2 10 38 3d 2a e6 81 3e 9a 16 25 be 95 78 ae 3c
       0.044938035 0.25370914 -0.16121903 0.021297732
0003e0 59 83 b0 bd cc 09 4b be 6f 52 39 be b7 5d 72 bd
       -0.086188026 -0.19827956 -0.18097852 -0.059171405
0003f0 19 da 23 3e 60 b5 1c 3e 89 26 20 3e 99 7c f3 3c
       0.16001166 0.15303564 0.156397 0.029722499

features_extractor.encoder.conv.2.bias f4 [8]
000000 f3 37 1b bd ac ef 05 3d 8b e6 ab bd b6 b5 1e bd
       -0.037895154 0.032699272 -0.08393582 -0.03874751
000010 32 a1 ed 3c ba 57 47 3d 9e f8 3c bd 73 31 d1 bc
       0.029007528 0.048667647 -0.046135537 -0.025536275

features_extractor.encoder.conv.4.weight f4 [16, 8, 3, 3]
000000 5f f2 1d be 75 45 98 3c 1c 49 ea 3e 8f 78 a4 be
       -0.15424488 0.018587807 0.45758903 -0.3212323
000010 5d 90 17 be 92 16 85 3e 30 2d 57 be e5 98 41 3e
       -0.14801164 0.25993782 -0.21013331 0.18905981
000020 d6 8b 92 3e 8a c7 c7 be 31 37 c9 bb ee db b2 3e
       0.2862231 -0.39019424 -0.0061406125 0.34933418
000030 2f 50 cb 3d bd d3 2c bc 5e c4 94 3e 84 ba fa bd
       0.09927403 -0.010548529 0.29056066 -0.12242606
000040 04 fa 1d 3d d0 a9 bd 3d 61 cb 8c be 45 e2 ea 3d
       0.03856851 0.09260905 -0.27498916 0.11468939
000050 62 cb b0 3d f1 5a cf bd 03 ca aa 3d 18 f1 91 3d
       0.08632542 -0.101247676 0.08339312 0.07126063
000060 0e d7 47 be a0 c8 15 be 39 0a 5b 3c 54 13 3b 3c
       -0.1951563 -0.14627314 0.0133691365 0.011418182
000070 35 22 33 3e c0 4b d9 3d f1 a3 38 bd bc 36 ed bd
       0.17493518 0.10610151 -0.04507822 -0.115827054
000080 37 41 f2 3d 9c eb 9f be 61 09 fe bd 56 8d 85 3d
       0.11828845 -0.31234443 -0.12404133 0.06521098
000090 f7 a6 2a bd 38 67 e1 bc ef a6 83 3d 44 59 eb bd
       -0.041663136 -0.027515039 0.064283244 -0.114916354
0000a0 12 35 8c bd 1f 8c 07 3e 7b 17 42 be eb 91 76 be
       -0.0684606 0.13237046 -0.1895427 -0.24079101
0000b0 04 c3 9a bd 9f aa 19 be 3b 33 67 be 03 d2 c5 bd
       -0.075567275 -0.15006493 -0.22578137 -0.09659197
0000c0 e1 b3 b0 bd a4 b6 ee 3c fa e2 05 bd 1c d1 3c 3c
       -0.08628059 0.029139824 -0.032687165 0.011524465
0000d0 50 8c 5e be c7 2b 88 bd 78 ab 27 be 60 ef 45 3e
       -0.21733212 -0.06648975 -0.16374004 0.19329596
0000e0 98 07 5e 3e 90 b4 0a be f1 97 f2 bc f2 2b cf 3d
       0.21682584 -0.13545442 -0.029613467 0.10115804
0000f0 27 da 38 be c7 27 12 bb f0 83 3d 3e 92 6d 9a 3c
       -0.18051969 -0.0022301541 0.18507361 0.018851075
000100 f1 9d 18 be 8d a6 92 3d 73 32 12 be 50 44 74 3e
       -0.14904 0.07160673 -0.14277057 0.23854184
000110 6d a3 6c 3e ea 28 7b be c5 43 b4 bd 08 79 18 bd
       0.23109217 -0.24527326 -0.088019885 -0.0372248
000120 39 ba 74 3c e0 0b 87 be ed 2c 6b bd 1e a5 40 3e
       0.014936977 -0.26376247 -0.05741589 0.18812987
000130 1c 27 6d bd 76 8e 13 be c1 79 51 bd d3 7a 30 be
       -0.057898626 -0.14409813 -0.051141504 -0.17234354
000140 5f f8 83 bc e1 2b 21 3d a6 6c 84 bd c0 87 08 be
       -0.016109644 0.039348487 -0.064660355 -0.13333035
000150 3d 58 93 3d a6 a7 86 bd 4d 6f 71 bd d3 e9 2c 3e
       0.071945645 -0.06574945 -0.058944035 0.16886072
000160 b3 77 2e 3d 15 09 90 bd 8d 9b 96 3c 67 0d bd bd
       0.042594623 -0.07032982 0.01838472 -0.09231072
000170 dc b9 09 bd 06 1d 41 3d 43 ea 3f be 7a 5f 92 be
       -0.033624515 0.04714682 -0.18741708 -0.28588468
000180 0d d8 67 be 53 82 9c be 66 85 fd bd 53 6d 93 bd
       -0.2264101 -0.3056818 -0.12378959 -0.07198586
000190 8b f4 54 3a ef c9 64 3d 97 e0 01 3d 4a a2 a6 bc
       0.0008123598 0.05585664 0.031708326 -0.020341057
0001a0 87 6b 47 3d f9 c6 ec bd d5 0e 68 bd 1b 7d 6a 3b
       0.04868653 -0.115613885 -0.05665477 0.0035780135
0001b0 ec 61 c4 bd c7 29 00 3d 8f db 1a bd 35 90 fd 3c
       -0.095889896 0.031289842 -0.037807044 0.030952552
0001c0 e7 da 08 be fd b5 3d bc 2a 93 fb bd 82 15 1d be
       -0.13364755 -0.011579034 -0.12283929 -0.15340236
0001d0 6b 87 de bd 61 65 0b bd cd bc 08 be 4f 04 ba bd
       -0.10865673 -0.03403223 -0.13353272 -0.09082853
0001e0 26 2d a2 bc fb 9f 0b be 56 a9 be bd b5 bb 89 3d
       -0.01979692 -0.13635246 -0.09309642 0.067252554
0001f0 49 53 38 bd e8 1d 9e 3d c6 9e e1 bd d8 bd 5f bd
       -0.045001302 0.07720548 -0.11016612 -0.05462441
000200 08 69 eb 3c af a3 ef bd 89 2c fd bd ee ef 24 3d
       0.028736606 -0.11701142 -0.1236201 0.040267877
000210 ca 8a 88 bd 73 31 c3 bd 5a 04 58 bd c9 4e d6 3d
       -0.06667097 -0.09530916 -0.052738525 0.10464246
000220 4c 19 a4 bc e6 46 7a 3b 2b 40 f5 3d a6 81 ce bd
       -0.020031594 0.0038189231 0.1197513 -0.10083322
000230 44 c6 b3 bd 5e f9 fc 3d a7 7b 0f bd 12 e2 25 be
       -0.087780505 0.123522505 -0.035030033 -0.1619952
000240 a4 ca 2e 3e 51 19 8d 3d 74 5c 40 3e f7 da b2 3d
       0.17069489 0.06889594 0.18785268 0.087331705
000250 2a 30 98 3e 0d d7 12 3e 53 15 ef 3d 63 e0 e2 3d
       0.29724246 0.14339848 0.11673989 0.110779546
000260 7a 62 4d 3d 2d 34 8b 3e 27 d8 aa ba 7f 89 a9 bd
       0.050142743 0.27188244 -0.0013034389 -0.082781784
000270 e1 7a 02 3e c1 5f 04 3d c7 a4 b0 3d bb 92 34 bd
       0.12742187 0.03231788 0.08625179 -0.044085246
000280 55 a1 4f 3e 9d 93 b5 3d 5e 53 c2 3d 7c 5f 89 bd
       0.20276387 0.088660456 0.09488557 -0.06707665
000290 2b 83 c8 bd fc d4 3c 3d d7 3c 74 3d ce 61 18 3d
       -0.09790643 0.046101555 0.059628334 0.03720265
0002a0 2e c7 86 bd b4 16 93 3d 3c 77 9e bc fe 6b 03 3d
       -0.06580959 0.07182065 -0.019343965 0.03208541
0002b0 2b 08 75 3e 9b 6c ff bd 0a c5 0c 3e 1a a7 d4 3d
       0.23928897 -0.12471887 0.1374704 0.103834346
0002c0 8d 3d 9f 3d 75 2a 0b 3d 00 61 39 be 07 4d 32 bd
       0.07775412 0.033976037 -0.18103409 -0.04353049
0002d0 6a 07 40 bc 25 15 b9 3b a7 93 07 bd f5 bd 3c bd
       -0.011720518 0.0056482726 -0.033099797 -0.046079595
0002e0 7d f2 fc bd 48 9b 8b 3d 3b 57 ef bd 54 82 75 bc
       -0.123509385 0.06816727 -0.1168656 -0.014984686
0002f0 60 34 66 3d 5f 59 43 3d 14 e6 e1 3d 3b c9 03 3d
       0.056202292 0.047692653 0.11030212 0.03217433
000300 42 20 63 3d 17 33 a3 3d 58 c0 fa 3d 13 69 9b bd
       0.055450685 0.07968729 0.12243718 -0.07588401
000310 ee ea f6 bd f5 a5 37 bd 50 25 5f 3e bd cf c5 3c
       -0.12056528 -0.044836003 0.21791577 0.024146909
000320 56 6d cc bd b9 c9 da 3d 32 03 6a 3e 21 0a aa 3d
       -0.09981792 0.10683007 0.22852781 0.08302713
000330 b5 59 44 3d 70 69 99 3d 17 58 97 3d ce 32 83 bc
       0.047937114 0.07490814 0.07389849 -0.016015437
000340 f4 fa 58 3e c3 dc 1a 3d 45 22 6d 3e cc 9b 50 3e
       0.21189481 0.03780819 0.23157604 0.20371932
000350 2d ad e4 3d 3f 17 29 3e fc d3 e6 3d 85 0c a9 bd
       0.11165843 0.16512774 0.112709016 -0.08254341
000360 b2 a8 dc 3d 96 3f 80 bc e8 d7 81 bd ad fb 7c 3e
       0.107743636 -0.01565532 -0.06340009 0.24705382
000370 78 54 25 3e 72 23 c2 bd d6 24 5e 3e 5e 25 88 3e
       0.16145504 -0.09479417 0.2169374 0.2659101
000380 fd 46 dd 3d 54 70 90 be c6 d4 8e bd 18 54 99 3c
       0.108045556 -0.282107 -0.06974177 0.018716857
000390 dd 80 3a 3d 72 0d 55 3e 9e fb b3 3c 5c da d2 bd
       0.04553305 0.2080591 0.021970566 -0.10295555
0003a0 20 9d 9e 3e 78 e1 92 bd ab ea 86 be 3b 4a d1 bd
       0.30979252 -0.07171911 -0.26350912 -0.102192365
0003b0 4a f7 7f bd 01 35 bc bd 0c b9 0c be 98 2f 86 bb
       -0.062491693 -0.09189797 -0.13742465 -0.004095029
0003c0 75 f6 2f 3d 07 93 29 3e 2e ad 80 3d 05 42 2e be
       0.04295965 0.16559993 0.062830314 -0.17017372
0003d0 7b 85 4e 3e 82 f9 a0 3e 91 be 42 bd 6a 54 07 3d
       0.20168106 0.3144036 -0.04754502 0.033039488
0003e0 59 14 15 3e e8 48 03 3e ac f4 00 3e 80 1f 83 3d
       0.14558543 0.1282078 0.12593335 0.064024925
0003f0 23 22 62 be 69 2a 83 bd 43 88 52 be 7d 18 12 bd
       -0.22083335 -0.064045735 -0.20559792 -0.035667885

features_extractor.encoder.conv.4.bias f4 [16]
000000 eb 07 97 3d 26 2d 81 3d 45 24 81 bd 20 45 88 3d
       0.07374557 0.063074395 -0.06305746 0.066538095
000010 dc 7c 29 3c 62 5a c8 bd 12 ac 2c bd 06 cd 12 bd
       0.01034471 -0.09782864 -0.042156287 -0.035840057
000020 de 8b c8 bc 3c 6b a7 bd f8 7e 54 bd 5c 92 9e bd
       -0.024480756 -0.0817475 -0.0518789 -0.077427596
000030 af 64 2d bd b9 1f f3 bd eb 14 41 3d 77 97 39 bc
       -0.042332347 -0.11871285 0.04713909 -0.011327616

features_extractor.encoder.conv.6.weight f4 [32, 16, 3, 3]
000000 14 7e c2 3d 00 d7 13 3e 0a 21 91 3d 65 fc cd 3d
       0.09496704 0.14437485 0.0708638 0.10057906
000010 ea 51 5c 3d ae b6 19 3e 2a ca 3c 3d 4e be de 3d
       0.053789057 0.15011093 0.046091236 0.108761415
000020 80 41 27 be ec d6 d1 bd 90 58 ac bd 60 d9 0f bd
       -0.1633358 -0.10246071 -0.084153295 -0.035119414
000030 b8 b6 43 3c 04 5c 5b bd 57 07 ee 3d 03 59 46 bd
       0.011945419 -0.05355455 0.11622494 -0.048424732
000040 27 70 cd bd 15 57 9c 3d 72 42 e5 3c f4 ac 24 3c
       -0.10031157 0.07633797 0.027985785 0.010051001
000050 51 24 9f 3d a9 6b 36 bd c4 97 71 3d 4d fd 16 bd
       0.07770599 -0.044536266 0.058982626 -0.03686266
000060 63 ab 54 3d 52 de 9e 3d b0 23 d3 bd 5f 42 c2 bc
       0.05192126 0.07757248 -0.10309541 -0.023713289
000070 22 46 59 3b e4 8e 68 3e 32 f3 c6 3d b4 3c cb 3c
       0.0033153375 0.22710758 0.097143546 0.024809219
000080 53 c3 bb 3d 8e c5 2e 3c fd e9 aa bd d0 ca 80 3b
       0.091681145 0.010667218 -0.08345411 0.003930427
000090 f6 c9 ed bc 65 50 cc 3d f1 dd e8 3c 07 b6 0f 3e
       -0.029026967 0.099762715 0.028426142 0.14034282
0000a0 9b 9d 88 3d 05 3b 7e 3d 60 d7 ff 3c 65 05 13 3e
       0.06670686 0.062068004 0.031230628 0.14357527
0000b0 58 84 cc bd f4 72 1e 3d 7f 06 1b 3e 4e 56 0e 3e
       -0.0998618 0.038683847 0.15139197 0.1390011
0000c0 e7 8d fd 3d 62 0a 45 3d e5 42 9f 3d 21 5e 0d 3e
       0.12380581 0.048105605 0.07776431 0.13805439
0000d0 0f f6 3d 3e 04 42 60 be 8f c2 91 3d 92 43 01 3e
       0.18550895 -0.21900183 0.07117187 0.12623432
0000e0 d8 a4 7d 3e f9 cd 0c 3d 25 5d 2d 3e ff 34 6c bd
       0.24769914 0.03437612 0.16930063 -0.05766773
0000f0 45 05 c9 bd 09 ed 40 3e 16 cb 48 be 65 d2 19 3e
       -0.09815458 0.18840422 -0.19608721 0.15021665
000100 b2 d7 81 3d 0d aa 56 3e 1e cb b7 bd 32 d0 98 3e
       0.06339969 0.20963307 -0.089742884 0.2984634
000110 9c f9 7f 3d a8 49 84 be 45 70 9b 3d c9 4c 07 be
       0.062493905 -0.25837445 0.07589773 -0.13212885
000120 3f 85 00 3e f3 b3 34 3e af 5a 2a 3e 1c 51 07 be
       0.1255083 0.1764677 0.16636156 -0.13214535
000130 83 ae 57 3e d3 68 3f 3e a3 94 6e 3d 83 7a 56 3c
       0.21062665 0.18692331 0.05824722 0.0130907325
000140 b5 8d 56 bc 16 1a 0d 3e eb 3e af bb 54 5a 40 3e
       -0.013095309 0.13779482 -0.0053480766 0.18784457
000150 32 e5 4d 3c 16 02 7b 3e 57 41 58 bc 9c f7 ee bd
       0.012566851 0.24512514 -0.013199172 -0.116683215
000160 4c 67 7c 3e eb c5 1b be a9 69 b6 3c bb 73 93 3d
       0.2464878 -0.15212218 0.02226718 0.07199808
000170 89 18 be 3d 5e 51 0b 3e cb 33 08 bd b0 19 73 3d
       0.092820235 0.13605258 -0.03325252 0.05935067
000180 02 93 d7 bd 80 c7 1b bd db f8 97 bc 0f 43 20 3e
       -0.105260864 -0.038032055 -0.01855128 0.15650581
000190 e6 83 46 3d f1 73 da 3e 6f 6b b6 3c 44 aa 6a 3d
       0.048465632 0.4266658 0.022268025 0.057291284
0001a0 5c 4f 05 3e dd 23 29 be 33 1d 8f 3d 91 09 89 bd
       0.13018554 -0.16517587 0.06987991 -0.06691278
0001b0 b0 fc 96 3d 7e 1b 28 3e 4c 36 3b 3e f2 05 34 bd
       0.07372415 0.16416737 0.18282431 -0.043950982
0001c0 2d f6 00 3e 35 2b d8 3d 31 9a ba bd 69 d5 b6 3d
       0.12593909 0.10555116 -0.09111441 0.089274235
0001d0 ad 05 b3 bc 60 b5 2d 3c 89 77 21 3c 66 fa ea 3d
       -0.021853292 0.010602325 0.00985516 0.11473541
0001e0 ad a6 c8 bd b1 98 7c bd 0c d6 8e bd f5 2b 87 bd
       -0.09797416 -0.061669055 -0.0697442 -0.06600181
0001f0 85 e9 57 3c 89 04 19 bd da 23 0b 3d 6a bc 92 3d
       0.013178234 -0.03735784 0.033969738 0.071648434
000200 3e 9c bb 3c 87 41 2e bc d8 06 13 3e d4 4d f5 bc
       0.02290165 -0.01063574 0.1435808 -0.029944338
000210 0f 1c cb bb 80 ca 6d bd 37 e6 86 3c 5a ef b3 3d
       -0.006198413 -0.058054447 0.016467197 0.08785887
000220 84 35 df 3d 68 33 fc 3d 28 d9 ff bb 0f 61 f2 3d
       0.10898879 0.123144925 -0.0078078695 0.11834919
000230 92 f0 aa 3d 8e 4e 89 3d c0 94 16 3e 39 b1 33 be
       0.083466664 0.06704436 0.14705181 -0.17548074
000240 86 a1 5d bd a7 ef 08 be 17 da 15 3e a9 7d 84 ba
       -0.05410912 -0.1337267 0.14633976 -0.001010825
000250 7b e7 b2 3d f4 aa 37 3e 6c ff a9 bc 99 8a 00 bd
       0.08735558 0.17936307 -0.020751677 -0.031382177
000260 11 b2 20 bb f9 2b eb bd 30 20 d5 bc c5 a7 49 3d
       -0.0024520198 -0.114829965 -0.026016325 0.049232263
000270 9a 71 25 3d 74 9b c3 bd 01 94 1a 3d e2 13 57 bd
       0.040391542 -0.09551135 0.037738804 -0.052509196
000280 d2 17 52 bd a6 76 6e 3d 44 93 59 bd e7 da 88 bd
       -0.051292248 0.05821862 -0.05311896 -0.06682377
000290 22 db e4 3d b2 9d bf bd 94 36 db 3d 6d 91 c9 bd
       0.11174609 -0.0935625 0.10703769 -0.09842191
0002a0 f9 4a f8 bd f2 d0 2d 3e f4 a8 86 3d 01 a3 9e 3a
       -0.12123675 0.16974238 0.06575194 0.0012103022
0002b0 2d fd 55 3b bb 1f 27 3d 17 07 b9 3d 2f c1 d3 3b
       0.0032652125 0.040801745 0.090345554 0.0064622383
0002c0 72 46 5b bc cc 9a 30 3c be 70 90 bd 09 ba 2a be
       -0.013383495 0.010779094 -0.07052754 -0.1667253
0002d0 17 6d 13 bd 2e 52 41 bd a5 5c 30 bd 30 97 0d 3e
       -0.035992708 -0.047197513 -0.043057103 0.13827205
0002e0 2c 00 f1 3d a5 7c 1c bd c9 73 d0 bd 29 e4 60 3d
       0.11767611 -0.038204808 -0.10178334 0.05490509
0002f0 c5 39 29 bd e4 74 be bb 5b d2 4e bd 30 83 22 be
       -0.04131486 -0.0058122743 -0.05049358 -0.15870357
000300 42 c1 32 bd b1 96 f5 bd 83 24 bb bd 41 90 a9 3d
       -0.043641336 -0.11991633 -0.091378234 0.082794674
000310 de ae f3 3b 78 99 69 bd 1c c2 93 bc 6a 20 84 3d
       0.0074366173 -0.057031125 -0.018036895 0.06451495
000320 5c d1 e9 3d a0 cc 3a be 7f c7 4c 3e 79 8f 10 3e
       0.11416885 -0.1824212 0.19997977 0.1411723
000330 3f 0a 45 3d a8 85 8b 3d 52 bf 90 bd 2b f7 6b 3c
       0.048105475 0.06812602 -0.070677415 0.014402191
000340 86 3f ca bd 0c 84 03 bd 65 00 8d be 08 39 fd 3c
       -0.098753974 -0.03210835 -0.27539364 0.030910984
000350 ff a1 82 3c f5 67 5e bc 49 fe f2 bd 81 32 3d bd
       0.015946386 -0.01357459 -0.11864907 -0.046190742
000360 47 c8 b3 bd 88 e7 32 bd b8 f9 8f 3d 2e 30 97 bd
       -0.08778434 -0.043677837 0.07030052 -0.073822364
000370 64 18 c8 3d c9 07 99 3d 67 c2 99 3d 19 ff f5 3d
       0.09770277 0.07472188 0.075077824 0.12011547
000380 07 e9 a1 bd 7d bd 87 bb 45 9f 0a be 95 29 b3 bd
       -0.079057746 -0.004142462 -0.13537319 -0.087481655
000390 8f 57 f4 bc 6f fe f4 3d 75 68 53 3d 95 d5 4e be
       -0.029826907 0.11962592 0.05161329 -0.20198663
0003a0 42 e8 ac 3d 26 b5 d3 3d 93 6b 17 bc 8e 6a c0 bd
       0.08442737 0.10337286 -0.009241956 -0.09395324
0003b0 32 55 29 be e7 95 9c bd c7 97 54 3d 6d fd df 3d
       -0.16536406 -0.07645779 0.05190256 0.10937009
0003c0 39 fd 32 be e3 be f2 3c ce d5 d3 3d 84 b7 a3 3d
       -0.1747941 0.029632038 0.103435144 0.07993987
0003d0 b9 22 81 be 4b c2 6a bd b4 32 e5 bd 4c a8 26 3e
       -0.25221804 -0.0573142 -0.111913115 0.16275138
0003e0 2f 32 d8 3d 1c 1f 5f be bc c7 41 3d e9 30 28 3e
       0.10556447 -0.21789211 0.047309622 0.16424908
0003f0 63 a7 87 bd 3b f7 78 bd 77 65 52 3d a3 4b fe 3c
       -0.06623723 -0.060782652 0.051366296 0.031041926

features_extractor.encoder.conv.6.bias f4 [32]
000000 c0 b7 6d bd e8 22 08 bd 78 0b 0f bc 0b d5 79 3d
       -0.058036566 -0.033236414 -0.008730762 0.06099419
000010 f2 cc d3 bc b6 3d fe 3b 58 ca 6a bd 44 cd 1c bd
       -0.025854561 0.0077588214 -0.057321876 -0.038281694
000020 d6 fa 76 bd b4 1b 59 3d be 27 65 3b 12 18 d8 bd
       -0.06029781 0.053004935 0.0034966315 -0.10551466
000030 8c 95 29 3d 6c 35 82 bd 0c 19 b6 bb 2b 78 8c 3d
       0.041402385 -0.06357846 -0.005557185 0.06858858
000040 10 6d 72 3d 0d b3 5e bd ce 34 5c bb 27 4b ce bb
       0.05918604 -0.054369975 -0.003360081 -0.00629558
000050 37 d5 eb bb 3b ec 75 bc 4e ab 90 bc ec a3 cb bc
       -0.007197048 -0.015009935 -0.01765981 -0.024858437
000060 81 a9 46 bd 34 81 9b bd 7e 6a 3b bd c8 7d 37 3d
       -0.048501495 -0.07593003 -0.045755856 0.04479769
000070 25 75 31 bd 42 95 87 bd 15 24 ae 3c 22 5a 80 bd
       -0.04332461 -0.066202655 0.02125744 -0.062671915

features_extractor.encoder.conv.8.weight f4 [64, 32, 3, 3]
000000 74 4f 3d 3c 83 04 96 bb 07 9c e2 bd ec 51 20 bd
       0.011554588 -0.0045781746 -0.11064916 -0.039140627
000010 8b 0b af 3c fb 5d f0 bd 28 ed 16 3d 9d 7e 8b 3c
       0.021367809 -0.11736675 0.036847264 0.017028147
000020 be 76 43 be 8e a8 ca bc 97 91 80 3d 2a 50 f0 3d
       -0.19088265 -0.024738576 0.06277769 0.1173404
000030 2a e8 03 3e 9f 1b 16 3d 79 b5 0e be 20 55 c2 3d
       0.12881532 0.036647435 -0.13936414 0.094888926
000040 5a 67 08 3e f0 7b 3f bd 36 25 0d 3d 2f 6e 13 3d
       0.13320675 -0.046749055 0.034459315 0.03599375
000050 6b 4a 92 3d 4b 17 c4 3c 00 c1 b6 3d cb 13 70 be
       0.071431 0.023936888 0.089235306 -0.2344505
000060 6e d3 b2 3d c2 de 5a 3c 1e a2 84 3b 35 af c4 bc
       0.08731733 0.013358774 0.004047646 -0.024009326
000070 4a 88 fb bc 91 c9 e0 3d 02 bb b5 bc 90 de 3a 3c
       -0.030704636 0.10975946 -0.022183899 0.011405602
000080 9b 04 7a bd 22 c5 74 3d 0a 41 93 3d 41 bd 1b 3c
       -0.06103955 0.059758313 0.071901396 0.009505571
000090 11 b0 1a 3d 89 62 f5 3c 2b 1b 03 be c4 8c ab 3c
       0.037765566 0.029954212 -0.12803333 0.020941146
0000a0 55 5f dc bd dc ea 3d bd 21 69 76 3d 33 11 0a 3d
       -0.10760371 -0.046366557 0.060158852 0.03370781
0000b0 d4 47 f8 bd ed a6 75 3d 32 c4 23 bd e6 ca 1e 3d
       -0.12123075 0.059973646 -0.03998203 0.038767718
0000c0 ec 47 00 3e f0 64 1d be ba cb 6b bc 2a fd 5a 3d
       0.12527436 -0.15370536 -0.014391834 0.053464092
0000d0 e8 89 6e bb 2c 3d 64 3d 85 ff 09 3d f2 a6 a8 bd
       -0.0036398116 0.0557224 0.033690948 -0.08234967
0000e0 de 4b a4 bd bc 06 43 3d a3 45 98 3c 5d ba 30 be
       -0.08022283 0.047613844 0.018587893 -0.17258592
0000f0 49 77 80 3d 95 02 03 3e ea 7f d1 bd df 6f 3d 3c
       0.06272752 0.12793954 -0.10229476 0.011562317
000100 c5 27 9c bd 26 96 01 bd 2a 9d ce 3d 85 86 98 3d
       -0.07624773 -0.031637333 0.100885704 0.074475326
000110 09 0c 3a bd 69 6e 2c 3e a2 bd 49 3e 64 e6 c1 bd
       -0.045421634 0.16838993 0.19701245 -0.09467772
000120 53 e9 8b 3d f9 56 8a bd 5b 12 49 3d e5 d4 af bd
       0.068316124 -0.0675487 0.04908977 -0.08585528
000130 25 7b 93 3c a4 99 15 be fe 18 ed 3c ec 04 84 bd
       0.018003056 -0.1460939 0.028942581 -0.06446251
000140 24 fa 8d 3d 14 50 a6 3c cf aa 42 3e 81 74 2c 3e
       0.06932476 0.020301856 0.19010471 0.16841318
000150 8e d5 82 3c 4e 78 d9 bb d8 b8 5d 3d 77 27 0f 3d
       0.015970971 -0.006636656 0.05413136 0.034949746
000160 31 87 7c bd e2 7a 0e 3d 59 f4 c5 3d 1c 6e 5e 3c
       -0.061652366 0.03478516 0.09665746 0.013576057
000170 4b 92 92 bd b9 2b 3b 3c 92 15 08 bd 55 04 df 3d
       -0.071568094 0.0114239985 -0.033223696 0.10889498
000180 6c 19 6b 3d 78 ae be 3a d9 7b 40 bd 57 f0 ae 3c
       0.05739729 0.0014547845 -0.04699311 0.021354837
000190 8c 94 c7 bd 0e 52 8a bd f9 f9 78 3d 38 1e 37 3d
       -0.0974513 -0.06753932 0.060785268 0.044706553
0001a0 b2 d6 85 bd 27 72 03 3e f8 7c d4 3c 8d 75 51 3d
       -0.065350905 0.12836514 0.025938496 0.051137496
0001b0 86 ef f0 3d d5 65 df bc d8 89 25 be 62 55 04 bd
       0.117644355 -0.027270237 -0.16165864 -0.03230799
0001c0 ab 10 7b 3e 56 7b 69 3d bb 29 5c 3c 67 4f b6 bd
       0.24518077 0.057002388 0.013437684 -0.089018635
0001d0 ad 87 6f be 85 b1 cf ba df 0f ad 3d fa 1a 06 3d
       -0.233916 -0.0015845752 0.08450293 0.03274057
0001e0 eb 62 eb bc 06 2c cc bd d8 6e 06 bd 09 76 80 3c
       -0.028733691 -0.09969334 -0.032820553 0.015681284
0001f0 6d 22 af 3d 26 e2 c1 bc 30 e9 18 3d 8b ae 21 3d
       0.08551488 -0.023667406 0.03733176 0.039473098
000200 cf 8a 4d bd e8 78 31 3e a0 f1 82 bd af 4b 15 3b
       -0.050181206 0.17331278 -0.063937426 0.0022780707
000210 3e 4a a9 3d 62 0b 80 bd c2 d3 d1 bd 1e 60 97 3b
       0.08266114 -0.06252171 -0.10245468 0.0046196124
000220 15 e7 91 3d 70 78 f8 bd 9f aa 63 3c 86 e9 de 3d
       0.071241535 -0.12132347 0.01389566 0.10884385
000230 5c fc 78 3c a5 4c 4a 3c cc 86 37 3a 55 49 09 be
       0.015196886 0.012347375 0.00070009823 -0.1340688
000240 d4 0f 35 bd bd 20 61 3e 99 8a 82 3e bb 05 9a bd
       -0.044204548 0.21985145 0.25496367 -0.07520624
000250 d8 fe 89 bb 10 4f 77 3c 81 01 87 bd 50 52 25 3e
       -0.004211288 0.015094534 -0.06592084 0.16144681
000260 64 4d 1f 3e 2b 62 d2 3d 06 c8 b7 3d 57 de 9b bb
       0.15556866 0.1027263 0.08973698 -0.0047567296
000270 78 23 f3 3d 95 12 1e bc ad c7 0d be 1f 61 bd 3d
       0.118719995 -0.009647985 -0.13845702 0.0924704
000280 fb c2 0a 3d 61 44 ac 3d 0e a2 c5 bc 78 4f 2b bd
       0.033877354 0.0841148 -0.024125125 -0.041823834
000290 ce 76 ab bc c8 74 25 be 5a 4d 82 3c 03 b3 a8 bc
       -0.020930674 -0.1615783 0.015906025 -0.020593172
0002a0 a8 98 8e bd 9b c0 72 3b fd d3 3a 3b 83 f0 03 3e
       -0.069627106 0.0037041071 0.0028507703 0.12884717
0002b0 02 93 67 3d bc 4e 89 3d 7b fa b7 3d 8e e6 1d bd
       0.056536682 0.067044705 0.08983322 -0.038549952
0002c0 a4 9c 60 be 38 53 47 3e bb df 44 3e 04 f5 00 be
       -0.21934754 0.19465339 0.19225971 -0.12593466
0002d0 76 b2 c1 bc 5d 90 4e bd a2 7a 02 bd 55 a0 fc 3d
       -0.023644667 -0.050430644 -0.031855233 0.123352684
0002e0 a9 39 2b 3e 55 5d 04 3e 96 b4 a5 3c 1a 26 3d bd
       0.16721214 0.12926228 0.020227712 -0.046178915
0002f0 6e 0f 10 be 71 66 1a 3d d9 85 95 3d 00 9f 63 3d
       -0.14068386 0.037695352 0.0730092 0.055571556
000300 e5 51 4b bd 79 f5 8d 3d b8 68 5f 3d d8 90 03 3d
       -0.049638648 0.06931586 0.054543227 0.032120556
000310 3c ec 1f bc 54 48 5d be fe 74 90 3d b9 99 0e 3d
       -0.0097609125 -0.21609622 0.070535645 0.03481457
000320 0d fb 5e bd e2 ad 61 3d c9 32 55 3d 2c 65 3b bd
       -0.05443864 0.05509747 0.052050386 -0.045750782
000330 41 06 81 3d 26 7b 92 3d 13 62 78 be 4f 26 a0 3d
       0.06300021 0.07152395 -0.24256162 0.07819807
000340 b3 c7 03 be 8b 13 8e bd f5 a0 20 3d 61 3a 22 3e
       -0.12869148 -0.06937321 0.039216 0.15842582
000350 b0 46 3b be 7d 06 1c 3e fe b2 91 3c a5 91 13 bd
       -0.18288684 0.1523685 0.017785545 -0.03602757
000360 fc 98 bf bd 7e 0c ac bc 6f 4f 15 be b9 21 2f 3c
       -0.09355351 -0.02100205 -0.14581083 0.010689192
000370 25 c1 da bd 6a cf af bd 9c ca 97 3d da 63 98 3d
       -0.10681371 -0.08584483 0.074116915 0.0744092
000380 bc 44 8a 3b d7 51 7c 3c 2f 36 23 3e 39 5f 99 3d
       0.0042196196 0.0154003715 0.15938638 0.074888654
000390 86 f2 5d 3d 2b 9d 93 bd 1c b6 3b be b1 d6 05 3e
       0.054186366 -0.07207712 -0.18331188 0.1307018
0003a0 b7 15 65 bb 88 55 ed bc 2e 22 d1 3d f8 f5 4e 3c
       -0.003495557 -0.028971449 0.102115974 0.012631886
0003b0 d0 dd ca bc 58 97 8f 3c b9 72 d8 3c 9e 78 b7 3b
       -0.024763972 0.017528221 0.026421892 0.0055990955
0003c0 4b 93 0a 3e 9e 0e c6 3d ab 35 ac bd 32 64 18 3e
       0.1353275 0.09670757 -0.08408674 0.14881971
0003d0 3c cf d9 3d 6b 4d 18 3e ff 98 b4 3d db f4 d2 bd
       0.1063523 0.14873283 0.08818244 -0.10300609
0003e0 ce a0 30 be 06 54 d9 bb 88 82 04 3e 90 30 0c 3e
       -0.17248842 -0.006632331 0.12940419 0.136904
0003f0 33 6d f2 bd 65 89 e5 3d 94 b0 2b 3e 70 55 0a 3e
       -0.11837234 0.112078466 0.16766578 0.13509154

features_extractor.encoder.conv.8.bias f4 [64]
000000 1e 0c 95 3d 55 8a e8 bc 76 6a 88 bd 55 2e 96 3d
       0.07277702 -0.028386274 -0.06660931 0.07333056
000010 7e 03 a2 bd 6c 6f 91 bb fc c6 42 bd 52 85 2b 3c
       -0.07910822 -0.0044383314 -0.047553048 0.010468798
000020 52 69 42 bd 41 60 8f bc 40 d5 64 bd c1 f0 11 3c
       -0.047463723 -0.017501952 -0.055867434 0.008907498
000030 57 df 2b 3d 96 e4 85 3c a0 09 8e 3b 4f 1d 52 3d
       0.04196104 0.01634435 0.0043346435 0.051297482
000040 74 18 ac 3d 2c ab db bd 43 5f ba 3b 60 fa ac 3d
       0.084031016 -0.10726008 0.0056876256 0.08446193
000050 61 27 a4 3b 81 43 98 bd 0a 40 ad bd 09 4e 4b bd
       0.005009577 -0.0743475 -0.0845948 -0.049634967
000060 88 ea 6c bd 9d b0 18 3c c6 96 84 bc 2c 00 aa 3b
       -0.057840854 0.009319452 -0.016185176 0.005188009
000070 fd 5a ef bc 3d c2 58 3d f0 bc 85 3c 25 26 c7 bd
       -0.029218191 0.052919615 0.016325444 -0.09724072
000080 40 4f 9f bc 2d ad 3c bd 8e 68 15 3c 67 e6 e7 bb
       -0.019446969 -0.04606359 0.009119166 -0.0070770266
000090 38 2a 5d 3c ad c2 a8 bc 02 ff bf bb 29 a7 1d 3d
       0.013498835 -0.020600641 -0.0058592567 0.038489494
0000a0 32 c2 e4 3a be 64 e2 bd 43 69 3e bd b0 96 7b bd
       0.0017452894 -0.11054371 -0.046487104 -0.061423004
0000b0 df 81 83 3c 25 7d e8 3c 5b 64 ec bc 5f 01 9e bc
       0.016053138 0.028379986 -0.028856447 -0.019287763
0000c0 f3 01 40 3c 35 57 b2 3c 5c 75 7a 3d 95 c7 9e 3c
       0.011719215 0.0217701 0.06114708 0.019382278
0000d0 79 e7 d9 3c b2 8f c4 bc ef 4e 4a 3d fc 1c ee 3b
       0.026599633 -0.0239943 0.049391683 0.007266639
0000e0 9b 3f b9 bc 17 02 a3 bc 9c e4 1d bc 3c 7b 40 3c
       -0.022613337 -0.019898457 -0.009637024 0.011748131
0000f0 50 57 1c 3d 96 34 79 bd 17 35 72 3d 1d 2e 93 bd
       0.038169205 -0.060841165 0.05913266 -0.0718653

features_extractor.encoder.conv.10.weight f4 [128, 64, 3, 3]
000000 e8 14 18 3d 0b a1 da bb e0 6b c1 3c 10 65 1c bd
       0.037129313 -0.00667203 0.02361101 -0.03818232
000010 64 14 8c bd 1e 3f 4c bd b8 d3 a1 3c b2 6e 82 bd
       -0.06839827 -0.04986488 0.019754276 -0.0636877
000020 3e 53 27 3c 06 0e b3 3c 0b e5 b7 bb 00 09 4e bc
       0.010212718 0.021857273 -0.005612021 -0.012575388
000030 16 5f 62 bc 6b da 82 bc 91 d1 ed 3c 18 dd b3 3c
       -0.013816616 -0.01597329 0.029030593 0.021956012
000040 21 92 d0 bb d3 ee df 3c 63 97 f1 3c 66 51 55 bc
       -0.006365076 0.02733556 0.029491132 -0.013019895
000050 6e ff 87 3c ab 15 97 3b 02 dc 8d 3b a5 c8 98 3c
       0.01660129 0.0046107373 0.0043292055 0.018650362
000060 10 32 71 3c 13 6b 0a bd 8e 01 5e bd f6 e6 98 3b
       0.0147214085 -0.03379352 -0.0542007 0.0046662046
000070 73 8c fe bc 56 aa 9f ba 2b 57 b6 bc bc 71 84 bd
       -0.03107283 -0.0012181501 -0.022258362 -0.064670056
000080 5f f4 19 3c e0 f0 03 bd f9 c6 de bc cb 55 9f bc
       0.0093966415 -0.03221214 -0.027194487 -0.019450089
000090 46 18 3a bc 4e 25 0d 3d 56 f4 92 3a 9b aa 81 3c
       -0.011358326 0.034459405 0.0011211734 0.015828421
0000a0 3f ac 24 bd c6 80 e3 bc ab 5f 7a 3c c0 ea e8 3c
       -0.04020333 -0.027771365 0.015281598 0.02843225
0000b0 07 e9 0e 3d 2b 4a b7 3b 6a 49 25 bd 0b e6 1b 3c
       0.0348902 0.0055935583 -0.040353216 0.009515296
0000c0 c8 30 dc bc 78 8b 6b 3d a1 58 e9 bb 0f 0c 00 bd
       -0.02687873 0.057506055 -0.007121161 -0.0312615
0000d0 2d 25 56 bc 82 7f e9 3c 76 8d e9 3c a8 7c 90 3c
       -0.013070387 0.028503183 0.028509837 0.017637566
0000e0 16 26 a9 3c 0b c8 8e bb 34 19 98 bd ff fd 13 3c
       0.020648044 -0.004357343 -0.07426682 0.009032725
0000f0 70 f2 f0 bc 3a c5 2f 3c bb 6c 04 3c 8e a0 0d bd
       -0.029412478 0.010728175 0.008082564 -0.034576945
000100 d6 db 68 bb 90 94 71 bc fb 30 33 3c 2e c8 b7 bb
       -0.0035531423 -0.014744893 0.010936971 -0.00560858
000110 f0 f2 8f bc 06 8f e7 bc b0 72 13 3c 7e 70 f7 bc
       -0.017571896 -0.028266441 0.008999512 -0.030205008
000120 d6 98 f1 3a 6b 22 cb 3c 76 46 7f 3c d8 ef b0 bc
       0.001843239 0.024796685 0.015580764 -0.021598741
000130 e4 3f 8a bd 8e 88 a5 bc ab c4 0d ba c0 e8 01 bd
       -0.067504674 -0.020206716 -0.0005408029 -0.03171611
000140 ee 25 44 3b 76 2a b6 bc 2b 80 99 3c 3b e1 b3 bc
       0.0029929834 -0.022237044 0.018737873 -0.021957984
000150 ab a9 46 3b 41 a5 3e 3d 84 3f 2a bd 5b 51 11 bd
       0.0030313532 0.046544317 -0.04156448 -0.035477977
000160 01 5f 79 bd df c7 2d 3d 6e fe cf bc 56 bc 7f bc
       -0.06088162 0.04242694 -0.025389876 -0.015608868
000170 68 2e b0 bc 5b 8c 0c 3c 59 87 f9 bc 83 e3 3f 3d
       -0.021506503 0.008578385 -0.030460047 0.04684783
000180 bb 56 c9 bc ff bd 20 bd 94 58 0b 3d b0 53 b8 3c
       -0.02457749 -0.039243694 0.03402002 0.022500843
000190 08 0a 0e 3d 03 8f 11 bd e0 45 78 bc c0 f6 71 bd
       0.034677535 -0.035536777 -0.015153378 -0.05907321
0001a0 24 4d 61 3c 32 96 29 bd c6 08 0c bd 6e c1 d8 3c
       0.013751302 -0.041403003 -0.034188055 0.026459422
0001b0 78 5b 12 bd f8 21 ad bc 28 82 eb bc 63 2e 22 3d
       -0.035731763 -0.021134362 -0.028748587 0.03959502
0001c0 e1 70 ce 3c eb 84 b1 3c 40 88 fd 3c 64 ca 81 bc
       0.02520031 0.021669826 0.030948758 -0.015843578
0001d0 5a 8b d5 bc 80 7d 10 bb 6e 20 e9 3c 2b d2 5f 3b
       -0.026067425 -0.002204746 0.028457846 0.003415237
0001e0 66 8f a1 3c 8a 79 d6 3b 02 2b aa bc 20 35 b1 3b
       0.019721698 0.0065452503 -0.02077246 0.0054079443
0001f0 23 1f 35 bb c6 43 c7 bc 9b 02 24 bd 2b 2d 9a 3a
       -0.0027636967 -0.02432431 -0.040041547 0.0011762729
000200 ab 9a 07 39 6b ad 0f 3d 5c 2c 63 bd 1a da 07 3d
       0.00012932222 0.035077494 -0.055462226 0.033166982
000210 40 10 00 bd 8d 5b 97 bc bc 5d 0e bc c7 20 07 bd
       -0.031265497 -0.018476272 -0.00868934 -0.032990243
000220 10 2c f7 3c 58 22 9f 3c 14 fb 0d 3d 6c 5f 4c bd
       0.030172378 0.019425556 0.034663275 -0.04989569
000230 2e d1 be 3b eb 62 8b 3c fe b3 14 3d 6b bf 6a 3c
       0.005823276 0.017014941 0.036304466 0.014327864
000240 e0 3c c3 bc 23 ad fa bc 06 c0 89 bc 1b 36 b7 3c
       -0.023832738 -0.030600136 -0.016815197 0.022364667
000250 f9 c3 97 bc ac d5 b0 bc a0 57 c6 3b 9a e1 17 3a
       -0.018526064 -0.021586262 0.006052926 0.000579381
000260 44 e1 06 bd 9b 78 14 3d 80 3a e2 bc 48 36 a0 3c
       -0.032929674 0.03624783 -0.027615786 0.019557133
000270 56 37 9e bc d0 e7 7c bc f2 bc 97 bc 86 a6 34 bc
       -0.019313496 -0.015436128 -0.018522713 -0.01102603
000280 a4 2e 65 3c 10 70 76 bd 33 b5 e3 bc 9f 66 24 3d
       0.013988171 -0.060165465 -0.027796363 0.04013693
000290 ae dd bb bc de 5f ec bc 35 a4 6b 3c f6 a6 dd bc
       -0.022932854 -0.028854307 0.014382412 -0.027057152
0002a0 9c c9 0f 3d a8 77 2b bb a6 f0 28 bd f3 07 9a 3c
       0.03510438 -0.002616385 -0.041245125 0.018802619
0002b0 56 92 70 3c 96 0c 11 bb 80 af 9d bc a4 6c 50 bd
       0.014683327 -0.0022132746 -0.019248724 -0.050884858
0002c0 a5 23 c3 bc 90 a8 d8 3c 15 8f 15 bd 30 48 18 bc
       -0.023820708 0.026447564 -0.036513407 -0.009294555
0002d0 f6 62 c8 3b 40 2b 8a bc 80 d6 cf 3b b6 98 40 bc
       0.0061153127 -0.016866326 0.006342709 -0.011755159
0002e0 78 5c 67 bd 38 ce 37 bb 10 26 4f 3c 7b d7 b9 3b
       -0.05648467 -0.00280465 0.012643352 0.005671439
0002f0 86 0d 5b bc de 52 ac bc 20 1d af 3c 70 be 25 3c
       -0.013369923 -0.021035608 0.021376193 0.010116205
000300 a4 61 18 bd c4 11 3e 3b c9 e7 3f 3c 3e ed cd 3c
       -0.037202492 0.0029002288 0.011712977 0.02513754
000310 d3 4c 29 3d e8 b3 cb 3c ee 9e 26 bd 60 31 07 bd
       0.04133303 0.02486606 -0.04067891 -0.033006072
000320 9e d7 8b 3c 06 1f 8c 3c 6d 55 c9 3b 1b 03 2e bd
       0.017070588 0.017104637 0.0061442167 -0.04248343
000330 56 f4 b4 3a 11 9d 9a bc 25 b0 9c 3c 9e 6c 93 3c
       0.0013805728 -0.018873723 0.019126961 0.017996129
000340 80 22 b5 3a 33 20 ed bc 46 34 24 bc 1a f7 80 ba
       0.0013819486 -0.028946018 -0.010022229 -0.0009839267
000350 3a f2 a7 bc 2b 1a f4 bc 01 0d 77 bc 49 ca 41 bc
       -0.020501245 -0.029797634 -0.015078784 -0.011828014
000360 b8 d8 ee bc 23 4c d1 3c 56 c1 b7 3c c0 b0 f8 bc
       -0.029156074 0.025549 0.022431057 -0.030357718
000370 7f 48 ba 3b c7 0c 85 bd 5b 58 25 3d c2 11 7c 3d
       0.0056849117 -0.06496578 0.040367465 0.061540373
000380 b8 76 d9 39 7c 09 22 bd 80 8d 06 bd f6 fa 21 3c
       0.00041477918 -0.039559826 -0.03284979 0.009886494
000390 6e c1 07 3d e0 58 bb bb 66 4a 49 3d 46 e6 5d bc
       0.033143453 -0.005717382 0.049143218 -0.013543671
0003a0 8a 80 54 bc 82 e9 c1 bc 67 98 12 3d fb eb e9 bc
       -0.012970099 -0.023670916 0.035789873 -0.028554907
0003b0 63 88 a2 bc c3 d3 95 bc 84 cc da 3c fc 41 82 3c
       -0.019840425 -0.018289452 0.026708849 0.015900604
0003c0 20 4f 3e 3c 58 52 dd bc 30 08 81 3c 64 2b 20 bd
       0.011615545 -0.027016804 0.015750974 -0.03910388
0003d0 e7 56 15 bd c3 53 f2 bc ab d2 a8 b9 ad c7 b6 bc
       -0.03645983 -0.029580956 -0.00032200417 -0.02231201
0003e0 00 03 fb ba 18 43 98 3c 92 82 11 3b 06 29 90 bd
       -0.0019150674 0.01858668 0.002220307 -0.070390746
0003f0 b0 47 69 bc a0 9a 82 3b 5a 52 16 3d b7 36 21 bd
       -0.014238283 0.003985718 0.03669963 -0.03935882

features_extractor.encoder.conv.10.bias f4 [128]
000000 e6 69 74 bd ff ad 12 3c 0b e1 a9 bc 86 c2 48 bd
       -0.059671305 0.008952617 -0.020737192 -0.049013637
000010 ee 2e 20 bd b7 78 eb 3c af a2 6b bd e9 bc 1f 3c
       -0.039107256 0.028744085 -0.057528194 0.00974963
000020 b8 19 73 bc a4 c6 65 bd 26 cf a3 3d eb 0b 88 3d
       -0.014837675 -0.05609764 0.07998495 0.06642898
000030 3c e0 a4 3c 17 fd 72 bc 23 5c 45 bc ba 6a 64 3d
       0.020126455 -0.014830849 -0.012045893 0.055765845
000040 2f 15 46 3d 52 50 1e 3d bd 82 df bc 03 cc cb bc
       0.048360046 0.03865082 -0.02728402 -0.024877554
000050 b6 9e bf 3c d0 17 8b bd b0 ef a0 bc c7 fc a5 3d
       0.023391109 -0.06791651 -0.019645542 0.08104854
000060 62 de 41 3c 08 6a 0e bd 6f 58 b2 bc 80 9d 50 3d
       0.011832805 -0.034769088 -0.021770684 0.050931454
000070 1f e0 e0 bb 98 26 d3 bb a7 b5 56 3d e6 c9 20 bd
       -0.006862655 -0.0064438097 0.05241933 -0.039255045
000080 98 d4 cd 3c 37 51 b4 3d fd 7f f3 bc f8 00 96 bd
       0.025125787 0.08804553 -0.029724116 -0.073244035
000090 1a ad 2a bd 80 d3 38 bd f8 f6 cc 3d 1a ad 98 3d
       -0.04166899 -0.045123577 0.10008043 0.074548915
0000a0 06 07 89 bc 42 4a c7 3d 42 e7 48 3e a9 69 9e bc
       -0.016726982 0.097309604 0.19619468 -0.019337492
0000b0 87 00 f4 3c fa e3 61 bc 7c 42 0e bc e4 31 6c 3b
       0.029785408 -0.013787264 -0.008682843 0.003604048
0000c0 36 92 b5 bc 89 f6 9a 3c 6b 17 f6 3d 47 f8 e5 3b
       -0.022164445 0.018916385 0.120161854 0.0070181224
0000d0 b5 c4 9c 3d 17 a6 14 bd 23 fa 99 3c 87 52 a6 3d
       0.076547064 -0.036291208 0.018796032 0.081212096
0000e0 9c 7f 0e 3d 44 f4 5f 3a 7a 2a 90 bd 5c 6d 5e bd
       0.034789667 0.00085431733 -0.07039352 -0.054303512
0000f0 8e f8 64 3d 4d 5a 40 3d 7a 3d ab 3d d1 0c 8c 3d
       0.055901103 0.046961118 0.08361335 0.06838382
000100 f4 34 d5 3c 20 65 8d bd a4 06 81 3d 96 81 41 3d
       0.026026227 -0.06904054 0.06300095 0.047242723
000110 40 20 29 bd 75 b6 b2 b9 ee e5 c4 bb c3 e1 2f bd
       -0.04129052 -0.00034086747 -0.006008855 -0.042939913
000120 29 9b 94 3d a2 57 8d bc 1e ea 8d bd d7 00 1b bd
       0.07256157 -0.0172537 -0.0692942 -0.037842598
000130 57 0c 4d 3d f6 f4 80 3d 81 12 c3 3b 38 b3 0f bd
       0.050060596 0.062967226 0.0059531336 -0.035083026
000140 89 ab b1 3b 5b 3c 20 3c e9 31 8f 3d ca 3f 1d 3b
       0.00542206 0.009780015 0.069919415 0.002399432
000150 83 07 3b 3d 86 1b 0a 3d 18 04 62 3c d6 62 4d 3c
       0.04566146 0.033717655 0.013794921 0.012535771
000160 b3 1a 2a 3d f7 76 81 bc ab 98 41 3d 7d 92 03 bd
       0.04152937 -0.015803797 0.047264736 -0.032122124
000170 d2 1a 83 bd 14 ab f3 3c 62 ab 85 3d f7 2c 5f bd
       -0.064016 0.029744662 0.06526829 -0.05448624
000180 04 0f 5e 3d a3 58 bd bc 0c ef 88 3d 84 2b 38 3d
       0.05421354 -0.023113554 0.066862196 0.044963375
000190 92 ce 1b bd 63 43 8a bd 33 7c c2 39 75 f8 0e 3d
       -0.038038798 -0.06751134 0.000370951 0.034904916
0001a0 4d 74 2c bd 38 6b 6d bd 0e d6 26 bc 3e f1 23 bd
       -0.0421031 -0.05796358 -0.010182871 -0.04002499
0001b0 3a 7a 44 bd 16 d3 42 bc 1c 47 52 3d c5 e9 8c 3d
       -0.047968127 -0.011891147 0.051337346 0.068805255
0001c0 a5 9b 5c 3c 0e e7 86 3c f3 7c 7c 3b 5d f1 37 3d
       0.013464843 0.016467597 0.0038526624 0.044907916
0001d0 3f 32 1b bd 66 20 96 3d fb 71 0d 3e 83 fb 94 bb
       -0.037889715 0.07330398 0.13813011 -0.004546584
0001e0 2f ab 20 bd e5 45 b3 3d 76 b8 20 bd ea 9b 52 3b
       -0.039225753 0.08753566 -0.039238416 0.003213639
0001f0 8d 21 1d 3d 4a fd 1e bc a2 58 26 3d fb f1 63 bc
       0.038362075 -0.0097039435 0.04061187 -0.013912673
