model/Image_reconstruction_decoder.pt (torch, 736251 bytes, 13 tensors)

deconv1.weight f4 [128, 64, 4, 4]
-0.014450423 0.019610826 -0.02506635 0.010978196 0.00062496215 -0.076009534 0.0078090406 0.02987076
-0.007360544 -0.13724402 -0.032633632 -0.02986836 0.0019382015 -0.0050429627 0.0007196665 -0.030382331
0.00333675 -0.0062005147 -0.005472511 -0.022091955 0.020991288 -0.029610677 0.16729762 -0.0006243102
-0.0051006414 -0.023604155 -0.038346 -0.013785392 0.008423954 -0.02024543 0.02813568 -0.014995843
0.029310428 -0.023231462 0.03020874 -0.022864852 -0.027871598 -0.13977043 0.20128168 0.02745001
-0.02148763 0.09380716 0.21091421 -0.024083316 -0.028393794 0.0018400326 0.006663393 0.008150537
0.0279813 -0.01886458 -0.014306206 0.009500239 -0.02870312 -0.19895 0.077696234 0.0015075207
0.01490346 -0.033198066 0.13304657 -0.0008244142 -0.0056754574 -0.0024231635 -0.008410029 0.006543115
-0.0036701858 -0.00047532842 0.026004978 0.014243685 0.010647081 0.20826742 0.066622734 0.010956004
0.030172247 0.030005451 -0.010931946 -0.017211147 0.0002609864 -0.017648391 0.025803488 0.009057898
0.0057847872 0.019668415 0.0061416067 0.009791691 0.022510596 -0.0606778 -0.01562825 -0.007798258
-0.00833321 -0.019024264 0.0431896 0.027834706 -0.017193124 0.023909062 -0.017470904 0.027644355
-0.001814723 0.018002715 0.02385823 -0.01845244 0.024512809 -0.1579748 -0.002688063 -0.0041650385
-0.022205401 0.10697413 0.08314696 -0.02174927 -0.0028037727 -0.0055674426 -0.029468838 -0.007278364
0.026511546 -0.026542675 -0.012723163 -0.0065684803 0.008337408 0.044783663 -0.18404739 -0.0051634535
0.012445539 0.0066689127 0.00019717227 -0.013689093 0.015510201 0.016894225 0.006838981 -0.025863685
0.0024286732 -0.030762076 -0.010776699 -0.00089402124 -0.022831444 0.10937354 -0.0027004518 -0.012702297
0.008953486 0.013582984 -0.03183581 -0.005223185 0.02274429 -0.027070034 0.008467175 -0.018610217
0.02217763 0.02563525 -0.017470911 0.010128327 -0.027097829 -0.033835456 0.25700977 0.0035207905
-0.013191801 -0.021935238 0.113164134 -0.02183247 -0.020438638 -0.029042222 0.0044547915 0.0073949546
-0.029609047 -0.031032585 -0.0033953898 -0.013250038 -0.014318131 -0.024906712 0.010637333 0.02245662
-0.017731875 -0.004071327 0.06519634 -0.019036274 0.007852793 0.00041659176 0.012795914 -0.029021889
0.024701603 0.020860687 -0.0039299205 -0.029602822 -0.004196238 -0.086884044 -0.033887796 -0.02086914
0.017889421 -0.05266555 -0.10263794 -0.014077716 0.023810364 0.001123745 -0.028488081 -0.0292039
-0.0141440295 0.021005943 -0.008509792 0.022008386 0.022231478 0.03782838 0.0035159104 0.019148842
0.025276791 -0.021198072 0.0013251927 0.013655439 0.0210112 0.019482885 0.02557433 -0.0007037483
0.010960143 -0.009106174 -0.00798738 -0.012396205 -0.013120543 -0.060918998 -0.047185462 -0.017572552
0.014034215 -0.096932374 -0.018143354 -0.0026527904 0.006357435 -0.020511806 0.009430267 0.017544359
0.0127426945 0.031121824 0.013863336 -0.017864496 -0.021352623 0.031691145 0.035277817 0.024431348
-0.0075448565 0.06823556 -0.05875113 0.017185938 -0.017806664 -0.0012661107 -0.024392288 -0.026958473
0.025930848 -0.025816008 0.0037794784 0.011277672 -0.010034554 -0.042106315 -0.06054208 -0.014580637
-0.0028889477 -0.024757365 0.06913512 0.0075485595 -0.02352145 -0.0142461695 0.017996192 0.016720913
00000000: 78c1 6cbc e2a6 a03c f257 cdbc e4dd 333c
00000010: 80d4 233a e3aa 9bbd fbe2 ff3b 86b3 f43c
00000020: b830 f1bb b289 0cbe d8aa 05bd 7eae f4bc
00000030: 400b fe3a 703f a5bb 00a8 3c3a 5ee4 f8bc
00000040: 60ad 5a3b b02d cbbb c052 b3bb 30fa b4bc
00000050: ecf5 ab3c 1792 f2bc 1150 2b3e c0a8 23ba
00000060: 4823 a7bb 805d c1bc b210 1dbd 20dc 61bc
00000070: a004 0a3c bed9 a5bc cc7c e63c 20b1 75bc
00000080: 6c1c f03c e84f bebc 5278 f73c 124f bbbc
00000090: fa52 e4bc fb1f 0fbe c91c 4e3e d8de e03c
000000a0: d406 b0bc f81d c03d e5f9 573e 604a c5bc
000000b0: 1a9a e8bc 402d f13a 9858 da3b d489 053c
000000c0: 0a39 e53c e489 9abc 9464 6abc e4a6 1b3c
000000d0: ce22 ebbc 8cb9 4bbe 341f 9f3d 0098 c53a
000000e0: a42d 743c b2fa 07bd 5c3d 083e 801d 58ba
000000f0: 30f9 b9bb f0cd 1ebb 38ca 09bc a067 d63b
00000100: 8087 70bb 8035 f9b9 6408 d53c 585e 693c
00000110: 1871 2e3c 0e44 553e 8071 883d d080 333c
00000120: ca2b f73c fecd f53c e81b 33bc 64fe 8cbc
00000130: 00d5 8839 5c93 90bc d661 d33c 9467 143c
00000140: 508e bd3b a81f a13c 883f c93b 546d 203c
00000150: 2468 b83c 4989 78bd d106 80bc 8888 ffbb
00000160: 0488 08bc c6d8 9bbc 94e7 303d 9c05 e43c
00000170: 98d8 8cbc f0dc c33c 241f 8fbc 6a76 e23c
00000180: 00dc edba 6e7a 933c 5672 c33c 9229 97bc
00000190: 16cf c83c 25c4 21be 372a 30bb e07a 88bb
000001a0: 1ae8 b5bc 4115 db3d f448 aa3d 862b b2bc
000001b0: 80bf 37bb 186f b6bb a268 f1bc 587f eebb
000001c0: be2e d93c 0670 d9bc d074 50bc 683c d7bb
000001d0: a099 083c 136f 373d eb76 3cbe 3032 a9bb
000001e0: 60e8 4b3c e586 da3b 07c0 4e39 3848 60bc
000001f0: 801e 7e3c c265 8a3c 8819 e03b 14e0 d3bc
00000200: 602a 1f3b c000 fcbc c090 30bc c05c 6aba
00000210: 0209 bbbc 3cff df3d 10fa 30bb 4c1d 50bc
00000220: a4b1 123c 2a8b 5e3c 4466 02bd 4027 abbb
00000230: 3c52 ba3c fac1 ddbc e8b9 0a3c 7474 98bc
00000240: dcad b53c 0401 d23c 281f 8fbc 48f1 253c
00000250: 44fc ddbc 0c97 0abd c996 833e 10bd 663b
00000260: 6c22 58bc 87b1 b3bc 99c2 e73d 02da b2bc
00000270: ee6e a7bc f4e9 edbc 80f9 913b 6051 f23b
00000280: ac8e f2bc 0c38 febc 3085 5ebb b016 59bc
00000290: 9896 6abc 2909 ccbc 3548 2e3c f2f6 b73c
000002a0: 7042 91bc c468 85bb a985 853d f6f1 9bbc
000002b0: 00a9 003c 006a da39 f4a5 513c 50bf edbc
000002c0: 045b ca3c 08e4 aa3c 90c6 80bb 9e81 f2bc
000002d0: 9880 89bb 43f0 b1bd eecd 0abd c2f5 aabc
000002e0: d68c 923c d5b7 57bd d733 d2bd 38a6 66bc
000002f0: f40d c33c a04a 933a d65f e9bc 043d efbc
00000300: 5cbc 67bc a814 ac3c a86c 0bbc ee4a b43c
00000310: ca1e b63c eef1 1a3d 306b 663b 08de 9c3c
00000320: 4611 cf3c 94a7 adbc 17b2 ad3a 10bb 5f3c
00000330: ae1f ac3c 929a 9f3c 4281 d13c c07b 38ba
00000340: 2c92 333c 1032 15bc 80dd 02bc 7419 4bbc
00000350: 8cf7 56bc 3386 79bd 8b45 41bd 50f4 8fbc
00000360: c4ef 653c 7b84 c6bd 5fa1 94bc 70da 2dbb
00000370: 0852 d03b 6008 a8bc 6881 1a3c 30b9 8f3c
00000380: bcc6 503c 32f3 fe3c 0c23 633c 9058 92bc
00000390: b2eb aebc 93ce 013d 797f 103d 4024 c83c
000003a0: d83a f7bb 16bf 8b3d 06a5 70bd 86c9 8c3c
000003b0: 48df 91bc a0f3 a5ba 56d2 c7bc 04d8 dcbc
000003c0: ee6c d43c 187c d3bc 20b1 773b fcc5 383c
000003d0: f867 24bc ac77 2cbd f9fa 77bd a0e3 6ebc
000003e0: 8054 3dbb f5cf cabc b796 8d3d e859 f73b
000003f0: 0eb0 c0bc c468 69bc c06c 933c 4cfa 883c

deconv1.bias f4 [64]
-0.13392194 -0.27967405 0.105696015 0.16065171 0.33365875 0.008873837 -0.14441149 0.18695803
-0.09462716 -0.55345565 0.575118 -0.1134656 0.59889096 0.07087415 0.83751917 0.11904835
0.7399645 0.29209328 0.32744688 0.23755038 0.26174507 -0.08044656 0.026006961 0.5839466
0.08782275 0.40663067 0.2789617 0.67303044 0.021291878 -0.104879566 -0.32630914 -0.48993728
0.27218407 -0.14559762 0.45571268 0.27330536 0.37606394 0.21196747 -0.14032002 0.1593543
-0.12648843 -0.078633554 0.47371778 0.74594826 0.13251425 -0.14196974 -0.2874502 0.4178999
0.4858023 -0.11070432 0.3197426 0.71619904 -0.4707695 -0.069570184 0.60855025 -0.4436878
-0.09400944 0.56124777 0.35979414 0.54723513 0.8865365 0.4697518 0.33987293 0.061782066
00000000: d522 09be 7031 8fbe 2777 d83d e281 243e
00000010: 52d5 aa3e 9263 113c 9be0 13be ed71 3f3e
00000020: e2cb c1bd 45af 0dbf ef3a 133f a760 e8bd
00000030: eb50 193f 7726 913d a867 563f 9fcf f33d
00000040: 506e 3d3f 408d 953e 1ea7 a73e 6840 733e
00000050: 7303 863e 2bc1 a4bd 8d0c d53c 867d 153f
00000060: 6adc b33d e531 d03e 11d4 8e3e b94b 2c3f
00000070: 4e6c ae3c 19cb d6bd fe11 a7be 0fd9 fabe
00000080: b65b 8b3e 8b17 15be 2c53 e93e aeee 8b3e
00000090: 748b c03e 000e 593e 0db0 0fbe c62d 233e
000000a0: 2f86 01be a10a a1bd 238b f23e 77f6 3e3f
000000b0: d1b1 073e 8460 11be ac2c 93be faf6 d53e
000000c0: 14bb f83e f2b8 e2bd 4db5 a33e d258 373f
000000d0: b308 f1be d07a 8ebd f3c9 1b3f 0c2b e3be
000000e0: 0588 c0bd efad 0f3f f036 b83e 9a17 0c3f
000000f0: 0ef4 623f 4f83 f03e d303 ae3e 310f 7d3d

deconv2.weight f4 [64, 32, 4, 4]
-0.037774146 -0.05466745 -0.14398216 -0.18122192 -0.106490746 -0.08348887 0.024689896 0.11914189
-0.12340666 0.20762935 0.07435166 0.10337229 -0.14494051 0.033249788 -0.020962657 0.27095157
-0.030909078 -0.10707226 -0.011024282 -0.10606508 -0.02840501 0.09848962 -0.06528589 -0.039308805
0.017663347 0.18370484 -0.07173499 -0.00071889156 0.03252427 -0.060087893 0.0359703 0.003919921
-0.011856105 -0.034905206 0.02700504 -0.06119787 0.041430637 0.009847478 0.014783411 -0.020342382
-0.02758762 -4.3188335e-05 -0.056688756 -0.15259488 -0.07410732 -0.075548455 -0.06201007 -0.044104982
-0.008949564 0.046465326 -0.052584328 0.009986741 -0.06288263 -0.008595813 -0.0021223556 0.08472289
-0.019366778 0.07119367 -0.17654623 -0.24668142 -0.016089441 -0.11405156 -0.035353497 0.10995694
0.028448572 -0.034982044 -0.051749967 -0.044033665 0.027089555 -0.021989912 -0.03264229 -0.10741669
-0.014793238 0.051113725 0.0085300105 -0.22794639 0.038909603 -0.011176683 -0.027211811 -0.022151193
-0.01926468 0.00010763846 -0.12958516 -0.027399255 0.11515508 -0.067682736 -0.14370811 -0.022812981
-0.06754172 0.0816831 -0.01696912 -0.15955096 -0.04626775 0.043034103 -0.061131805 -0.1019345
0.03773614 -0.04840266 -0.12126278 0.1914334 -0.008296584 0.093965195 -0.07475527 0.060395576
-0.20462114 0.055372957 0.08689701 -0.023974584 -0.06955031 -0.011338857 0.06253141 0.03915268
0.010774043 0.0903094 -0.018794373 0.1933348 0.0038466074 -0.012711219 -0.009245368 0.12784967
-0.048460085 -0.065566964 -0.031219857 -0.053489506 -0.01716874 -0.08520181 -0.16783494 -0.14731972
0.022785503 -0.07611801 0.018924361 -0.044131726 0.024143344 0.020807404 0.03840535 -0.089441225
0.0068872473 0.009401956 0.016681008 -0.062097788 -0.10654896 -0.0024970968 -0.08509649 -0.04197435
3.7639402e-06 -0.0068285367 -0.067091264 -0.020186752 0.008787832 0.010280966 -0.028851014 -0.11503884
0.025164884 0.014537958 0.020723281 -0.12514745 -0.07489885 -0.09984124 -0.020015514 -0.14307019
-0.019543482 0.011982188 -0.04354157 -0.04789476 0.012552966 -0.016111355 -0.0655174 -0.0355354
-0.036362763 -0.0987423 0.07877181 -0.24011555 -0.09927637 -0.04132864 0.037054475 -0.070190005
-0.006080464 -0.035198092 0.0067942934 -0.02094149 -0.04562545 -0.0071070082 0.007410695 -0.13194561
0.008297447 0.017787686 -0.11740197 -0.1571451 -0.13405229 -0.108511545 -0.001121337 -0.08783143
-0.027224306 0.0077937543 -0.14503932 -0.02041072 0.021205597 0.02348147 -0.02074091 -0.09610157
0.020238014 0.041726205 -0.029732594 -0.18258375 -0.18606913 -0.0753292 -0.08822565 -0.10707063
-0.03506579 -0.09465598 -0.08548775 -0.024449712 0.05265696 0.031621907 0.046021815 -0.15141334
-0.14550185 -8.084652e-05 0.044048928 -0.116144404 -0.11194078 0.06931139 -0.18409511 -0.09211872
0.009589834 -0.35364595 0.028778996 0.038574554 -0.034960102 0.13884859 -0.05595795 -0.004488334
0.021254608 -0.1310275 -0.007326353 -0.10092266 -0.034967657 0.061964616 -0.004078749 -0.07352568
-0.018731272 0.014919768 -0.037784033 -0.06773813 -0.00749538 0.100882165 0.122767664 -0.103814036
0.021342725 0.052339975 -0.030096518 0.1313003 -0.04920578 0.12709461 0.12232707 -0.08844328
00000000: 10b9 1abd faea 5fbd 0f70 13be 3d92 39be
00000010: d217 dabd 36fc aabd 7742 ca3c aa00 f43d
00000020: a2bc fcbd ca9c 543e af45 983d dab4 d33d
00000030: 496b 14be ee30 083d e1b9 abbc 2aba 8a3e
00000040: 0935 fdbc b348 dbbd 319f 34bc a638 d9bd
00000050: a0b1 e8bc edb4 c93d 9cb4 85bd 4502 21bd
00000060: b9b2 903c 1f1d 3c3e cbe9 92bd ff73 3cba
00000070: 2b38 053d b91e 76bd 9855 133d ae72 803b
00000080: 1c40 42bc c3f8 0ebd ac39 dd3c 9eaa 7abd
00000090: 2cb3 293d 5157 213c 1f36 723c 11a5 a6bc
000000a0: 6fff e1bc 1f25 35b8 7832 68bd d541 1cbe
000000b0: 94c5 97bd 26b9 9abd 45fe 7dbd 6da7 34bd
000000c0: 31a1 12bc 6d52 3e3d aa62 57bd 6d9f 233c
000000d0: 9cc8 80bd 74d5 0cbc 3817 0bbb 3283 ad3d
000000e0: 14a7 9ebc fdcd 913d 89c8 34be 0e9a 7cbe
000000f0: 01ce 83bc dd93 e9bd d4ce 10bd 1b31 e13d
00000100: fb0c e93c 5549 0fbd c6f7 53bd a55c 34bd
00000110: eaea dd3c 3024 b4bc ecb3 05bd 48fd dbbd
00000120: 565f 72bc a05c 513d 75c1 0b3c c76a 69be
00000130: ad5f 1f3d 681e 37bc 4eeb debc 6b76 b5bc
00000140: f6d0 9dbc f5bb e138 f9b1 04be 6774 e0bc
00000150: 6dd6 eb3d 3f9d 8abd 3828 13be 4ae2 babc
00000160: 5053 8abd 7849 a73d d302 8bbc 5461 23be
00000170: 4183 3dbd 8744 303d 5865 7abd 09c3 d0bd
00000180: 3691 1a3d de41 46bd 9f58 f8bd 1e07 443e
00000190: 65ee 07bc d370 c03d 4a19 99bd 5a61 773d
000001a0: 3488 51be c1ce 623d 0ff7 b13d 5966 c4bc
000001b0: 6570 8ebd 9dc6 39bc 7810 803d 905e 203d
000001c0: 9d85 303c 22f4 b83d a8f6 99bc 8ff9 453e
000001d0: 5d17 7c3b b742 50bc e279 17bc 06eb 023e
000001e0: 157e 46bd f947 86bd c9c0 ffbc d017 5bbd
000001f0: 75a5 8cbc 497e aebd ecdc 2bbe fbda 16be
00000200: aaa8 ba3c c2e3 9bbd 4307 9b3c 78c3 34bd
00000210: 43c8 c53c 4a74 aa3c ee4e 1d3d f62c b7bd
00000220: 6bae e13b a90a 1a3c 9ca6 883c 405a 7ebd
00000230: 5736 dabd 55a6 23bb 1247 aebd 4ced 2bbd
00000240: 0098 7c36 ebc1 dfbb 2567 89bd b05e a5bc
00000250: d7fa 0f3c 7f71 283c f658 ecbc 7c99 ebbd
00000260: 9626 ce3c 9e30 6e3c dfc3 a93c a726 00be
00000270: 9164 99bd 9079 ccbd 93f7 a3bc fe80 12be
00000280: a719 a0bc f050 443c a558 32bd 4c2d 44bd
00000290: f5aa 4d3c f6fb 83bc fd2d 86bd 918d 11bd
000002a0: 1ff1 14bd 6739 cabd 1d53 a13d dae0 75be
000002b0: 6951 cbbd 3848 29bd 6fc6 173d c7bf 8fbd
000002c0: a13e c7bb e02b 10bd aaa2 de3b 7d8d abbc
000002d0: c0e1 3abd e8e1 e8bb 6ad5 f23b c01c 07be
000002e0: 04f2 073c 7bb7 913c 7270 f0bd a5ea 20be
000002f0: 0145 09be 4d3b debd d3f9 92ba f7e0 b3bd
00000300: 8205 dfbc c062 ff3b 3085 14be 6234 a7bc
00000310: 5cb7 ad3c 365c c03c d7e8 a9bc e6d0 c4bd
00000320: 31ca a53c 19e9 2a3d c591 f3bc 3cf7 3abe
00000330: e888 3ebe 3246 9abd a6af b4bd d947 dbbd
00000340: 25a1 0fbd ffda c1bd 3414 afbd c34a c8bc
00000350: d3ae 573d f985 013d 5f81 3c3d 190c 1bbe
00000360: 70fe 14be 258c a9b8 a66c 343d 1edd edbd
00000370: 3541 e5bd 21f3 8d3d 6e83 3cbe bda8 bcbd
00000380: ae1e 1d3c 1511 b5be eec1 eb3c 5a00 1e3d
00000390: 5332 0fbd 532e 0e3e 2a34 65bd e012 93bb
000003a0: 251e ae3c 132c 06be e711 f0bb 8ab0 cebd
000003b0: 3f3a 0fbd 9cce 7d3d 07a7 85bb a294 96bd
000003c0: 5372 99bc 0b72 743c 6ec3 1abd 4aba 8abd
000003d0: ce9b f5bb 4f9b ce3d 9d6d fb3d 749c d4bd
000003e0: f0d6 ae3c 7162 563d f98c f6bc 9673 063e
000003f0: 008c 49bd 1725 023e 9d86 fa3d c021 b5bd

deconv2.bias f4 [32]
-0.33881617 -0.5023337 0.6830047 0.027847523 0.9015658 0.3048196 0.050800025 0.0074987467
1.1888796 1.3069735 -0.25695205 -0.09086444 0.5067013 0.8468418 -0.12395454 0.4924386
-0.1579313 0.27602547 1.066823 -0.44276586 -0.13569076 0.017065704 0.7245452 -0.0036426682
0.9420106 0.37043715 0.08095926 -0.039406665 0.04352292 1.083894 0.41159853 -0.53931594
00000000: 5079 adbe f198 00bf 65d9 2e3f 7d20 e43c
00000010: 04cd 663f 5111 9c3e b013 503d 0cb8 f53b
00000020: 352d 983f e84a a73f 388f 83be 2317 babd
00000030: 2db7 013f a0ca 583f e1db fdbd ea20 fc3e
00000040: beb8 21be 3653 8d3e a88d 883f 35b2 e2be
00000050: 85f2 0abe 60cd 8b3c cb7b 393f d5b9 6ebb
00000060: 9b27 713f f0a9 bd3e f8cd a53d e268 21bd
00000070: 1745 323d 0abd 8a3f 0bbd d23e 9c10 0abf

deconv3.weight f4 [32, 16, 4, 4]
-0.35853633 -0.08757018 0.19045198 0.25053623 -0.014290697 -0.027953474 -0.050848708 0.22131667
-0.19107026 -0.17797785 0.28084052 0.24789266 -0.009106902 -0.03056421 -0.36540154 -1.0161462
-0.005525549 -0.07258077 0.18092649 -0.09832442 -0.03591288 -0.018725853 -0.56745034 0.104107976
-0.051816948 -0.113330744 -0.70563185 -0.2183337 -0.06500251 -0.06620085 0.18101697 0.009033418
-0.16026697 -0.16156268 0.008921643 -0.079896316 0.07162011 -0.046541963 0.056579012 0.27698338
-0.3317508 0.3011341 -0.23421007 -0.006066093 -0.09943029 -0.06601361 -0.37655038 0.2562689
0.050939407 0.13182394 0.2964727 0.17921305 -0.016876388 -0.02852398 0.1907412 0.21870996
0.004318692 -0.07419819 0.77701914 0.101907715 0.09769512 -0.38505924 0.08768966 0.5386491
-0.08052887 0.062230684 -0.300818 0.9085944 -0.2641063 -0.5828519 0.7682917 -0.5722663
-0.07748866 0.08190591 -1.1162938 0.86662346 -0.049901765 -0.59938735 0.5741042 -0.5972383
-0.07299463 -0.02808557 -0.24122243 0.05595791 -0.031407643 -0.026761912 -0.09274431 -0.070148766
0.009219382 -0.14041044 0.2883718 0.27864826 0.09001591 0.0325313 0.09730055 -0.020732395
-0.032262582 0.099529386 -3.0792356 0.31893337 0.021056397 -0.18716355 -0.815245 -0.17330691
0.09057265 0.08951573 -2.1317081 0.595299 -0.3099092 0.25112253 -0.38766196 0.38271424
-0.14607832 0.036790513 -0.73524165 0.21619245 -0.0116915 0.04671008 0.13020366 -0.14498663
-0.30870983 -0.27477467 -0.8396145 0.6897548 0.00030254465 0.03113402 0.05392953 -0.23747218
-0.009600582 0.028086908 0.026244447 0.36749417 0.04290643 0.08414364 -0.22628559 0.35329103
-0.027134828 0.04319733 -0.11853691 0.61755306 -0.0432666 0.08138955 -0.6023945 0.8985061
0.07119382 0.039078616 -0.46264735 -0.1301457 0.012222481 -0.017778333 -0.19972545 -0.16554148
0.04275134 -0.06106608 0.18466412 -0.11787543 -0.00862339 0.07245607 -0.3386607 -0.32877722
-0.03603992 -0.2430447 0.3295168 -0.06644663 0.103776865 -0.0003051945 -0.2644398 -0.72324234
-0.060292725 -0.16518699 0.40666378 -0.036696527 -0.053658187 0.08924679 -0.70000255 0.34138522
-0.03361013 0.07456996 0.20402241 0.11348964 -0.12575191 -0.051027283 0.12603216 0.10188907
-0.057725333 0.21414801 0.4070412 -0.28853846 -0.15564509 -0.111797616 0.26197338 0.15011252
-0.18729264 -0.02992499 0.21978422 -0.012829572 0.0066001103 -0.06767644 0.15773429 -0.049405813
-0.33795902 -0.04471889 0.17885347 0.29085717 0.07576741 -0.047560845 -0.24359897 0.2703177
-0.5307393 -0.056022763 0.6007173 -0.044087052 -0.05528141 0.049073834 0.77418214 0.5470743
0.24354629 -0.92681175 0.6279139 -0.31774765 0.06564664 0.069543146 0.6823997 -0.13747782
-0.01974664 0.040952913 0.59539807 -0.18152429 0.02804019 0.064714454 0.4908282 0.42615205
-0.013073591 0.05064084 0.8907372 0.9305428 -0.031217046 0.102722906 0.2997337 0.42110276
-0.022282245 -0.022388864 -0.53053206 -0.20069082 0.041250285 0.045059346 -0.10264815 0.29521623
-0.030650297 0.05295627 -0.7473066 -0.58139426 0.05688136 0.018165562 0.031784404 -0.092415325
00000000: 1392 b7be ff57 b3bd d805 433e 4946 803e
00000010: 8723 6abc affe e4bc bc46 50bd d6a0 623e
00000020: eca7 43be d33f 36be 54ca 8f3e 93d7 7d3e
00000030: 1e35 15bc cb61 fabc e915 bbbe 1411 82bf
00000040: aa0f b5bb 3aa5 94bd cb44 393e 505e c9bd
00000050: 6219 13bd f666 99bc 6d44 11bf 9036 d53d
00000060: 023e 54bd f319 e8bd 4aa4 34bf df92 5fbe
00000070: 0920 85bd 5094 87bd 835c 393e e700 143c
00000080: 061d 24be b070 25be 152c 123c aea0 a3bd
00000090: 90ad 923d c9a2 3ebd 65bf 673d c4d0 8d3e
000000a0: 3edb a9be 402e 9a3e c4d4 6fbe 14c6 c6bb
000000b0: 1ca2 cbbd 2532 87bd 36cb c0be ad35 833e
000000c0: d7a5 503d dbfc 063e 45cb 973e a083 373e
000000d0: 5a40 8abc 1fab e9bc a951 433e 81f5 5f3e
000000e0: d083 8d3b 38f5 97bd baea 463f feb4 d03d
000000f0: 6114 c83d 7c26 c5be a396 b33d e8e4 093f
00000100: 52ec a4bd 9ae5 7e3d d104 9abe a599 683f
00000110: f138 87be c835 15bf c4ae 443f 0b80 12bf
00000120: 60b2 9ebd 49be a73d b7e2 8ebf 09db 5d3f
00000130: cb65 4cbd 7371 19bf 7ef8 123f 9ce4 18bf
00000140: 357e 95bd b613 e6bc 0303 77be 1f34 653d
00000150: 4da5 00bd cc3b dbbc bbf0 bdbd 28aa 8fbd
00000160: e40c 173c c1c7 0fbe 78a5 933e fcaa 8e3e
00000170: 435a b83d 8a3f 053d 8345 c73d fcd6 a9bc
00000180: c525 04bd 10d6 cb3d 3212 45c0 3c4b a33e
00000190: 777e ac3c cda7 3fbe e5b3 50bf 5e77 31be
000001a0: 277e b93d 0654 b73d e86d 08c0 8465 183f
000001b0: 6bac 9ebe 2293 803e a17b c6be 1ff3 c33e
000001c0: 8e95 15be a6b1 163d cc38 3cbf 8e61 5d3e
000001d0: b58d 3fbc 1253 3f3d 1c54 053e 6077 14be
000001e0: 370f 9ebe 44af 8cbe faf0 56bf c593 303f
000001f0: db9e 9e39 c60c ff3c 36e5 5c3d e82b 73be
00000200: c24b 1dbc 8416 e63c 98fe d63c 3228 bc3e
00000210: a7be 2f3d 8053 ac3d 69b7 67be 90e2 b43e
00000220: dc49 debc afef 303d 7bc3 f2bd f517 1e3f
00000230: 5238 31bd 90af a63d 8736 1abf 7f04 663f
00000240: 11ce 913d e610 203d 1de0 ecbe ea44 05be
00000250: cd40 483c dea3 91bc d484 4cbe b583 29be
00000260: 071c 2f3d 6d20 7abd 9718 3d3e ac68 f1bd
00000270: 1f49 0dbc d963 943d ef64 adbe 7d55 a8be
00000280: 989e 13bd b6e0 78be 6db6 a83e 2c15 88bd
00000290: f788 d43d 8302 a0b9 a764 87be 6926 39bf
000002a0: 81f5 76bd c726 29be 3c36 d03e 194f 16bd
000002b0: b0c8 5bbd 05c7 b63d 5e33 33bf 0bca ae3e
000002c0: c7aa 09bd 23b8 983d 40eb 503e 426d e83d
000002d0: 1cc5 00be fc01 51bd 930e 013e 37ab d03d
000002e0: 6671 6cbd 9e49 5b3e b467 d03e 50bb 93be
000002f0: 6d61 1fbe 26f6 e4bd 6021 863e 19b7 193e
00000300: a4c9 3fbe 4125 f5bc 1d0f 613e 2033 52bc
00000310: bd45 d83b f299 8abd 1985 213e c05d 4abd
00000320: f708 adbe 282b 37bd 5d25 373e 3beb 943e
00000330: f22b 9b3d 29cf 42bd 0272 79be 1567 8a3e
00000340: 88de 07bf 2078 65bd 9cc8 193f a094 34bd
00000350: c36e 62bd a501 493d cd30 463f 100d 0c3f
00000360: 3364 793e 8943 6dbf f7be 203f d2af a2be
00000370: bf71 863d a36c 8e3d bfb1 2e3f fcc6 0cbe
00000380: b5c3 a1bc 3ebe 273d 026c 183f 81e1 39be
00000390: 8ab4 e53c 0389 843d d54d fb3e 9a30 da3e
000003a0: 9d32 56bc c56c 4f3d 5a07 643f 0e38 6e3f
000003b0: e4ba ffbc 6360 d23d b276 993e c89a d73e
000003c0: 4189 b6bc da68 b7bc f3d0 07bf e581 4dbe
000003d0: 0ff6 283d 2690 383d 3139 d2bd 9526 973e
000003e0: 5516 fbbc ace8 583d 7c4f 3fbf 41d6 14bf
000003f0: 6efc 683d f2cf 943c 5d30 023d 3f44 bdbd

deconv3.bias f4 [16]
-0.0596604 1.4294196 0.82384694 0.8962629 2.0836315 0.4529042 1.9659723 0.6958065
2.0131636 1.9348103 0.29462153 0.25749567 -0.10797534 0.5276756 -0.07102092 1.9378273
00000000: 775e 74bd 39f7 b63f a2e7 523f 7c71 653f
00000010: 385a 0540 0fe3 e73e fba4 fb3f 6020 323f
00000020: acd7 0040 dda7 f73f a2d8 963e 79d6 833e
00000030: 2d22 ddbd c015 073f 6b73 91bd ba0a f83f

deconv4.weight f4 [16, 8, 4, 4]
-0.8692334 0.048233353 -0.5779462 0.2792914 0.0069873543 -0.4221611 -0.07115764 -0.16298933
0.36433154 0.062320355 -0.30934152 0.0038046262 0.038623165 -0.041749675 0.03419175 -0.07209482
0.043075245 -0.004280109 0.010893919 0.079287164 0.06782668 0.026423475 0.084653735 0.109930284
0.014718236 -0.014886645 -0.0018272361 -0.016462108 0.01071679 -0.013131823 -0.035463277 -0.026597932
0.034646355 -0.10132569 -0.034657355 0.049133062 0.020464983 0.082662426 0.036560882 0.11783965
0.10104527 -0.019229319 0.04173734 0.02358369 0.10162168 -0.011872786 -0.025476202 -0.03624856
0.11044973 0.35626256 0.19653754 0.2188275 -0.03122033 -0.11444628 0.23065883 0.049516723
-0.039979193 -0.043686632 -0.15410411 -0.038911797 0.36939353 0.013342685 -0.26096484 -0.12098255
0.4848777 0.044977184 0.5326567 -1.0014652 -0.32724434 0.070658974 -0.087562755 -0.14339264
-0.21580498 0.011678866 -0.53054786 -1.096632 0.1471285 0.09122804 -0.1040519 -0.044767756
-0.25794643 0.05120752 -0.72905445 0.032785963 -0.0073131965 -0.017173307 0.049776938 -0.15034135
0.2053489 0.002751156 -0.6355255 -0.035214473 0.013835915 -0.17396976 -0.02969008 -0.11912954
0.038965 0.03115727 -0.18266799 -0.2809273 0.05248703 -0.26281643 -0.15648739 -0.055447042
0.12647714 0.48400277 -0.01148466 -0.0033422194 -0.0050049857 -0.16130966 -0.040999647 0.28035468
-0.41737953 -0.074861616 0.2881462 -0.101405926 -0.02571129 0.24813965 0.08749774 0.20731135
-0.7171477 -0.1576421 -0.288341 0.012363092 0.2031573 -0.0041375407 0.120567806 -0.023919629
-0.03958243 0.20751502 0.26667997 0.14154963 -0.03566821 0.007107019 -0.010962556 -0.05911611
0.2430316 -0.2981452 -0.8623362 -0.19168314 -0.08372155 -1.4380893 -0.09031175 -0.40632635
0.08627247 0.04718747 0.12224541 0.095641665 0.07516437 -0.008314903 0.15432957 0.13585804
0.025179408 0.017990196 0.02414588 0.011261359 0.0014842199 0.015250872 0.043337386 0.058893625
0.20212024 -0.038057644 0.019954752 -0.07863199 0.18073611 -0.09599478 0.12465503 0.10468289
0.14211799 -0.10338844 0.059902426 -0.009739898 0.028923025 -0.047086023 -0.010332149 0.111003354
-0.2863212 -0.103996746 -0.36823878 -0.22279441 -0.19705689 -0.027146207 -0.33292648 -0.28274027
-0.15542158 0.19693333 0.013721702 -0.060524866 -0.060974468 -0.027166309 0.30810446 0.034204695
-0.38585335 0.019979877 -0.6833018 -0.8408108 0.39401615 -0.011290733 -1.0878477 -0.06492617
-0.44327414 -0.012628624 -0.1220391 0.07188029 -0.036756385 0.01730717 -0.4831207 0.018924523
-0.1116499 0.08617878 -0.68542516 0.11706596 0.076277405 -0.1078054 0.06979399 -0.03822433
-0.30720812 0.065449655 -0.33098692 0.027798297 0.05913053 -0.10260556 0.017221158 0.020237323
-0.45248857 -0.32317108 -0.37998977 -0.09888394 0.19424668 0.028107 -0.2772293 -0.7236719
-0.019245464 -0.17619659 -0.24279812 -0.030046199 -0.0078069237 -0.07750538 -0.016313763 -0.41214424
-0.58736235 0.014581593 -1.3027537 -0.06364575 -0.042400837 -0.20090978 -0.16115682 -0.19362198
-0.6526523 -0.102402 -1.1434535 0.027517846 0.33485332 0.04001575 -0.33089527 -0.11904089
00000000: 1586 5ebf 5690 453d 48f4 13bf 48ff 8e3e
00000010: 2df6 e43b 8025 d8be 19bb 91bd ade6 26be
00000020: aa89 ba3e a143 7f3d 0362 9ebe 0957 793b
00000030: 5333 1e3d b501 2bbd a60c 0c3d 73a6 93bd
00000040: ab6f 303d 2840 8cbb 687c 323c 4f61 a23d
00000050: b7e8 8a3d 0b76 d83c f05e ad3d 2123 e13d
00000060: c224 713c 1de7 73bc df7f efba 8bdb 86bc
00000070: 7a95 2f3c dc26 57bc f141 11bd e8e3 d9bc
00000080: 56e9 0d3d d883 cfbd dff4 0dbd c03f 493d
00000090: 2ea6 a73c eb4a a93d ddc0 153d ea55 f13d
000000a0: d3f0 ce3d ce86 9dbc c6f4 2a3d 9532 c13c
000000b0: 071f d03d 1386 42bc 78b3 d0bc 5f79 14bd
000000c0: 7833 e23d 0c68 b63e 2341 493e 5114 603e
000000d0: c7c1 ffbc d062 eabd d431 6c3e 0cd2 4a3d
000000e0: 39c1 23bd c1f0 32bd 78cd 1dbe fa61 1fbd
000000f0: 2621 bd3e 479b 5a3c 2f9d 85be b3c5 f7bd
00000100: e441 f83e ff39 383d 315c 083f 0330 80bf
00000110: 928c a7be a7b5 903d 1a54 b3bd 85d5 12be
00000120: fbfb 5cbe b758 3f3c fcd1 07bf 705e 8cbf
00000130: daa8 163e c4d5 ba3d 2a19 d5bd 655e 37bd
00000140: 8e11 84be fabe 513d 50a3 3abf 934a 063d
00000150: 8aa3 efbb 09af 8cbc e7e2 4b3d 15f3 19be
00000160: fb46 523e bd4c 343b cdb1 22bf 0d3d 10bd
00000170: 09b0 623c 2125 32be 9c38 f3bc 30fa f3bd
00000180: c499 1f3d 883d ff3c 510d 3bbe b4d5 8fbe
00000190: a4fc 563d e08f 86be 3b3e 20be 701c 63bd
000001a0: 3983 013e 36cf f73e 282a 3cbc 2309 5bbb
000001b0: dd00 a4bb 5c2e 25be 3fef 27bd a68a 8f3e
000001c0: c5b2 d5be 0c51 99bd e687 933e e9ad cfbd
000001d0: 7ca0 d2bc 5218 7e3e 0432 b33d 6d49 543e
000001e0: fe96 37bf ee6c 21be 6ea1 93be 918e 4a3c
000001f0: 7808 503e 3594 87bb 41ec f63d 19f3 c3bc
00000200: 3021 22bd d17e 543e 478a 883e 63f2 103e
00000210: d418 12bd ffe1 e83b 4b9c 33bc bc23 72bd
00000220: 47dd 783e 7da6 98be 11c2 5cbf 9648 44be
00000230: 3476 abbd 4f13 b8bf 5ef5 b8bd 020a d0be
00000240: 9faf b03d a647 413d cd5b fa3d c7df c33d
00000250: c7ef 993d 3b3b 08bc 9208 1e3e 5f1e 0b3e
00000260: 0c45 ce3c 2d60 933c 95cd c53c 9081 383c
00000270: 288a c23a cbde 793c 8b82 313d 713a 713d
00000280: 9cf8 4e3e 55e2 1bbd 2678 a33c cf09 a1bd
00000290: e312 393e e998 c4bd 234b ff3d fc63 d63d
000002a0: 6187 113e 52bd d3bd 3f5c 753d 1894 1fbc
000002b0: fbef ec3c 46dd 40bd 2d48 29bc ba55 e33d
000002c0: b198 92be 3ffc d4bd cb89 bcbe 3824 64be
000002d0: 48c9 49be b961 debc 5775 aabe 55c3 90be
000002e0: d626 1fbe e4a8 493e fdd0 603c ece8 77bd
000002f0: 5dc0 79bd e18b debc debf 9d3e 391a 0c3d
00000300: 928e c5be d7ac a33c deec 2ebf 603f 57bf
00000310: 7cbc c93e c4fc 38bc 983e 8bbf 03f8 84bd
00000320: d4f4 e2be 4ae8 4ebc a3ef f9bd f935 933d
00000330: dd8d 16bd c4c7 8d3c 995b f7be 9a07 9b3c
00000340: b4a8 e4bd 807e b03d 0678 2fbf 47c0 ef3d
00000350: 5437 9c3d 14c9 dcbd 27f0 8e3d 1d91 1cbd
00000360: 624a 9dbe 780a 863d 1e77 a9be 41b9 e33c
00000370: db32 723d dd22 d2bd 6313 8d3c bec8 a53c
00000380: 95ac e7be ae76 a5be 058e c2be aa83 cabd
00000390: 9ae8 463e a740 e63c 00f1 8dbe 9042 39bf
000003a0: aaa8 9dbc e16c 34be 12a0 78be 7223 f6bc
000003b0: 39d1 ffbb 24bb 9ebd 71a4 85bc 9204 d3be
000003c0: 615d 16bf a2e7 6e3c a2c0 a6bf b458 82bd
000003d0: 80ac 2dbd 4bbb 4dbe 4b06 25be d744 46be
000003e0: 3914 27bf 24b8 d1bd af5c 92bf 1b6d e13c
000003f0: e571 ab3e 8ee7 233d 1b6b a9be b6cb f3bd

deconv4.bias f4 [8]
1.3687623 4.5849953 -4.574291 -0.86920244 -2.6941698 4.269074 0.14378618 0.4675621
00000000: 9a33 af3f 48b8 9240 9860 92c0 0d84 5ebf
00000010: 476d 2cc0 419c 8840 af3c 133e 4d64 ef3e

deconv5.weight f4 [8, 4, 4, 4]
-0.44122356 -0.43128148 -0.39340147 -0.38342676 0.024962742 0.024662562 0.02549176 0.025184272
-0.0035183728 -0.0016164206 -0.00305068 -0.0030685759 -0.0010967493 0.0020609063 0.00031922475 0.0019928857
-0.041688748 0.19764827 -0.029615153 0.19600035 -0.040265754 -0.0030430723 -0.027797615 0.0034818365
-0.01575804 0.0065563414 -0.033578463 0.011545773 0.0013405548 -0.03686302 0.006009566 0.027228253
0.076934 -0.01503208 0.077180706 -0.01454417 0.0047001606 -0.013649867 0.005444343 -0.0062917676
0.0026142704 -0.0034522025 0.00065040414 -0.0039198655 0.0010121423 -6.212744e-05 0.002705081 0.0033724445
-0.058286328 -0.041668225 -0.009672842 -0.07430126 0.02491919 -0.01577623 -0.20088895 -0.14509396
-0.0062511354 -0.0040477947 0.0028577922 -0.0027996956 -0.18436575 -0.13184789 0.017717797 0.008151187
0.00020376254 0.0011264515 0.0026139452 0.0007979498 0.0048864656 -0.018420827 -0.006924911 0.009196713
0.030663531 0.0040329173 0.07667781 0.097177655 0.024247808 0.019106532 0.090249486 0.08056709
-0.01532147 0.013022606 -0.024461692 0.003155714 0.15286143 -0.06980921 0.28799322 -0.014241871
-0.011583191 0.43228817 -0.027675487 -0.11249474 -0.1410182 -0.07479699 -0.023878053 -0.033065528
-0.008239208 -0.005585369 0.012001349 -0.00032572035 -0.018311325 0.11087566 0.12987109 0.19089192
-0.041378096 0.007077145 0.2188165 0.09236745 -0.033966098 -0.078592904 -0.03924447 -0.0035494808
-0.017255403 -0.003500027 0.01238704 -0.0012708894 -0.11282209 -0.084527485 0.0014975154 -0.14161187
-0.11801273 0.02858224 -0.0011140322 0.123668686 0.06702242 0.012203416 -0.028518416 -0.14356422
-0.015577954 -0.0120168645 -0.00937106 -0.0051928735 -0.011789297 -0.0065622656 -0.003568788 -0.010517558
-0.026958218 -0.017865445 -0.024784347 -0.027697911 -0.02437381 -0.021152487 -0.02491865 -0.026393207
-0.6151644 -0.10776544 -0.071853556 -0.018280549 -0.05943844 -0.026971104 -0.027136303 -0.289751
-0.02397116 -0.20772669 -0.030840937 0.00053335266 0.06626038 -0.028951574 0.04820512 -0.6090025
0.014078653 -0.0116813965 -0.04154623 -0.014340464 -0.009068503 -0.039400313 -0.053341594 -0.023451438
0.009271905 -0.018352825 -0.0883754 -0.034016363 0.0063578794 0.031054607 -0.013322371 0.021413086
-0.0677181 0.007997615 -0.0020576993 -0.83353627 -0.07194575 -0.040962245 -0.17756198 -0.17241786
-0.0033608812 0.0026739987 0.0142213525 -0.9536259 -0.09587816 -0.13616695 -0.12864245 -0.15553667
0.0002977232 0.0033614608 0.0035896143 0.0024265188 -0.09351811 -0.37713498 -0.27183416 -0.010110167
-0.13182357 -2.1274986 -0.37287593 -0.01460857 -0.021788523 -0.039527413 -0.01447864 -0.0024832413
-0.0363589 0.05410508 -0.029624615 0.009183008 -3.1397471 -0.46852708 -0.37883252 -0.11679144
-0.029144306 -1.9605086 -0.029326843 -0.016953485 -0.0012616452 -0.12399887 -0.018011035 -0.08748548
-0.0055208597 -0.004991582 0.029216673 -0.003144643 0.0031861085 -3.9344661 -0.77355814 -0.13831946
-0.050815143 -0.38777325 -1.2139965 -0.015037532 -0.008430997 0.00047939757 -0.023176862 -0.008657069
-0.017789958 -0.023199609 0.0016622073 -0.010237329 -0.05858644 -0.15106775 -0.12155132 0.0133100115
-0.17510183 -0.23228371 -1.1824536 -0.048126053 -0.013724625 -0.08524926 -0.18500866 -0.08561427
00000000: 0ee8 e1be edd0 dcbe eb6b c9be 8350 c4be
00000010: aa7e cc3c 2409 ca3c 18d4 d03c 3f4f ce3c
00000020: 8094 66bb 13de d3ba ebed 47bb 291a 49bb
00000030: cdc0 8fba 4510 073b 9f5d a739 139b 023b
00000040: d2c1 2abd 4f64 4a3e 7a9b f2bc 51b4 483e
00000050: b4ed 24bd 486e 47bb d3b7 e3bc 862f 643b
00000060: 0117 81bc 94d6 d63b 9289 09bd 7b2a 3d3c
00000070: 8eb5 af3a aefd 16bd e5eb c43b c90d df3c
00000080: 938f 9d3d 1d49 76bc eb10 9e3d ac4a 6ebc
00000090: ce03 9a3b b1a3 5fbc 7666 b23b 2c2b cebb
000000a0: 2e54 2b3b 593e 62bb e27f 2a3a 3772 80bb
000000b0: dca9 843a 6a4a 82b8 ba47 313b 3b04 5d3b
000000c0: a5bd 6ebd 4dac 2abd d77a 1ebc 422b 98bd
000000d0: 5423 cc3c 273d 81bc d5b5 4dbe 8393 14be
000000e0: 53d6 ccbb 5da3 84bb cc49 3b3b 197b 37bb
000000f0: 60ca 3cbe 2203 07be ea24 913c 8e8c 053c
00000100: 17a9 5539 71a5 933a b94e 2b3b 812d 513a
00000110: a51e a03b 46e7 96bc 5dea e2bb cfad 163c
00000120: 1632 fb3c 9026 843b 4109 9d3d 1405 c73d
00000130: 57a3 c63c 4d85 9c3c b9d4 b83d 5c00 a53d
00000140: e706 7bbc c55c 553c e363 c8bc 18d0 4e3b
00000150: b587 1c3e 22f8 8ebd d973 933e bd56 69bc
00000160: 6dc7 3dbc e054 dd3e b4b7 e2bc a463 e6bd
00000170: 1367 10be 2a2f 99bd e89b c3bc b86f 07bd
00000180: befd 06bc 7905 b7bb 4ea1 443c 72c5 aab9
00000190: a201 96bc c712 e33d edfc 043e 2c79 433e
000001a0: 147c 29bd 65e7 e73b 6f11 603e 252b bd3d
000001b0: 0920 0bbd 51f5 a0bd cfbe 20bd 689e 68bb
000001c0: 345b 8dbc b660 65bb 03f3 4a3c f993 a6ba
000001d0: 450f e7bd bf1c adbd 4748 c43a b402 11be
000001e0: a8b0 f1bd 4d25 ea3c b804 92ba 0246 fd3d
000001f0: 0d43 893d d6f0 473c 749f e9bc 8002 13be
00000200: ad3a 7fbc 62e2 44bc 1389 19bc fb28 aabb
00000210: e527 41bc 4608 d7bb 54e2 69bb d651 2cbc
00000220: 7bd7 dcbc 8e5a 92bc 8b08 cbbc bbe6 e2bc
00000230: 96ab c7bc fb47 adbc 3222 ccbc 9136 d8bc
00000240: 6a7b 1dbf 21b4 dcbd f527 93bd 17c1 95bc
00000250: b975 73bd 81f2 dcbc f44c debc 3e5a 94be
00000260: 2b5f c4bc 4eb6 54be 22a6 fcbc b1d0 0b3a
00000270: 86b3 873d da2b edbc bb72 453d 96e7 1bbf
00000280: 27aa 663c 5463 3fbc 612c 2abd 44f4 6abc
00000290: 0f94 14bc 3962 21bd b77c 5abd 3b1d c0bc
000002a0: 30e9 173c aa58 96bc 29fe b4bd be54 0bbd
000002b0: c255 d03b 3b66 fe3c 1346 5abc 7f6a af3c
000002c0: caaf 8abd 6e08 033c 77da 06bb a262 55bf
000002d0: 4b58 93bd 07c8 27bd cfd2 35be 4f8e 30be
000002e0: 3b42 5cbb 413e 2f3b ad00 693c d420 74bf
000002f0: c55b c4bd 596f 0bbe d9ba 03be 0145 1fbe
00000300: bb17 9c39 f44b 5c3b bc3f 6b3b 3b06 1f3b
00000310: 6c86 bfbd d617 c1be d92d 8bbe 1da5 25bc
00000320: c2fc 06be f028 08c0 98e9 bebe c958 6fbc
00000330: d87d b2bc 7fe7 21bd d137 6dbc e0bd 22bb
00000340: 12ed 14bd 4a9d 5d3d 52af f2bc 5474 163c
00000350: 9ef1 48c0 c8e2 efbe 56f6 c1be 5a30 efbd
00000360: 0ac0 eebc f2f1 fabf d93e f0bc 09e2 8abc
00000370: ca5d a5ba 1ff3 fdbd e18b 93bc 962b b3bd
00000380: 54e8 b4bb 6d90 a3bb ce57 ef3c 5b16 4ebb
00000390: 08ce 503b 4bce 7bc0 e807 46bf 9ea3 0dbe
000003a0: 8a23 50bd 378a c6be 3d64 9bbf fb5f 76bc
000003b0: 2a22 0abc a757 fb39 67dd bdbc 61d6 0dbc
000003c0: 3fbc 91bc 1b0d bebc 6cde d93a 78ba 27bc
000003d0: 56f8 6fbd 81b1 1abe e6ef f8bd 3c12 5a3c
000003e0: e54d 33be c8db 6dbe a45a 97bf d31f 45bd
000003f0: 40dd 60bc 2a97 aebd e972 3dbe 8956 afbd

deconv5.bias f4 [4]
3.7063098 -1.3142515 2.6024623 0.17135614
00000000: 2e34 6d40 6539 a8bf be8e 2640 fc77 2f3e

deconv6.weight f4 [4, 1, 4, 4]
-0.003220802 0.026222663 0.0028406207 -0.013453093 0.031186385 0.082899265 0.037687697 -0.00081743964
-0.0006503113 0.024309143 0.00028486352 -0.016101735 -0.0031863726 0.0017745575 -0.0018848045 -0.00076508184
-0.0016219659 0.0038058972 -0.006462423 0.014395404 -0.005911902 0.0004384786 -0.028502114 -0.0010078985
0.0027084826 0.011217296 -0.035899855 -0.0025015883 -0.00585583 -0.0003557341 -0.028128166 -0.0014537442
0.008226052 -0.016138265 -0.0024854064 0.0021755288 0.035170935 0.0019902864 -0.007120432 9.708312e-05
0.08373491 0.04103811 0.0027826321 0.008566377 0.034238152 -0.00015127708 -0.006780862 -5.7825113e-05
-0.004147685 0.035324972 0.0021660323 0.009160567 -0.030581452 0.013945621 -0.0077537894 0.00084333203
-0.04224338 0.008288041 -0.0026359432 0.0063059875 -0.03148195 0.010857093 -0.009936087 -0.0008859894
00000000: 1714 53bb e9d0 d63c b529 3a3b 5d6a 5cbc
00000010: 977a ff3c 17c7 a93d 6a5e 1a3d 7249 56ba
00000020: a779 2aba f823 c73c bc59 9539 c9e7 83bc
00000030: 76d2 50bb 4598 e83a 8b0b f7ba c68f 48ba
00000040: 2598 d4ba 5c6c 793b bcc2 d3bb b3da 6b3c
00000050: a1b8 c1bb 9ae3 e539 447d e9bc 761b 84ba
00000060: cc80 313b c0c8 373c ba0b 13bd b0f1 23bb
00000070: 43e2 bfbb d381 bab9 0a6d e6bc 908b beba
00000080: 90c6 063c 6534 84bc 33e2 22bb 5193 0e3b
00000090: 660f 103d 776f 023b 8352 e9bb 1a99 cb38
000000a0: 357d ab3d 9417 283d d25c 363b fd59 0c3c
000000b0: 4e3d 0c3d 22a0 1eb9 fe31 debb 3e89 72b8
000000c0: 4ee9 87bb ebb0 103d fef3 0d3b 3416 163c
000000d0: f485 fabc 2d7c 643c 8013 febb 0e13 5d3a
000000e0: 6507 2dbd 90ca 073c cabf 2cbb 75a2 ce3b
000000f0: 38f3 00bd f3e1 313c f8ca 22bc be41 68ba

fc.weight f4 [128, 64]
-0.024507398 0.057048094 0.03320584 0.037065092 -0.14811248 -0.100420184 0.018537542 0.05494529
0.013833455 -0.017319536 -0.23326786 -0.011356798 -0.035006348 0.1313536 0.18481076 0.12097839
-0.042723 -0.14470331 -0.006561495 -0.10991872 -0.025311258 -0.042745713 0.32859346 0.14115043
-0.027904838 -0.05948743 -0.11278423 0.0071340953 0.18436806 -0.0674989 0.057634972 0.06113999
0.0738484 -0.05853334 -0.07268963 -0.7158791 0.2898644 0.012622539 0.014125789 0.11204859
0.02232279 0.16376184 -0.10753117 0.06668004 0.040787626 0.002564965 -0.0075866585 -0.088019826
-0.18045351 0.08872243 -0.34199142 -0.015621327 0.046080295 0.13821682 -0.17628454 -0.018100325
0.039677523 -0.20647155 0.009231472 -0.0519404 0.06845944 -0.14043964 0.5542898 -0.25177938
-0.08403007 -0.06856097 -0.18001927 0.35058513 -0.048520997 0.16431484 0.26113492 0.07576376
-0.19946125 -0.009494176 -0.04225917 -0.08544963 0.119914286 0.06650388 -0.053818878 0.26023197
-0.2692425 0.14955279 -0.15977912 -0.0005990192 0.107529975 -0.002383829 0.471378 -0.10128721
0.36574382 -0.040044688 0.04349761 -0.095500074 0.43660718 -0.191534 0.012750124 0.3324291
0.19856066 0.078121886 -0.21916132 -0.6706917 0.096942365 -0.010032585 0.21837129 -0.12893394
0.03640637 -0.053062756 -0.027274689 0.016951373 -0.19360636 -0.08424482 0.10784224 -0.17319916
-0.32173473 0.04016187 -0.04949817 -0.022183143 0.073689625 0.19959384 -0.085737206 -0.08520609
-0.13887651 -0.010827052 0.18210675 0.25329155 -0.2781209 -0.27770096 0.674661 -0.2410736
-0.08774334 -0.2612839 -0.49731964 -0.3301506 -0.14241634 -0.10585736 -0.053373177 0.102454364
-0.40140507 0.009718221 0.12278873 0.07508163 -0.35452077 -0.21909867 -0.08393304 -0.22969231
0.4996908 0.0780968 0.19038211 0.055412933 0.18939032 -0.032555293 0.3267187 0.17290276
-0.0042728707 0.30961064 -0.11542988 -0.18240964 0.38430694 0.0649053 0.045111854 0.20321813
-0.20942707 0.051100817 0.12801401 -0.45820308 -0.20490214 0.19038327 0.23740697 -0.067099966
0.19435054 0.00015315962 0.007585103 -0.15418015 0.28374958 -0.10795011 -0.08096361 -0.1758793
-0.31333458 0.021653827 0.1282994 -0.016301885 -0.0030152835 -0.20959866 -0.017220173 -0.06447985
-0.031684507 -0.29451045 -0.4065521 0.10201703 0.08732045 -0.26222116 0.48013556 -0.49480906
-0.17723507 0.056383636 -0.09972134 0.08988068 -0.05223808 0.030742964 0.013663929 -0.1463537
0.034262724 -0.013917293 -0.19948518 0.16677824 0.062174037 -0.0047121095 -0.09662061 0.109898634
0.14823772 -0.02179162 0.06923628 -0.19719529 -0.12732303 0.1380054 0.28105557 0.13100177
0.054376304 -0.03680822 0.031523407 0.124495834 0.06454408 -0.104230754 -0.04637325 0.017834865
0.1477262 -0.058824345 -0.066006206 -0.27497286 0.048802618 0.005485536 -0.4086372 0.105494864
0.0057352125 -0.047865935 -0.012960642 0.19291706 0.16358212 -0.14922954 0.08786927 0.03147795
-0.030384485 0.15437704 -0.15464371 -0.105561316 0.00048352746 0.0004903843 0.04477743 -0.113652565
-0.045578 -0.1678039 0.007852948 -0.012911633 0.06183206 -0.0011236251 0.17877841 -0.08463054
00000000: bdc3 c8bc 43ab 693d d902 083d 91d1 173d
00000010: ccaa 17be 19a9 cdbd 0bdc 973c 500e 613d
00000020: b7a5 623c b3e1 8dbc c5dd 6ebe dd11 3abc
00000030: d162 0fbd 8f81 063e 083f 3d3e 85c3 f73d
00000040: 50fe 2ebd 1b2d 14be cf01 d7bb 111d e1bd
00000050: 8e59 cfbc 2116 2fbd 673d a83e bd89 103e
00000060: b098 e4bc 17a9 73bd 6bfb e6bd 21c5 e93b
00000070: fbca 3c3e dd3c 8abd a612 6c3d ed6d 7a3d
00000080: d43d 973d a8c0 6fbd 4dde 94bd da43 37bf
00000090: 1b69 943e c4ce 4e3c da6f 673c bb79 e53d
000000a0: 49de b63c 2fb1 273e 4d39 dcbd 8b8f 883d
000000b0: ed10 273d f918 283b 8199 f8bb bd43 b4bd
000000c0: cec8 38be 1bb4 b53d 8019 afbe 98f0 7fbc
000000d0: b1be 3c3d b688 0d3e ef83 34be 2247 94bc
000000e0: e684 223d 476d 53be 9a3f 173c 75bf 54bd
000000f0: 7634 8c3d 69cf 0fbe f0e5 0d3f 3ae9 80be
00000100: f517 acbd b269 8cbd f956 38be e57f b33e
00000110: f4bd 46bd 2642 283e 7ab3 853e 082a 9b3d
00000120: 923f 4cbe 768d 1bbc f417 2dbd 3700 afbd
00000130: 9f95 f53d 3033 883d 2f71 5cbd 203d 853e
00000140: 27da 89be 5e24 193e 239d 23be 7f07 1dba
00000150: ad38 dc3d 043a 1cbb 7558 f13e ab6f cfbd
00000160: c642 bb3e e605 24bd 8d2a 323d 8b95 c3bd
00000170: fa8a df3e 7d21 44be e5e5 503c 2634 aa3e
00000180: 7c53 4b3e 5efe 9f3d d36b 60be 74b2 2bbf
00000190: b889 c63d b65f 24bc b99c 5f3e 4207 04be
000001a0: d91e 153d 5558 59bd 2b6f dfbc 9bdd 8a3c
000001b0: bf40 46be 8c88 acbd 64dc dc3d 1f5b 31be
000001c0: 6aba a4be c680 243d 98be 4abd 6cb9 b5bc
000001d0: 96ea 963d 5462 4c3e fd96 afbd 8880 aebd
000001e0: a535 0ebe f363 31bc 317a 3a3e 6eaf 813e
000001f0: dd65 8ebe d22e 8ebe 95b6 2c3f ffdb 76be
00000200: c8b2 b3bd 01c7 85be aea0 febe 8009 a9be
00000210: 97d5 11be becb d8bd d59d 5abd 98d3 d13d
00000220: f784 cdbe 2c39 1f3c a878 fb3d 66c4 993d
00000230: bf83 b5be 675b 60be 16e5 abbd 7634 6bbe
00000240: 79d7 ff3e 37f1 9f3d 87f3 423e acf8 623d
00000250: 89ef 413e b358 05bd ac47 a73e 6c0d 313e
00000260: 7003 8cbb 4985 9e3e 8066 ecbd 98c9 3abe
00000270: e1c3 c43e 12ed 843d 35c7 383d 6a18 503e
00000280: 0d74 56be 174f 513d 1b16 033e 9899 eabe
00000290: ded1 51be d5f3 423e d01a 733e b56b 89bd
000002a0: d403 473e 7999 2039 758c f83b 67e1 1dbe
000002b0: a047 913e f314 ddbd 40d0 a5bd b419 34be
000002c0: 646d a0be 5e63 b13c eb60 033e 888b 85bc
000002d0: 109c 45bb 08a1 56be 5211 8dbc 030e 84bd
000002e0: 9dc7 01bd 13ca 96be 9927 d0be 4eee d03d
000002f0: 10d5 b23d da41 86be 54d4 f53e 9d57 fdbe
00000300: 1c7d 35be 87f2 663d b43a ccbd 5d13 b83d
00000310: 99f7 55bd abd8 fb3c acde 5f3c bfdd 15be
00000320: 1257 0c3d 5c05 64bc d845 4cbe eac7 2a3e
00000330: 34aa 7e3d 0a68 9abb 07e1 c5bd 8912 e13d
00000340: a1cb 173e 5784 b2bc c0cb 8d3d 90ed 49be
00000350: f860 02be 4a51 0d3e 84e6 8f3e 5425 063e
00000360: b0b9 5e3d 37c4 16bd b01e 013d acf7 fe3d
00000370: b02f 843d ef76 d5bd e1f1 3dbd 6c1a 923c
00000380: 8945 173e ccf1 70bd 432e 87bd 3ec9 8cbe
00000390: 41e5 473d 03c0 b33b e538 d1be b10d d83d
000003a0: 73ee bb3b 120f 44bd df58 54bc 0d8c 453e
000003b0: 1282 273e a1cf 18be cef4 b33d 06ef 003d
000003c0: e2e8 f8bc 0415 1e3e ec5a 1ebe 8830 d8bd
000003d0: f581 fd39 228d 003a 8a68 373d adc2 e8bd
000003e0: ffaf 3abd c9d4 2bbe a7a9 003c 508b 53bc
000003f0: 9d43 7d3d 9a46 93ba b011 373e c752 adbd

fc.bias f4 [128]
-0.43786383 0.1268269 0.4087089 -0.35100016 0.17551531 0.057128876 0.21783334 0.29660314
-0.10280811 0.07620478 -0.5499566 0.13581118 -0.5554216 -0.7095562 -0.59810966 0.14359501
-0.5160309 -0.48646674 -0.0040180087 0.16199471 0.09168141 -0.34168357 -0.035213184 -0.31689137
0.008896332 -0.5537359 0.030419085 0.086996734 -0.32398802 0.10933741 -0.82076496 -0.66051036
-0.6275761 -0.68287146 -0.5374865 0.07628116 -0.23973764 0.17999767 -0.42524248 -0.021962773
-0.043074325 -0.6577209 -0.57944185 0.12454935 0.2952046 -0.08062466 -0.30209816 -0.028707467
-0.088587664 0.009259163 -0.05464664 -0.58361065 -0.34235555 -0.5906508 -0.052358788 -0.568452
-0.5956001 -0.6067404 0.17473426 -0.5821245 0.33294508 0.0034869763 -0.04742643 -0.38188812
-0.15710944 0.07501238 -0.47230366 -0.79411554 -0.1761836 -0.0922513 0.01101675 -0.07342483
-0.2527471 -0.87606645 0.22472079 -0.557863 0.14702637 -0.62071526 -0.521495 -0.46275485
0.11031088 -0.6560114 0.14993528 0.021683926 -0.84342957 -0.52828383 0.39181897 0.12378763
-0.13433145 0.2048154 -0.51679665 -0.7608164 -0.5766599 -0.7966481 0.19517821 -0.4948803
0.2201273 0.3484246 0.077399105 -0.18130638 -0.5865338 0.5653071 -0.71254206 -0.2123086
0.43711928 -0.094968006 -0.09632667 -0.13382474 -0.012335677 0.13625856 -0.45619115 0.018646194
-0.12813921 -0.541701 -0.15660696 -0.0071420055 -0.009138494 0.27783456 -0.06083121 -0.419491
-0.75526386 0.09468767 0.022130262 -0.6769451 0.2325232 -0.19307618 0.06208585 0.23452722
00000000: b02f e0be e9de 013e 4b42 d13e 4bb6 b3be
00000010: 49ba 333e f8ff 693d b40f 5f3e 5edc 973e
00000020: 0f8d d2bd 4011 9c3d f5c9 0cbf 1612 0b3e
00000030: 1c30 0ebf 7aa5 35bf b71d 19bf 920a 133e
00000040: 9a1a 04bf 2b12 f9be 80a9 83bb f1e1 253e
00000050: 77c3 bb3d 26f1 aebe b33b 10bd 963f a2be
00000060: ecc1 113c a3c1 0dbf 7231 f93c 582b b23d
00000070: c2e1 a5be 4bec df3d a71d 52bf 3517 29bf
00000080: d4a8 20bf aad0 2ebf b798 09bf 4c39 9c3d
00000090: c97d 75be 4f51 383e 62b9 d9be 46eb b3bc
000000a0: b46e 30bd 6660 28bf 4d56 14bf bb13 ff3d
000000b0: 0f25 973e 8b1e a5bd 9cac 9abe ec2b ebbc
000000c0: 736d b5bd bfb3 173c 28d5 5fbd 8267 15bf
000000d0: 3a49 afbe e434 17bf 2b76 56bd 1286 11bf
000000e0: 4079 18bf 5753 1bbf 8aed 323e 1c06 15bf
000000f0: c777 aa3e c185 643b 3742 42bd d786 c3be
00000100: 4ce1 20be 17a0 993d c9d1 f1be 284b 4bbf
00000110: 7969 34be 40ee bcbd 997f 343c c25f 96bd
00000120: 1168 81be e445 60bf 351d 663e 1cd0 0ebf
00000130: 158e 163e 32e7 1ebf b280 05bf 34ee ecbe
00000140: acea e13d 5df0 27bf a288 193e 7da2 b13c
00000150: 00eb 57bf 9c3d 07bf 7f9c c83e 5e84 fd3d
00000160: 2f8e 09be 21bb 513e c94c 04bf ddc4 42bf
00000170: fc9f 13bf 21f1 4bbf ccdc 473e f360 fdbe
00000180: 0d69 613e b664 b23e 6c83 9e3d 61a8 39be
00000190: 1427 16bf f7b7 103f 2869 36bf 6d67 59be
000001a0: 19ce df3e 967e c2bd eb46 c5bd 5a09 09be
000001b0: 941b 4abc 5d87 0b3e e391 e9be e7bf 983c
000001c0: ed36 03be ebac 0abf 935d 20be 7c07 eabb
000001d0: 9fb9 15bc 5540 8e3e 262a 79bd 86c7 d6be
000001e0: f958 41bf 9ceb c13d 864a b53c 464c 2dbf
000001f0: 901a 6e3e c3b5 45be bb4d 7e3d e727 703e
