model/Image_reconstruction_encoder.pt (torch, 431163 bytes, 14 tensors)

conv.0.weight f4 [4, 1, 3, 3]
000000 2b 41 91 3c 90 18 e5 bd 4f 2f 37 3d 49 85 08 be
       0.01773127 -0.111863256 0.04472285 -0.13332094
000010 9f f7 14 be 39 02 57 3e 9e 09 05 3e 03 77 d3 3d
       -0.14547585 0.20996942 0.1299195 0.10325434
000020 72 fc 97 3d 1c a5 3c be 80 47 c4 bd 10 70 3d be
       0.07421197 -0.18422359 -0.0958395 -0.1849978
000030 a9 26 f8 3e 8f f3 99 3e 4a 72 9c 3e 21 aa b8 bd
       0.48466995 0.30068633 0.30555946 -0.090168245
000040 4f 2b 43 be 50 7e 24 be 76 1c 1b 3d 46 46 19 3e
       -0.1905949 -0.1606381 0.03786894 0.14968213
000050 e6 73 ca 3e 85 f0 79 be 16 2c 87 be 8b 0a 35 3e
       0.39541548 -0.24408157 -0.26400822 0.17679803
000060 f0 bf 39 bf 75 c6 13 bf 5b 84 f5 be cb de f0 3d
       -0.725585 -0.57724696 -0.47952542 0.117612444
000070 0b 38 ef 3d c6 64 a2 b9 37 27 01 3e 28 16 72 3e
       0.11680611 -0.0003097413 0.12612616 0.23641264
000080 17 07 8c 3b e4 3d 7b 3d 2b 90 45 3e 5b 0d 8f bd
       0.004273306 0.06133832 0.19293277 -0.06984969

conv.0.bias f4 [4]
000000 3b ae 1a bd 83 b9 a8 be 15 99 2c be 40 0d b1 be
       -0.037763815 -0.32954034 -0.16855271 -0.3458042

conv.2.weight f4 [8, 4, 3, 3]
000000 c8 53 d5 3e 3c b4 5e bd 59 5a 3e 3e 40 22 f7 3e
       0.41665483 -0.054371104 0.18589152 0.48268318
000010 b6 6d aa be 79 dd 26 bf 45 3e 0d 3e f2 1f 10 3d
       -0.33286828 -0.6518169 0.13793285 0.035186715
000020 4a bd 83 3d 8f f4 2d 3e c6 83 7b bd 4a 40 17 bf
       0.064325884 0.16987823 -0.061404966 -0.5908247
000030 40 5a ab be 55 42 30 be bc c6 e7 bd 87 bc cc 3e
       -0.33467293 -0.17212804 -0.113172024 0.39987585
000040 da f0 3b 3e b6 77 bd be 11 d4 23 bf c6 61 73 be
       0.18353596 -0.37005395 -0.6399546 -0.23767766
000050 33 27 78 3c 54 66 ca bd c3 bc 87 bd 69 53 30 3e
       0.015146065 -0.09882799 -0.066278 0.17219318
000060 3c 1b f5 be e1 35 b0 be 44 08 63 bf 8d d4 0e be
       -0.4787234 -0.34416106 -0.8868449 -0.13948269
000070 75 84 5a 3e 8e 67 85 3d 9c 36 0d bf b9 fe 51 3d
       0.21339591 0.06513892 -0.5516145 0.051268313
000080 23 b1 80 be 4c 09 a7 be 90 5d cb bc 19 3b c1 bc
       -0.25135145 -0.3262428 -0.024824888 -0.02358775
000090 1e 52 b3 bc 66 05 21 bd ec 65 81 bd a8 91 16 be
       -0.021889742 -0.03931179 -0.06318268 -0.14704001
0000a0 8e 2f 8a bd 90 52 87 bd 67 93 1c be 7b 0c a0 bd
       -0.067473516 -0.066075444 -0.15290605 -0.078148805
0000b0 7c 94 3f be bb 98 25 bd f6 2f f8 3d 16 b8 3e bc
       -0.18708986 -0.04042886 0.12118523 -0.011640569
0000c0 d8 6d 22 be 50 a6 8d bd e8 7c 95 bd 0c a6 00 3e
       -0.15862215 -0.06916487 -0.072992146 0.12563342
0000d0 8b 5a 4a 3d 0e d9 9c 3d 9f 55 ed 3d a6 59 f7 bd
       0.049402755 0.076585874 0.115885966 -0.12077646
0000e0 08 6b 98 b9 63 10 81 3d b6 80 e6 bc 1e 4a 24 be
       -0.00029071444 0.06301954 -0.028137546 -0.16043898
0000f0 00 39 87 bc a6 8e 00 be 22 07 f9 3d d4 3b 3f be
       -0.016506672 -0.12554416 0.121595636 -0.18675166
000100 3b 6f 11 be 50 24 2b bd 26 53 df bd 40 ea 2e bd
       -0.14202587 -0.041782677 -0.10904531 -0.042703867
000110 53 10 8b bd 0b 6b 0f bd a8 6b 0e be 13 08 a3 bd
       -0.06790223 -0.035014194 -0.13908255 -0.079605244
000120 15 06 a1 3c 2e 1a c0 3c a9 c4 b9 bc 75 9d a2 3b
       0.01965622 0.023449983 -0.022676783 0.004962618
000130 40 2f 32 bd e2 c5 94 be 14 da 25 3d be c1 97 3d
       -0.043502092 -0.29057223 0.04049118 0.0741
000140 78 f7 9d 3d 1d 92 01 be 06 06 47 3e 5a e3 f0 3c
       0.077132165 -0.12653394 0.19435892 0.029405285
000150 dc fd 7b be ee 94 26 bd 2b 8d c5 bd 07 37 ef 3d
       -0.24608558 -0.040669374 -0.09646066 0.116804175
000160 c7 be ec bd f2 a8 b0 bd b4 19 84 be 18 bd a1 3a
       -0.115598254 -0.08625974 -0.2580086 0.001233968
000170 21 40 1a bd ae ca fc be 23 2f fa 3d d5 5b 64 3e
       -0.037658814 -0.49373382 0.12216022 0.22300656
000180 29 ff e8 bc ad 02 cd 3d 0e 22 92 3d 41 b9 90 bd
       -0.028441982 0.10010276 0.07135402 -0.070665844
000190 31 34 e8 3d 37 d2 33 bd 06 6b b4 bb ee 27 ac 3e
       0.1133808 -0.04390165 -0.0055059223 0.33624214
0001a0 a2 cb 4e 3d 35 46 90 bd 40 2e 80 3e 69 15 1b 3e
       0.050487168 -0.07044641 0.25035286 0.15144886
0001b0 05 f5 2c bc 82 b4 fd bd e9 a3 9b be aa 81 bf 3d
       -0.010556464 -0.12387945 -0.3039849 0.09350903
0001c0 58 dd 52 3e 24 43 cd bc 20 aa 27 3e ea 2b 1a 3e
       0.20592248 -0.02505643 0.16373491 0.15055814
0001d0 9c d9 55 3d e8 d7 13 bf b3 f2 e6 bf 77 0c 05 bf
       0.05220948 -0.5775132 -1.8042816 -0.51972145
0001e0 12 fd 92 be c6 b3 87 be 5a 9f 06 bf f2 e3 0d 3e
       -0.28708702 -0.26504344 -0.525869 0.13856485
0001f0 eb df 9a 3e dd af 3a 3d 35 96 ca bf 23 44 92 bf
       0.3024896 0.045577873 -1.582709 -1.1427044
000200 03 0f 53 3d d8 ae 91 bf 5e 75 18 c0 60 83 f6 be
       0.05152799 -1.1381483 -2.3821635 -0.48147106
000210 b0 e5 04 3c 32 3d bd 3d b9 c6 51 3e 90 6e b0 3c
       0.008111402 0.09240188 0.20485963 0.021537095
000220 80 82 d8 3c 7e a9 b5 3e 3b 26 ba bd 3b d3 f0 bd
       0.026429415 0.35480875 -0.09089323 -0.11759039
000230 ce 4b 51 3e 04 ca df 3d ce 21 d3 bc 92 f1 e8 3d
       0.20439073 0.10927203 -0.025772955 0.11374201
000240 29 d5 e1 3d 2d 10 be bc ff 50 10 be 51 34 34 bd
       0.11026985 -0.023201073 -0.14093398 -0.043995205
000250 da f1 19 bd e9 30 94 3c 60 b7 8c 3d c9 03 d1 3d
       -0.037584163 0.018089728 0.068709135 0.102058
000260 29 0c 09 3c 2b 1f 15 bd e8 a5 1c bd fb da 50 be
       0.008364716 -0.036406677 -0.038244158 -0.20396034
000270 44 1f c0 be 38 da bc 3d ed 2a 83 3e 8c e4 1b 3e
       -0.37523854 0.092213094 0.25618687 0.15223902
000280 69 79 a6 bd f3 eb 4d 3e fe 0f 97 3c 43 eb 05 3e
       -0.08128626 0.20109539 0.018440243 0.13078026
000290 e7 77 1d 3e 6b 48 a6 be c7 c6 33 3e 5e a7 9d 3d
       0.1537777 -0.32477126 0.17556296 0.076979384
0002a0 54 a9 83 3d 32 0f 75 3e 54 37 c7 bf 3f 93 51 3d
       0.06428781 0.23931578 -1.556376 0.051165815
0002b0 09 64 22 be 38 74 83 be 82 be 01 be 02 61 70 bd
       -0.15858473 -0.25674605 -0.12670329 -0.058686264
0002c0 3d 98 89 bd a4 d7 07 3d be 1b 56 3e f9 14 a6 3e
       -0.0671849 0.033164635 0.2090902 0.32437876
0002d0 dd 84 6a 3d b5 a2 48 3e 1f eb f3 3d db 02 ea 3d
       0.057255615 0.19593318 0.1191008 0.11426326
0002e0 b2 0a 12 3e 93 ff 99 bc f9 03 0d be ca 8c cf bd
       0.14261892 -0.018798625 -0.13771047 -0.10134275
0002f0 cc 82 84 be b2 94 5e 3e 61 87 bc 3e 87 a5 0d 3e
       -0.2588104 0.2173641 0.36822036 0.13832675
000300 2d 37 00 3f 05 ff 8b 3e a0 a7 02 3f 58 c9 b9 be
       0.5008419 0.27343002 0.51037025 -0.36286426
000310 43 e5 b0 bd 55 b9 9f be ea 78 ba 3d 09 cc aa 3b
       -0.08637478 -0.31196085 0.09105094 0.005212311
000320 09 35 9a 3d 0f f1 be 3d 6c f1 ad 3d 4f 24 34 3d
       0.07529647 0.09323322 0.08493313 0.04397994
000330 7e 6c 2a 3e cc 07 4d 3e 36 53 4c 3e fb 39 69 be
       0.16642949 0.20022506 0.19953617 -0.22776024
000340 44 8f a3 be 71 2f 0c be 46 fb 82 3e 22 74 95 3e
       -0.3194524 -0.13689972 0.2558233 0.29190165
000350 dd ff 7c 3e 05 24 4f bd 1d 03 5b 3c 93 4d 84 be
       0.24706979 -0.05057146 0.0133674415 -0.25840434
000360 2f 79 94 3d 75 bb 96 3e 34 16 d7 be 04 84 b3 3d
       0.072496764 0.29439893 -0.42009127 0.08765414
000370 03 62 c7 3e f2 4e 2f be 78 b3 f1 be 6c c9 d3 3d
       0.38941965 -0.17119959 -0.47207236 0.103411525
000380 26 3f 70 3b d3 cd 02 3e ae 9f c0 bc b1 f1 d6 bc
       0.0036658733 0.12773828 -0.023513641 -0.026238294
000390 09 58 52 3e 03 08 4d be f2 41 7a 3e 20 72 66 3e
       0.20541395 -0.20022587 0.24439219 0.22504473
0003a0 df 15 2a 3d b0 3a 82 3e 6b 13 dc bd 88 1d 7f bd
       0.041524764 0.254354 -0.10745891 -0.062284023
0003b0 09 a5 a3 3d 38 ba 07 3e ab 4f 96 3e 65 b5 91 3e
       0.07990462 0.1325463 0.29357657 0.28458706
0003c0 f4 a2 7f 3c 80 20 4d 3d a7 44 a4 3d 04 36 56 3d
       0.015602816 0.050079823 0.08020907 0.052297607
0003d0 38 6b 21 3e 82 87 dc bd bd 08 51 3e e8 0a 81 3e
       0.15763557 -0.107680336 0.2041349 0.25203633
0003e0 de 9d 31 3d da 0c d4 bd 56 45 4c bc 44 8c c5 bd
       0.043363445 -0.10354014 -0.012467703 -0.09645894
0003f0 29 64 dc bd 1c 3f b1 bd 85 2f 91 bd a4 6d 56 3c
       -0.107612915 -0.08654615 -0.07089142 0.013087664

conv.2.bias f4 [8]
000000 e7 9e 92 bc ca 7c e6 bd 82 54 c1 bd 63 1e 39 be
       -0.017898036 -0.112542704 -0.09439947 -0.18077998
000010 b8 f5 5a 3a 93 94 34 be e9 73 1f be 19 82 81 be
       0.0008352655 -0.17634802 -0.1557156 -0.2529457

conv.4.weight f4 [16, 8, 3, 3]
000000 5e 84 18 be 9c f7 83 3e 65 bc 1a be 85 b7 43 3e
       -0.14894244 0.25774848 -0.1511093 0.19112976
000010 04 ab 69 be 45 5f 17 bf c3 2e ad 3d 5e ec fd be
       -0.22819144 -0.59129745 0.08456185 -0.49594396
000020 b5 0e 00 3e 21 1b a3 b8 c0 ee b0 bd 38 de 86 bd
       0.1250561 -7.777499e-05 -0.08639288 -0.065853536
000030 ee 91 13 bd 00 7e 85 ba 5a 53 3c bd 48 e7 19 3b
       -0.03602784 -0.0010184646 -0.045977928 0.0023483802
000040 db 33 b5 bd bb 21 ce bb e0 e0 8c be eb ff a9 be
       -0.08847781 -0.006290642 -0.27515316 -0.33203062
000050 a0 24 91 3d 4e 3b db 3e 14 ff 7c 3e 91 86 ca bd
       0.07087064 0.42818683 0.2470668 -0.09888948
000060 47 0e 7f 3e 1a 62 b1 3e 63 9c 43 bd cf 5f 5d 3c
       0.2490779 0.34645158 -0.047756564 0.013511612
000070 b9 13 08 3b cd 0b e6 bd 6f d5 b7 bd bb f4 2f 3e
       0.0020763709 -0.112327196 -0.08976256 0.17183201
000080 96 95 98 3b 15 be 60 3e 99 09 c5 3e c9 f3 65 3c
       0.004656504 0.2194751 0.38483885 0.014035174
000090 24 b9 28 bd b8 ee f7 3d 89 0c 1a bb 75 19 d6 3d
       -0.04119219 0.12106079 -0.0023506007 0.10454074
0000a0 8e 33 fb bd cd 61 82 3d 26 a0 76 bf 4c 5a 82 be
       -0.12265693 0.0636631 -0.9633812 -0.25459516
0000b0 9c 9e fa bd 0a 85 1d 3d d5 60 b6 bc 87 f2 30 bd
       -0.122372836 0.038456954 -0.02226297 -0.043200042
0000c0 7e 7b 71 3d f4 43 0f 3f ba 3b 51 be 81 2f 3c 3e
       0.058955662 0.55963063 -0.2043294 0.18377496
0000d0 4f c5 a3 bd 31 8f 05 3d 6f 90 14 3e 60 f4 45 3e
       -0.07996618 0.03260726 0.14508222 0.19331503
0000e0 4e 61 ef 3d 1c 34 ed be 73 0f 6f bd ea 9f 7c be
       0.11688481 -0.4632882 -0.058364343 -0.24670377
0000f0 f9 1c f9 bd a7 27 b3 3e 4a 2d 5d be dc 41 6a 3e
       -0.12163729 0.3499119 -0.21599308 0.22876686
000100 08 5c ac 3d 94 d6 f7 ba ea ce 48 3e a8 c9 f5 bd
       0.08415991 -0.0018908554 0.19610181 -0.120013535
000110 a6 4e 88 be d7 7a 10 3e 5d af 83 3c 02 31 5a be
       -0.26622504 0.1410936 0.01607483 -0.21307757
000120 28 7c 4e 3e 8d f6 0c bc be 23 24 be 8b 50 1a 3e
       0.2016455 -0.008603704 -0.1602926 0.15069787
000130 e5 9a 02 be 0a c1 af bd a3 c4 1c 3e ca b7 ca be
       -0.127544 -0.08581741 0.15309386 -0.39593345
000140 61 83 37 bd 1c 7f fd 3c c3 c2 d6 3c 9f 02 e9 3d
       -0.044803027 0.0309444 0.026215916 0.11377453
000150 93 c3 a3 3d 87 bb 8d 3d 84 5e 81 bd 0c 37 10 bc
       0.07996287 0.069205336 -0.063168555 -0.008802187
000160 5c 94 65 bb 09 a6 b3 3d b3 e1 9f 3e 3b a8 8e 3e
       -0.0035031056 0.08771903 0.31226882 0.27862725
000170 b1 a7 ac bc 52 6e ae 3e 3c 8d a1 3e 92 e8 b1 bd
       -0.021076055 0.34068543 0.31553066 -0.086869374
000180 c6 e0 ad 3d 6d ae 01 bd 20 c5 b7 3d 11 49 08 3e
       0.08490138 -0.031660486 0.089731455 0.13309123
000190 d7 63 b7 3e f9 fa d4 bc 41 c8 01 bd cc 74 aa 3e
       0.3581836 -0.02599858 -0.031685118 0.33292234
0001a0 6e 53 37 3d ee 07 f7 3d 40 12 05 3e 73 b8 14 3d
       0.0447573 0.12062059 0.12995243 0.036308717
0001b0 ea 95 27 3d da 23 f7 bd e5 d8 c0 3d e0 4c 3f bf
       0.040914454 -0.12067385 0.09416369 -0.74726677
0001c0 be c3 b9 be 8d 52 1a 3c 9e 64 76 3c c2 d3 b1 3b
       -0.36282152 0.009419096 0.015038637 0.005426855
0001d0 93 2a 7b bd f5 ea ad bb 0a fa ac 3e da f8 06 bc
       -0.0613199 -0.00530755 0.33784515 -0.008238042
0001e0 01 93 dd bc 11 ce 0b 3e 35 c3 05 3d d9 61 b9 bd
       -0.027047636 0.13652827 0.032656867 -0.09051866
0001f0 68 61 11 3e a9 1b 95 be 78 18 a0 be 7f cd 39 bd
       0.14197314 -0.29122666 -0.31268668 -0.045361992
000200 66 be e1 be 23 70 8b 3d f4 17 a1 3e 63 8e 96 be
       -0.44090575 0.06808498 0.31463587 -0.29405507
000210 15 0c 3c 3d 5e 29 6f 3e 0d 57 38 be af 1a 52 3e
       0.04590996 0.23355624 -0.18001957 0.20517991
000220 ab 17 b1 bd e7 5b 82 be 25 dc 15 3e 13 db 91 3c
       -0.086470924 -0.2546074 0.1463476 0.017804658
000230 29 1d 5c be 3f e1 34 3d 97 df b1 3d 1f cd 37 be
       -0.21495499 0.044160124 0.086852245 -0.17949341
000240 f7 5a 2a be 66 2f c2 3d d3 92 08 bd 33 45 d8 3c
       -0.16636263 0.09481697 -0.033343147 0.026400184
000250 0c 9e 27 bd ac ce 21 be c2 ab 09 be 76 54 35 3e
       -0.04092221 -0.15801495 -0.13444427 0.17708
000260 72 2a fd bd 33 db 47 bd 95 08 a7 3d cc a0 e3 bd
       -0.123616114 -0.04879303 0.08155934 -0.11114654
000270 12 0e d5 3d 00 8a a1 3d c8 ed f4 3c 60 54 81 bd
       0.10403074 0.078876495 0.02989854 -0.063149214
000280 44 9a 1b 3d e1 bf 8d bd e7 ff 30 bd e9 26 91 3d
       0.037988916 -0.069213636 -0.043212797 0.070875
000290 de 7a 3d bc 2a c8 60 be e0 bc 33 3e d6 ad eb 3c
       -0.011564938 -0.21951357 0.17552519 0.028769415
0002a0 09 9d 44 be 91 d7 65 3d e6 a6 5c 3e 65 99 44 be
       -0.19200529 0.056113783 0.21548042 -0.1919914
0002b0 a6 b9 bb 3d 85 bb 01 3d ee a2 d9 3d 0c a5 fb 3d
       0.09166269 0.031672973 0.106267795 0.122873396
0002c0 d2 6f 2d 3d 8c 8b 1a 3d cf 28 21 bd 8c ab 0f 3e
       0.04234297 0.03773074 -0.03934556 0.14030284
0002d0 cc 26 16 3d a2 f1 d7 bd 92 24 34 3d 6a 45 d5 3d
       0.036658093 -0.10544135 0.04398019 0.1041363
0002e0 e5 ea 4a bd 22 e2 36 3c b1 7c 01 3e 37 0a e4 bd
       -0.04954042 0.011162313 0.12645222 -0.11134761
0002f0 d7 56 9c be bd d0 a6 3c 8f 13 2b 3d fb 3f 27 3d
       -0.30535004 0.020363206 0.0417667 0.0408325
000300 e9 0f 37 3c 17 e5 f0 bd b6 5f 80 3d ba 46 49 3d
       0.011173227 -0.117624454 0.062682554 0.049139716
000310 f6 d4 00 bb b4 12 c6 bd 0f e7 23 3d e6 66 d7 bd
       -0.0019658185 -0.09671536 0.040015277 -0.10517673
000320 9f 6f c2 bd 0a 5f bf 3d 2e 63 57 3c 5e f4 b2 3c
       -0.09493946 0.09344299 0.013146205 0.021845039
000330 6e 08 16 3e 12 27 b7 bd 05 d9 e9 bd f8 c5 3b 3c
       0.14651653 -0.08942999 -0.11418346 0.011460774
000340 04 06 cd bd 05 d6 c3 3d 43 c4 32 3d f5 ea bb bd
       -0.10010913 0.09562305 0.0436442 -0.09175674
000350 40 17 7b 3e 93 ae c6 3b 99 52 de bd ce 01 a4 3e
       0.24520588 0.0060632913 -0.10855598 0.32032627
000360 63 c0 87 bd c1 7a 6f bd ea 7d 03 3f ac 5e b1 3e
       -0.06628492 -0.058466677 0.51364005 0.3464254
000370 b7 79 88 3e d4 3f 11 be b2 6b aa be dd c4 3f 3e
       0.2665536 -0.14184505 -0.3328529 0.18727441
000380 f8 53 4c bf 47 c7 00 3d 3c 55 79 3c 14 eb 62 3d
       -0.79815626 0.031440046 0.015218075 0.05539997
000390 2b 4c 80 bc 64 40 11 3d 02 92 3e bc e7 d3 9c bd
       -0.01566132 0.0354618 -0.011631491 -0.07657605
0003a0 4b 04 be 3d 6a 94 9e 3a a9 7d 26 bd a9 44 48 be
       0.092781626 0.0012098674 -0.040647183 -0.19557442
0003b0 09 b9 b7 be c4 cc ce 3d 2b cd c2 3d 0c f1 40 3e
       -0.35883358 0.1009765 0.09511789 0.18841952
0003c0 cd 33 f5 3d 27 a7 e9 3b aa 12 d9 3d 12 b5 9f 3d
       0.11972771 0.007130522 0.10599263 0.07798208
0003d0 a4 6d de 3d 63 7d 2e 3e eb 51 b3 3d 12 0b 92 bd
       0.10860756 0.17040019 0.08755859 -0.07131018
0003e0 ed 48 54 be e5 7a 05 3e eb ae 99 3e cd 1d 94 3e
       -0.20730944 0.13035162 0.30016264 0.28928986
0003f0 a4 72 09 3d bf c8 c6 3d c6 1c b9 3d c5 56 6b be
       0.033556595 0.09706258 0.09038691 -0.22982319

conv.4.bias f4 [16]
000000 14 9b 78 be c0 40 3f be eb fa 30 bd 92 34 04 be
       -0.24277908 -0.18677044 -0.043208044 -0.12910679
000010 dd 3e 23 be dd 3a 29 be 97 f3 aa bd a7 2c f6 bd
       -0.15941949 -0.16526361 -0.08347242 -0.120202355
000020 29 84 36 bd ad 89 08 be 94 f9 5a be 86 a8 33 be
       -0.04455963 -0.13333769 -0.21384269 -0.17544755
000030 57 cf 1a be dc b8 f0 bd 7c 70 16 be 68 09 33 be
       -0.15118156 -0.11754009 -0.14691347 -0.17484057

conv.6.weight f4 [32, 16, 3, 3]
000000 35 f6 6d bd 0b d7 f4 bc e8 3c cb 3a 08 dc d3 3c
       -0.05809613 -0.029887697 0.0015505822 0.025861755
000010 2d 6f 37 bd aa 23 bf 3b 2e 5d 2b bd 16 76 04 bd
       -0.04478376 0.005833109 -0.04183691 -0.032339178
000020 a8 34 ae bd dd a1 fb 3d 91 23 ae bc 61 49 a3 3d
       -0.08506137 0.12286732 -0.021257194 0.0797298
000030 30 80 b8 3d 7d 85 c1 3c b2 65 9f bd 6e a1 ea 3d
       0.09008825 0.023623222 -0.07783069 0.114565715
000040 bc e8 27 bd 71 bd 08 be 9d 36 91 be 71 43 f1 ba
       -0.040993437 -0.13353516 -0.2836198 -0.001840694
000050 48 d8 0e be d4 da 1d bd 00 3b 34 be 76 9a 36 be
       -0.13949692 -0.03853877 -0.17600632 -0.1783236
000060 14 15 79 3c 30 2b 9d bd 9a 02 9b 3d ef 28 71 bc
       0.015202779 -0.07674253 0.075688556 -0.014719232
000070 09 72 3b bc f0 cc 5d bd 97 23 b2 bc 41 9a a4 3d
       -0.011440762 -0.05415052 -0.021745486 0.08037234
000080 0a 0c 10 3c 76 5e 07 3d 46 c0 af 3d a7 74 2c be
       0.008791933 0.03304907 0.08581595 -0.16841374
000090 18 c3 d9 bd ae 3e f8 bd e1 31 75 3d b9 8a a5 3d
       -0.10632914 -0.1212133 0.05986202 0.080831
0000a0 6a 6d 04 be 6d 25 79 bd 53 24 ea bc ff 1e 37 bd
       -0.12932363 -0.060826708 -0.028581774 -0.044707295
0000b0 a3 5c 3a 3c 88 16 3b bd 1b d6 9a bd cb 3e ad bd
       0.011374625 -0.045675784 -0.075603686 -0.084592424
0000c0 46 8c 3d bd 19 ac 55 3d bb 2a 2a bb d5 a8 03 be
       -0.046276353 0.05216608 -0.002596541 -0.12857373
0000d0 fa e4 c4 bc 72 bc 50 be 6a f4 06 3c 00 47 cd 3d
       -0.024034966 -0.20384386 0.008236984 0.10023308
0000e0 bf 19 57 bc 7e ec 8e bd f3 b4 c9 bc 71 7d 2b bd
       -0.013128697 -0.06978701 -0.024622416 -0.041867677
0000f0 09 cc af bc 56 66 76 3d 34 42 62 bc 3b 5a a9 bd
       -0.021459596 0.06015619 -0.013809729 -0.08269163
000100 99 00 0d be 17 0a 80 bd b6 58 76 bd e5 55 a9 bd
       -0.13769759 -0.062519245 -0.060143195 -0.08268336
000110 1d 18 e7 bc 35 de f5 bc 60 cd b1 bd 39 30 19 3d
       -0.02820974 -0.030013183 -0.0868175 0.037399504
000120 54 df 02 be 91 6a 4e bd d2 55 99 3c 2b 0a a1 bd
       -0.12780505 -0.0503946 0.01871768 -0.078632675
000130 e5 6f a0 bd 0d fd cd 3c 17 2b c6 bb 01 f1 92 bd
       -0.07833842 0.025145078 -0.006047617 -0.07174874
000140 70 4c b6 bd 59 64 00 be 20 db 78 3d 43 6e 27 3d
       -0.08901298 -0.1253828 0.06075585 0.04087664
000150 e7 1e d1 3c 2d 2c b0 3c 9b bd fc 3b 9f 08 00 bd
       0.02552743 0.02150544 0.0077130324 -0.03125822
000160 47 9c 3e 3d dc 5e de bd 7e 52 1e bd e4 53 cc bb
       0.046535756 -0.10857937 -0.03865289 -0.0062355865
000170 a9 72 a7 bd 76 29 02 3d a5 09 31 bd 97 aa a1 bd
       -0.081761666 0.03177782 -0.04322209 -0.078938656
000180 df 43 cd bc 24 18 09 be b4 dd 07 be f3 04 bf bc
       -0.025056778 -0.13388115 -0.13268167 -0.02331779
000190 1a 01 ab 3c b6 83 14 be c3 c2 65 be d6 a2 20 be
       0.020874549 -0.14503369 -0.22437577 -0.15687117
0001a0 2b 42 58 bd d2 53 3e bd 6a 9d 8d bd b8 f0 f6 bd
       -0.052797478 -0.046466656 -0.0691479 -0.12057632
0001b0 f8 c9 95 3b 9a 8f ac 3b 03 9f 7b 3d 39 d5 2f be
       0.0045711957 0.005266142 0.061430942 -0.17171182
0001c0 2e 25 6b bd d4 11 3f bd 14 e1 23 3d 81 8e 0d 3d
       -0.057408504 -0.04664786 0.040009573 0.03455973
0001d0 3f 32 5d be 38 cc 02 be a2 fb e8 3d 63 1f b0 bc
       -0.21601199 -0.12773216 0.1137612 -0.021499341
0001e0 df d5 97 bb ab c5 8b 3c 1c ad c9 bd 87 b6 a0 3c
       -0.0046336497 0.017062029 -0.09847471 0.019618286
0001f0 d5 69 00 bd 5d 39 29 bd 63 ab 00 3d 2a 5f a8 bd
       -0.03135093 -0.04131447 0.031413447 -0.08221276
000200 a7 a5 bb bd 5c f1 c2 bc 3a 21 5c bc 75 df ec 3c
       -0.09162455 -0.02379673 -0.013435656 0.028915146
000210 67 68 0b 3d 21 5a 22 3d 97 1c 17 be dd a0 c3 bb
       0.034035113 0.039636735 -0.14757 -0.005970104
000220 57 9d f2 bd a6 d8 36 3d 42 e2 34 be 2b 67 8b bd
       -0.118464164 0.044640206 -0.17664436 -0.06806787
000230 8c 61 f9 3c b1 57 f4 3d dd ae 07 be 1a e4 3d bc
       0.030442022 0.11930788 -0.13250299 -0.011590028
000240 33 8e 2d bd 1c f3 d4 bd d2 35 59 bd 90 94 f3 3b
       -0.04237194 -0.10397932 -0.053029843 0.0074334815
000250 04 88 e5 bd d3 a4 c9 bd a9 b5 d3 3c 15 b7 45 3c
       -0.112075835 -0.09845891 0.025843458 0.012067576
000260 4f 1e da 3c e5 a0 57 bd e7 47 31 bd 1c f4 8f bc
       0.02662578 -0.052643675 -0.043281462 -0.017572455
000270 85 33 9e ba f0 06 ad bd 62 d2 83 ba 0d 19 58 bd
       -0.0012069797 -0.08448589 -0.0010057206 -0.052758265
000280 a7 dd 68 bc 90 1b e8 bc 98 7e 64 3d 71 fb c9 b6
       -0.014213002 -0.028333455 0.05578479 -6.0195384e-06
000290 cb bf b1 bc e8 1f 09 ba 3f d9 9a bb f2 e9 99 bd
       -0.0216979 -0.00052308897 -0.004725605 -0.07515325
0002a0 04 96 ae bd e2 ce 04 bd cc 8b 26 3d 2b 6b df bc
       -0.08524707 -0.03242386 0.040660664 -0.027272781
0002b0 5a d4 2b bc df 1b fe bc fd 66 fb 3c f0 b5 8a bd
       -0.01048764 -0.03101915 0.030688757 -0.06772983
0002c0 57 9b 1e 3d b7 b9 8b bd 78 9c 4d bd ab 2b a0 bd
       0.038722362 -0.06822532 -0.05019805 -0.07820829
0002d0 0a b8 ee bc 1f 4a 36 bd ec bd a9 bc 71 37 a9 bc
       -0.029140491 -0.04450428 -0.020720445 -0.02065632
0002e0 38 e5 5f bd 32 24 bd 3c 1b 58 9a bc 83 3a 79 bb
       -0.05466196 0.023088548 -0.01884084 -0.003802926
0002f0 a5 55 af bd fb f2 32 bd df f7 39 bd b7 ff 18 3c
       -0.08561257 -0.043688755 -0.045402404 0.009338311
000300 5e 15 ba bd d1 7d d4 3c a5 21 b4 bd 57 10 10 bd
       -0.09086107 0.0259389 -0.0879548 -0.035171833
000310 35 3a c8 3b 36 05 c7 3c 21 3f 31 bc 1b ad 2f 3b
       0.0061104544 0.024294477 -0.010818274 0.002680606
000320 bb c4 94 bc 58 cd 5a 3c 87 fc 81 bd 53 62 d8 3b
       -0.018160215 0.013354622 -0.06346994 0.006603518
000330 fc b6 4b bd 1c eb b6 bd 67 92 65 bd 32 19 57 bd
       -0.049735054 -0.08931562 -0.056047823 -0.052514262
000340 c2 aa 23 3d ba 78 53 bd d6 b7 aa bc 4a 37 a2 bc
       0.03995777 -0.051628806 -0.020839613 -0.019801755
000350 d5 b6 90 bc f1 dd 00 bd f0 6e a2 bd 82 d6 7d bd
       -0.017665306 -0.03146166 -0.07931316 -0.06197215
000360 b2 03 16 bd fd 30 94 bc 26 b1 75 bd 2d 1c 76 bd
       -0.036624618 -0.018089766 -0.059983395 -0.060085464
000370 f9 a4 dc bd 54 07 3f 3c b4 08 1f bc 39 b9 e5 bc
       -0.107736535 0.011659462 -0.009706665 -0.028042423
000380 16 44 63 bd 3b 81 54 ba 27 fe 15 3d 0a 5d 65 3c
       -0.055484854 -0.0008106415 0.03661933 0.013999233
000390 92 8a 0c bd d7 0f 39 bd 80 25 8f bd fb 36 54 bd
       -0.03431184 -0.04518112 -0.069895744 -0.051810246
0003a0 0b 1a 9c bc 67 e6 d9 3c bd 4b 7f bd 22 78 3c bd
       -0.019055387 0.026599122 -0.06232809 -0.046013005
0003b0 7c 61 d3 3a c1 03 e0 bd 22 ef 44 bc 6a 1f 64 bd
       0.0016127075 -0.10938216 -0.012019904 -0.05569402
0003c0 72 53 ad 3b ba d7 a1 3c 37 9b 44 3c 35 46 16 bd
       0.0052894885 0.019756187 0.011999897 -0.03668805
0003d0 f8 e7 83 3c 49 81 15 3c 1c 94 8f 3c 61 06 b2 3b
       0.016101822 0.009125062 0.017526679 0.0054328893
0003e0 13 09 fa ba b9 10 21 bc a4 c7 36 3d 82 c1 71 bd
       -0.0019076191 -0.009830647 0.044623986 -0.059022434
0003f0 1e 2c e6 bc 63 b1 b0 3a 01 2d 55 bd ed f2 09 3d
       -0.028097209 0.00134806 -0.052044872 0.033678938

conv.6.bias f4 [32]
000000 5a c6 20 be 9a 25 2e bd 19 42 2f bd dc c4 14 bd
       -0.15700665 -0.04251633 -0.042787645 -0.036320552
000010 f8 68 07 bd 50 83 94 bd 11 6e 69 bd 64 27 ef bc
       -0.03305909 -0.07251608 -0.056989733 -0.029193588
000020 94 90 87 bc 04 4c 8f bc 96 86 59 bd 9d 1d 60 bd
       -0.016548432 -0.017492302 -0.053106867 -0.05471574
000030 ad 16 74 bd 44 5e 8e bc 69 78 91 bd 48 43 5e bd
       -0.059591938 -0.017378934 -0.071030445 -0.054263383
000040 ed 3e 40 bd 14 be 17 bd 97 29 e0 bc 0b 99 c9 bd
       -0.04693501 -0.037046507 -0.027363582 -0.09843644
000050 09 1b b6 bc 95 b9 a4 39 8a be 11 be 3a 68 58 bc
       -0.022229688 0.00031418787 -0.14232841 -0.013208443
000060 c7 4e c6 bd 19 73 c7 bd ec 4a 01 bd 1b d5 3c bd
       -0.09682994 -0.0973875 -0.03156559 -0.04610167
000070 5f f4 84 bc de fd cf bd 3d 25 b4 bc f7 1a 28 bd
       -0.016229806 -0.10155843 -0.021990413 -0.04104134

conv.8.weight f4 [64, 32, 3, 3]
000000 08 fd 6a bd a9 9a 6f bd db 61 8b 3c 95 cf 90 bb
       -0.057370216 -0.058497105 0.017014435 -0.004419277
000010 3d c1 3d bd c7 a8 3a bd a9 58 f8 bc fe 6e 17 3c
       -0.046326865 -0.045571115 -0.030315714 0.009242771
000020 c5 d2 1b 3d 7f b9 3c 3a 9b 86 20 bd d8 8c 13 3d
       0.038042802 0.0007199272 -0.03919087 0.03602299
000030 04 6d 16 3d 97 aa 4e bc 9b 25 88 3d 41 03 c9 3b
       0.03672506 -0.012613914 0.06647798 0.006134421
000040 9a 86 25 3d 25 60 35 3d 9d 93 a1 be 8a 15 90 be
       0.04041157 0.044281144 -0.31557932 -0.28141433
000050 55 ce ed 3c 36 39 08 bf 29 42 c9 bd 08 70 a3 3e
       0.02902905 -0.53212297 -0.09827072 0.3192141
000060 47 f4 8b bc ab f9 dd be 66 0d 96 3d 98 f2 15 bf
       -0.017084254 -0.43354544 0.07326774 -0.58573294
000070 01 df 7f 3d db 60 79 3d 0d 1f 89 be 73 1f 02 3e
       0.062468532 0.060883384 -0.26781502 0.1270731
000080 3f d2 5d 3e 77 31 a8 be da 4c ed bc 6c 71 ab be
       0.21662234 -0.3285024 -0.02896731 -0.33484972
000090 54 39 8b be 41 48 03 bf 3f 08 a6 bc 90 ab 14 be
       -0.27192175 -0.51282126 -0.020267604 -0.14518571
0000a0 3b e9 34 bd 0c 05 2e bd 47 06 8a bd 05 21 fd 3d
       -0.04416774 -0.04248528 -0.067394786 0.123598136
0000b0 36 0a 3a 3e c3 37 23 be 86 b0 8a bd 9d 69 85 3d
       0.18167958 -0.1593924 -0.067719504 0.06514285
0000c0 88 78 f1 bc 05 38 07 be a3 e5 b2 3e dc bc fa bc
       -0.02947642 -0.13204964 0.34940824 -0.030607633
0000d0 5f e1 cf bd a4 7d e1 be 6f b1 02 3d c5 da 86 bd
       -0.10150408 -0.4404117 0.031907495 -0.06584696
0000e0 c2 92 01 be 56 4b 21 3d e2 cf 20 bd 98 f9 66 bc
       -0.1265364 0.039378487 -0.039260752 -0.014097594
0000f0 ba d2 8c bc 53 97 bd 3b 87 53 37 bd da b7 34 3e
       -0.017190326 0.0057858615 -0.044757392 0.17648259
000100 52 4f 02 3d e6 fd 38 be 82 6d d9 ba ab 6b 83 be
       0.031813927 -0.18065605 -0.0016588422 -0.25668082
000110 38 a9 35 3f 6b 2a c0 bc 78 c4 5d be 69 22 76 be
       0.7096133 -0.023457726 -0.21656978 -0.24036564
000120 05 80 24 be 02 3c 76 be 73 96 90 3c c2 1d 2a bf
       -0.1606446 -0.24046329 0.017649865 -0.66451657
000130 b3 6b 93 bd a7 e9 d1 3e d4 f5 2e be 49 f4 2e be
       -0.07198276 0.40998575 -0.17085963 -0.17085375
000140 a3 a2 c4 be 09 5e 42 be c5 cf 56 3e b3 3b 9a bd
       -0.38405332 -0.18981184 0.20977695 -0.07530918
000150 c3 cc ec be b9 ef 41 be c7 1f 3d 3e a5 94 d6 bd
       -0.4624997 -0.18939103 0.18469153 -0.104775704
000160 8d ec 6a be 0e 4e 7e 3d d9 4a c6 3c 99 2f 6d bb
       -0.229418 0.062086158 0.024205612 -0.00361917
000170 2d a6 92 3d aa a8 5f 3d 3f 56 55 3d ee 1f 4b bd
       0.07160602 0.05460421 0.052084204 -0.049590997
000180 08 ca eb ba 68 6c 1d 3d 23 77 61 bd 85 54 64 3d
       -0.0017989287 0.038433462 -0.05504526 0.055744667
000190 2a 36 69 bd b9 16 95 3c 41 da fd bb 34 5f 81 3c
       -0.05693642 0.018199312 -0.007746965 0.015792467
0001a0 78 42 98 3c ba 84 44 3d 24 69 72 3d 42 0a 4a 3d
       0.018586382 0.04797814 0.0591823 0.04932619
0001b0 c6 a3 8c be 71 26 a2 3d 63 f2 5e be af 16 7e 3e
       -0.274687 0.07917488 -0.2177215 0.2481334
0001c0 04 32 18 bf b2 cf 13 bd a2 31 95 be 17 6a 3f be
       -0.5945132 -0.036086746 -0.2913943 -0.18692814
0001d0 a9 b1 94 bc 74 12 94 3d 79 7d eb be 18 41 be bd
       -0.018151121 0.07230082 -0.45994166 -0.092897594
0001e0 98 2f 99 be e0 25 f8 bd b6 7a 52 bd 39 b0 81 be
       -0.29919124 -0.12116599 -0.051386558 -0.2532976
0001f0 3c c3 79 be e3 35 a9 3d f8 09 fa bd 2e 2b dc bd
       -0.24390882 0.08262231 -0.12208933 -0.10750423
000200 8e 10 55 3e 04 ae 6c bd bb 2b 0a 3d 76 73 3c 3e
       0.20807096 -0.05778314 0.03373311 0.1840342
000210 d2 a5 af be 6a 78 eb 3c b6 d0 a7 bd d8 df da bd
       -0.34306198 0.028743941 -0.08194105 -0.10687226
000220 2a b4 06 3d a6 32 b2 3d a0 bd a3 bd 15 8f 00 bc
       0.03288666 0.08701067 -0.079951525 -0.007846613
000230 98 5b d8 3e 4d 1f ee bd 53 5e ad be 13 12 c2 bd
       0.4225738 -0.11627064 -0.33861026 -0.09476104
000240 81 5c c0 3c 1c 34 3f bd 89 89 37 be 6d 92 50 be
       0.02348161 -0.046680555 -0.17923559 -0.20368357
000250 dd c2 bc 3d 7f f6 d9 3e 96 d6 4e be 53 5b 60 3e
       0.09216855 0.42570874 -0.20199046 0.21909837
000260 86 4a 82 be 7b 60 a0 bd 3f 25 f7 be a3 2d 36 bf
       -0.25447482 -0.07830902 -0.48270604 -0.71163386
000270 7f 1b 3e be 9f 16 ac 3d 5e b8 a8 3e a4 c6 d2 be
       -0.18565176 0.08402752 0.3295316 -0.41167176
000280 ae a2 88 be b4 14 1d bf 5b a0 20 bf 6d 6a 31 3d
       -0.26686615 -0.61359715 -0.62744683 0.043314386
000290 9a b2 d8 bd 20 64 fc be a8 67 c8 bc b3 c8 f6 3e
       -0.105809405 -0.4929514 -0.02446349 0.48199996
0002a0 29 1c 03 3d 62 54 16 bc c4 af be be 69 31 30 be
       0.032009277 -0.009175392 -0.37243474 -0.17206348
0002b0 10 c2 f5 bd f1 ca 44 be bf 84 05 be da a0 6f be
       -0.11999905 -0.19218041 -0.1303892 -0.23401204
0002c0 75 f6 58 3e 5a 98 02 be 87 3d 7f be ee 07 21 be
       0.21187766 -0.1275343 -0.24925815 -0.15725681
0002d0 ee 87 7b be e1 81 14 bd 97 b1 50 bd 3d ff c9 be
       -0.24563572 -0.036256675 -0.050950613 -0.39452544
0002e0 f4 8c 0e bc 10 c4 0e 3f f1 06 07 be cd c3 00 bf
       -0.008700598 0.5576792 -0.13186242 -0.5029877
0002f0 37 56 d4 bd 75 68 47 3d 51 20 8e bd 62 f6 30 bc
       -0.10368007 0.048683602 -0.069397576 -0.01080093
000300 26 38 74 3e e0 27 14 3e 71 c2 e0 3e 13 1b 81 3e
       0.23849544 0.14468336 0.43898347 0.25215968
000310 bb 55 e8 3d c0 f0 63 be 77 06 ae 3c 91 a5 85 bc
       0.11344477 -0.22259808 0.021243317 -0.0163143
000320 92 a3 2c 3d e2 4e 45 3c ba 53 79 bc d6 af a2 bc
       0.04214818 0.012042733 -0.015217716 -0.019859236
000330 50 1b cd 3a 66 5c 65 bb 2c a6 09 bc b8 55 4e be
       0.0015648399 -0.00349977 -0.008401435 -0.20149887
000340 f9 bb 87 bd 12 0d 3a bc f1 c4 3a 3e 34 ea 2d 3e
       -0.0662765 -0.011355655 0.1823919 0.16983873
000350 34 ca 28 bd e5 59 c9 3d 83 e3 24 3c 94 54 39 bc
       -0.04120846 0.09831599 0.010064009 -0.011311669
000360 64 48 42 bd 46 f3 7a bc 60 f5 d2 3c a5 7c 35 bd
       -0.04743232 -0.01531679 0.02575177 -0.044308323
000370 29 66 ea 3d b4 de 53 3d 4e eb 7a 3d f7 f7 93 3d
       0.11445267 0.051726058 0.06125956 0.0722503
000380 d5 4a a6 bd a4 aa d4 bc a7 4f e0 bc a2 34 43 3d
       -0.08119742 -0.025960274 -0.027381731 0.047657616
000390 61 af 6c 3c 5e 83 b5 3c ca ce eb 3b 58 39 0e 3c
       0.01444611 0.022157367 0.007196282 0.008680664
0003a0 ec 68 7e 3d 91 85 8c bc 94 50 70 be 2f 10 49 be
       0.06211178 -0.017153533 -0.23468238 -0.1963508
0003b0 e6 d6 79 39 c9 c3 f3 3e 45 00 99 bc 51 29 0c 3f
       0.00023826546 0.4761031 -0.018676886 0.54750544
0003c0 ec fb fe bd 9c 06 fb bd fc 73 98 bf 5b 68 52 3d
       -0.12450394 -0.1225712 -1.1910396 0.051369052
0003d0 98 c6 bd bd e7 bb 61 3e bd 86 dc bc 79 e1 06 3e
       -0.092663944 0.22044335 -0.026919717 0.13171948
0003e0 3c cc 96 3e c1 da 9d 3d 40 61 71 be 1f 7d 0c be
       0.29452693 0.077077396 -0.23572254 -0.13719605
0003f0 ca 84 08 be 40 17 9e 3d e1 0c 72 bd a9 21 c7 b9
       -0.13331905 0.07719278 -0.059094314 -0.00037981317

conv.8.bias f4 [64]
000000 7b da 80 bc c5 15 a4 bd f6 7a be bd 82 f1 0f bb
       -0.01572918 -0.08011965 -0.09300797 -0.0021964018
000010 2f 1c fb bc 4d e4 0d bc ab e2 a1 bd 87 f6 02 3c
       -0.030653087 -0.008660388 -0.079045616 0.007993347
000020 8d 29 10 bd 69 3b 86 bc ac b4 8f bd 17 d0 e1 bd
       -0.035195876 -0.01638575 -0.07016882 -0.11026018
000030 dc 9e eb bd c8 81 a8 bc 64 07 ee bb d1 52 a2 bb
       -0.115049094 -0.020569697 -0.0072640646 -0.00495372
000040 02 31 f8 bc 50 83 b8 bd 54 17 a0 bd d0 91 6a bb
       -0.030296806 -0.09009421 -0.078169495 -0.0035792477
000050 8a fd 01 bc b0 ba a0 bd 79 20 0d bd 3c f2 64 bc
       -0.007933984 -0.07848108 -0.034454796 -0.013973769
000060 6f 46 10 bd 79 b0 10 bd f5 21 d7 bc 89 7f 41 be
       -0.03522342 -0.035324547 -0.02626131 -0.18896307
000070 dd 8a b1 bd be 9e cc bd ac b3 be bc 86 d3 40 bd
       -0.08669064 -0.09991215 -0.023279034 -0.047076724
000080 08 49 88 bd 61 e8 5c bb 0e 73 1c bc 79 5a fb bc
       -0.066545546 -0.0033707845 -0.009548916 -0.03068279
000090 85 a9 aa bd be 91 bf bd 0f ee 7b bd ed c7 1a bd
       -0.083331145 -0.0935397 -0.061506327 -0.03778832
0000a0 a6 f5 b7 bd a8 bd 7a bd f2 5c a6 bd 84 33 18 bc
       -0.089824006 -0.061216027 -0.08123197 -0.009289626
0000b0 a3 15 84 bd 2d e8 15 bc d2 3c b6 bd 07 16 b6 bd
       -0.064494394 -0.009149593 -0.08898319 -0.0889092
0000c0 05 09 03 bb 08 65 02 bd d0 7e f9 bb 3e 40 92 bd
       -0.001999439 -0.031834632 -0.007613994 -0.071411595
0000d0 bc ea 57 bc 91 57 c3 bc d6 81 f9 bd ef 69 b4 bb
       -0.013178524 -0.023845466 -0.12182967 -0.0055057923
0000e0 af 03 8b bc 70 ec 72 bd e1 47 57 be ff 7b 0e bd
       -0.01696953 -0.059307516 -0.21023513 -0.03478622
0000f0 70 77 bc bd ef 2b 4f bb e6 82 63 bd be 06 50 bc
       -0.092024684 -0.003161188 -0.055544756 -0.01269692

conv.10.weight f4 [128, 64, 3, 3]
000000 6c 3c 0c bd 7e 33 92 3c 60 0a 54 bc 66 bd 06 bc
       -0.03423731 0.017846819 -0.012941927 -0.008223867
000010 59 68 f3 bd a8 97 3d bd d6 52 b6 bc 14 46 e7 bd
       -0.11885137 -0.04628721 -0.022256296 -0.11292663
000020 78 a7 b8 bd 56 ed 58 b9 00 24 03 bb 56 e3 c1 3b
       -0.09016317 -0.0002068778 -0.0020010471 0.005916993
000030 60 3d 8f 3b 24 e9 f9 3d d2 0b d7 bb 3b f8 03 bc
       0.00437133 0.12202671 -0.0065626884 -0.008054788
000040 c6 ad 1f 3d 2b 51 c8 3d 6e 2d 1e bd c6 5b ae bc
       0.038984083 0.097811066 -0.038617544 -0.021283995
000050 80 40 b2 bc 90 2c 01 bd 4a 68 50 3d a4 e2 91 3c
       -0.021759272 -0.03153664 0.050880708 0.017808266
000060 a8 46 d8 3c af b1 d7 3c 63 b6 1d 3d 00 ed 98 3b
       0.026400879 0.026329843 0.038504016 0.0046669245
000070 56 f9 cc bb db 74 56 bc b0 7f 88 3c 07 2b 34 3e
       -0.006255309 -0.013089384 0.016662449 0.17594539
000080 e7 ff d6 3d 00 ca 12 bb 20 0c 90 be a2 cd 55 3d
       0.10498028 -0.0022398233 -0.2813425 0.05219806
000090 fb a6 09 3d 68 5e 13 bd ef 9a 1f 3d 48 73 b3 3c
       0.03360651 -0.035978705 0.038966116 0.021905556
0000a0 f2 6c 18 be d0 24 1b 3e b6 4e 92 bc 17 5a e5 3c
       -0.1488531 0.15150762 -0.017859798 0.02799706
0000b0 a5 4d 7c be 80 e7 74 3b 13 08 98 3c 1e ab 0c bd
       -0.24638994 0.003736943 0.018558538 -0.034342878
0000c0 d6 ef ed 3b 76 fa e5 be 55 27 13 3d 2b a2 af 3c
       0.0072612567 -0.4491765 0.03592618 0.021439632
0000d0 68 c5 16 3e c4 e4 c1 be 33 a1 11 3d 42 7d 20 bd
       0.14723742 -0.37869847 0.035554122 -0.039181955
0000e0 b6 2c be 3b 48 7d f5 bc 05 e9 db 3c db b0 60 bd
       0.00580367 -0.029966965 0.02684451 -0.054856163
0000f0 80 1e 34 bc 73 42 a9 ba 6d fd 5c 3c 16 09 93 3c
       -0.0109936 -0.001291348 0.013488156 0.017948668
000100 56 a5 0e 39 f7 d5 24 bd 26 26 6c 3c 47 77 07 be
       0.00013603768 -0.040243115 0.014413392 -0.13229094
000110 a1 97 78 be fb 2f 17 3c 14 c1 c2 bd 2a 41 d1 bc
       -0.24276592 0.009227748 -0.09509483 -0.025543768
000120 d6 2f db ba 5e 93 aa 3c 60 d5 0d bd 56 9b 8d 3c
       -0.001672263 0.020822223 -0.03462732 0.017285984
000130 27 06 fb 3c 10 66 a8 be 6b e4 05 bc 4a 56 9c 3d
       0.030642582 -0.32890368 -0.008172135 0.07633646
000140 c4 ad 0d be 1f 5f 1d bd 96 7c ba bc 3e f3 da 3c
       -0.13835818 -0.038420793 -0.022764485 0.026727315
000150 90 76 52 3c d9 ef 2e 3e 2d bf da 3c 6e 12 bc 3c
       0.01284565 0.17083682 0.026702488 0.022958007
000160 24 01 16 bd 54 2d 66 be c8 fb e5 bc 48 b2 25 3d
       -0.03662218 -0.22478229 -0.02807416 0.040453225
000170 e0 5c e1 3c 56 f3 ff 39 76 d0 a5 bc 80 a6 08 bb
       0.027510107 0.0004881869 -0.020241003 -0.0020851195
000180 ce 30 e9 3c 30 8b 76 bd 45 76 13 bd b2 65 14 3d
       0.028465655 -0.060191333 -0.036001462 0.036229797
000190 76 be e3 bc 50 4f 88 bc a8 07 99 3c d3 07 91 be
       -0.02780078 -0.016639382 0.018680409 -0.28326282
0001a0 12 4e 2f 3e 06 0f 57 3c 0f a0 00 bf cd af 32 be
       0.17119625 0.01312614 -0.5024423 -0.17449875
0001b0 d8 87 b7 bc 40 3e 12 3b db 99 af bc f0 d8 b4 3c
       -0.022403643 0.0022314936 -0.021435669 0.0220761
0001c0 07 50 d5 3d 3c 0f 1e bb 83 4f f8 bc a2 91 2b bd
       0.10415655 -0.0024117967 -0.030311352 -0.041886933
0001d0 ea 94 f9 bd 1e 3f 88 3c b0 c3 46 bc 7b 29 7f bc
       -0.12186606 0.01663166 -0.0121316165 -0.015573855
0001e0 ab d9 4e bb 63 ee 44 3d 37 a8 94 3d 1c 6d 0a bd
       -0.0031562846 0.048078906 0.07258647 -0.03379546
0001f0 3c 0f 58 bd 4b 1e a8 bd 4b a2 dc bb 08 a4 84 3c
       -0.052748904 -0.08208903 -0.006733214 0.016191497
000200 a0 94 81 bb 0b 92 d2 bc 73 92 ce be 61 bb 81 3d
       -0.003954485 -0.025704404 -0.40346107 0.06334568
000210 80 fd a7 bc bc 99 81 be ee ea 5a be cb c8 95 3c
       -0.02050662 -0.25312603 -0.21378681 0.018284222
000220 80 f8 68 bb bb 2a eb 3c a3 80 aa 3c f3 18 ef 3e
       -0.0035548508 0.028706899 0.020813292 0.46698722
000230 49 8a 82 3e f0 2b 0e bc 27 16 d8 3e e7 eb 4a be
       0.25496128 -0.008677468 0.422044 -0.19816552
000240 e0 20 e9 3c 9c 5a 18 bd 7b 65 5d bc 5e 17 f3 3c
       0.028458059 -0.037195787 -0.013512964 0.029674228
000250 62 73 81 be 8e 2d 06 3e a8 21 85 3c 31 cc 5d be
       -0.25283343 0.13103315 0.0162514 -0.21659924
000260 c9 a1 f7 3c a0 97 9c bb 23 d9 11 3d fa 89 04 bd
       0.030228512 -0.0047788173 0.03560747 -0.032358147
000270 58 e2 f6 3c ec 30 76 3d 32 dc 7a 3b 00 fd 71 3b
       0.030137226 0.06010525 0.003827822 0.0036924481
000280 10 3d a3 3c cf d5 be 3c 5e d6 96 bc 64 01 24 bd
       0.019926578 0.023295311 -0.018412765 -0.04004039
000290 b6 aa 9b bb b6 a0 b4 bb 90 37 8e 3d 7d f1 02 be
       -0.004750575 -0.0055123223 0.069441915 -0.12787433
0002a0 ac 4e 08 3d e4 0d 22 3d ec d8 99 3d cb 29 3e 3c
       0.033278152 0.03956403 0.07512078 0.011606644
0002b0 9e 5e 8d 3c f6 f7 46 bc 86 3d 06 bc b2 a8 4b 3e
       0.017257031 -0.012144079 -0.008193379 0.19888571
0002c0 3f 1b 61 bf 7e 07 8f 3c f5 30 80 be d5 71 16 3e
       -0.879322 0.017459627 -0.2503735 0.14691861
0002d0 80 d3 22 3d 1e cf 27 bd b8 a5 fc bc 30 80 0a bc
       0.039752483 -0.040969007 -0.03084074 -0.008453414
0002e0 13 9b fd 3d 50 69 e3 3d f6 4e 8d 3c 59 db 26 bf
       0.12383094 0.11104071 0.017249566 -0.6517845
0002f0 2e c1 b0 be 80 2c ed bb d6 14 64 bb a0 3d ac 3b
       -0.34522384 -0.007237971 -0.0034802458 0.0052563697
000300 50 6d 4a bc e0 e2 12 3e c5 0c 69 3d f3 a9 c2 3c
       -0.012355164 0.14344358 0.056896944 0.023762679
000310 cc 4b b8 ba f4 7e 52 3d 56 e3 55 bb 73 5e f9 3c
       -0.0014060675 0.051390603 -0.0032636723 0.030440545
000320 76 b0 0e bd d6 35 8f ba b2 bb 30 3e 37 e3 1d be
       -0.034836255 -0.0010926079 0.172591 -0.15418707
000330 c0 28 04 bb 69 73 c0 3b 15 96 a5 be 70 82 44 bc
       -0.002016589 0.005873133 -0.32341066 -0.011993989
000340 40 ac a3 3b 3b 6d 8f 3c 00 7a c5 3a 6c c3 d3 be
       0.004994899 0.01750814 0.0015066266 -0.41360033
000350 1f 7a 4a 3e 20 03 c5 bb 41 22 ac 3e 5e 4b 87 be
       0.19773148 -0.0060123354 0.33619884 -0.26424688
000360 5e e8 d6 3c e0 86 8c bb 4b 36 be 3c af 3e 15 3d
       0.026233848 -0.0042885393 0.023219248 0.036436733
000370 c0 5a 91 bd e7 20 9c bc 60 d0 4b 3c 49 df 92 be
       -0.07097387 -0.019058658 0.012439817 -0.28685978
000380 5f 55 c7 be 80 2f 55 3c e6 f8 d8 3c d8 b9 21 bd
       -0.3893232 0.013011813 0.026485872 -0.039483875
000390 6b 0f be 3c 67 61 b2 3d c9 a0 30 3e 56 cc 50 3c
       0.023200711 0.08709984 0.17248835 0.01274403
0003a0 cf c7 1c be ae ca 66 bf 20 5f 3f 3c 53 22 d8 bc
       -0.15310596 -0.90153015 0.011680394 -0.026383555
0003b0 53 03 86 bc 0c 9b 2a 3d de 94 73 3e 09 d0 21 be
       -0.016359007 0.04165177 0.23787257 -0.15802015
0003c0 03 c1 bb 3c 81 8e db 3a 6e de 9c be b0 57 b8 3c
       0.022919184 0.0016750843 -0.3063845 0.02250275
0003d0 b6 e9 f0 bc 80 c6 43 3c e0 c1 ff 3b 1b 1d 61 be
       -0.029408317 0.011949182 0.007805094 -0.21983759
0003e0 57 8b 31 3e bf df 14 bd 95 5b 26 bd f4 03 a6 bd
       0.1733831 -0.036346193 -0.040614683 -0.08106223
0003f0 8b de 1f 3d eb 3c 8a 3c de 3b 12 bd d0 ff 90 3c
       0.039030593 0.016874751 -0.035701625 0.017700106

conv.10.bias f4 [128]
000000 af 0e 94 bd 8c 0d 96 bc 64 2e 9b bd df 0c 07 3d
       -0.07229363 -0.018317007 -0.07577208 0.03297126
000010 c7 81 34 bd d6 b4 da bd 23 8f 75 bd 47 9a 9a bd
       -0.044069078 -0.10679023 -0.05995096 -0.07548957
000020 09 05 37 3c 20 ea e6 bd f5 68 45 be 63 03 45 bd
       0.011170634 -0.112751245 -0.19278319 -0.048098933
000030 76 da 6d bd 70 aa 70 be df a9 97 ba 28 0d 23 3d
       -0.05806967 -0.23502517 -0.0011571011 0.03980747
000040 ac 21 ff bd fe 90 aa be e3 4c 51 3d 97 bf 7b be
       -0.12457594 -0.33313745 0.051098716 -0.24584804
000050 9b f0 d4 3d fc 38 2c be 5e f4 9a bb 55 a1 87 bd
       0.10397454 -0.16818613 -0.004728838 -0.066225685
000060 e0 8a ff bb c1 ad ea bd 29 d9 bf bd a6 8b 4d be
       -0.0077985376 -0.11458922 -0.09367592 -0.20072803
000070 69 0b a5 bd e4 09 3c be 6b 27 80 bd 78 da c8 3c
       -0.08058817 -0.18363148 -0.062575184 0.024518237
000080 fe f4 d3 3a f5 81 76 3d 98 8b 6e bd 02 c0 17 3c
       0.0016171036 0.06018253 -0.058238596 0.009262087
000090 7f 15 89 bb 63 a2 93 3d 3d ae 59 3c bb fd 16 bd
       -0.0041834707 0.07208707 0.013286171 -0.03686307
0000a0 d6 d4 90 bd e5 81 9d bd 78 3e 97 3d 46 c8 4c 3d
       -0.07071845 -0.07690791 0.07384962 0.049995683
0000b0 d5 bf 7f 3c c2 2e c8 3c 9e 84 c4 3c 2c 72 0c be
       0.015609701 0.024436358 0.023989018 -0.13715428
0000c0 4a 94 aa bd 2f 64 2b 3d 8d 49 43 bd f8 48 ea bd
       -0.08329065 0.04184359 -0.047677565 -0.11439699
0000d0 f7 8a 4f 3d 64 6e e9 bc aa b2 3e be 31 80 73 3c
       0.050669637 -0.028495021 -0.18622842 0.014862106
0000e0 fe 7c fb 3c fb 7b d7 bd d0 74 81 bd 10 20 92 3d
       0.03069925 -0.10521694 -0.06321108 0.07135022
0000f0 bb 17 c9 3c 69 5b b2 3c 3b e2 a1 bd 74 74 06 3c
       0.024547448 0.021772103 -0.07904478 0.0082064755
000100 aa f4 1c bb b3 8f e3 bc e0 64 5b be 10 13 b9 3c
       -0.0023949542 -0.027778482 -0.214252 0.022592098
000110 16 d7 68 be 79 96 0e 3d f6 92 39 be a0 81 15 bd
       -0.22738299 0.03481147 -0.18122467 -0.036500573
000120 42 4c 61 bd f5 a7 79 bd 07 05 a8 bd 0f 58 8a bd
       -0.055004366 -0.060951192 -0.08204084 -0.06755077
000130 8d e5 53 bd bf 4b cd bd 63 9e ce 3c 67 d0 0d be
       -0.05173259 -0.10024213 0.025222009 -0.1384903
000140 45 15 87 bd 6a 17 04 3d 56 1a 06 bd 97 9d 13 be
       -0.06595854 0.032248892 -0.03273996 -0.14415585
000150 a6 3b d3 3c f0 5f 0b 3b 99 53 dc 3c 9e 8d 3c be
       0.025785279 0.00212669 0.026895331 -0.18413398
000160 17 12 88 bd 01 db 95 bd e2 81 9e bc 2c f3 22 3d
       -0.06644075 -0.07317162 -0.019349042 0.039782688
000170 e6 d2 40 bc 7d 46 05 bd 00 c6 b9 bc 8f 7d 30 3d
       -0.011769032 -0.032537926 -0.022677422 0.043088492
000180 aa e8 8d bd c4 7f 89 be 92 ac ba 3c 90 67 db bc
       -0.06929143 -0.2685529 0.022787366 -0.02678278
000190 5e 70 15 3d 02 d0 e0 3d 7b bd c7 be 1d 72 28 3d
       0.036484115 0.10977174 -0.3901175 0.041124452
0001a0 6e d3 79 be 8d 11 8c bd c9 35 8c bd 7e 4e 00 bc
       -0.2439706 -0.06839285 -0.06846196 -0.007831214
0001b0 be c2 92 bd f6 59 ed ba 3d 44 4b be 08 30 5f 3d
       -0.071660504 -0.0018108475 -0.1985025 0.054489166
0001c0 7b 09 93 3d aa a2 70 bd 05 4e 80 bd 34 84 48 3d
       0.07179543 -0.05874888 -0.06264881 0.048954204
0001d0 56 11 41 bc 9a 6b 6e 3c 78 4b c2 bd 39 5a 45 3d
       -0.011783918 0.014552021 -0.09487051 0.048181746
0001e0 85 da 63 bd 7c 80 0c be 85 5e 72 be 3f c4 7e bd
       -0.05562832 -0.13720888 -0.23668869 -0.062198874
0001f0 8f a1 ba bd ad e3 93 bd c6 60 5c 3d d4 f8 f0 bd
       -0.09112846 -0.0722116 0.053803228 -0.1176621
