model/reward_induced_encoder/encoder.pt (torch, 431163 bytes, 14 tensors)

conv.0.weight f4 [4, 1, 3, 3]
0	0x3dc7ad7b	0.09749886
1	0x3e96283e	0.29327577
2	0x3e39d0f4	0.18146116
3	0x3ec3b9d5	0.38227716
4	0xbc8b1c74	-0.016981341
5	0xbe002410	-0.12513757
6	0x3e5842b7	0.211192
7	0x3d8feb54	0.07027307
8	0xbd582081	-0.052765373
9	0x3ca854bf	0.020548223
10	0xbe89c78b	-0.26910052
11	0x3e25d5d9	0.16194858
12	0xbe833cb6	-0.25632256
13	0x3e57e0ab	0.21081798
14	0x3ed05aba	0.4069422
15	0x3dfd7df7	0.123775415
16	0xbdef2a48	-0.116779864
17	0xbd1110d4	-0.03541644
18	0x3e457fd7	0.19287048
19	0x3d3e7299	0.046496008
20	0xbd0cc251	-0.034365002
21	0x3e6da84f	0.23208736
22	0x3e2c73a8	0.16840994
23	0xbe8fde64	-0.28099358
24	0x3ec484a1	0.38382438
25	0x3e310f74	0.17291051
26	0xbe83d073	-0.25744972
27	0xbdf6389f	-0.12022518
28	0x3e205281	0.15656473
29	0xbd5df6bf	-0.054190394
30	0xbdd3b901	-0.10338021
31	0x3e57b2f8	0.21064365
32	0x3de38824	0.11109951
33	0xbe8a9b2c	-0.27071512
34	0x3e7f47cf	0.24929737
35	0x3ec4c38f	0.3843045

conv.0.bias f4 [4]
0	0xbd1defd6	-0.038558803
1	0xbc65f7d9	-0.014036142
2	0xbde482c5	-0.11157755
3	0xbcc01fa9	-0.023452597

conv.2.weight f4 [8, 4, 3, 3]
0	0xbdddeff0	-0.1083678
1	0x3cc2d2ef	0.023782222
2	0x3e773985	0.24143036
3	0xbbe27cf3	-0.0069118678
4	0x3e44579d	0.19174047
5	0x3d4ca30d	0.049960185
6	0xbdc403fa	-0.09571071
7	0xbd099225	-0.03358664
8	0xbe915251	-0.28383115
9	0x3e1cfbdf	0.15330456
10	0x3e960307	0.29299185
11	0x3eab0579	0.33402613
12	0x3dacbc7f	0.0843439
13	0x3dd8d320	0.10587144
14	0xbe295f27	-0.16540204
15	0x3c92c5a6	0.017916512
16	0xbe1c51f0	-0.15265632
17	0xbe479ae6	-0.19492683
18	0xbcd1fbb7	-0.025632722
19	0x3e0a9455	0.13533147
20	0x3e5e82a6	0.21729526
21	0x3dac92d4	0.08426443
22	0x3d7279c3	0.059198152
23	0xbe2576c9	-0.16158594
24	0x3de249bd	0.11049221
25	0xbe9b2a94	-0.30305922
26	0xbeb3868d	-0.35063592
27	0x3e29982e	0.16561958
28	0x3d82e841	0.06391955
29	0x3e8bae37	0.27281353
30	0x3e3805b3	0.17970924
31	0x3dbbc227	0.09167891
32	0xbe6e47f1	-0.23269631
33	0xbebfbb79	-0.37447718
34	0xbe32daac	-0.17466229
35	0x3d0c7e8f	0.034300383
36	0xbedf4a9a	-0.43611604
37	0x3ea4b329	0.32167938
38	0xbec4fb7b	-0.38473114
39	0x3cfd5c9c	0.030927949
40	0xbe733414	-0.23750335
41	0xbe8b8d06	-0.2725603
42	0xbe87dc90	-0.26535463
43	0xbe72e615	-0.23720582
44	0xbe642de2	-0.22283128
45	0x3b5a26a2	0.0033287187
46	0xbe87c64e	-0.26518482
47	0xbe1f7997	-0.15573727
48	0x3ce4857d	0.027895683
49	0x3da5f439	0.081032224
50	0xbe2733f4	-0.16328412
51	0xbda7e7a9	-0.081984825
52	0xbe329d5c	-0.1744284
53	0xbe4ba95f	-0.19888829
54	0x3bc2ff28	0.005950827
55	0xbe0ad6b3	-0.13558464
56	0xbe90464b	-0.2817863
57	0xbd0473b9	-0.032336924
58	0x3b587165	0.0033026573
59	0xbd14f9be	-0.036370985
60	0x3b737293	0.003714715
61	0x3c79beca	0.015243242
62	0xba876a84	-0.0010331427
63	0xbeb2b642	-0.34904677
64	0x3f52cf5f	0.82347673
65	0xbe08f2b0	-0.13373828
66	0x3ba01f39	0.0048865345
67	0xbdec7111	-0.11545003
68	0x3ccd589a	0.025066663
69	0x3b4015ab	0.002930979
70	0xbd795a52	-0.06087715
71	0xbe441cd5	-0.19151624
72	0x3ed64a0b	0.41853365
73	0x3d07ba6c	0.03313677
74	0xbee0fab2	-0.43941265
75	0xbe4d5e84	-0.20055586
76	0x3b1799a2	0.0023132344
77	0x3b4d546f	0.0031330844
78	0xbeaf6f5b	-0.34264645
79	0x3cbd2107	0.023087038
80	0x3ea10cac	0.3145498
81	0x3cf59345	0.02997745
82	0xbd41bf84	-0.047301784
83	0xbe943fa1	-0.28954795
84	0xbb79ab9a	-0.0038096667
85	0xbe83f1d8	-0.2577045
86	0x3da38476	0.07984249
87	0xbe6ad919	-0.22934379
88	0x3e8171b5	0.25282064
89	0x3eacdd08	0.33762383
90	0x3e49b17d	0.19696613
91	0x3e9aba45	0.30220237
92	0xbdf88770	-0.12135208
93	0x3d9622cf	0.07330858
94	0xbe7a1688	-0.24422657
95	0xbd9bafb9	-0.07601876
96	0xbe24c5c4	-0.16091067
97	0xbd9f50cc	-0.07779083
98	0x3ea09254	0.3136164
99	0x3e11105e	0.141664
100	0xbe5b968a	-0.21444145
101	0xbea18a16	-0.31550664
102	0xbdd56873	-0.10420313
103	0x3c409e40	0.01175648
104	0x3dbe7615	0.09299866
105	0x3cf61e2b	0.030043682
106	0x3e639181	0.22223474
107	0x3e4cae5e	0.19988391
108	0xbdf34056	-0.118775055
109	0xbe91a174	-0.2844349
110	0x3ec74e6d	0.38927022
111	0xbe09c45a	-0.13453808
112	0xbe567bd4	-0.20945674
113	0x3e777af3	0.24167995
114	0xbd5b38cb	-0.05352096
115	0xbe820483	-0.25394067
116	0x3eb4c8d8	0.35309482
117	0xbee8d42b	-0.4547437
118	0xbe44410a	-0.19165435
119	0x3ef64bf7	0.48104832
120	0xbef453e8	-0.47720265
121	0x3d360335	0.044436652
122	0x3edd6e69	0.432483
123	0xbdd8ff8c	-0.10595617
124	0xbcac8271	-0.021058293
125	0x3e868829	0.26275757
126	0xbcb10f5e	-0.021613773
127	0xbdf18cbf	-0.11794423
128	0x3e04bc49	0.1296245
129	0xbe72cd4f	-0.23711132
130	0xbec0c469	-0.3764985
131	0x3ecdebb0	0.40218878
132	0x3cbb6cc0	0.022879004
133	0xbe8533e2	-0.26016146
134	0x3e6c0651	0.23049285
135	0xbd986765	-0.07441596
136	0xbd71d7e3	-0.059043776
137	0x3ebe2bde	0.37142843
138	0xbe12267e	-0.14272496
139	0xbd33a9fa	-0.043863274
140	0x3ec3c0bc	0.38232982
141	0xbe05da69	-0.13071598
142	0xbe015905	-0.12631615
143	0x3e01ee94	0.12688667
144	0x3d30e948	0.043191224
145	0x3de49911	0.111620076
146	0x3e56b2be	0.20966622
147	0x3e45c23a	0.19312373
148	0x3e4e742e	0.20161507
149	0x3e19cae5	0.15018804
150	0x3e8c240d	0.27371255
151	0x3d785491	0.060627524
152	0x3b8057b8	0.003916707
153	0x3cd32c39	0.025777923
154	0xbd4d4b50	-0.05012065
155	0x3dbe1cee	0.09282862
156	0x3e3c6b02	0.18400195
157	0x3d32e181	0.04367209
158	0x3dd70239	0.10498471
159	0xbcfe6a8a	-0.031056661
160	0x3e65ce65	0.22442015
161	0x3d92af91	0.07162393
162	0xbe08c313	-0.13355665
163	0xbd9bb45a	-0.07602759
164	0x3c5deabc	0.013544735
165	0x3de122dd	0.10992978
166	0xbcfb7211	-0.03069404
167	0xbdf97e8b	-0.12182339
168	0x3e0ad3e8	0.13557398
169	0x3e643844	0.22287089
170	0x3df62567	0.12018853
171	0x3d8be14a	0.0683008
172	0xbce8a19c	-0.028397374
173	0x3cc0a501	0.02351618
174	0xbd86ae76	-0.065762445
175	0x3dea64f8	0.114450395
176	0x3da8ac1b	0.082359515
177	0x3d9bcc2c	0.07607302
178	0x3e84941d	0.2589425
179	0xbd7e0952	-0.062020607
180	0x3d4d6cb4	0.050152496
181	0x3e3332ea	0.17499891
182	0xbd9c8f9a	-0.07644577
183	0xbc68bfea	-0.014205912
184	0x3dac7fc5	0.084228076
185	0xbc821854	-0.015880741
186	0x3c9dc363	0.019258207
187	0x3d897061	0.06710888
188	0xbabb3ded	-0.0014285423
189	0xbbfb801c	-0.007675184
190	0xbd2ca5fb	-0.04215048
191	0xbe7059a3	-0.23471694
192	0x3c5c4b06	0.013445621
193	0x3eab538b	0.33462176
194	0x3e084730	0.13308406
195	0x3de18fe0	0.1101377
196	0xbd92bede	-0.07165311
197	0x3e047e10	0.12938714
198	0xbde65f95	-0.112486996
199	0xbde075d2	-0.109599724
200	0xbd3470da	-0.044052936
201	0x3ddd3220	0.10800576
202	0x3e8062c0	0.2507534
203	0x3e299ca2	0.16563657
204	0xbddc550f	-0.10758411
205	0xbd555ee1	-0.052092437
206	0xbb3be3f8	-0.0028669816
207	0xbe24b7c2	-0.16085723
208	0x3d7477b6	0.059684478
209	0xbd3088ba	-0.043099143
210	0xbc68019b	-0.014160539
211	0x3d374d9e	0.044751756
212	0x3e8c5734	0.2741028
213	0x3c68d588	0.014211066
214	0xbd455bf5	-0.0481834
215	0x3eb13af2	0.34615284
216	0xbe453303	-0.1925774
217	0xbdacbb62	-0.08434178
218	0xbe39dc66	-0.18150482
219	0xbdaf4d1d	-0.0855963
220	0xbddf8994	-0.10914913
221	0xbd17d669	-0.03706971
222	0xbe0dacd5	-0.13835461
223	0xbdbd486b	-0.09242328
224	0xbd79fb3c	-0.06103061
225	0x3def31dd	0.116794325
226	0xbe264306	-0.16236505
227	0xbdf12576	-0.11774723
228	0xbe2a4793	-0.16628866
229	0xbd601597	-0.05470809
230	0xbdc6a9ea	-0.09700377
231	0x3db88e02	0.09011461
232	0x3e00a358	0.1256231
233	0xbd0f3674	-0.03496404
234	0x3d274ee2	0.040846713
235	0x3dc23a83	0.094838165
236	0x3d82c827	0.06385832
237	0xbd8dda72	-0.06926431
238	0xbcb57a1b	-0.022152951
239	0x3d158062	0.03649939
240	0xbd5f7612	-0.05455596
241	0xbe06d146	-0.13165769
242	0xbdf4dac9	-0.119557925
243	0x3cc31fbd	0.023818845
244	0x3df7c083	0.120972656
245	0xbda78a50	-0.08180678
246	0xbe0bbcd0	-0.13646245
247	0xbd172e4a	-0.03690938
248	0xbc603d11	-0.013686434
249	0xbe041de9	-0.12902035
250	0xbd893cda	-0.0670106
251	0xbd81067b	-0.06300064
252	0x3e18e9be	0.14932916
253	0x3cbfd9b1	0.023419233
254	0x3e1b6e3d	0.15178771
255	0xbda7adbd	-0.08187435

conv.2.bias f4 [8]
0	0xbc4452c3	-0.011982623
1	0xbc3a98dd	-0.0113889845
2	0xbae0085a	-0.0017092333
3	0xbcc673be	-0.024225112
4	0xbbbd9b39	-0.0057863262
5	0xbcb6d49c	-0.022318177
6	0xbb9a0e6c	-0.0047014263
7	0xbbaa35a4	-0.0051943827

conv.4.weight f4 [16, 8, 3, 3]
0	0xbeb47ee4	-0.3525306
1	0xbec61f9b	-0.38695988
2	0xbf0297b4	-0.5101273
3	0xbdaa361a	-0.083111
4	0x3c3bbc3b	0.011458452
5	0x3d93ac17	0.07210558
6	0xbc14b037	-0.009075216
7	0x3d5e9368	0.054339796
8	0x3e0935e3	0.13399462
9	0x3dd15619	0.102215
10	0xbddc9f90	-0.10772622
11	0x3beb7cfe	0.007186531
12	0x3e04eb81	0.12980463
13	0x3d1ef72e	0.038809948
14	0x3d3ddd36	0.04635354
15	0x3de9dc5b	0.114189826
16	0xbdb9b6ba	-0.090680555
17	0x3ddb4e44	0.10708287
18	0xbd648f6b	-0.055800837
19	0xb9f37d2a	-0.00046441826
20	0xbdfc9966	-0.12333946
21	0xbd52725b	-0.05137859
22	0x3e141dde	0.14464518
23	0x3ccfc2a0	0.02536136
24	0xbdb97cd2	-0.09057011
25	0x3d458eeb	0.048232
26	0xbce67a62	-0.028134529
27	0x3d1776c7	0.03697851
28	0xbce12979	-0.027485596
29	0xbe0b2321	-0.1358762
30	0x3bc9162d	0.0061366768
31	0xba991e7b	-0.0011682058
32	0xbe3f9463	-0.18708949
33	0x3df3a361	0.118963964
34	0x3d9ccfc7	0.07656818
35	0xbe564811	-0.20925929
36	0xbf698ce7	-0.91230625
37	0xbecb0e98	-0.39659572
38	0xbf2fd5fb	-0.68685883
39	0xbf58fc15	-0.84759647
40	0x3ca85796	0.020549577
41	0xbef3c035	-0.4760758
42	0xbf58d04a	-0.84692824
43	0xbeb14475	-0.3462254
44	0xbee18f7f	-0.4405479
45	0xbebf164c	-0.373217
46	0xbf093afb	-0.5360562
47	0xbf300319	-0.68754727
48	0xbe90cb65	-0.28280178
49	0x3e82597b	0.25458893
50	0xbe6372fe	-0.22211835
51	0xbeeb7351	-0.45986417
52	0xbece3c28	-0.4028027
53	0xbf2cb41b	-0.6746232
54	0xbdb01f63	-0.085997365
55	0xbda5da27	-0.0809825
56	0x3ca456dc	0.020060949
57	0x3d920fa7	0.07131892
58	0xbd42877f	-0.0474925
59	0x39958c70	0.0002852413
60	0xbab4e7e3	-0.0013802018
61	0x3b7a8cda	0.0038230927
62	0xbc57fe79	-0.01318323
63	0xbf174653	-0.5909168
64	0xbf474ab3	-0.77848357
65	0xbf405650	-0.751317
66	0xbe342d33	-0.17595367
67	0x3e27cbd6	0.16386351
68	0xbeaf6ee9	-0.34264305
69	0xbf82c714	-1.0217004
70	0xbf55cce6	-0.83515775
71	0xbf62f3d2	-0.8865329
72	0x3da2ab01	0.07942773
73	0xbda50ce8	-0.08059102
74	0xbd69ed7b	-0.057111245
75	0xbd595dab	-0.053067844
76	0xbcda3787	-0.026637806
77	0x3d62fc06	0.05541613
78	0xbdae6e9c	-0.08517191
79	0x3e006060	0.12536764
80	0xbd374677	-0.044744935
81	0xbd530683	-0.051519882
82	0x3e1befa9	0.15228142
83	0xbdc91ff2	-0.09820546
84	0xbe2e6471	-0.17030503
85	0xbcabeb25	-0.02098615
86	0x3db2369e	0.08701824
87	0xbe8ff11e	-0.28113645
88	0xbdc32ff3	-0.0953063
89	0xbda00149	-0.07812745
90	0x3d3af9f5	0.045648534
91	0x3c454300	0.0120399
92	0x3d2ece6a	0.04267732
93	0x3d9aff92	0.075682774
94	0xbe053c37	-0.13011251
95	0xbada8751	-0.0016672408
96	0x3dccdf61	0.10003544
97	0x3e2e3905	0.17013939
98	0x3dfbd896	0.1229717
99	0x3d465562	0.04842127
100	0xbf108a53	-0.56461066
101	0xbb9dafd4	-0.00481222
102	0xbe0d06a5	-0.13772066
103	0xbfa695ec	-1.3014503
104	0xbf8036b0	-1.0016689
105	0xbe43649d	-0.1908135
106	0xbf2754bb	-0.65363663
107	0xbf3e9696	-0.74448526
108	0x3e02aa69	0.12760319
109	0x3da93012	0.08261122
110	0xbb58e605	-0.0033096087
111	0xbb53fd60	-0.0032347068
112	0xbd5bd23b	-0.05366729
113	0xbde574e2	-0.11203934
114	0x3cadda7e	0.02122235
115	0x3df50c64	0.11965254
116	0x3e35592a	0.17709795
117	0x3cfa8f4c	0.030585907
118	0x3e0709cc	0.13187331
119	0x3d1964c6	0.03744962
120	0xbe17cd77	-0.14824472
121	0x3d617eb1	0.055052463
122	0xbe4d544a	-0.20051685
123	0x3d648dc1	0.05579925
124	0x3d097197	0.033555593
125	0x3bace6ae	0.0052765226
126	0x3d9c8e12	0.07644285
127	0xbccf5684	-0.025309809
128	0x3cbd1fa9	0.023086386
129	0xbd0ad019	-0.033889864
130	0x3e23d4b0	0.15999103
131	0x3b8dcfd5	0.004327754
132	0x3d0bd21e	0.03413593
133	0x3d8d6cb9	0.06905503
134	0xbd90e1de	-0.07074331
135	0x3e0373f0	0.12837195
136	0x3dbe8e54	0.09304491
137	0x3e24734e	0.1605961
138	0xbdd9bf33	-0.106321715
139	0xbd1f0069	-0.03881875
140	0x3e73221b	0.23743479
141	0x3a859921	0.0010192731
142	0x3e60ffb9	0.2197255
143	0x3e21a573	0.1578577
144	0xbd7ebe0b	-0.062192958
145	0xbd249413	-0.040180277
146	0xbd8b27e1	-0.06794716
147	0x3cb1b4e0	0.021692693
148	0x3c3c3d99	0.011489295
149	0x3e180a75	0.14847739
150	0x3dcbb38e	0.09946357
151	0xbd473637	-0.048635688
152	0x3cdaa644	0.02669061
153	0x3e1ee262	0.15516046
154	0x3d86b4ee	0.06577478
155	0x3d8914ee	0.06693445
156	0xbc02b25f	-0.007977097
157	0xbd710a92	-0.05884797
158	0xbd89d874	-0.06730738
159	0x3d501721	0.050803307
160	0xbdd1aef0	-0.10238445
161	0xbd1b7c43	-0.037960302
162	0xbc366b18	-0.011133932
163	0x3cf35e44	0.029708035
164	0xbce19340	-0.027536035
165	0x3ca67246	0.020318162
166	0x3ddd3932	0.10801925
167	0x3d6776c9	0.056509767
168	0x3da91286	0.08255486
169	0x3dc1a542	0.094553486
170	0x3da9f0ea	0.08297904
171	0x3d71756d	0.058949877
172	0x3dd240e0	0.1026628
173	0xbccfbf3c	-0.025359742
174	0xbd08a838	-0.03336355
175	0x3e1bc885	0.15213211
176	0xbda43a93	-0.08018985
177	0x3d4126a3	0.047155987
178	0xbc7a71b6	-0.0152859
179	0xbd23fc63	-0.040035617
180	0xbed9505b	-0.4244412
181	0xbe99e65d	-0.30058566
182	0xbed57f4b	-0.4169868
183	0xbea2b2a7	-0.31776926
184	0x3c59b68d	0.013288152
185	0xbd153569	-0.03642789
186	0xbea1082b	-0.31451544
187	0xbd1b7484	-0.037952915
188	0xbe67a51b	-0.22621576
189	0xbed6e50c	-0.41971624
190	0xbedf5c1c	-0.4362496
191	0xbece4e10	-0.40293932
192	0xbe070f90	-0.1318953
193	0x3df3ab3b	0.11897894
194	0xbc9cfd6b	-0.019163808
195	0xbeae91a6	-0.34095496
196	0xbdbd12e4	-0.09232119
197	0xbea9061f	-0.33012483
198	0x3d050092	0.032471247
199	0xbe058c25	-0.13041742
200	0x3d8b4ce9	0.06801779
201	0xbce92e0e	-0.028464343
202	0x3d4d2341	0.05008245
203	0xbd91d2d5	-0.07120291
204	0xbcee6d8f	-0.029104976
205	0x3d6f7cd4	0.058468655
206	0x3cd80b5d	0.026372606
207	0xbebeb911	-0.3725057
208	0xbec60d0d	-0.38681832
209	0xbf005ed7	-0.50144714
210	0xbde98b1c	-0.11403486
211	0x3e255289	0.16144766
212	0xbe1576aa	-0.14596048
213	0xbee06643	-0.4382802
214	0xbee35e47	-0.44407865
215	0xbe951587	-0.29117987
216	0xbd9bdabd	-0.076100804
217	0x3be1cc8a	0.006890838
218	0x3d4cd250	0.050005257
219	0xbc7f63fe	-0.015587805
220	0x3dfb20f3	0.12262144
221	0xbd1f9625	-0.03896155
222	0x3d344c07	0.044017818
223	0x3e33db91	0.17564227
224	0x3ceff9b1	0.029293867
225	0xbd2eaac9	-0.042643342
226	0xbd42de72	-0.04757542
227	0xbded4f88	-0.11587435
228	0x3e4adc37	0.19810568
229	0x3e324098	0.17407453
230	0x3e382d66	0.17986068
231	0xbd98bbd3	-0.074576996
232	0xbe5637db	-0.20919745
233	0xbde5342a	-0.1119159
234	0xbc159dfc	-0.009131905
235	0x3d95293e	0.07283257
236	0xbafab53c	-0.0019127498
237	0x3bf582b9	0.00749239
238	0x3dbb22c8	0.09137493
239	0x3c9e9406	0.019357692
240	0x3d9ea97e	0.07747172
241	0x3d1f5fca	0.03890971
242	0xbdc0b375	-0.09409229
243	0x3cddcd72	0.027075503
244	0xbd260b9a	-0.040538408
245	0x3cdc6084	0.026901491
246	0x3c901efe	0.017592903
247	0xbd92b950	-0.07164252
248	0xbdd573ff	-0.10422515
249	0xbd84c90e	-0.06483661
250	0xbb9437d9	-0.004523259
251	0xbc0ebe82	-0.008712413
252	0x3d8efb37	0.06981509
253	0x3d98b95a	0.07457228
254	0x3e120c9b	0.14262621
255	0x3dc5ae3f	0.096523754

conv.4.bias f4 [16]
0	0x3d7ccaee	0.061716966
1	0x3b28b755	0.002574404
2	0x3bb25cb2	0.005443179
3	0xbcb4b1e8	-0.022057489
4	0x39817553	0.0002469221
5	0xbc6de130	-0.014519021
6	0xbae4f7a4	-0.0017468822
7	0xbbab3da9	-0.0052258563
8	0xbbb8bbfc	-0.005637644
9	0xbc012209	-0.00788165
10	0xbc904b28	-0.017613962
11	0xbbd15134	-0.006387854
12	0xbba96f88	-0.0051707663
13	0xbc2b6e11	-0.010463254
14	0xbb090f92	-0.0020913822
15	0xbc0eb1e7	-0.008709407

conv.6.weight f4 [32, 16, 3, 3]
0	0x3b0598f7	0.0020385364
1	0x3d5d353b	0.054005843
2	0x3dcc72eb	0.09982856
3	0xbddc2d78	-0.1075086
4	0xbd4adb77	-0.049525704
5	0xbc78b486	-0.015179759
6	0x3db7e57c	0.089793175
7	0xbc9c84e9	-0.019106345
8	0xbd559abf	-0.05214953
9	0x3c268077	0.010162464
10	0xbcc5d0f3	-0.024147486
11	0xbd4e623b	-0.05038665
12	0x3d9a15ab	0.07523664
13	0x3dd121a3	0.10211494
14	0x3e1069a2	0.14102796
15	0xbe6801e9	-0.22656979
16	0xbe32e9b4	-0.17471963
17	0xbd1a9987	-0.03774407
18	0xba897022	-0.0010485689
19	0xbd1564a6	-0.03647294
20	0x3c2b7b09	0.010466346
21	0xbd7ccd7c	-0.061719403
22	0xbd8aa616	-0.0676996
23	0xbda3eadd	-0.08003781
24	0x3d8bd9a9	0.06828625
25	0xbe0d2679	-0.13784207
26	0xbdc37327	-0.09543448
27	0xbdaeb404	-0.08530429
28	0xbe282b1b	-0.16422693
29	0xbe8d3946	-0.2758276
30	0xbcc25dcb	-0.023726365
31	0xba7b9399	-0.0009596884
32	0xbcf9614d	-0.030441904
33	0xbe75514d	-0.23956795
34	0xbd31de68	-0.043424994
35	0xbdfb4593	-0.122691296
36	0x3d31adc3	0.043378603
37	0x3bfad004	0.007654192
38	0xbe170012	-0.1474612
39	0x3d15f144	0.036607042
40	0x3d640054	0.055664375
41	0xbe7e1538	-0.24812782
42	0xbe1353e6	-0.14387473
43	0xbd0b194d	-0.033959676
44	0xbe8d48ed	-0.275947
45	0x39a9f1cb	0.00032414342
46	0x3d23e544	0.040013567
47	0xbcf77dd9	-0.030211376
48	0xbd00407a	-0.03131149
49	0xbe0df975	-0.13864692
50	0xbdc086f0	-0.09400737
51	0xbd38a36f	-0.045077737
52	0x3e063a37	0.13108145
53	0x3d51f1f2	0.051256128
54	0xbd93c78d	-0.07215796
55	0xbe3c5879	-0.18393125
56	0xbd61aeed	-0.055098463
57	0x3dc05c0c	0.093925565
58	0x3c218681	0.009858728
59	0x3e15c8da	0.146274
60	0xbe0f94ee	-0.14021656
61	0xbdbfb5e8	-0.09360868
62	0xbc998ee5	-0.018744895
63	0xbcd1ab1c	-0.025594287
64	0xbc9cd1a6	-0.019142937
65	0xbdc8c877	-0.09803861
66	0xbd573856	-0.05254396
67	0xbdc085e1	-0.094005354
68	0x3b29588d	0.0025840134
69	0xbdfbdb48	-0.12297684
70	0xbbeb31e6	-0.007177579
71	0xbdc4e6f3	-0.096143626
72	0xbe8a67fc	-0.2703246
73	0xbd82ddb7	-0.06389945
74	0xbe5d4aa5	-0.21610506
75	0xbdc50047	-0.096191935
76	0xbc27a73c	-0.010232743
77	0xbd523357	-0.051318493
78	0x3da7b7cf	0.081893556
79	0xbdf6e38e	-0.12055121
80	0xbdcf7581	-0.10129834
81	0x3cd8b130	0.026451677
82	0xbd2aac45	-0.041668195
83	0xbd1e9da9	-0.038724575
84	0x3dfd944a	0.123817995
85	0x3d574fec	0.052566454
86	0x3d1ecab5	0.038767535
87	0x3dbcad76	0.092127725
88	0xbdde0181	-0.108401306
89	0xbd39c158	-0.045350403
90	0xbe184be2	-0.14872697
91	0x3c9aedcd	0.01891222
92	0xbe8ed1be	-0.27894396
93	0x3d2bcd62	0.041943915
94	0x3c95c695	0.018283168
95	0xbdd67440	-0.10471392
96	0xbd653c43	-0.055965673
97	0xbc9e52f3	-0.019326663
98	0xbd65f9da	-0.05614648
99	0xbe01f56a	-0.12691274
100	0xbdbcc564	-0.09217337
101	0xbe782fa8	-0.2423693
102	0x3dcd6c73	0.10030451
103	0xbd8e9408	-0.069618285
104	0x3cf86997	0.030323787
105	0x3e142a0f	0.14469169
106	0xbd9813aa	-0.074256256
107	0x3d7421c4	0.059602514
108	0xbd337ffa	-0.04382322
109	0xbd064f4d	-0.03279047
110	0xbcd16558	-0.02556102
111	0x3d0662a0	0.0328089
112	0xbd9ed283	-0.07754996
113	0xbd88d7f3	-0.06681814
114	0xbd0bda88	-0.034143955
115	0xbd766e49	-0.06016377
116	0x3d0be35d	0.034152377
117	0x3d959c44	0.07305196
118	0x3cea4f79	0.028602349
119	0x3ca476da	0.020076204
120	0xbe2ff58e	-0.17183515
121	0xbd979af1	-0.074025996
122	0xbe02cc4a	-0.12773243
123	0x3e139dac	0.14415616
124	0xbd416a68	-0.047220618
125	0xbda9b230	-0.0828594
126	0x3d12f5d4	0.03587897
127	0x3b3fd7f3	0.0029273003
128	0x3d3315a8	0.043721825
129	0xbdf256e4	-0.11832979
130	0xbe1625fc	-0.14662927
131	0xbe00d172	-0.12579897
132	0x3d10bad7	0.035334434
133	0x3c32f9d8	0.010923825
134	0xbdaeaed6	-0.08529441
135	0xbe0ebd58	-0.13939416
136	0xbd4dcf08	-0.05024627
137	0xbddfc4cb	-0.10926207
138	0x3dc35793	0.09538188
139	0x3e4e1a4f	0.20127223
140	0xbc7af9ee	-0.015318377
141	0x3e19f23c	0.15033811
142	0x3dfbc1a5	0.12292794
143	0xbdef0d41	-0.1167245
144	0xbc68b38c	-0.014202964
145	0x3c5814a6	0.013188517
146	0x3e008e38	0.12554252
147	0x3c7a44de	0.015275208
148	0xbc7a90f6	-0.01529335
149	0x3cdb3279	0.026757466
150	0x3d777c4c	0.060421273
151	0xbbc48e54	-0.005998412
152	0xbd996b0e	-0.07491122
153	0x3d94db72	0.07268418
154	0xbd9c1713	-0.076215886
155	0x3dbd5c6c	0.09246144
156	0xbc04f489	-0.008114942
157	0xbd4a1fc2	-0.049346693
158	0x3e712885	0.23550613
159	0x3e29e963	0.16592936
160	0x3e7e9ddc	0.24864906
161	0x3e1e015c	0.15430206
162	0x3dc4f56c	0.09617123
163	0x3d74a77c	0.059730038
164	0x3d938981	0.07203961
165	0x3cc74bc8	0.024328128
166	0x3c9ad4f1	0.018900367
167	0xbca612a5	-0.020272562
168	0x3d167bba	0.03673909
169	0xbd723f51	-0.059142414
170	0xbcd20ec0	-0.025641799
171	0x37b3d9ac	2.1439824e-05
172	0xbeaf73f1	-0.34268144
173	0xbd784a5e	-0.060617797
174	0xbd47201d	-0.04861461
175	0xbeb9c3ea	-0.36282283
176	0xbd6497de	-0.055808894
177	0xbe0d388f	-0.13791107
178	0xbdf2a5db	-0.11848041
179	0xbe0f5b30	-0.13999629
180	0xbbc9ff6f	-0.0061644833
181	0xbe1dcb36	-0.1540955
182	0xbe32064b	-0.17385213
183	0x3d9b8e51	0.07595504
184	0x3d020313	0.031741213
185	0xbdf5d8dc	-0.12004253
186	0xbc40b905	-0.011762862
187	0xbcf28e5e	-0.029608902
188	0xbcff0eb4	-0.03113494
189	0x3d0faaa4	0.035074845
190	0x3da08cc5	0.0783935
191	0xbd66cd64	-0.05634822
192	0xbc447aaa	-0.011992136
193	0xbda5c6fd	-0.08094595
194	0xbe0d80c1	-0.13818647
195	0x3d56c1da	0.052430965
196	0xbe6d79db	-0.23191015
197	0xbc3ae303	-0.011406663
198	0xbc23a9e5	-0.0099892365
199	0x3d7f5b0b	0.062342685
200	0x3da0a2c1	0.07843543
201	0xbe7a4a94	-0.24442512
202	0x3cf55a36	0.029950242
203	0xbcb0f934	-0.021603204
204	0x3ca791b6	0.020455223
205	0xbc035e22	-0.0080180485
206	0xbcfe0681	-0.03100896
207	0x3e0f0f53	0.1397069
208	0x3cc9f21a	0.024651576
209	0x3d75a87d	0.059975136
210	0xbd681354	-0.056659058
211	0xbc653951	-0.013990716
212	0xbd88b162	-0.06674458
213	0x3e4961a8	0.19666159
214	0xbdc09a11	-0.09404386
215	0xbc5b661b	-0.013391043
216	0xbe17d711	-0.14828135
217	0x3d3016e3	0.042990576
218	0xbe1b69ac	-0.1517703
219	0xbe14bee0	-0.14525938
220	0x3d88b495	0.06675068
221	0xbe2b3930	-0.16721034
222	0xbd372ccf	-0.044720467
223	0xbd049c54	-0.03237565
224	0xbe409ef5	-0.18810637
225	0x3e57d4a6	0.21077213
226	0xbbacceb2	-0.0052736634
227	0x3d755540	0.059895754
228	0x3b001cc1	0.0019548389
229	0x3dd2f935	0.10301439
230	0x3cb9b0b4	0.022667266
231	0x3d0624fb	0.03275011
232	0x3c87e838	0.016590223
233	0x3db26b2b	0.08711847
234	0xbd9d5555	-0.076822914
235	0xbd11144f	-0.03541976
236	0xbda9f3ac	-0.0829843
237	0x3de7cdb1	0.113185294
238	0x3bb4061e	0.0054938933
239	0x3dddcec3	0.10830452
240	0x3e57ef0e	0.21087286
241	0xbdb86e36	-0.09005396
242	0x3c5dc035	0.013534595
243	0xbe13e49a	-0.14442673
244	0xbc760162	-0.015014978
245	0xbe947837	-0.28997967
246	0x3dddb9b4	0.10826436
247	0xbdfd11e7	-0.1235693
248	0xbd4bb03e	-0.049728625
249	0x3e14f3f3	0.14546184
250	0x3bf5673d	0.0074891136
251	0xbe153185	-0.14569671
252	0xbd04391a	-0.03228102
253	0x3cea28b0	0.028583854
254	0xbd61c3e1	-0.055118445
255	0x3d956e58	0.07296437

conv.6.bias f4 [32]
0	0xbaede378	-0.0018149456
1	0x3d7bf995	0.061517317
2	0x3c8b4fd9	0.017005848
3	0x3d6e9bbd	0.058253992
4	0x3d265cee	0.04061597
5	0x3b56e927	0.0032792778
6	0x3c8d3911	0.017239125
7	0xbc8872c4	-0.016656287
8	0x3b8041bc	0.003914086
9	0x3d2ea7f8	0.042640656
10	0x3d685da3	0.056729924
11	0x3d9547de	0.07289098
12	0xbcbde2f2	-0.023179505
13	0xbbe47bb9	-0.0069727567
14	0x3c708dfe	0.014682291
15	0x3d4dba99	0.05022678
16	0xbccffd9f	-0.02538949
17	0xbb8e2d34	-0.0043388847
18	0xbca92c6e	-0.020651069
19	0x3bd59885	0.006518426
20	0x3c1646ae	0.009172125
21	0x3d8566fe	0.06513785
22	0xbd95676b	-0.07295116
23	0xb8a2a76a	-7.755945e-05
24	0xbca6a773	-0.020343518
25	0xbd10aa2f	-0.03531855
26	0x3d84be29	0.06481583
27	0xbdced10c	-0.10098466
28	0xbcce1769	-0.025157647
29	0xbc41be05	-0.011825089
30	0x3d406f31	0.04698104
31	0x3c985da8	0.018599346

conv.8.weight f4 [64, 32, 3, 3]
0	0x3dc3973d	0.09550331
1	0x3c13e0b0	0.009025738
2	0x3cfdcfe0	0.030982912
3	0x3c47b4fe	0.012189148
4	0x3d08fc97	0.033444013
5	0x3c1a89af	0.00943224
6	0xbbf60ea6	-0.0075090704
7	0x3d2f0691	0.04273087
8	0xbdd5f110	-0.1044637
9	0x3dac5b81	0.084158905
10	0x3df5ae73	0.11996164
11	0x3e26458f	0.16237472
12	0x3debe244	0.11517766
13	0xbc9349ff	-0.01797962
14	0x3c504910	0.012712732
15	0x3db6b2ba	0.08920808
16	0x3c4a163a	0.012334401
17	0xbd678533	-0.056523513
18	0x3e0f0552	0.13966873
19	0x3e094b65	0.13407667
20	0x3da92a42	0.08260013
21	0x3d87672e	0.06611477
22	0x3d6c0c03	0.057628643
23	0xbcf9c2b1	-0.030488344
24	0xbc645e5a	-0.013938511
25	0x3d8883d7	0.066657715
26	0xbd91d36c	-0.07120404
27	0x3d788933	0.06067772
28	0x3d8b812e	0.068117484
29	0x3de78d7f	0.11306285
30	0x3d45a735	0.048255164
31	0xbc075781	-0.008260609
32	0x3c9ca115	0.019119779
33	0x3d81cf9b	0.06338426
34	0x3e0c9c29	0.13731445
35	0x3d11e2e1	0.03561676
36	0x3e002d77	0.12517343
37	0x3c99e9fc	0.01878833
38	0x3e2aca10	0.16678643
39	0x3d2cf81a	0.042228796
40	0x3d29c3b7	0.041446414
41	0x3e4a4a80	0.19754982
42	0x3d39c385	0.045352478
43	0xbdad841a	-0.08472462
44	0xbd633515	-0.055470545
45	0xbd5b6f4a	-0.05357293
46	0xbe0b340e	-0.13594076
47	0x3cdef46d	0.02721616
48	0xbe5d9421	-0.21638538
49	0xbedf38c1	-0.43597987
50	0x3e1b8e05	0.15190895
51	0xbe17d73d	-0.148282
52	0xbe75e001	-0.24011232
53	0xbd4e5d0a	-0.050381698
54	0x3c45b791	0.012067691
55	0xba96df20	-0.0011510588
56	0x3e0f3448	0.13984787
57	0x3dcc64bd	0.09980152
58	0xbd3743f9	-0.04474256
59	0x3e2845f8	0.16432941
60	0x3c0dbb50	0.008650616
61	0x3c848498	0.016176507
62	0xbddbe9a3	-0.10737922
63	0x3db54c74	0.08852473
64	0x3dd80641	0.10548068
65	0xbd9690a9	-0.073518105
66	0x3da51a80	0.08061695
67	0x3d3cd30b	0.046099704
68	0xbcd60ec1	-0.026130082
69	0x3c8cadf2	0.017172787
70	0x3e0ec114	0.13940841
71	0xbdf9c1ed	-0.121951915
72	0x3d92a624	0.07160595
73	0x3db6eee9	0.08932287
74	0x3b96ee82	0.004606069
75	0x3d28af37	0.041182723
76	0x3d76a21b	0.06021319
77	0xbde3106b	-0.11087116
78	0xbc36e607	-0.011163241
79	0xbd59be1c	-0.053159818
80	0xbdaf1598	-0.085490406
81	0xbd937ad2	-0.072011605
82	0xbe128d47	-0.14311706
83	0x3d471fdc	0.048614368
84	0x3c7e4187	0.015518553
85	0xbe818aff	-0.25301358
86	0x3dcbd82b	0.0995334
87	0x3b31e7f4	0.0027146311
88	0xbee104d1	-0.43948987
89	0xbe305acd	-0.17222138
90	0x3d59dbb4	0.05318804
91	0x3d5e088e	0.054207377
92	0x3c6886c6	0.014192289
93	0x3de6fe23	0.112789415
94	0xba8331f7	-0.0010009398
95	0x3c024177	0.007950178
96	0x3d144709	0.036200557
97	0x3b5c71a2	0.0033637066
98	0xbd7c9973	-0.061669778
99	0x3dd7b80a	0.105331495
100	0x3db6612e	0.08905254
101	0x3c372fd5	0.011180838
102	0x3d3767cf	0.044776734
103	0xbc8cfed8	-0.017211363
104	0xbd83797f	-0.06419658
105	0x3e1874eb	0.1488835
106	0x3de62217	0.11236971
107	0xbd1e231b	-0.038607698
108	0x3d84aa32	0.06477775
109	0x3da3e4e3	0.08002641
110	0xbb455a55	-0.0030113657
111	0x3d998931	0.0749687
112	0x3d743d9e	0.059629075
113	0x3c95a480	0.018266916
114	0x3d8c9e1d	0.06866095
115	0x3db1e482	0.086861625
116	0xbd46bfd6	-0.048522793
117	0xbc7e8da5	-0.0155367
118	0x3de8dda3	0.11370399
119	0x3d95f471	0.07322014
120	0xbc1a0090	-0.009399548
121	0xbe2541d5	-0.16138394
122	0x3d8fedf4	0.07027808
123	0x3da557dd	0.08073399
124	0xbdbd6a89	-0.092488356
125	0xbe1422fd	-0.14466472
126	0x3d9a05e5	0.075206555
127	0xbd44919f	-0.047990438
128	0x3dc0acbb	0.09407946
129	0x3de59d00	0.11211586
130	0xbcd1b427	-0.025598599
131	0xbd03b52c	-0.0321552
132	0x3e201894	0.15634376
133	0xbd8b5c1e	-0.06804679
134	0x3da672a4	0.08127335
135	0xbcf93bb1	-0.03042397
136	0xbd88e720	-0.066847086
137	0x3cce91cf	0.025216011
138	0x3d1e2b12	0.038615294
139	0xbeb858f0	-0.36005354
140	0x3d5d5d1a	0.054043867
141	0xbcf968de	-0.030445512
142	0xbe8ccf77	-0.27502033
143	0x3e0fd00a	0.14044204
144	0x3e057eb6	0.13036618
145	0x3dbe8c72	0.093041316
146	0x3c4be465	0.01244459
147	0x3dc1c2d2	0.09460987
148	0xbc3c75bd	-0.01150268
149	0xbb27b035	-0.0025587205
150	0x3c882736	0.01662026
151	0xbbae26ad	-0.005314669
152	0x3ca4d80b	0.020122549
153	0x3de15e71	0.110043414
154	0x3cc46f12	0.023978744
155	0xbe88d5ee	-0.26725715
156	0xbd87429f	-0.06604504
157	0x3d7e6aad	0.062113453
158	0xbe69ef9a	-0.22845307
159	0xbd433e0e	-0.0476666
160	0xbd52a577	-0.05142733
161	0xbdfe8788	-0.12428194
162	0x3e0422dc	0.12903923
163	0xbdde24fb	-0.10846897
164	0x3e307cec	0.17235154
165	0x3d05bb3f	0.032649275
166	0x3d83447d	0.064095475
167	0x3d9051e6	0.07046871
168	0x3d05d6e6	0.032675646
169	0xbe035064	-0.12823635
170	0xbe0ffe10	-0.14061761
171	0x3e066c24	0.1312719
172	0xbcc9d6e4	-0.0246386
173	0x3d2fce1c	0.04292117
174	0xbd47571d	-0.048667062
175	0x3da866f8	0.08222765
176	0x3d19cbe9	0.03754798
177	0x3d822b1c	0.06355879
178	0xbdd4fef1	-0.10400189
179	0x3dd73b34	0.10509339
180	0x3d4c8a08	0.049936324
181	0xbd7704f1	-0.060307447
182	0x3d3d3e35	0.046201903
183	0xbdfc288a	-0.1231242
184	0xbe207024	-0.15667778
185	0x3e0cf762	0.13766244
186	0xbd6e9c7a	-0.058254696
187	0xbe583225	-0.21112879
188	0x3d3a7c7f	0.045528885
189	0x3e297766	0.16549453
190	0x3e21f0c1	0.15814497
191	0x3db830ef	0.08993708
192	0x3dc0d88e	0.094163045
193	0x3d3f4735	0.046698768
194	0x3e0688ac	0.13138074
195	0x3dc0cafc	0.09413716
196	0x3ca8adea	0.020590741
197	0x3df72276	0.1206712
198	0xbd068540	-0.03284192
199	0xbe4d3dc7	-0.20043097
200	0x3e068826	0.13137874
201	0x3dc2abfc	0.0950546
202	0xbf107584	-0.56429315
203	0x3daad01d	0.08340476
204	0x3dfa6d6a	0.122279
205	0xbe683b17	-0.22678791
206	0xbdb9a3ef	-0.09064471
207	0x3cc336f7	0.02382992
208	0x3e2dd4a2	0.16975644
209	0x3de30808	0.11085516
210	0x3ddafbfa	0.10692592
211	0xbd6bb1ae	-0.057542495
212	0x3cffc909	0.03122379
213	0xbd927d50	-0.07152808
214	0xbd40be6a	-0.047056593
215	0xbc61ac41	-0.013773979
216	0xbe014f0b	-0.12627809
217	0xbd80b82b	-0.06285127
218	0x3e0a3d9f	0.13500069
219	0xbdba71a3	-0.09103706
220	0xbe0c1f8f	-0.13683914
221	0x3d5d6fbf	0.054061648
222	0xbdf97084	-0.12179664
223	0xbe11a7cf	-0.1422417
224	0x3d1b84ba	0.037968375
225	0x3d41e2ff	0.04733562
226	0x3d83975e	0.064253554
227	0xbd586de9	-0.052839193
228	0x3db2cdf3	0.08730688
229	0xbcda8f19	-0.026679562
230	0xbdac9c32	-0.084282294
231	0x3dba095e	0.09083818
232	0x3d304a4e	0.043039612
233	0xbd7597ae	-0.059959106
234	0xbc2d7451	-0.010586814
235	0x3d14e6b8	0.036352843
236	0x3de13c2f	0.10997807
237	0x3cf69539	0.030100452
238	0xbd3267e8	-0.043556124
239	0xbb782e56	-0.0037869415
240	0x3d1452e9	0.03621188
241	0x3c3dd5cb	0.011586617
242	0xbded0947	-0.11574035
243	0xbd945cae	-0.0724424
244	0x3d58a5e3	0.052892577
245	0x3ac3d459	0.0014940604
246	0xbd3c7c97	-0.046017256
247	0xbd01ea41	-0.031717543
248	0x3d42ef06	0.04759123
249	0xbc0e4292	-0.008682864
250	0x3cc98745	0.024600634
251	0xbc0a4872	-0.008440124
252	0x3e108926	0.14114818
253	0xbbb4191d	-0.005496158
254	0xbd04921a	-0.032365896
255	0xbccbb60a	-0.024867076

conv.8.bias f4 [64]
0	0xbc50607e	-0.012718318
1	0xbd2a114b	-0.041520398
2	0x3c6dc1c4	0.014511529
3	0xbd7d35d1	-0.0618189
4	0xbcbca7da	-0.023029257
5	0xbd80cf0b	-0.0628949
6	0xbdd06cdb	-0.101770125
7	0x3dd82554	0.10553995
8	0xbd7cf52b	-0.061757248
9	0x3dc21b84	0.094779044
10	0xbd5db00f	-0.05412298
11	0xbd232ce7	-0.039837744
12	0xbcbc20b5	-0.022964815
13	0x3d223188	0.039598018
14	0xbd389beb	-0.04507057
15	0x3cf8f1a4	0.03038866
16	0x3de59887	0.11210733
17	0x3d0e5295	0.034746725
18	0x3c8c261c	0.017108016
19	0x3c81aad0	0.01582852
20	0xbd633af3	-0.05547614
21	0x3d715902	0.058922775
22	0x3bcd4b54	0.0062650833
23	0x3db8c953	0.090227745
24	0x3c910d5f	0.017706571
25	0x3d1c5e8b	0.0381761
26	0xbdac97f8	-0.08427423
27	0xbda76cce	-0.0817505
28	0x3d8aeec0	0.06783819
29	0x3da3ccdb	0.079980575
30	0x3cdc5214	0.026894607
31	0x3cf78128	0.030212954
32	0x3c94a956	0.018147152
33	0x3da60f5a	0.08108397
34	0xbdb3b5c9	-0.08774907
35	0xbd7eb573	-0.062184762
36	0xbd534e55	-0.051588375
37	0xbd8f371a	-0.06992932
38	0xbb3e1c1b	-0.0029008451
39	0xbd557751	-0.052115742
40	0x3dc9726d	0.09836278
41	0x3d8d9fc2	0.06915237
42	0x3dc6a735	0.09699861
43	0xbdbbdf3f	-0.0917344
44	0xbcb660e8	-0.022263005
45	0xbe42d89d	-0.19027944
46	0xbd92121a	-0.07132359
47	0x3d5ddd01	0.054165844
48	0x3c99f3b9	0.018792974
49	0xbd1e9000	-0.038711548
50	0x3d404023	0.046936166
51	0x3d19f4fc	0.03758715
52	0x3d483b9a	0.048884965
53	0xbc416c18	-0.011805557
54	0xbdbfa2c4	-0.09357217
55	0x3a3f49c2	0.00072970625
56	0x3da0a8ec	0.07844719
57	0xbd8b1305	-0.06790737
58	0x3db4ba10	0.08824551
59	0x3d858c54	0.06520906
60	0xbdc1633f	-0.09442758
61	0xbd177ec1	-0.036986116
62	0x3d705414	0.058673933
63	0x3c0d976e	0.008642061

conv.10.weight f4 [128, 64, 3, 3]
0	0x3ca2da8e	0.019879606
1	0xbcde0458	-0.02710168
2	0x3d20e99e	0.039285295
3	0xbd098a0e	-0.033578925
4	0xbd6e737a	-0.058215596
5	0x3c26e27b	0.010185833
6	0x3b18bf80	0.0023307502
7	0x3c70ba9f	0.014692931
8	0xbd54795e	-0.051873557
9	0xbd20bc1a	-0.039241888
10	0x3c2e88d6	0.010652741
11	0xbb9131f6	-0.0044310046
12	0xbc2a9eab	-0.010413806
13	0xbccedb76	-0.025251132
14	0xbc7e6c1b	-0.015528704
15	0x3cacc8a8	0.021091774
16	0x3c993818	0.018703505
17	0x3ca9ba88	0.020718828
18	0xbd0236b4	-0.03179045
19	0xbc1af5c6	-0.009458011
20	0xbc2c2aa6	-0.010508215
21	0xba9c1580	-0.0011908263
22	0xbcb05444	-0.021524556
23	0xbd414148	-0.047181398
24	0x3c8141a8	0.015778378
25	0xbc965c9d	-0.018354708
26	0xbcb792b4	-0.02240882
27	0x3d210868	0.039314657
28	0xbcfe1e36	-0.031020265
29	0x3c947fa6	0.018127274
30	0x3c2173f6	0.009854307
31	0xbd0a0204	-0.03369333
32	0xbd1abd58	-0.03777823
33	0xbb9400f6	-0.004516716
34	0xba5c8f95	-0.00084137294
35	0x3d1795b4	0.037008002
36	0x3cc98346	0.024598729
37	0x3c766666	0.015039062
38	0xbcbb3cc0	-0.022856116
39	0xbc8e3a30	-0.01736173
40	0xbda4ec7b	-0.080529176
41	0x3c479b8f	0.012183084
42	0x3d0192c6	0.031634115
43	0xbc081ef1	-0.008308158
44	0xbd10727d	-0.035265435
45	0xbd09c47e	-0.033634655
46	0x3c14e30b	0.009087334
47	0xbc33ced0	-0.010974601
48	0xbc2a5d90	-0.010398284
49	0x3d2a57de	0.041587703
50	0x3cc1aea2	0.023642842
51	0xbbe8268b	-0.007084673
52	0xbd21c003	-0.039489757
53	0xbc4a558b	-0.012349497
54	0xbc330ea6	-0.010928785
55	0xbc8b6356	-0.01701514
56	0x3c4ee0e6	0.012626862
57	0xbc5729a6	-0.013132488
58	0x3b9aa2d6	0.0047191186
59	0x3d26c4d6	0.04071506
60	0xbd21afd3	-0.03947432
61	0x3b62aac0	0.0034586638
62	0xbc836510	-0.016039401
63	0x3c076a80	0.008265138
64	0x3cd4beb0	0.025969833
65	0xbcf173fb	-0.02947425
66	0xbd0a2430	-0.033725917
67	0xbd9cdc9e	-0.07659267
68	0xbda1dcd6	-0.07903449
69	0xbd149be0	-0.036281466
70	0xbcca5486	-0.024698507
71	0xbc01e8b2	-0.007929014
72	0xbcd4d290	-0.02597931
73	0x3a8da680	0.0010807067
74	0x3d242e4a	0.040083207
75	0xbcfce973	-0.030873036
76	0xbc2a8606	-0.01040793
77	0xbcc8f44e	-0.024530556
78	0xbd26d2d7	-0.040728416
79	0xbcaa87cb	-0.020816704
80	0x3b578740	0.0032887012
81	0xb9cb9400	-0.00038829446
82	0xbc0caa26	-0.008585488
83	0xbbb2dd80	-0.0054585338
84	0xbce7c29b	-0.028291037
85	0xbd31d1e7	-0.04341307
86	0xbd333c2c	-0.043758556
87	0x3c9f2fb6	0.01943193
88	0xbc0679ca	-0.008207748
89	0xbca24c18	-0.019811675
90	0x3d1c266e	0.038122587
91	0x3bda6156	0.0066644354
92	0x3cf8c90e	0.030369308
93	0x3d21abd8	0.039470524
94	0x3cb42474	0.021990038
95	0xbd4a92ed	-0.049456526
96	0xbca4d983	-0.020123249
97	0xbd24075b	-0.040046077
98	0xbce6c3cc	-0.028169535
99	0x3cb02210	0.021500617
100	0x3c4f0beb	0.012637119
101	0x3cdbfb1b	0.026853135
102	0x3d0d36fb	0.03447626
103	0x3c66718c	0.014065158
104	0x3cc487e6	0.023990583
105	0xbcfffb7e	-0.03124785
106	0xbd21ed9f	-0.039533254
107	0x3c8add8a	0.016951341
108	0x3ca4346b	0.020044526
109	0xbd18538a	-0.037189044
110	0x3ba4516b	0.0050145886
111	0xbcb3e153	-0.021958029
112	0xbd710d87	-0.05885079
113	0x3c516c77	0.012782208
114	0x3d0548bb	0.032540064
115	0xbca9cf64	-0.020728774
116	0xbc748a86	-0.014925605
117	0xbcf99888	-0.03046824
118	0xbc034960	-0.008013099
119	0xbcf4c98b	-0.02988126
120	0x3b5fdcc0	0.0034158677
121	0xbd1ce07b	-0.03830002
122	0x3c2ba126	0.0104754325
123	0x3cdc77f3	0.026912665
124	0xbcee85b1	-0.029116483
125	0x3c907ca3	0.017637556
126	0xbce5b86e	-0.028042044
127	0x3c27e1db	0.010246719
128	0xbd00558c	-0.031331584
129	0x3d14b65f	0.036306735
130	0xbd06c776	-0.032905065
131	0xbdb1d990	-0.08684075
132	0x3ca65546	0.020304333
133	0x3a9a9400	0.0011793375
134	0xbc4b749b	-0.012417938
135	0x3cfe21a0	0.031021893
136	0x3d2525b0	0.040319145
137	0x3bf72920	0.0075427443
138	0xbcf839f3	-0.03030107
139	0xbd19f9b3	-0.037591647
140	0x3c4faf57	0.012676082
141	0x3ba1d38b	0.004938548
142	0xbc896957	-0.016773863
143	0x3c2de404	0.010613445
144	0xbccd8d0e	-0.025091674
145	0x3d0e90c0	0.034806013
146	0x3c9b0f5e	0.018928226
147	0xbc9f8633	-0.01947317
148	0xbdb0f686	-0.086407706
149	0x3b80a035	0.003925348
150	0xbc1d1a76	-0.009588828
151	0xbcf9d2d1	-0.030496033
152	0xba037471	-0.00050146045
153	0x3d142ea7	0.036177304
154	0xbceda45e	-0.02900904
155	0xbc88b3be	-0.01668727
156	0xbc10c226	-0.008835351
157	0xbd635791	-0.05550343
158	0xbd0c5743	-0.034262907
159	0xbc5385c6	-0.012910312
160	0xbd75e198	-0.060029596
161	0x3c9e3dfa	0.019316662
162	0xbc6b65d6	-0.014367541
163	0x3bf63676	0.0075138165
164	0xbce50fde	-0.027961668
165	0x3d1424fe	0.03616809
166	0xbd7a29a5	-0.06107487
167	0xbdaf72a9	-0.085667916
168	0x3cdba013	0.026809728
169	0x3b49ce40	0.00307931
170	0xbd208d0c	-0.039197013
171	0xbce76543	-0.028246528
172	0xbcd7f3bb	-0.026361337
173	0xbc42f9cb	-0.011900376
174	0x3d0491c4	0.032365575
175	0xbb6b60c3	-0.0035915829
176	0xbc95eb75	-0.018300751
177	0xbc2989f0	-0.010347828
178	0xbd2f1672	-0.042746015
179	0xbcfc0f07	-0.030768884
180	0xbc8c32c8	-0.017114058
181	0x3d0f06a8	0.034918457
182	0xbcd8af6e	-0.026450839
183	0x3b08e356	0.0020887456
184	0xbb861c5b	-0.0040927357
185	0xbd1ed2ae	-0.03877514
186	0x3cabc1b8	0.020966396
187	0xbd1d1e6b	-0.038359087
188	0xbd5e9f15	-0.05435093
189	0x3cd8c27e	0.026459929
190	0x3d00433f	0.03131413
191	0xbcfdf6db	-0.031001499
192	0x3cadea16	0.021229785
193	0xbd33e12b	-0.04391591
194	0xbd0535a4	-0.03252186
195	0xbc8f16ee	-0.017466988
196	0xbcfab5bf	-0.030604241
197	0x3c249369	0.010044911
198	0x3b1c952b	0.0023892622
199	0xbb9362e0	-0.004497871
200	0xbc9849a0	-0.018589795
201	0xbd23115e	-0.039811485
202	0xbdb33d26	-0.087518975
203	0xbc597461	-0.013272376
204	0x3c0ea230	0.008705661
205	0xbc8f0e33	-0.017462825
206	0x3cc115c1	0.023569943
207	0x3be171eb	0.006880035
208	0x3cef3ab8	0.029202804
209	0x3c157506	0.009122139
210	0xbcdb9948	-0.026806489
211	0xbd0a90a9	-0.033829365
212	0xbd05fab9	-0.03270981
213	0x3cd121a3	0.025528735
214	0xbd12aa0a	-0.035806693
215	0xbc1e7f38	-0.009673886
216	0xbbe4490b	-0.006966715
217	0xbd259310	-0.040423453
218	0xbcf61278	-0.030038103
219	0x3cc0cae8	0.023534253
220	0xbceb7f2d	-0.028747166
221	0xbd375a1a	-0.044763662
222	0xbc7baed6	-0.015361508
223	0x3c6861ef	0.014183505
224	0xbcdfa537	-0.02730046
225	0x3cc9bd9b	0.024626544
226	0x3c88af53	0.016685164
227	0xbd166d6c	-0.036725447
228	0xbc8a23de	-0.016862806
229	0xbc17f6da	-0.009275163
230	0xbc3a6adf	-0.011378019
231	0xbc2be75b	-0.010492171
232	0xbc84a170	-0.01619026
233	0xbc242f87	-0.010021097
234	0xbc5a8536	-0.013337424
235	0x3cf3a99e	0.029743966
236	0x3d1aed96	0.037824236
237	0xbcd71f83	-0.026260143
238	0xbc36140d	-0.011113179
239	0xbcfb94ab	-0.030710539
240	0x3d1706e2	0.0368718
241	0xbd365426	-0.044513844
242	0x3c89d9ea	0.016827542
243	0xbd20f39f	-0.039294835
244	0x3d0bdbb7	0.034145083
245	0xbcbee29b	-0.023301413
246	0x3cc17cb3	0.023619032
247	0xbc533cca	-0.012892911
248	0x3c86cf83	0.016456371
249	0xbca2c273	-0.019868111
250	0xbd51fb3a	-0.05126498
251	0xbd7134a1	-0.05888808
252	0x3cd46fc6	0.025932204
253	0xbcb09b1e	-0.02155834
254	0xbd173b1e	-0.036921613
255	0xbc30bfc6	-0.01078791

conv.10.bias f4 [128]
0	0xbc294b95	-0.010332962
1	0xbcb77bed	-0.02239796
2	0x3e470f25	0.19439371
3	0x3e5adf98	0.21374357
4	0x3d303f15	0.04302891
5	0xbd607296	-0.054796778
6	0x3d512b76	0.05106684
7	0xbcf704d2	-0.030153666
8	0x3dc5d12f	0.09659039
9	0x3e25da0d	0.16196461
10	0x3cd7da97	0.026349349
11	0x3d272aef	0.04081243
12	0x3d81767a	0.06321426
13	0xbd7df408	-0.062000304
14	0xbd43e115	-0.047822077
15	0xbcb5723c	-0.022149198
16	0xbdbc8de9	-0.09206755
17	0x3bd37bde	0.006453975
18	0x3d20fc3c	0.03930305
19	0x3d6e2034	0.05813618
20	0x3c75e26a	0.015007595
21	0xbd7a4b79	-0.061107133
22	0x3deb8eef	0.11501872
23	0x3e26742d	0.16255255
24	0x3e02f063	0.12787013
25	0xbd836f81	-0.06417752
26	0x3df5f828	0.12010223
27	0xbd89c85e	-0.0672767
28	0x3c0d5b6d	0.008627755
29	0x3cfc6cf2	0.030813668
30	0x3e005fa7	0.12536488
31	0x398ac300	0.00026466697
32	0xbd64fd23	-0.055905472
33	0x3c7b0483	0.0153209
34	0x3de093ed	0.109657146
35	0xbd0bdeb8	-0.034147948
36	0x3e19fdc9	0.15038218
37	0x3dc0aea1	0.09408308
38	0x3e0e41ae	0.13892242
39	0xbacb947b	-0.0015531922
40	0x3d45c8aa	0.04828707
41	0xbc43ea7c	-0.011957761
42	0xbd1733bd	-0.036914576
43	0xb9c708b5	-0.00037962725
44	0x3dcf4307	0.10120206
45	0xbd0a7270	-0.033800542
46	0xbcb7a9ed	-0.022419894
47	0xbd0d9f6d	-0.03457587
48	0xbd4e346a	-0.050342955
49	0x3c9c6c23	0.019094532
50	0xbc9987c2	-0.018741492
51	0xbba41a47	-0.0050080153
52	0x3d8995ad	0.067180015
53	0x3e5691b5	0.2095402
54	0xbd67e4d1	-0.0566147
55	0x3ce41f44	0.02784694
56	0xbd94dd1e	-0.07268737
57	0x3d9ffcba	0.07811876
58	0x3e33bd34	0.17552644
59	0x3cc8d06b	0.024513444
60	0x3d66f626	0.05638709
61	0x3e2d7fa8	0.16943228
62	0x3caf39a8	0.021389797
63	0x3d956d53	0.072962426
64	0xbd4e0e1d	-0.05030643
65	0x3e0e69a8	0.13907492
66	0xbc43f2fc	-0.011959787
67	0xbad5f97d	-0.0016324964
68	0xbc938b31	-0.018010708
69	0x3e1d75a5	0.15376909
70	0x3c5e5902	0.013571026
71	0x3e409f57	0.18810783
72	0x3cf6e75f	0.030139623
73	0xbd46a2af	-0.04849499
74	0xbdbe4b15	-0.092916645
75	0x3dfb48cc	0.12269744
76	0x3e14f18a	0.14545265
77	0xbb78623b	-0.0037900347
78	0xbd43d9f5	-0.047815282
79	0xbd92e34d	-0.071722604
80	0x3d9a6fb2	0.075408354
81	0x3c66bdb7	0.0140833175
82	0xbcbae0aa	-0.022812206
83	0xbbca18ef	-0.006167523
84	0x3d78facb	0.06078605
85	0xbd481a6b	-0.04885332
86	0x3c42d602	0.011891844
87	0xbd441b65	-0.047877688
88	0x3d8ec17f	0.069705
89	0x3e0f88f1	0.14017083
90	0xbd852035	-0.06500284
91	0xbce3bbe9	-0.027799563
92	0xbc8f6019	-0.017501878
93	0x3daa6f6e	0.08322035
94	0x3d216e4b	0.039411824
95	0x3df1f900	0.11815071
96	0xbd5d94d0	-0.054096997
97	0x3df87c2b	0.12133058
98	0xbc4a3177	-0.012340895
99	0x3dd2088e	0.10255538
100	0x3de1f7c9	0.110335894
101	0x3e1f085a	0.1553053
102	0x3cee1231	0.029061409
103	0x3d5497b8	0.051902503
104	0x3e0c8b2a	0.13724962
105	0x3e09f57e	0.13472554
106	0x3dc30a97	0.09523504
107	0xbd808559	-0.06275434
108	0x3e01e4f6	0.12684998
109	0x3c39e406	0.011345869
110	0x3dcbe726	0.099561974
111	0xbba8b6b6	-0.005148734
112	0x3d01e674	0.031713918
113	0x3dd1a030	0.102356315
114	0xbd7de6ac	-0.061987564
115	0xbd4c7d16	-0.04992398
116	0x3e3d18ea	0.18466535
117	0xbd1650ed	-0.03669827
118	0xbd2e6991	-0.042581145
119	0xbd94b26a	-0.07260592
120	0x3de280f4	0.11059752
121	0x3dc897bd	0.09794567
122	0xbd8669c6	-0.065631434
123	0xbdc2f46d	-0.09519277
124	0xbd2a23ca	-0.041538037
125	0x3cec5128	0.028847292
126	0xbd960222	-0.073246256
127	0xbd303e30	-0.043028057

fc.weight f4 [64, 128]
0	0xbd424a56	-0.047434174
1	0x3bc8bdab	0.006126126
2	0x3d7b5aae	0.061365776
3	0x3c21a1ae	0.009865208
4	0x3ddc2913	0.10750022
5	0xbdac835f	-0.084234945
6	0xbe2c89cb	-0.16849439
7	0xbc5d71ad	-0.013515872
8	0xbde77dc5	-0.113032855
9	0x3e0cab8a	0.13737312
10	0x3dbcebad	0.09224639
11	0x3ca469ef	0.020070044
12	0xbdc60d5e	-0.09670518
13	0x3dbdedf6	0.09273903
14	0x3cebf0fe	0.028801437
15	0x3c4e8cb3	0.0126067875
16	0x3c243736	0.010022929
17	0xbcbe14be	-0.02320325
18	0xbcef3af6	-0.02920292
19	0x3c21d75d	0.009878007
20	0x3e0b91cf	0.1362984
21	0xbdea1d25	-0.1143134
22	0xbdacd7fd	-0.08439634
23	0x3dd5ac5d	0.10433266
24	0x3c97992a	0.018505652
25	0x3d75cc6b	0.0600094
26	0xbbe08531	-0.006851815
27	0x3e38e960	0.18057775
28	0xbc8bbad7	-0.017056866
29	0xbd334753	-0.043769192
30	0x3e16ddf3	0.14733104
31	0x3d6fffa2	0.0585934
32	0xbd4335d7	-0.047658768
33	0xbdb38e11	-0.087673314
34	0x3b2b9d5d	0.0026186325
35	0xbcbcbbb8	-0.02303873
36	0xbd4e7b93	-0.05041082
37	0xbe10ce69	-0.14141239
38	0xbdf6af66	-0.12045173
39	0x3d60ef75	0.054915864
40	0xbcdd411a	-0.027008582
41	0x3e46d679	0.19417752
42	0x3c9eba8d	0.019376064
43	0xbd566990	-0.052346766
44	0xbc53d21e	-0.012928514
45	0xbd9eda92	-0.07756533
46	0x3dab8fbc	0.083770245
47	0x3d866215	0.065616764
48	0xbb227440	-0.0024788529
49	0x3d12b907	0.035820987
50	0xbd5750d9	-0.052567337
51	0xbddfd22f	-0.10928761
52	0xbc4f0343	-0.012635055
53	0xbdda14e0	-0.10648513
54	0xbd99c96c	-0.07509121
55	0x3db2b131	0.08725203
56	0xbd9cf340	-0.07663584
57	0xbdc0175f	-0.09379458
58	0x3d4b0ad8	0.04957089
59	0x380b74d0	3.3248973e-05
60	0xbe665ee8	-0.22497141
61	0xbd3a0898	-0.045418352
62	0x3d8ab4e2	0.06772782
63	0x3cc2dbad	0.02378639
64	0xbd38280d	-0.04496007
65	0x3d9a294e	0.075274095
66	0x3dd28eaf	0.10281121
67	0x3d7e4e7a	0.06208656
68	0x3d0edccb	0.034878533
69	0x3e043a01	0.12912752
70	0x3d630660	0.055426
71	0x3cbb5384	0.022866972
72	0x3df68ffd	0.12039182
73	0xbd7279da	-0.059198238
74	0xbe73513e	-0.2376146
75	0xbcbe7f70	-0.023254126
76	0xbbeb7c3c	-0.0071864408
77	0x3d027618	0.031850904
78	0x3c42bb66	0.0118855
79	0xbd408958	-0.04700598
80	0xbdf9a3a2	-0.121894136
81	0xbcc73ec6	-0.024321925
82	0x3d895321	0.06705309
83	0x3d5ee298	0.054415315
84	0x3cd22af6	0.025655251
85	0xbd31871a	-0.043341734
86	0xbe7b0b5a	-0.24516049
87	0x3d826747	0.06367355
88	0xbbd4b029	-0.0064907265
89	0x3da18895	0.07887379
90	0xb89b4eae	-7.405631e-05
91	0xbe482015	-0.19543488
92	0x3dd55b37	0.104177885
93	0x3d3872b4	0.045031264
94	0x3ceb580c	0.028728507
95	0xbd1dcaf3	-0.038523626
96	0xbe8393cd	-0.256987
97	0x3e063aa1	0.13108303
98	0x3c4e0484	0.012574319
99	0xbc4a3a0f	-0.012342944
100	0xbdccf302	-0.100072876
101	0x3c2c5b68	0.01051984
102	0x3dc3dc9c	0.09563562
103	0xbd245bf4	-0.040126756
104	0x3d82655d	0.0636699
105	0x3d80de6d	0.06292424
106	0x3cc65c5a	0.024213959
107	0x3c235e14	0.00997116
108	0xbd0e459e	-0.03473436
109	0x3e8d6042	0.276125
110	0xbda5d17b	-0.08096596
111	0x3c92d7be	0.01792514
112	0x3da1b4b4	0.078957945
113	0xbd245ee4	-0.040129557
114	0xbc6f0e7a	-0.014590854
115	0x3c7ab437	0.015301756
116	0x3a348125	0.0006885699
117	0x3d0cd8c0	0.034386396
118	0xbbfb6a8a	-0.0076726126
119	0x3e280eb3	0.16411857
120	0xbc8c124c	-0.017098568
121	0xbd29c570	-0.041448057
122	0xbd0dd778	-0.034629315
123	0xbd2a21c6	-0.041536115
124	0x3db71fd7	0.0894162
125	0x3dc753e4	0.09732798
126	0xbc6ccab6	-0.014452627
127	0xbd522f95	-0.05131491
128	0xbce7be7d	-0.028289074
129	0x3bc5f341	0.006040961
130	0x3d1002d1	0.035158936
131	0x3d1be983	0.03806449
132	0x3de4bf6c	0.11169323
133	0x3e205721	0.15658237
134	0xbdbb723d	-0.091526486
135	0x3d39aa0d	0.04532819
136	0x3ca0a0d6	0.019607943
137	0x3c612e07	0.013743884
138	0xbcbe7021	-0.023246827
139	0xbe4361f2	-0.19080332
140	0xbe145209	-0.14484419
141	0x3d87cd16	0.06630914
142	0xbd8e3808	-0.06944281
143	0xbd417804	-0.047233596
144	0x3caaccdf	0.020849643
145	0xbe7cfe9f	-0.24706505
146	0xbcd59781	-0.02607322
147	0xbdb206e6	-0.08692722
148	0x3e0c5ad6	0.13706526
149	0x3d146c24	0.036235943
150	0xbde67325	-0.11252431
151	0x3e52695b	0.20548002
152	0xbd924613	-0.07142272
153	0x3d6dae44	0.05802752
154	0xbd7bcb93	-0.06147344
155	0xbe0d5af6	-0.1380423
156	0xbda3db4a	-0.080008104
157	0xbd7de396	-0.06198462
158	0x3d7e0852	0.062019654
159	0x3b99248f	0.0046735476
160	0x3d6e5218	0.05818376
161	0x3e2cced7	0.16875778
162	0xbd898387	-0.0671454
163	0x3cd271e4	0.025689073
164	0xbdf5fc76	-0.12011044
165	0x3c997037	0.018730266
166	0x3d72e557	0.059300747
167	0x3c0d76bc	0.0086342655
168	0x3d95f9d4	0.073230416
169	0xbc2bb16c	-0.010479312
170	0x3cf1914a	0.029488225
171	0xbd527d23	-0.05138887
172	0x3cc71d05	0.02430583
173	0x3deebded	0.11657319
174	0xbd14f108	-0.036362678
175	0xbd6b3a5a	-0.057428695
176	0x3d0221b7	0.031770434
177	0xbccef2f5	-0.025262335
178	0x3dc8128e	0.09769164
179	0x3b614517	0.0034373456
180	0x3e2434c9	0.16035761
181	0xbd695267	-0.05696335
182	0x3d99de5c	0.07513115
183	0x3d377d54	0.044797257
184	0xbd8b947c	-0.068154305
185	0x3e304699	0.17214431
186	0xbda5af1e	-0.080900416
187	0xbe2b5941	-0.16733266
188	0xbdacf1df	-0.08444571
189	0x3d9527c5	0.07282976
190	0x3d81d38b	0.06339177
191	0x3e342be2	0.17594865
192	0x3da555df	0.08073019
193	0x3d8a2bb6	0.067466184
194	0x3d274a73	0.040842485
195	0xbd4bd5aa	-0.049764313
196	0x3c87e271	0.016587468
197	0xbdf95407	-0.1217423
198	0xbe3e0d56	-0.18559775
199	0xbd939f3b	-0.07208105
200	0xbe83fac4	-0.25777256
201	0xbd58b6e6	-0.0529088
202	0xbc89f739	-0.016841518
203	0xbe7ca5bc	-0.24672598
204	0xbcb0f766	-0.021602344
205	0x3d0d93fb	0.034564953
206	0xbb944698	-0.004525017
207	0xbd45dcd1	-0.04830629
208	0x3d71d1ce	0.059037976
209	0x3d68ac5c	0.056805
210	0xbe059449	-0.13044848
211	0x3d9774a4	0.07395294
212	0x3d70bce9	0.05877391
213	0xbe3344e9	-0.17506756
214	0x3d04e95c	0.03244911
215	0xbd035100	-0.03205967
216	0xbd4f7731	-0.05065078
217	0x3dc44ad8	0.09584588
218	0x3d8c3524	0.06846073
219	0xbd523d42	-0.05132795
220	0xbdf3a732	-0.11897124
221	0x3cfefdef	0.031126944
222	0xbcf7279a	-0.03017025
223	0x3ce879e9	0.028378444
224	0x3d273106	0.040818237
225	0x3dce4def	0.100734584
226	0xbe57eb7c	-0.21085924
227	0x3d353d3d	0.044247855
228	0xbd6a3629	-0.057180557
229	0xbd7f397b	-0.062310677
230	0xbca856d2	-0.020549212
231	0xbaf80fe5	-0.0018925635
232	0x3cab453e	0.02090704
233	0xbcd33196	-0.02578048
234	0x3d8d3d97	0.06896513
235	0x3ccab73f	0.024745582
236	0xbd9bd92e	-0.07609783
237	0xbe503434	-0.20332414
238	0x3da7cef1	0.08193768
239	0xbd8a2ec7	-0.06747203
240	0x3d09c80c	0.033638045
241	0x3e2ad7b5	0.16683848
242	0xbc07ff3a	-0.008300597
243	0xbc2dcd06	-0.010607963
244	0x3e0c6b6f	0.13712858
245	0xbce70fd3	-0.028205788
246	0xbe10518c	-0.14093608
247	0xbd9322a5	-0.07184342
248	0x3d19e561	0.03757227
249	0xbe1a8205	-0.15088661
250	0x3c919576	0.017771464
251	0xbd5b0676	-0.05347296
252	0x3d265e8f	0.04061752
253	0x3e0507ab	0.12991206
254	0xbde1e842	-0.11030628
255	0xbdcdd819	-0.10050983

fc.bias f4 [64]
0	0x3dc1bb74	0.09459582
1	0x3d2c4de6	0.042066477
2	0x3d866d26	0.06563787
3	0x3dc6bc47	0.0970388
4	0xbc8881e9	-0.016663508
5	0xbd30563c	-0.04305099
6	0xbc289792	-0.010290043
7	0xbe1eb7e3	-0.15499835
8	0xbdd8e50a	-0.10590561
9	0xbdaecca4	-0.08535126
10	0x3d7acad3	0.061228584
11	0x3dd536c7	0.104108386
12	0x3d64f8b9	0.055901263
13	0xbde55aa3	-0.11198928
14	0xbe04539d	-0.12922521
15	0xbc1cf722	-0.009580405
16	0x3c39ed7e	0.011348126
17	0x3dd51b54	0.10405603
18	0xbd96ad1b	-0.07357236
19	0x3da9e9cb	0.082965456
20	0xbdc2bfb5	-0.095092215
21	0x3d9e7430	0.07737005
22	0x3c23d9ee	0.010000689
23	0xbdcefc03	-0.10106661
24	0x3e25bc84	0.16185194
25	0xbd068a4a	-0.032846726
26	0xbbf88adc	-0.0075849127
27	0x3d3e1b71	0.04641289
28	0xbd3a1fe5	-0.045440573
29	0x3cd8b278	0.026452288
30	0xbe230a03	-0.15921788
31	0xbc755e16	-0.014976045
32	0x3b9bbee6	0.0047529815
33	0xbe0dce4a	-0.13848224
34	0x3e22db3b	0.15903942
35	0xbcb6d127	-0.022316528
36	0x3dc30989	0.09523303
37	0x3b83519c	0.0040075313
38	0xbcc3902e	-0.023872461
39	0xbde6d194	-0.112704426
40	0x3d2f6af0	0.042826593
41	0xbe13bfef	-0.14428686
42	0x3e27134d	0.16315956
43	0xbc5a3d46	-0.013320273
44	0xbdbc1cfb	-0.09185215
45	0xbb18b8ed	-0.0023303584
46	0x3d9101c7	0.07080417
47	0xbb1f2c25	-0.0024287787
48	0x3d912be0	0.070884466
49	0xbdffeae1	-0.124959715
50	0xbe13cf98	-0.1443466
51	0x3c0d1ef7	0.00861334
52	0x3c96da1c	0.01841455
53	0x3cab4cdc	0.020910673
54	0xbc9e1304	-0.019296177
55	0x3ded9935	0.116014875
56	0xbe008924	-0.12552315
57	0x3dd345be	0.10316037
58	0x3ce34a45	0.027745375
59	0x3d4d42db	0.050112586
60	0xbd2526a9	-0.040320072
61	0x3d74621b	0.059663873
62	0xbd35085a	-0.044197418
63	0x3b873078	0.004125651
