model/reward_induced_encoder/lstm.pt (torch, 134187 bytes, 4 tensors)

lstm.weight_ih_l0 f4 [256, 64]
000000 b9 09 d2 bd 5d b7 91 3d e1 80 cc bd 66 0f 02 3d
       -0.10255761 0.07115052 -0.09985519 0.031752966
000010 c1 d5 fd bd 0e b5 5d be d0 16 1c 3e 85 c8 d5 bb
       -0.12394286 -0.21651098 0.15243077 -0.006524148
000020 48 5b 28 3e 0a e8 08 be 38 8d dd bd 25 14 43 3e
       0.16441071 -0.13369766 -0.10817951 0.19050653
000030 f9 d4 c4 3d 12 ae b4 3d 04 86 0c 3e b4 be 60 be
       0.09610934 0.08822264 0.13722998 -0.21947747
000040 28 24 81 3d 59 47 87 bc 5c a5 ac 3c 27 84 fe 3d
       0.063057244 -0.016513513 0.021074943 0.1242755
000050 fd ff 13 3e bc 64 4a be 16 09 90 bd 0d f3 d2 3d
       0.1445312 -0.1976499 -0.07032983 0.103002645
000060 3f 2d 30 be 4f 46 35 3e 94 69 27 3e d8 ef 9c bd
       -0.1720476 0.17702602 0.16348869 -0.07662934
000070 f6 d7 58 3e 15 d7 cd 3d 21 f6 8e bd 76 b0 8a 3e
       0.21176133 0.10050789 -0.06980539 0.27087754
000080 06 e2 43 be 4b de 00 bd 27 69 77 3d 79 cd c2 bc
       -0.1912919 -0.031461995 0.060403015 -0.023779618
000090 1a d3 d2 bd 22 48 6b bd 0c c4 b7 bd 4d 42 42 3d
       -0.10294171 -0.057441838 -0.0897294 0.04742651
0000a0 e1 45 aa be 54 a4 60 be eb d0 a8 3e f0 14 65 bd
       -0.33256438 -0.21937686 0.32971892 -0.05592817
0000b0 f4 5f 4a be 8e 15 82 bd 74 6d 09 3e ca bf e4 bc
       -0.19763166 -0.063517675 0.1342066 -0.027923483
0000c0 40 eb d1 bd b6 d1 02 3d 85 de 93 bb 2f 05 6a be
       -0.102499485 0.031938277 -0.0045126104 -0.2285354
0000d0 db 07 4c bd f3 99 54 3e ce 8c 6b 3d 8b d8 2e 3d
       -0.04981218 0.20761852 0.05750733 0.04268698
0000e0 9f 3e 13 be 8b e4 73 3e 25 f6 90 bd 45 ec a9 3e
       -0.14379357 0.23817651 -0.07078198 0.33188072
0000f0 25 a5 a5 bd e6 a3 fc bc 9d 8c 33 be 52 c8 15 bd
       -0.080881394 -0.030839872 -0.17534108 -0.036567993
000100 b4 2b 2a bd f9 3b 96 bd 81 20 22 bd 64 66 15 3d
       -0.041545585 -0.073356576 -0.03958178 0.0364746
000110 e2 cd 46 bd 75 12 9d bd 89 37 0a bd 13 af aa bd
       -0.04853619 -0.07669536 -0.03374437 -0.08334174
000120 e2 62 b0 bd 5d 8c fc bc 15 bb 87 be 3b 1b cf bd
       -0.086126104 -0.03082865 -0.2650992 -0.10112616
000130 85 de 52 bc c2 df bb 3d 20 fd 43 3e 85 ba 19 3e
       -0.012870436 0.09173538 0.19139528 0.15012558
000140 34 3e ac 3d 7a 24 74 3d c7 c0 67 3e eb f8 64 3e
       0.08410302 0.0596051 0.22632132 0.2236058
000150 b9 68 75 3a 80 ef 6a bc 6f 4a c0 bd 0c a5 51 bd
       0.0009361613 -0.014339328 -0.09389197 -0.05118279
000160 9e a3 75 bd c2 6f 61 bd 72 55 8d 3d 80 93 8c 3d
       -0.05997049 -0.05503822 0.06901063 0.06864071
000170 46 a9 29 bc c9 36 8e 3b a4 be 0f 3d 4d b4 60 3d
       -0.010355299 0.004340027 0.03509392 0.05485945
000180 60 6e 53 3c 51 e0 38 3d 48 ec 6c bd f3 09 43 be
       0.012904733 0.0451358 -0.057842523 -0.19046764
000190 32 1c 9e 3d d5 05 11 be b2 09 a6 3d 1d c3 1f be
       0.077202216 -0.14162381 0.08107318 -0.15601774
0001a0 32 81 f4 bc 43 ea 15 3e a2 7e c3 bd 00 78 5d 3e
       -0.029846761 0.14640145 -0.09545638 0.21627808
0001b0 3f 99 35 3e 1f d6 c6 3d 82 35 fc 3d 97 e0 aa 3c
       0.1773424 0.09708809 0.12314893 0.020859046
0001c0 1b 5e 1f 3e 99 40 a3 3d 18 3a de bd 45 83 95 bd
       0.15563242 0.079713054 -0.10850924 -0.07300428
0001d0 4b 8e 8e 3d 9c 6f bb 3d 25 74 e2 bc d9 03 41 3d
       0.06960734 0.09152147 -0.027643273 0.04712281
0001e0 7d f3 b1 3b 92 ba 9d 3d a9 41 99 bc 95 af 8e 3d
       0.0054306374 0.07701601 -0.018708067 0.06967083
0001f0 45 1d 2c 3e a2 8b 96 3d 6e 89 cc bc e9 1f e1 3d
       0.1680804 0.073508516 -0.024967875 0.109924145
000200 d5 4c db 3d 76 5f 35 be 2c 84 40 bd 48 48 ed 3d
       0.10708014 -0.17712197 -0.04700105 0.11586052
000210 57 21 f5 3d 10 d0 2e bc 64 51 77 3e 61 6d 5d 3c
       0.1196925 -0.010669723 0.24152142 0.0135148475
000220 0e 77 f6 3d 65 58 5f 3d 1d aa 74 bb 71 24 ad bd
       0.12034427 0.05452766 -0.003733284 -0.08454216
000230 8d 91 89 bc 13 a8 eb 3a 19 1f 10 3e 31 68 be bd
       -0.016793037 0.0017979167 0.14074363 -0.09297217
000240 64 42 a5 3c 20 d3 0d bb bf 10 a1 3d 25 73 26 3e
       0.02017326 -0.0021640733 0.07864522 0.16254862
000250 17 6d 9d bc 87 23 fb bc 94 d6 de 3d 4f a2 02 be
       -0.019217057 -0.03065659 0.10880771 -0.12757228
000260 94 95 36 3d de aa 92 bb c5 0b 9b b9 0f 9e 5e 3d
       0.044576243 -0.0044759354 -0.00029572673 0.054349955
000270 65 b3 86 bd a9 d8 96 3b 6a 91 5c be 08 12 c4 3d
       -0.065771855 0.0046034646 -0.21539846 0.09573752
000280 3f cf 2a 3d fc 43 ae bd 81 ae 95 bc 8c cb bc 3c
       0.04170155 -0.08509061 -0.018271687 0.023046277
000290 54 0f fe bd 0f 5c 68 bd 5e 85 21 be 03 5e 19 3e
       -0.12405267 -0.05672842 -0.15773532 0.14977269
0002a0 a2 a7 10 be d3 b2 f3 3b 83 04 e0 3d 90 05 a4 3c
       -0.14126447 0.007437089 0.109383605 0.020022184
0002b0 4a 5c c0 bc 35 a8 5c bb d4 72 40 3e 28 48 a8 3d
       -0.023481507 -0.0033669595 0.18793803 0.08216888
0002c0 e9 9f d5 3d bb da 41 bc 15 49 3c be 90 53 02 be
       0.10430891 -0.011831935 -0.18387254 -0.12727189
0002d0 73 e6 74 3d 8e 34 bb bc cd a6 e0 3d 11 90 65 3d
       0.059790086 -0.022852208 0.10969315 0.056045596
0002e0 91 4e 82 bc ec bc 17 3e 22 c9 f3 bd 20 5e ee 3b
       -0.015906604 0.14818162 -0.119035974 0.007274404
0002f0 6b 90 db bd 56 80 74 3c 45 d1 5f 3c 92 24 a0 bd
       -0.10720905 0.014923176 0.013660734 -0.07819475
000300 e1 49 00 bd 16 b8 b3 3d 4f 2b 4e 3d 09 7b 08 3d
       -0.031320456 0.08775346 0.05033427 0.03332046
000310 71 74 e1 bd 40 d7 5c 3e ba 7c dc 3c e4 e6 ab be
       -0.110085376 0.21566486 0.026914943 -0.33574593
000320 8b 84 bc bd 53 62 cb bc f5 0e 5c bd 05 4f af 3d
       -0.09204968 -0.024827158 -0.0537252 0.08559994
000330 25 d9 bb bc 23 fd 27 be e6 25 6e bb e4 57 26 bd
       -0.022930691 -0.16405158 -0.0036338507 -0.040611163
000340 3b 22 34 bd de c0 a1 bd ff 14 92 3e aa 34 11 bd
       -0.043977957 -0.078981146 0.28531644 -0.035450615
000350 35 ec e1 3d a4 fd 48 3e ef 7d 15 bd 1c 32 19 3e
       0.11031381 0.19628006 -0.036497053 0.14960521
000360 48 87 34 3e a4 48 33 bd 51 c5 57 3e 20 9c ee 3d
       0.1762973 -0.043770447 0.21071364 0.11650872
000370 67 f4 be bd a5 7e 86 3d a7 f2 ec 3d f3 d1 82 bb
       -0.0932396 0.06567124 0.1156972 -0.003992313
000380 6e 28 37 bd b9 41 88 3d 9e 7d 25 3e 69 18 4d 3b
       -0.04471629 0.066531606 0.161612 0.0031295067
000390 11 58 f9 3c 79 2d e9 3d 1b 10 bb 3d e6 f5 b8 bc
       0.030437501 0.11385626 0.09133931 -0.022578191
0003a0 01 11 ab bb f5 18 cc 3c 94 57 64 3d ba 46 25 be
       -0.005220533 0.024914244 0.055747584 -0.16140261
0003b0 26 91 85 3e 6f fc 69 3e 6d 69 1f be 0e 79 ca bd
       0.26087302 0.22850202 -0.1556756 -0.098863706
0003c0 c7 25 24 bd 65 19 0f 3d 6c ed c1 3d f4 90 66 3d
       -0.04007509 0.034936327 0.09469113 0.05629058
0003d0 a8 4c 39 bc 34 0b c9 bc 68 89 4d 3b cc a4 44 be
       -0.01130978 -0.024541475 0.0031362418 -0.1920349
0003e0 ba 7e a9 3d c3 25 f3 ba 90 d6 8f 3d d7 13 d9 3d
       0.08276124 -0.0018550683 0.070233464 0.10599487
0003f0 93 06 65 3d e9 b6 8e 3e e7 e1 57 3e 1f e2 ac 3d
       0.055914473 0.27873924 0.21082269 0.08441567

lstm.weight_hh_l0 f4 [256, 64]
000000 98 bd e4 3c 00 0e e9 3c f0 c2 84 3c 90 fd 45 3c
       0.027922437 0.028449059 0.016206235 0.01208438
000010 58 47 21 3d 98 0d f7 bc b2 a7 e3 bd 98 aa 1a bd
       0.03937468 -0.03015785 -0.1111597 -0.037760347
000020 90 df 29 3c 00 bf e2 3a 20 a9 dd 3d da 13 c2 bd
       0.010368243 0.0017299354 0.10823274 -0.09476443
000030 d6 95 b8 bd f8 84 42 bd ac da ac bd a8 e1 7e 3d
       -0.09012954 -0.04749009 -0.08440146 0.06222692
000040 14 f9 8b 3d 0a 6d a7 3d 32 fc aa 3d 20 21 7c 3c
       0.06834617 0.081750944 0.08348884 0.015388757
000050 50 bb 1c bd 04 85 32 bd da 9f be 3d 80 c2 25 3b
       -0.038264573 -0.043583885 0.09307833 0.0025292933
000060 42 b2 91 bd 72 c3 b4 3d 08 ad d3 bc b4 23 08 3d
       -0.07114078 0.08826341 -0.025839344 0.033237174
000070 d4 ca 17 3d 00 7b 41 bd 4c a0 a6 3d a0 23 9e 3b
       0.037058666 -0.047236443 0.08136043 0.004826024
000080 4c d3 af bd 60 31 84 bc 80 38 ef 3a 06 59 8e bd
       -0.085852236 -0.016136825 0.0018251091 -0.069505736
000090 e4 d0 a0 3d a2 c6 88 3d 4c 8e cd bd e6 3c c6 3d
       0.07852343 0.06678511 -0.100369066 0.09679584
0000a0 e8 c9 69 3d b4 d9 df bd b4 d3 68 bd 0a a0 88 bd
       0.05707732 -0.109301955 -0.05684252 -0.0667115
0000b0 b6 55 ff 3d ee 38 ba bd b0 f8 53 3c 64 19 b6 bd
       0.1246752 -0.0909289 0.01293771 -0.088915616
0000c0 5c e8 6e bd 76 dc b8 bd 24 5e 1d 3d 58 7a bc 3d
       -0.058327064 -0.090264246 0.038419858 0.09203023
0000d0 a0 09 3b bc e0 f0 47 bd ea 24 c7 bd d4 2f 51 3d
       -0.011415869 -0.0488137 -0.09723838 0.051071003
0000e0 d8 09 ac 3d 22 92 a3 3d e8 69 2d bd 60 71 55 3d
       0.08400315 0.07986857 -0.04233733 0.052110076
0000f0 42 cf 97 3d 50 1e 58 3d 78 f3 a3 3c de 28 f1 bd
       0.07412578 0.052763283 0.020013556 -0.11775373
000100 7e 97 d6 bd 76 d8 9f 3d 7c 85 80 bd a4 78 85 3d
       -0.104781136 0.078049585 -0.0627546 0.06517151
000110 e0 7a 0d 3c 56 ff e6 3d 60 37 b0 bd ba c7 e4 3d
       0.008635253 0.1127917 -0.08604312 0.11170907
000120 f4 ef 3e bd 70 1c 2b bd 9a c4 c9 bd 30 bd e2 3d
       -0.046615556 -0.041775167 -0.09851952 0.11071241
000130 a8 a4 e9 3c 20 63 e9 3c 8e 18 bc 3d 72 65 b0 bd
       0.028520897 0.02848965 0.09184371 -0.08613099
000140 b2 21 cb bd b8 81 b3 3d 52 55 e8 bd cc 47 33 3d
       -0.09918536 0.08764976 -0.113443986 0.043769643
000150 58 8a cf 3d d6 5b a3 3d 04 30 c2 bd 90 0d 79 3d
       0.10133809 0.07976501 -0.094818145 0.06080395
000160 b8 a8 88 3c 68 b7 b7 bd 64 8f 54 bd 80 76 11 3c
       0.016682014 -0.08970529 -0.05189456 0.00887835
000170 84 1e ea 3d 32 22 fb 3d c0 ec 0e 3c 30 65 d2 3d
       0.11431602 0.122623816 0.008723438 0.10273206
000180 38 9d ee 3c bc 18 6c 3d 7c d6 a9 3d 28 dd 67 bd
       0.029127702 0.057640776 0.08292863 -0.056607395
000190 c0 15 5a 3b fa c8 82 bd 90 e3 da 3d 40 a6 17 3b
       0.0033277124 -0.063859895 0.10687935 0.0023139864
0001a0 2a d9 c6 bd 26 94 cd bd a8 bd b3 bd 30 b1 d3 3c
       -0.097093895 -0.10038023 -0.087764084 0.025841326
0001b0 e8 60 f5 bc 00 20 b7 3d c0 68 0e bd 8a 1e 8c 3d
       -0.029953435 0.089416504 -0.034767866 0.06841762
0001c0 6a 29 ca bd bc 27 2d 3d 76 ae 8e 3d 68 9f fc bd
       -0.0987118 0.04227422 0.069668695 -0.12335092
0001d0 0c 17 00 3d 00 c7 9a ba 00 59 42 bc c0 e4 00 bd
       0.03127198 -0.0011808574 -0.01186204 -0.031468153
0001e0 20 ec 69 3d 7e 97 b6 bd a8 8d 53 3d d2 c1 b3 bd
       0.057109952 -0.089156136 0.051648766 -0.08777203
0001f0 ea 45 d8 3d ae 86 a3 bd 8e 8a cd 3d 20 24 03 bc
       0.1056021 -0.079846725 0.10036193 -0.008004218
000200 38 39 65 3d e0 99 f3 bc a2 fa 97 bd 08 10 f4 bc
       0.05596277 -0.02973646 -0.07420851 -0.0297928
000210 00 dc 59 bd 54 8f 78 3d 84 cc 6c bd 9c fa 37 bd
       -0.053188324 0.060683563 -0.05781223 -0.044916734
000220 10 1f 36 bd e6 50 82 3d 82 47 9a bd 96 5d e6 3d
       -0.044463217 0.063630864 -0.0753317 0.11248319
000230 20 32 b7 bb 90 74 3c bd f8 11 ba 3d 4c ba 89 bd
       -0.005590692 -0.0460096 0.090854585 -0.067249864
000240 30 93 80 3d 20 26 e3 bc 40 f8 64 3c 6c f0 96 3d
       0.06278074 -0.02772814 0.013975203 0.073700756
000250 d4 39 97 bd 00 a9 15 bc 40 d2 2a bd f6 87 e2 bd
       -0.07384077 -0.009134531 -0.041704416 -0.11061089
000260 f4 99 f4 3d c4 c1 a3 bd d0 1d 77 bc 78 f9 9b bd
       0.11943427 -0.07995942 -0.015082791 -0.07615942
000270 6c 3e 86 bd d6 13 cb 3d e6 4b cd bd a0 6f 7f 3d
       -0.06554875 0.09915893 -0.10024242 0.062362313
000280 e6 da a4 3d 22 66 ae bd bc 67 01 3d 2c 1a b3 3d
       0.08049564 -0.08515574 0.03159307 0.08745226
000290 b6 ff a8 3d 28 9f d4 bd 78 1a f6 3d be a2 d1 bd
       0.08251898 -0.10381919 0.12016767 -0.10236119
0002a0 ee e3 ef 3d 38 e2 81 3d 46 c9 b3 bd 90 6f c6 bd
       0.11713396 0.06341976 -0.08778624 -0.096892476
0002b0 fc fe 0c 3d 00 3e 55 3c 64 86 34 3d 7e 96 96 3d
       0.03442286 0.01301527 0.044073477 0.07352923
0002c0 14 3e 84 bd 9a 4c cc 3d 00 fa c6 3a 50 81 99 bd
       -0.06457153 0.09975548 0.0015180707 -0.074953675
0002d0 8a 18 da 3d f8 ba e3 bc 16 99 c3 3d 78 7b d7 3d
       0.10649212 -0.027799115 0.09550683 0.10521597
0002e0 7a 3e fd bd f0 43 13 3d 00 9b 96 3c 78 c2 9f 3c
       -0.12365432 0.035953462 0.018384457 0.01950191
0002f0 da a7 8f 3d 20 d3 96 bb 9c de e0 bd 56 9b 81 bd
       0.07014437 -0.004602805 -0.10979959 -0.06328456
000300 22 0b 9b bd d2 47 b1 3d b4 68 aa 3d b2 dc 87 bd
       -0.07570483 0.08656277 0.08320752 -0.06633891
000310 56 36 93 bd 78 66 ba bc 0a a5 ee bd 5e 81 97 bd
       -0.07188098 -0.022753939 -0.116525725 -0.07397722
000320 7c dd be bd c0 eb 14 bb 64 cf 5f bd 1a 1d f3 3d
       -0.093195885 -0.0022723526 -0.054641142 0.11870785
000330 14 fe dc 3d a6 e0 86 bd d0 17 96 3d 1e e5 d1 3d
       0.10790649 -0.06585817 0.073287606 0.10248779
000340 a0 a8 93 3c f6 70 d9 bd 1e e0 95 bd 90 ba 60 3d
       0.018024743 -0.10617249 -0.073181376 0.05486542
000350 58 3d ff bd 7a 89 b1 3d 1a ab d1 bd 54 0f c9 3d
       -0.12462872 0.086688 -0.10237713 0.09817377
000360 22 2e 9e bd ca 2f e5 bd d6 30 9a 3d 00 24 f1 bd
       -0.07723643 -0.11190756 0.07528846 -0.117744446
000370 f8 81 97 3c a0 3e 82 bb 6c 61 4d 3d 68 61 bb bd
       0.018494591 -0.0039747506 0.050141737 -0.09149438
000380 2c d8 ac 3d 30 c6 b8 3d 8c 21 cf bd c0 30 04 bb
       0.08439669 0.09022176 -0.101138204 -0.0020170659
000390 40 1d a0 3d a0 b1 b7 bd 80 90 d1 3c b0 b5 e3 3d
       0.07818079 -0.08969426 0.025581598 0.111186385
0003a0 0c a6 1a 3d 40 31 1f bb 94 3c 5f 3d 5e 48 c7 bd
       0.03775601 -0.002429083 0.05450113 -0.097306
0003b0 dc eb 5e bd 28 c1 02 bd 42 0a eb 3d da ab ab 3d
       -0.05442415 -0.03192249 0.11476566 0.083823875
0003c0 22 f3 ee 3d 60 20 ba 3b 34 80 78 bd 9e ad f8 3d
       0.11667468 0.005680129 -0.06066914 0.1214249
0003d0 50 7c e8 3c fe a5 b6 bd d8 ad 2e bd 38 cc 64 3d
       0.02837959 -0.08918379 -0.04264626 0.05585882
0003e0 08 6f fa 3d cc c2 de bd d8 39 5e bd 5c 71 01 3d
       0.12228209 -0.10876998 -0.054254383 0.03160225
0003f0 fa b5 da bd 1a cb 97 3d a6 22 9d 3d 8c 44 c8 3d
       -0.106792405 0.074117854 0.07672624 0.09778699

lstm.bias_ih_l0 f4 [256]
000000 1f 66 09 bd e4 c0 55 be b9 e9 d3 be 08 db c4 3c
       -0.033544656 -0.20874363 -0.41389254 0.024030223
000010 dc 70 7e bd 8d a5 5e be 05 42 e2 bd 65 02 2e be
       -0.06211935 -0.2174284 -0.110477485 -0.16993101
000020 89 dd 46 bd 69 d6 5c bd 05 a6 88 3d 96 2f 16 be
       -0.048551116 -0.053915415 0.06672291 -0.1466659
000030 37 69 95 bd 75 e9 c0 bd 49 66 20 bd ae e4 47 3c
       -0.07295459 -0.094195284 -0.039160047 0.012200518
000040 37 55 d1 ba 18 72 30 be 9e 19 3a be 09 cc 50 3d
       -0.001597083 -0.17231023 -0.18173835 0.050975833
000050 ab 06 b0 3d 29 4a fd bd 95 3c b5 3c 01 ab 8d bd
       0.08595022 -0.123676606 0.022123614 -0.06917382
000060 fa a8 c9 3d 9f 82 1a be 10 69 f5 3d 62 d9 2d be
       0.09846683 -0.1508889 0.1198293 -0.16977456
000070 b6 03 48 bc f3 ba 83 bd 13 ef 67 bd 4c 78 14 bd
       -0.012207916 -0.06432142 -0.056624483 -0.036247537
000080 fb 00 8f 3d 64 50 64 be ec 1d 83 bd 24 71 af be
       0.06982609 -0.22296292 -0.064021915 -0.34266007
000090 95 84 06 be be 7d db bd 8d 02 d2 3d 61 2c a1 bd
       -0.13136514 -0.10717343 0.10254393 -0.07869793
0000a0 ad 21 00 be b0 52 38 be 7f 02 64 bd 1e 37 80 bd
       -0.12512846 -0.18000293 -0.055666443 -0.06260513
0000b0 2c b0 a9 bd 46 be 70 be 02 23 ff 3d c0 b7 bf bd
       -0.08285555 -0.23510084 0.12457849 -0.093612194
0000c0 c6 11 3a 3d dd d4 e9 3d ee 95 27 bd bf d3 33 3e
       0.045427106 0.114175536 -0.04091447 0.17561243
0000d0 fc 6e d2 3a 6c 4a 39 be d6 bf a8 bd 95 d3 30 3d
       0.0016054804 -0.18094796 -0.08239715 0.04317053
0000e0 b2 2e 3b 3d 30 1a 89 3e 5c 4c ae 3d b9 c8 6d bc
       0.04569883 0.26777792 0.08510658 -0.014513188
0000f0 30 e1 d9 bd 8b bb a6 3d d6 9c 0b be 6e 8e c5 bd
       -0.10638654 0.0814124 -0.13634047 -0.09646307
000100 fa 27 c1 3d 4c 53 63 3d 8c 81 18 3d 3c 64 da bd
       0.09431453 0.05549936 0.03723292 -0.106636494
000110 00 91 ed 3c ca ee aa 3d ec c1 3d 3d d0 47 95 3d
       0.028999805 0.08346327 0.046327516 0.07289088
000120 b4 9c 18 3d 8a e5 cb bd 5a 4a b6 3d f0 e4 7c bc
       0.03725882 -0.099558905 0.089009 -0.015435442
000130 b0 07 fd bc 8e df 8c 3d 38 9b 97 3d a8 ba be bd
       -0.030887455 0.06878577 0.074026525 -0.093129456
000140 a4 21 58 bd 00 70 7a 3d 58 48 a3 3d e0 47 93 3c
       -0.052766457 0.061141968 0.07972783 0.017978609
000150 74 46 fe bd 50 5d 1a bc f8 98 20 bd d6 cb a7 bd
       -0.124157816 -0.0094216615 -0.039208382 -0.081931755
000160 68 fd df bd 70 4b 3b 3d d0 81 19 bc 8c 01 5d 3d
       -0.10937005 0.04572624 -0.009369329 0.053956553
000170 80 3b ff 3b 46 ef dc 3d 84 0c 85 bd 40 5e 98 bd
       0.0077890754 0.10787825 -0.06496528 -0.07439852
000180 da ea ce 3d 10 aa 57 bc 5c de 53 3d 1e e1 f7 3d
       0.10103388 -0.013163105 0.05172573 0.121034846
000190 60 ee 1d bd 98 ba cb bd 38 fc bd 3d 2a b8 89 3d
       -0.03855741 -0.09947699 0.092766225 0.0672458
0001a0 48 d1 84 3c 68 74 bb bc 84 fc 0d 3d 4c 1c e0 3d
       0.016213074 -0.022882655 0.034664646 0.10942897
0001b0 38 85 84 bd 00 c2 07 bb 00 61 cf 3b 40 90 b1 bd
       -0.06470722 -0.0020714998 0.006328702 -0.08670092
0001c0 90 9f c5 3d c0 4e 95 3d 2c 71 c0 bd 28 78 a0 3c
       0.09649575 0.07290411 -0.09396586 0.019588545
0001d0 34 10 01 bd 30 f5 2f 3c 20 af e1 3c 2c 91 17 3d
       -0.031509593 0.01073961 0.027549326 0.03700368
0001e0 ca 66 b9 bd 80 40 41 bb f0 48 a4 3d 90 00 c1 bc
       -0.090528086 -0.0029487908 0.08021724 -0.023559839
0001f0 f8 3a af 3c 28 86 9a bc 18 11 c0 3c 30 1c 11 3c
       0.021390423 -0.018862799 0.023445651 0.008856818
000200 cc 79 c7 bc 0d e8 e1 bc 53 d2 f6 3a 17 e8 f2 bc
       -0.02435007 -0.02757647 0.0018830992 -0.029651685
000210 50 9c ba 3b 12 01 f5 3d 52 20 be 3d e7 2e f7 bd
       0.0056949034 0.11963095 0.09283508 -0.12069493
000220 82 7c 33 bd 4d 42 6d be 46 7d 87 3d 06 a3 c9 3d
       -0.04381991 -0.23169823 0.06615691 0.098455474
000230 dd 22 e0 bd 31 0c db bd 35 40 4c bd a9 a1 ac 3e
       -0.1094415 -0.10695685 -0.04986592 0.33717087
000240 81 88 6b be 30 f0 85 3e e3 e4 26 be 2a ac 86 bd
       -0.23001291 0.2615981 -0.16298251 -0.065758064
000250 87 72 13 3d 10 76 12 3e 69 f4 cb bd cb a6 c3 bd
       0.035997894 0.1430285 -0.09958727 -0.095532976
000260 1a e0 42 bd 07 4c ac bd c2 07 2c be ff 60 17 bd
       -0.047577 -0.084129386 -0.16799834 -0.036957737
000270 d0 95 a9 bc a4 90 2d bd 20 51 88 bc 72 1f 09 be
       -0.020701319 -0.04237427 -0.016640246 -0.13390902
000280 10 84 67 bd 4e e0 e2 bd cd 49 f3 bb d5 f7 ef bd
       -0.05652243 -0.11077939 -0.007424569 -0.11717192
000290 ab 38 11 be 7b 91 c3 3d c0 b9 35 3e fb 38 9d 3d
       -0.14181773 0.095492326 0.17746639 0.07676884
0002a0 4e 6b 98 3d fc 32 39 3d fe c7 1d 3e b2 95 e1 3d
       0.07442342 0.045214638 0.15408322 0.1101488
0002b0 38 a4 d1 bc 7c 29 c1 b8 f7 5d 19 3d 02 c5 d0 bd
       -0.025591 -9.210684e-05 0.037443127 -0.10193826
0002c0 35 fa 5c bd 95 25 4a 3c 0c ef ce 3c 0c 23 44 bc
       -0.053949554 0.012338062 0.02526047 -0.011971246
0002d0 19 f4 a3 3d bf d9 9a 3d 9a 1c a1 bd 5c 64 10 3d
       0.08005542 0.07561063 -0.078667834 0.03525196
0002e0 f3 71 ba bd 31 74 0b be df ec 0c 3e c0 82 10 3d
       -0.09103765 -0.13618542 0.13762234 0.035280943
0002f0 10 55 29 3d 68 62 14 be d7 7f ca 3c 65 1b 02 be
       0.041340888 -0.14490664 0.024719162 -0.12705763
000300 72 32 f5 bd 3d 2c 98 bd d0 20 f1 be 9b 6b 2f 3c
       -0.11972512 -0.07430313 -0.47095346 0.0107068075
000310 38 51 29 3d b8 b6 79 be ae 03 b8 bc 93 42 7c bd
       0.04133722 -0.24386108 -0.022462692 -0.061586928
000320 bc 78 a6 bd 45 87 cb bd 3f b8 31 be 1b a1 4e be
       -0.08128497 -0.0993791 -0.1735544 -0.20178644
000330 5e dc a4 3d cd 7b 25 be c6 c2 91 bb d7 da 76 bd
       0.08049844 -0.16160508 -0.0044482676 -0.060267296
000340 08 3e 72 3d 2e bc 3c be fc 7a 9f be 88 86 d8 3c
       0.05914119 -0.1843116 -0.31148517 0.026431337
000350 65 bb b4 bd 6d b5 ce 3d 04 0e 60 bd d5 b5 d0 bd
       -0.08824805 0.10093198 -0.054700866 -0.10190932
000360 cd f2 29 bd b3 85 1c be 62 c0 29 3e c9 f0 25 be
       -0.04149132 -0.15285377 0.16577294 -0.16205133
000370 21 dc 46 be a1 bf c0 bd 04 90 33 3d ba 83 88 bd
       -0.1941991 -0.0941155 0.043838516 -0.0666575
000380 1c d6 fe 3c 66 97 0a be d8 ff a4 bd 15 37 ab be
       0.031107955 -0.13534316 -0.08056611 -0.33440462
000390 5e e8 c3 bc d3 1c 6e bd 41 64 1b be 2d d5 bf 3c
       -0.023914512 -0.058132958 -0.15174963 0.02341708
0003a0 cf 03 0d 3e 37 74 c1 bd d2 6f 18 be e3 28 0c bd
       0.13770984 -0.09445994 -0.14886406 -0.03421868
0003b0 97 8d 6c be 88 60 0d be ec 48 0d be 91 3d ff bd
       -0.23100887 -0.13806355 -0.13797349 -0.12462915
0003c0 c7 7f 1f bd e0 33 26 3d dc 1f 01 3a 6e c9 55 3d
       -0.038940217 0.040576816 0.0004925707 0.05219405
0003d0 1b 20 42 be 6e 81 55 be f7 3a 95 be 57 fd bb bd
       -0.1895756 -0.20850155 -0.2914655 -0.0917918
0003e0 07 db e0 3d 13 07 90 bd 6b 69 91 3d 29 d1 e9 bd
       0.10979276 -0.07032599 0.07100185 -0.11416847
0003f0 8a 15 26 be 00 9c b7 3d 90 19 d8 bd fe ab 4e 3c
       -0.16219154 0.089653015 -0.10551751 0.012614248

lstm.bias_hh_l0 f4 [256]
000000 8f 79 c9 bd 36 2f 85 bc 3d c7 d6 be 43 ce 0e 3e
       -0.098376386 -0.016257863 -0.41948882 0.1394587
000010 15 c5 cf bd 8c fe 34 bd e6 9a 06 be b2 94 25 bd
       -0.10145012 -0.044188067 -0.13145027 -0.04042501
000020 63 51 98 bc 1b 47 63 bd 75 7a 86 bc 13 05 d3 bd
       -0.018593496 -0.055487733 -0.016415814 -0.10303702
000030 c9 de f0 3d ed 3b b0 bd a4 16 3c be 0a 32 a0 3d
       0.11761243 -0.0860518 -0.18368012 0.07822044
000040 d4 5d 37 3b c8 72 05 be 78 1e 9e be 19 e6 ae 3c
       0.002797951 -0.13032067 -0.3088262 0.021349953
000050 43 c2 ee bd 34 e2 ca bd 07 4a 37 3e 54 ed f9 bd
       -0.11658146 -0.09906426 0.17899333 -0.1220347
000060 89 38 4c 3e 4b 82 28 be c9 68 7b bc 33 80 91 3d
       0.19943441 -0.16455953 -0.015344807 0.0710453
000070 68 cc 1c be df d1 40 be 9f 7b 10 bd 20 c8 47 bd
       -0.1531235 -0.1883006 -0.035274144 -0.04877484
000080 17 82 40 3d 89 a2 e7 bd 6a 32 eb 3d 91 3b f9 bd
       0.046999063 -0.11310298 0.11484225 -0.121695645
000090 76 9d 93 bd 1b 54 2d 3d 26 b5 38 bd 50 4d 42 be
       -0.07207768 0.042316537 -0.04509463 -0.18974805
0000a0 4a 8e 23 3d a0 63 27 be 31 2d e2 bd 90 94 a9 bc
       0.03993062 -0.16346598 -0.11043776 -0.020700723
0000b0 ca f5 b9 bd 06 35 12 be d3 de 1b bd 5a 39 97 bd
       -0.09080084 -0.1427804 -0.0380543 -0.07383986
0000c0 80 e2 29 bd ff 94 92 bd 99 49 91 3d 44 73 01 3d
       -0.041475773 -0.07157325 0.07094116 0.031604066
0000d0 79 9c 40 bc bf 81 84 bb e7 7d 5e be 97 2a 4e 3d
       -0.011756056 -0.0040437873 -0.21727715 0.050333586
0000e0 dd d4 74 3e 13 bd da 3d 6c ef 39 3c e0 da 4d bd
       0.23909326 0.10680594 0.0113485865 -0.050257564
0000f0 b0 89 d8 bd 17 f4 2b bc e7 1b e6 bd 98 b7 ed 3d
       -0.10573137 -0.010495207 -0.11235791 0.11607283
000100 18 52 ae 3c 20 f2 e5 bd 14 89 0f bd d6 b6 ad bd
       0.02127938 -0.11227822 -0.035042837 -0.08482139
000110 9e 23 94 bd c0 79 41 bb 0a d6 f4 bd 6a 8d f4 bd
       -0.07233356 -0.0029522032 -0.11954887 -0.11941035
000120 b8 17 05 3d 58 b3 6c 3d ce ca c3 3d 0c 77 55 bd
       0.032493323 0.057788223 0.09560166 -0.052115485
000130 e2 b4 88 3d 74 0e 79 bd 52 ba da 3d e4 e5 b6 3d
       0.06675126 -0.0608048 0.10680069 0.08930567
000140 68 fb 20 3d aa 72 8a bd 92 51 90 3d b6 dd cb 3d
       0.03930226 -0.06760152 0.07046808 0.099543974
000150 c8 31 b6 3c 58 fb b9 3d 68 78 c7 bd 10 fd 9d 3d
       0.022240534 0.09081143 -0.097397625 0.077142835
000160 ac 40 0d bd 50 c1 b6 bc 40 92 f9 3b 08 eb 1b 3d
       -0.034485504 -0.022308975 0.0076163113 0.03806594
000170 b8 4d b9 bd 38 96 0f bd 58 63 cc 3c e4 36 d5 bd
       -0.09048027 -0.03505537 0.024949715 -0.1041086
000180 64 3c f0 bd 8c c2 09 3d 1c 9d 38 3d 5e 2f b9 bd
       -0.117302686 0.0336328 0.045071706 -0.09042238
000190 0a 50 97 bd 9a a7 d1 bd a8 c1 e5 3d ba 7c b9 bd
       -0.07388313 -0.102370456 0.112185776 -0.09056993
0001a0 4c cf 51 bd cc 93 66 bd 38 3f b1 3c 20 ce 3e bc
       -0.051223084 -0.056293294 0.02163659 -0.011645824
0001b0 56 4e be 3d 48 75 86 bc 62 49 81 bd 98 72 c2 3d
       0.09292285 -0.016413346 -0.06312825 0.09494513
0001c0 c6 d6 92 bd 80 8d f9 bb 24 e9 89 3d a8 fe fd 3d
       -0.07169871 -0.007615745 0.06733921 0.124020875
0001d0 48 7e e9 bc 42 48 e3 3d 7c f7 8c bd 40 a3 5c bd
       -0.028502598 0.110977665 -0.068831414 -0.053866625
0001e0 9a 29 99 3d 96 2e 9c bd 0a 8c f2 3d 40 97 c7 3d
       0.07478638 -0.07626073 0.118431166 0.097456455
0001f0 f8 07 e3 3d d6 b3 b5 3d 4e 29 d0 bd ba 71 a1 bd
       0.11085504 0.088721916 -0.10164128 -0.0788302
000200 1a bd 8e bd e8 08 dc 3b 88 b1 c3 3d 66 71 ca bc
       -0.06969662 0.006714929 0.09555346 -0.024712276
000210 05 3c 29 3e ba 79 2b bd b5 f8 10 3e 59 ee 8a 3d
       0.16526802 -0.041864134 0.14157374 0.067837425
000220 6a 43 6d bc 5f 21 8b be 0f 62 8a bc b6 13 01 bc
       -0.014481405 -0.27173898 -0.016892461 -0.007878235
000230 4d 8c 9d bd 77 27 88 bd 5a ea 83 3d c3 b0 a2 3e
       -0.07692776 -0.06648152 0.064411834 0.31775483
000240 5a 3a 80 bd ad 95 42 3e c1 fe 24 3d 92 4e 1a ba
       -0.0626113 0.1900241 0.040282015 -0.00058863417
000250 fd 5b 49 3e 3e 9b 4f 3e e5 84 d9 bd c6 fd 7a be
       0.19663997 0.20274064 -0.10621051 -0.2451087
000260 4a 7d b9 bd e3 34 ac bd 5f 2f 4d 3d 5a a4 bd bd
       -0.090571 -0.08408525 0.050094005 -0.09259863
000270 94 ac d2 bd be ce 09 3e 60 99 02 be e6 f8 f3 bb
       -0.10286823 0.13457772 -0.1275382 -0.0074454425
000280 8c 05 47 3d d2 6f 8d bd 6c 6a 06 3e ee 38 2b be
       0.048589274 -0.06906094 0.13126534 -0.16720936
000290 6e ea ae bd 87 b8 af bc bf 16 f5 3d ff 4b 9a 3d
       -0.08540808 -0.021450294 0.11967229 0.07534026
0002a0 a8 83 91 3d 34 36 1f be df e1 c4 3d 89 0d 04 3e
       0.071051896 -0.1554802 0.09613394 0.12895788
0002b0 63 b8 8f 3d 60 28 7a 3d 30 e0 6e bb 77 b3 80 be
       0.07017591 0.06107366 -0.0036449544 -0.2513692
0002c0 d3 47 3f 3d ff af 49 3e 77 fc a4 bc 8d a4 01 be
       0.046699356 0.19696043 -0.020139916 -0.12660427
0002d0 1c aa 34 bd c5 36 b9 3d 8b d3 ce bc c8 83 c8 bd
       -0.04410754 0.090436496 -0.025247356 -0.0979076
0002e0 30 36 73 3d fd 49 3f be 63 a9 43 3e 40 f9 20 be
       0.05937785 -0.18680568 0.19107585 -0.15720081
0002f0 a7 da f4 bd ea 60 cf bd 83 fa 0f be 94 3c 6a 3d
       -0.11955767 -0.10125907 -0.14060406 0.057186678
000300 f8 87 d3 bc ca e9 5a be 1e b2 db be e1 d3 09 3e
       -0.02582167 -0.21378246 -0.4290933 0.13459732
000310 33 a4 9f 3d 86 6d 39 be 9c 25 f6 bc 6b 8e 26 be
       0.077949904 -0.18108186 -0.03004723 -0.16265266
000320 dc 73 42 be 9d cb d0 3d 9d 95 72 3d 6b 7a 22 be
       -0.1898951 0.10195086 0.059224714 -0.15867011
000330 79 dd 00 3e 49 3e 2f be 3e 58 7a bd c4 b5 05 3e
       0.12584485 -0.17113604 -0.06111931 0.1305762
000340 6c 7f a6 3b ec 43 5d be d2 e8 d8 bd 72 64 1f be
       0.005081108 -0.21607941 -0.10591282 -0.1556566
000350 b1 a2 e5 bd 24 25 36 3d c3 36 05 3e a5 4b e9 bd
       -0.112126715 0.044469014 0.13009171 -0.11391381
000360 8d b2 94 bc 25 47 49 be 57 5e 82 3e 2f 4d be bd
       -0.018151546 -0.19656046 0.254626 -0.09292065
000370 76 02 8d be 6f 42 d5 bd 01 8f b6 3d d2 2f 98 be
       -0.2754094 -0.10413062 0.089139946 -0.29723984
000380 ad 44 09 3e 9e ba 03 bd e7 ff c9 3c 3b fb c1 be
       0.13405104 -0.032160394 0.024658157 -0.37886986
000390 ce 84 e0 bd ff 0f 2c bd 03 16 d3 3c 05 39 31 3c
       -0.109628305 -0.042007443 0.025767332 0.010816817
0003a0 c2 1e 53 3c 1f 4a 63 bd 07 3e 97 bc d9 a5 9a bc
       0.012885751 -0.05549061 -0.018462194 -0.01887791
0003b0 19 26 45 be 06 34 a6 be fc 83 03 be 02 45 55 be
       -0.19252814 -0.32461566 -0.12843317 -0.20827106
0003c0 cd ad f7 3c 2c df d7 3d e1 53 1b be d6 6e 00 3d
       0.030234242 0.105406135 -0.15168716 0.0313557
0003d0 04 b1 d6 bd 56 ef 56 be f0 ca 17 be 83 b9 bf bd
       -0.10482982 -0.20989737 -0.14823508 -0.093615554
0003e0 11 b1 93 3d 96 a4 5f 3d 2f 45 08 3d ab 9a 3e be
       0.07211507 0.05460032 0.033269104 -0.18613689
0003f0 e5 78 8b 3c 78 f3 a3 bd 30 0d f6 3c 8f 1d 6b bd
       0.01702542 -0.08005422 0.030035585 -0.057401236
