model/reward_induced_encoder/mlp.pt (torch, 22871 bytes, 6 tensors)

fc1.weight f4 [32, 64]
00000000: 395f c33c 0f7a 31bd c058 eebd 4b01 993d
00000010: df46 86bd f1d0 0a3d 29bd 3b3c eb3b c9bd
00000020: cbce 473b 2933 e0bc bbb5 933d 319c 7f3d
00000030: 16be d63d 291c 353d 3299 ca3d 7e0f 53be
00000040: 7a6d 37bd 0078 b3bd 8a1b 33be 0b18 cb3d
00000050: da4a c63c a009 cb3d 8a58 07be 9cb1 47bd
00000060: e02e ee3d 4f1f bd3d 3a17 42bb db08 e8bc
00000070: 3a9a c23d f450 603c 93b0 90be 822e 533e
00000080: 8b7c 523e 7b65 0bbe 549d 6dbe ba88 0fbe
00000090: f95c bc3d a4e0 163d 17b0 d43c a597 1fbe
000000a0: 0574 4d3d cb54 1a3e 174e b63d 2c9f 6bbd
000000b0: ce62 12be 20eb ccbd 7091 8e3c 4f23 753e
000000c0: 2a34 193e 6e54 52bd 170d 9abd 511f bfbd
000000d0: 425d 833d d8d4 763d 08fc b1bd cfea 1a3e
000000e0: a66f 23be 719f 773e 8c17 89bc 032f 033e
000000f0: 86a9 9dbd 483d 753e bd06 3ebd 783e 52be
00000100: 063d 863d f4ca 043d 6bae 72bc 32ad 8e3d
00000110: 2205 8b3d fc81 113b 14f1 673d 66bf 0f3d
00000120: d029 dd3d f182 c5bd 7c15 483d 36f4 cebd
00000130: 2d1a b13d e4d7 1c3d df1a 39be 5f29 3f3e
00000140: f985 333e 41c7 6a3e 725b 06be a766 dc3d
00000150: 812a c2bd e21a 703c ab76 77be d266 28bc
00000160: d08d 563e 39e8 34be 1614 b9bd ff92 f9bc
00000170: 7363 14be fca5 a93d 2998 423e a46a c73d
00000180: a462 103e 90e9 9cbc cb46 dc3d 9c64 73be
00000190: ad6e 153e 3d59 99bd f509 04be 3337 463d
000001a0: 8731 f6bd 9d8a cebd 5e20 e23d 7b72 4ebe
000001b0: c418 3ebe 9aad 063d d854 143e 3088 05bd
000001c0: 1681 35bd 7694 92bd 2237 24be 0d87 013e
000001d0: 1571 ed3c eb1a 4ebd 5fd6 3abd 5b99 a73d
000001e0: 14c1 d3bd cf8b 1fbe 5a47 033d b39b b33d
000001f0: de18 abbd 7f95 01be 8567 893e 3424 d0bd
00000200: cde0 223d c33b 163d a542 c83c 5bc8 033e
00000210: a86c 9fbd 5abd a7bd df5a 9a3b 82a1 e1bd
00000220: 6650 95bd 00c9 c7bd 2cae b7bc ad86 0f3e
00000230: 2fe5 ef3d 6c18 22bd a233 2dbe d172 3cbd
00000240: 270a e23d 1d64 2f3e 43b6 22bd 54ba 353d
00000250: 0522 8cbd f1bd 143e 2484 243e 82e0 2f3d
00000260: a463 573e 694d 95bd 557d d1bd ce88 6f3d
00000270: e708 b5bd 6d01 bbbd af15 1bbd 10c4 cf3d
00000280: 1f7b 333e aeef 81bd 8d63 173d 767f 54be
00000290: 4902 1b3e d31b 63bc 914a 733d a1c0 efbc
000002a0: 0ac8 3a3d 4ce5 8abd 7341 5bbe e13d c3bd
000002b0: 7a39 dabd 066c abbc 35fa fabc eb37 123d
000002c0: 16a9 c73d 6e24 87bd e421 2abe 59f8 373e
000002d0: 4a19 02be c601 f63d 0ed2 38be c6f4 303e
000002e0: f87b 2cbe 08b4 403e 7e1d 2f3e 4e67 583e
000002f0: e89e bfbc 329a 543c 65d8 043e 99a4 213c
00000300: 1b0f 113e fc77 72bd ece0 c5bc 61d0 22be
00000310: 0e3c a73d da2f 9b3d 437d 0d3e f4b7 543e
00000320: 3fce fd3d 761f 273b 3501 43be 4a58 5bbd
00000330: 1c19 073e 6d57 553e 1fdb 0b3e 0b65 2e3d
00000340: 4b02 d4bd 9400 fb3c fe1d d43c 401d cc3d
00000350: 5e68 3bbd 0317 1f3e 0f95 18be 7bd1 37bd
00000360: 22f6 4fbe f684 37bd 37c1 a53c 1ac1 21bd
00000370: 85c7 9a3d 710b 4bbd 5220 edbd 9c16 773e
00000380: 36ed 6f3e b8b9 bb3d ad43 49bd e5f5 43be
00000390: 5f21 ed3d 6406 59bd d6d4 af3e 2e82 263e
000003a0: 843e 113e ab8d 873d 8f9f d33d b104 03be
000003b0: 91f2 f73d 7a06 c7bd d1f0 89bc 8fdf 31be
000003c0: 2f63 383e d0be a4bd 0cd8 113e e1a2 19be
000003d0: 6c9e a9bd f76b cd3c 382a 273e c140 72bd
000003e0: 84ed d33d bd12 e23c 9783 1b3d 970a bb3d
000003f0: ce16 653d fc78 043c d0e6 1b3e 6040 403d
0.023849117 -0.043329295 -0.116380215 0.0747095 -0.06556486 0.03389067 0.0114586735 -0.098258816
0.0030488248 -0.027368145 0.07212397 0.062404815 0.10485475 0.04421631 0.09892501 -0.20611379
-0.04478214 -0.087631226 -0.17490974 0.09916695 0.024205614 0.09913945 -0.13217369 -0.048753366
0.116300344 0.09234487 -0.0029615895 -0.028324535 0.09502073 0.013691176 -0.28259715 0.2062321
0.20555322 -0.1361293 -0.23204547 -0.14017001 0.091974206 0.036835328 0.025962872 -0.15585192
0.050159473 0.15071408 0.08901613 -0.057524845 -0.14295503 -0.10005784 0.017403334 0.2393925
0.14961305 -0.05135005 -0.07522028 -0.09332145 0.06414272 0.060261577 -0.08690649 0.15128635
-0.15960559 0.24181916 -0.01673486 0.12810902 -0.0769835 0.23949158 -0.046393145 -0.20531642
0.06554608 0.032420114 -0.014812092 0.06966628 0.067880884 0.002220272 0.056626394 0.03509464
0.10798991 -0.09644116 0.048848614 -0.10105173 0.08647571 0.038291827 -0.18076657 0.18668126
0.17531575 0.22927572 -0.13120821 0.10761767 -0.09480763 0.014654847 -0.24166362 -0.0102784205
0.20952535 -0.17666711 -0.09037034 -0.030465601 -0.14491062 0.08283612 0.19003357 0.09737137
0.14100128 -0.01915434 0.1075569 -0.23768848 0.14593 -0.07487724 -0.12894423 0.048392486
-0.12021165 -0.10085032 0.1104133 -0.20160858 -0.18564135 0.032880403 0.1448549 -0.03260058
-0.04431256 -0.07157223 -0.16036656 0.12649174 0.028984586 -0.05031864 -0.045614596 0.08183547
-0.10339561 -0.15580676 0.032050468 0.08769932 -0.083543524 -0.12654684 0.26836792 -0.10163155
0.039765168 0.036678087 0.024445841 0.12869398 -0.077843964 -0.08190413 0.0047105397 -0.11017133
-0.072907254 -0.097551346 -0.022421919 0.14016218 0.11713635 -0.03957407 -0.16914228 -0.046007935
0.11037093 0.17128034 -0.0397246 0.04436715 -0.06842426 0.14525582 0.16066033 0.042938717
0.21034104 -0.072901554 -0.10228983 0.058480076 -0.088395886 -0.09131131 -0.037862476 0.10144818
0.17527436 -0.063445434 0.036960173 -0.20751747 0.1513759 -0.013861614 0.059397284 -0.029266657
0.04560093 -0.06782016 -0.21411686 -0.09533287 -0.10655494 -0.020925533 -0.030636886 0.03569786
0.097490475 -0.06598745 -0.16614491 0.17965831 -0.1270496 0.12012057 -0.1804888 0.17280874
-0.16844165 0.18818676 0.17101094 0.21133158 -0.023391202 0.012976216 0.12973173 0.009865903
0.14165919 -0.059196457 -0.024155103 -0.15899803 0.081657514 0.07577486 0.13817315 0.20773298
0.12392854 0.002550093 -0.19043429 -0.053550996 0.13193172 0.20834132 0.13657807 0.04257683
-0.10352 0.030639924 0.025893208 0.099665165 -0.04575383 0.15536122 -0.14900611 -0.04487751
-0.20308736 -0.044804536 0.020233734 -0.039490797 0.075575866 -0.04957146 -0.1157843 0.24129719
0.23430333 0.091662824 -0.049136806 -0.1913677 0.11578631 -0.05298461 0.34342068 0.16260597
0.14184004 0.06618818 0.10333168 -0.12794758 0.12106813 -0.09718032 -0.016838463 -0.17370437
0.18006586 -0.08044207 0.14242572 -0.1500354 -0.0828217 0.025075896 0.16324699 -0.059143785
0.10348037 0.027596826 0.03796729 0.09132879 0.05592995 0.008085486 0.15224767 0.046936393

fc1.bias f4 [32]
00000000: 8d74 823d 2a70 443e ce08 243e 2e51 51be
00000010: e582 133e a74d a23d 4a00 4abd 08e7 dfbd
00000020: 7624 a7bb 0680 f8bd 334b 293e 53cf e3bc
00000030: 226b 303c c208 8fbe 0c5f 96be 3bcc 893d
00000040: 0d37 103a 5667 c53d 2a59 5c3d 2301 11be
00000050: 20f9 9f3d ded9 afbd fdc7 0e3e 8d7b 7b3d
00000060: 0dcf 233e 8a5f c5bc 5b41 183e 2aa7 9d3d
00000070: 0044 a0be c4f1 1a3e c0bd 71bd c1f5 443e
0.063698865 0.19183412 0.16018984 -0.20441124 0.14405401 0.07924967 -0.049316682 -0.109327376
-0.005100782 -0.121337935 0.16532592 -0.02780882 0.01076773 -0.2793637 -0.2936939 0.06728407
0.0005501367 0.096388504 0.05379597 -0.1416059 0.07811189 -0.08586477 0.13943477 0.061397124
0.15996952 -0.024093408 0.14868681 0.076979 -0.3130188 0.15131289 -0.05901885 0.19234373

fc2.weight f4 [32, 32]
00000000: b632 1b3e 9c95 6ebc f360 1abe 2433 eebd
00000010: 7b6b 6f3d 29de 5b3c 074a 00be a116 953e
00000020: c2ff 6ebe a01c 713c 4a5e edbd 9bd9 00bd
00000030: f598 10be c8b0 dd3d 2667 55be 1e1d 123e
00000040: 57e1 323e 1cae 89bd 9eae 51be 8688 6ebe
00000050: 2299 7dbe fa38 17be 057a 873c 3ce6 003e
00000060: 62ec 8cbe 8e9e d0bd b3e8 1fbd 7553 073e
00000070: 3673 8fbd f4c5 d8bd 1d7b 20bd a85e e9bd
00000080: 643f 8b3e d2d4 2ebd 2ee7 013e 097f 85bc
00000090: 6a0b 3abc f852 ebbd 6e78 4f3c 841f 88bd
000000a0: f340 cc3b 1d08 bdbc 2f39 cbbd c241 8cbc
000000b0: f59e 233e ed24 a5bd 1574 623d fa91 6ebc
000000c0: 1440 0fbe 13e0 783e 4df7 3dbd bf10 6cbd
000000d0: 81eb 263e 99ae e0bd 457b 5c3b 5d0d 31bb
000000e0: 3477 05be 4a2b e03c 9fe2 b53d c7fa 7bba
000000f0: e47c c53d 89f6 783e 0369 8e3d 8eeb 793e
00000100: caa9 333e ed1c d33d 8b93 513e 479b 0cbe
00000110: 66ba 90be d4ea b9bd c95c 893e 0bdd 013e
00000120: 3d06 9bbd f097 353c 005c 4a3d 9a46 87bd
00000130: d12c bebd 0edc 30bd 4ee3 223d f566 e8bd
00000140: cb1d fd3d 9902 72bd dcd5 303e c256 6ebe
00000150: 9fa8 fabd 4d71 4c3d 6197 0f3e af45 443e
00000160: afb2 ae3e ad2f 3d3e 15f2 64be 903a 4abd
00000170: 146f 8bbc 08f2 283d 930d 05bd 41f3 71bc
00000180: b78a 0cbe 1bfd 833d 9f19 f53c 61b4 343e
00000190: 6553 f6bd d318 25be b168 003e c9fe fabc
000001a0: dbe2 aabd c7a2 9ebd 4619 4abe cd8c 1d3e
000001b0: 98af 3abe 139d 7fbb e82c a13d 1224 83bd
000001c0: 28ae 29be b6e9 b5bd 52fe 163d 624c 03be
000001d0: 49df 9b3d 4454 b7bd c38f dbbd 7c17 f3bd
000001e0: 608e 4dbe e1bb a93d d138 6dbe 96f8 35be
000001f0: c675 e8bd f119 e3bd acc9 ff3c 89d1 6a3c
00000200: 1f34 43be 9ded f8bc 44e3 84be d27a 0e3d
00000210: d030 4d3e 41fd 003e d78d 4a3b 5d80 42bc
00000220: 51a4 b13e 09a4 d9bc 2d2d 463e 4e30 4cbe
00000230: bbcd 043d 000d 893b cd98 b63c f188 5dbd
00000240: 8ec1 d43b 4c5c b0bd a677 7e3e c7f8 9e3d
00000250: 2d96 fbbd d7fe cf3d 4190 b13d 56d3 243e
00000260: 7093 20bb 06f1 d53d 0e63 ce3d fec7 f53c
00000270: be13 123e a615 0ebe dd64 903e d8a2 873d
00000280: 5a7d 40be 1aff d9bc 7a0f 99bd 9857 ffbd
00000290: 7632 2abe d636 63bd 6977 f5bd d22c 0a3e
000002a0: 3e94 af3d 20ce c73d a0b0 15be c79b 2bbe
000002b0: 197c 7abe b48f 90bd ad60 0abe 314b f63c
000002c0: 1c14 dcbd 621b 363d 3804 2bbe f66b f53d
000002d0: e855 02be 217d 1fbe 4ffe 48bd 065d 1ebd
000002e0: ad26 10be 03c6 3d3d 4862 2cbc 7bba 4d3d
000002f0: 521c 163e 4910 0e3c 0863 c53d 6103 f43c
00000300: 444a 41bd 4d99 e2bd f50f d6bd 3333 fc3d
00000310: 1d5c 903c 7548 f23c e0dc 08bc c06b 9c3e
00000320: 48fa 9cbe e075 4c3e c155 023d 33fb 67bd
00000330: 9744 76bb 99d3 2bbe 4dfc 8e3d 53fe 4f3e
00000340: d736 06be 2053 44bd 8db9 02bd e3ab 733e
00000350: a283 ccbd 2981 bfbe 0c1b fcbd e9c7 cfbc
00000360: 9c3f fcbd 4f30 423d 1939 983b a63d 66be
00000370: 005a 5e3e 7ff2 a5bd 39d9 8fbe 365a 373c
00000380: de2e 84be c574 edbc 4bc1 ed3b ee93 b2bd
00000390: c3e7 3c3d b257 de3d d659 adbc 60ee d6bc
000003a0: 1a68 193e 4f69 fe3d 023a ac3d ba3d 7f3c
000003b0: 4d74 dabd 2961 933c e9d6 a23d 60ba 56bd
000003c0: 5081 93bd 513a d4bd f87a 7e3e 6ba5 d03d
000003d0: 6ba6 98bd c63f fdba ee50 54bd 08cb f5bd
000003e0: 3452 bc3d 5aa2 57be ebfe 1dbe 85e6 86bd
000003f0: d45b 743e 2b5b 03be dcb5 4e3e fe48 6dbd
0.15156063 -0.014562037 -0.15076046 -0.11630848 0.05845211 0.013419666 -0.12528239 0.29118827
-0.23339751 0.014716297 -0.1159025 -0.031457525 -0.14120848 0.10824734 -0.2084013 0.1426892
0.17468773 -0.06722662 -0.20476767 -0.23294267 -0.24765447 -0.14767829 0.016537676 0.12587827
-0.27524096 -0.10186492 -0.03904028 0.1321543 -0.070043966 -0.105846316 -0.03917991 -0.11395007
0.271968 -0.04268343 0.12685844 -0.016295927 -0.01135526 -0.114904344 0.01266299 -0.06646636
0.0062333285 -0.023075158 -0.09923016 -0.0171212 0.15978606 -0.08063684 0.055286486 -0.014561171
-0.13989288 0.24304228 -0.046378423 -0.057633158 0.16300775 -0.10970802 0.003364281 -0.0027016022
-0.13033754 0.027364392 0.08881115 -0.0009612259 0.096429616 0.24312796 0.06953623 0.24406263
0.17545238 0.103082515 0.2046644 -0.13731109 -0.2826721 -0.09077993 0.26828602 0.12681977
-0.07569549 0.011083588 0.049404144 -0.06605263 -0.09285892 -0.04317861 0.039767556 -0.113477625
0.12359198 -0.05908451 0.17269081 -0.23275283 -0.12239193 0.04991274 0.1402259 0.19167207
0.341207 0.18475218 -0.22357972 -0.049372256 -0.01702074 0.041246444 -0.03248365 -0.014767469
-0.1372479 0.064447604 0.029919444 0.17646934 -0.12027625 -0.16122751 0.12539937 -0.03063907
-0.083440505 -0.07745891 -0.19736204 0.15385742 -0.18231046 -0.0039003536 0.07869893 -0.06403364
-0.16570342 -0.088824674 0.036863633 -0.12822106 0.07610948 -0.08951619 -0.1072078 -0.11869714
-0.20073843 0.08287788 -0.23166205 -0.1777061 -0.113505885 -0.11088932 0.031224094 0.014332184
-0.19062851 -0.03038674 -0.2595464 0.0347851 0.20038152 0.12596609 0.0030907297 -0.0118714245
0.34695676 -0.026567476 0.1935317 -0.19940302 0.032422762 0.004182458 0.022289658 -0.054085676
0.0064928 -0.08611354 0.2485033 0.07762294 -0.12284503 0.10156029 0.086700924 0.16096243
-0.0024501942 0.10446362 0.10077487 0.03000259 0.14265344 -0.13875446 0.28201953 0.06622857
-0.18797818 -0.0266109 -0.07473655 -0.12467879 -0.16620812 -0.055472218 -0.11985666 0.1349366
0.08573197 0.09756112 -0.14618158 -0.16758643 -0.24461402 -0.07058659 -0.13513441 0.030065151
-0.10746023 0.044459708 -0.16700828 0.119834825 -0.12728083 -0.15575077 -0.049070653 -0.038662933
-0.14077254 0.046331417 -0.010521479 0.05022667 0.14659241 0.008670875 0.09638029 0.029786767
-0.047189966 -0.11064396 -0.10452262 0.12314453 0.017622048 0.029575566 -0.008353442 0.30550957
-0.306597 0.1996684 0.031820063 -0.056636047 -0.0037577504 -0.16779937 0.06981716 0.2031186
-0.13106857 -0.047930837 -0.031915236 0.23796038 -0.099860445 -0.3740323 -0.12309846 -0.02536388
-0.1231682 0.047409352 0.0046454784 -0.22484455 0.2171402 -0.08102893 -0.28095415 0.011190942
-0.25817007 -0.028986344 0.0072557083 -0.087196216 0.046119463 0.1085657 -0.021161001 -0.026236713
0.14981118 0.1242243 0.084095016 0.015578682 -0.10666714 0.017990666 0.07951147 -0.052423835
-0.07202399 -0.103626855 0.24851596 0.10187801 -0.07453617 -0.0019321374 -0.051834993 -0.12001616
0.091953665 -0.21058026 -0.15429275 -0.06586937 0.23863155 -0.12827747 0.20186561 -0.05793094

fc2.bias f4 [32]
00000000: 33a2 cebd 854d 213e b841 7abd 5d74 fcbd
00000010: c5ff 143d 5f8b 1fbe 4a7b 7dbe 457b 3d3d
00000020: 6d1a bfbd 2f5d 833d da1d 0e3e 2c23 463d
00000030: 308f 863d 222e 47be 3b1e 69bd 8f7a b13d
00000040: c69a 2a3e aba3 8fbd 8b39 c2bd bc7d 9b3d
00000050: 1c11 ac3d f0f4 b5bd 865d fabb 1bbb f63d
00000060: 4aef 5ebe 046b b7bd c765 16be 2312 b6bd
00000070: a83f 9abd 6ecc 15be bd76 a03d 5ee4 a9bb
-0.10089531 0.15752228 -0.06109783 -0.12326882 0.036376733 -0.1558051 -0.24754062 0.046260137
-0.09331212 0.06414258 0.13878575 0.048373386 0.065702796 -0.19451192 -0.056913596 0.08665954
0.16660604 -0.07013639 -0.09483632 0.07592341 0.08401701 -0.08884609 -0.0076405434 0.12047406
-0.21770969 -0.089559585 -0.14687262 -0.08890178 -0.07531673 -0.14628765 0.078351475 -0.005184694

fc3.weight f4 [64, 32]
00000000: b784 23be db8e 813e 22fc 573d de21 78bd
00000010: 893b 6cbd 3633 c53d a1d7 a73d eb55 2cbe
00000020: 9690 3c3e 4690 7bbd 5669 1dbe b768 38be
00000030: 6b05 a63d a925 1b3e fe08 9b3c 4441 93bd
00000040: 9626 e6bd d2ed dabd 0720 233e 8dda 57bd
00000050: 9958 ea3d 8ddd 313d 4103 f3bd a01a bc3d
00000060: 3c0d 5a3e c990 dbbd 24ff fcbd 9548 66be
00000070: a7aa 80bc 5e3f 8d3e f530 fbbd dba6 333e
00000080: 3b43 5abe 56ab 373d fac5 af3d c841 ff3d
00000090: fb1e d23d af40 e73d cbc0 783a 4f3f 17be
000000a0: 2b19 82bc 4d47 f23d 0314 06be 2bd8 dbbc
000000b0: 45f7 8a3d 21f1 08be f4ea 313e 1f1e 4cbc
000000c0: 9118 763d 0390 63bd e2d7 b8bb 272a 14bd
000000d0: 90fb 65be 95ef 20bd 992f 0abe fc58 713d
000000e0: 5375 803d 0cf7 f5bd 6939 d63d 4709 d1bd
000000f0: 6557 fabd a309 91be 2d63 5dbe f95b d63d
00000100: 2d1f 9bbd b48d 1f3e 4e12 453e a4df e8bb
00000110: 656b 0d3d a742 63be 28d2 ad3c 8a3e 42bd
00000120: a2d8 7abe 1abf 133e 21ba 83bd c2b0 2b3e
00000130: d561 a7be 5b4f 263e 3351 2abe f5ee 89bd
00000140: a633 98bd c051 42be 1d8c 0e3e 40c3 cb3d
00000150: 7c32 d9bb 033d cfbd 4b81 863d 18c2 4d3d
00000160: 8e9e 86bd ef2e 8c3d 4659 603d 9704 db3c
00000170: 2ffd 753d 94fc 5bbe 468f 78bd 56ef 0e3d
00000180: 266b a6bc fe6d 70be 4fe4 70bd 6727 01be
00000190: 26c4 883e 071a b7bd 133b 0ebe c0dd e33d
000001a0: c13d 073d 0653 47be 4f81 1bbe d686 3e3e
000001b0: a647 66bd 0919 a6bd e7e3 603e d839 d83d
000001c0: 847a 27be 753a 3fbe 164b 093d 7b5b 053d
000001d0: dca4 b1bd f97d dd3d 475a 2b3d 8a11 143d
000001e0: 0c26 383d 878d d8bd dcda ab3d 5466 613d
000001f0: 8648 bebd 136c 593c aeb7 753d 35c7 0cbd
00000200: a4ff 7a3c 0981 90ba 3900 25be 0845 03be
00000210: 86fe 253e a575 1cbe 99d5 833e 9d47 34be
00000220: c357 b73b 4d1d 013e 1d20 0b3e e22f d3bb
00000230: 89a4 97be 9279 b13c 8a39 313c a406 833e
00000240: bdf0 a33d 9549 273d 6520 043e d11f 653c
00000250: 5b82 953e af1c 1abd 3fd5 86be 5417 8fbd
00000260: 5dc3 0dbe daa3 fe3c 1667 1d3c 21e4 023e
00000270: 47a7 e63b be76 20be 0c63 69bd d0b9 8a3d
00000280: 3809 f03d aa1f a73d 6063 aabd 4197 acbd
00000290: c74d 0c3e c902 913d e6b0 133e 69c1 f0bd
000002a0: fc2f 0a3d 7354 29bd 3ce0 54bd 4ae0 8e3e
000002b0: 4132 75be e1ad 243e 6915 d23d 9a80 c9bc
000002c0: a72e f83c 8992 7cbe 873b 793d 955e 433d
000002d0: b6c7 b53c ae81 8e3d b6cb 42be 064c 453e
000002e0: 8dc6 babd 8065 0bbe 6cf5 e4bd 01df 2cbd
000002f0: a745 963d 851e f53c 27e8 b53c b291 ab3d
00000300: 5e24 063d a84c 5cbe a181 d43d b485 40bd
00000310: 408c 5f3d 8d56 2d3d 1385 fcbd e515 923d
00000320: 4e03 963e 874e b8bd 3b93 af3d 450f 05be
00000330: 4285 ed3d dc39 14be 8608 5e3e ae76 08be
00000340: 72de 4bbe c2b3 75be 2f15 b1bd 3453 a13d
00000350: 074a ba3d f692 1c3d c77d 0dbd cd63 2a3c
00000360: 03be c03d d3ed 593a e03b ce3b 2654 45be
00000370: a705 c53d 275f 5bbe acfa dd3d f479 073d
00000380: 170b 17bd d265 24be 5904 143e ffcc 20be
00000390: ccf3 223e 36c1 2bbd 6fcf b33b 3603 d03d
000003a0: 2ea2 a4bd dd12 31be ed74 9d3c 8a52 4bbe
000003b0: 1fed 45be 9c2d bbbd 94c9 063d 77ec e63d
000003c0: 0486 72bd d7bf 043e 2688 fdbc 02bd 183e
000003d0: e9eb 9abd f302 8f3d d1f1 bc3d 82e0 e03d
000003e0: b35a 86bd 54d8 83bd 8412 19be a548 033e
000003f0: 8d9f 2f3e 6e48 403e f21f 2f3e 0b5e 2bbd
-0.15968595 0.25304303 0.052730687 -0.060579173 -0.057673965 0.09628908 0.08195425 -0.1682965
0.1841453 -0.061416887 -0.15372214 -0.18008696 0.08106502 0.15151085 0.018925186 -0.07190183
-0.112378284 -0.10689892 0.15930186 -0.05269866 0.1144268 0.043424178 -0.11865855 0.09184766
0.21294111 -0.10720975 -0.12353352 -0.22488625 -0.015706373 0.27587408 -0.12265197 0.17544119
-0.21314709 0.044841133 0.08582683 0.12463719 0.10259815 0.11291634 0.00094891776 -0.14770244
-0.015881142 0.11830006 -0.13093571 -0.026836475 0.06785444 -0.13373233 0.17374784 -0.012458353
0.060082022 -0.055557262 -0.0056409696 -0.036173012 -0.22459245 -0.039290983 -0.1349472 0.058922753
0.06272378 -0.12010011 0.10460169 -0.10206848 -0.122237004 -0.28327665 -0.21619864 0.10466761
-0.07574306 0.15581399 0.19245264 -0.007106738 0.034526248 -0.22193395 0.021218374 -0.047422923
-0.24496701 0.14428368 -0.06431986 0.16766647 -0.32691827 0.16241209 -0.16632538 -0.067350306
-0.07431726 -0.18976498 0.13920636 0.0994935 -0.0066283327 -0.10119059 0.065676294 0.05023393
-0.06573211 0.068448894 0.054772638 0.026735587 0.060055908 -0.2148307 -0.06068351 0.034896217
-0.020314764 -0.23479459 -0.058811482 -0.12612687 0.2671215 -0.08940511 -0.13889723 0.1112628
0.033017877 -0.19465265 -0.15186046 0.18606123 -0.056220673 -0.08110244 0.21961938 0.10557908
-0.1635533 -0.18674643 0.033518873 0.032557946 -0.086740226 0.10815043 0.041834142 0.03614954
0.04495816 -0.10573869 0.083913535 0.05502923 -0.092911765 0.013270396 0.059989624 -0.034369666
0.015319739 -0.0011024784 -0.16113366 -0.12819302 0.16210374 -0.15279253 0.257489 -0.17605443
0.005595179 0.12608834 0.13586469 -0.006444917 -0.29617718 0.021664415 0.010816941 0.25591004
0.080049016 0.040841658 0.12902983 0.013984636 0.29201016 -0.03762501 -0.2633457 -0.06986871
-0.13844056 0.03108399 0.009607097 0.12782337 0.007038984 -0.15670297 -0.056979224 0.06773722
0.11720508 0.08160336 -0.083197355 -0.08427287 0.13701545 0.07080609 0.1442295 -0.1175564
0.033737168 -0.041340303 -0.05197166 0.27905494 -0.23944952 0.16081955 0.1025799 -0.024597455
0.030295683 -0.24665274 0.060847785 0.047697622 0.022189956 0.06958328 -0.19023022 0.19267282
-0.09119902 -0.13612938 -0.11179623 -0.04220486 0.07337504 0.02992178 0.022205425 0.083773986
0.032749526 -0.21513617 0.10376287 -0.04700251 0.054577112 0.04231887 -0.123300694 0.07133082
0.29299396 -0.08999353 0.08573004 -0.12994106 0.115976825 -0.14475197 0.21682939 -0.13326523
-0.19909075 -0.23994353 -0.086466186 0.07877198 0.09096151 0.03822609 -0.03454378 0.010399771
0.09411242 0.00083133316 0.0062937587 -0.19270381 0.09620219 -0.21423016 0.108388275 0.033075288
-0.03687581 -0.16054466 0.14454783 -0.157032 0.15913314 -0.041932307 0.0054873745 0.101568624
-0.08038746 -0.17292352 0.019220794 -0.19855705 -0.19328736 -0.09139559 0.032907084 0.11275571
-0.05920984 0.12963806 -0.03094871 0.14915851 -0.075645275 0.069829844 0.0922581 0.109803215
-0.06560268 -0.06437746 -0.1494847 0.1282068 0.17150708 0.1877763 0.1710203 -0.041837733

fc3.bias f4 [64]
00000000: 85bb fdbd 649e c93d 0488 1ebe c912 c73d
00000010: 71ed 24be 4cb1 8abd 90b8 32bd aa99 09bd
00000020: 27a0 423e d67f aabd 6eb0 923d a038 a93d
00000030: d1b7 dbbd 8c13 48be 5dee 25be 58bd 11bb
00000040: 1deb bf3d 2f1a f6bd e991 253e 6740 1dbe
00000050: b74b f23d f62b f33d 99e4 4e3d 5dda 363e
00000060: b9f4 29bd 406e 2d3c 56da 373e 667b 673c
00000070: eb78 98ba 81a2 c8bd 9aeb 403d 19f8 ffbd
00000080: acb3 70be 9496 2cbd 5bb3 283d 7015 63bb
00000090: b176 b43d a16d 713d 3c98 103d d68c 103e
000000a0: 94c2 a23d 7667 0ebd 7a0f c53b 4fb0 473e
000000b0: 8b5a e83c 8546 093e f6a0 a4bd b76f c1bd
000000c0: 41fa 9ebd d605 a2bc 47a5 043e 86d6 8dbe
000000d0: efd9 33be d42a 1b3e 7d1b bf3d b3da 753d
000000e0: 15a1 0dbe cc57 d53d d395 c03d 8f6c a73d
000000f0: 680c 0dbe d408 a13c 6d5d 7b3d c0dd 29bd
-0.12389282 0.09844664 -0.15481573 0.0972038 -0.16106202 -0.06772098 -0.043633044 -0.03359381
0.19006406 -0.08325164 0.071625575 0.082627535 -0.107284196 -0.19538707 -0.1620421 -0.0022238102
0.09371016 -0.12016713 0.16168942 -0.15356599 0.11830848 0.11873619 0.050510976 0.17856736
-0.04149315 0.010585368 0.17954382 0.014128542 -0.0011632716 -0.0979662 0.047099687 -0.12498493
-0.2350604 -0.04213579 0.04118667 -0.003465023 0.08811701 0.05894244 0.035301432 0.14116225
0.07947269 -0.034766637 0.006013808 0.1950085 0.028363487 0.13405807 -0.08038513 -0.09445136
-0.07762576 -0.019778173 0.12953673 -0.2770273 -0.17563604 0.15153056 0.09331415 0.06002302
-0.13830979 0.104171365 0.09403577 0.08175003 -0.13774264 0.01965753 0.061368395 -0.041471243
