model/reward_induced_encoder/reward_heads.pt (torch, 14935 bytes, 6 tensors)

fc1.weight f4 [32, 64]
-0.17417401 -0.012494059 -0.058596466 0.07086709 -0.06660641 0.15041535 0.13846365 0.050954178
0.039739873 -0.08106838 0.19106278 0.057882454 0.08070067 -0.014151324 0.22308895 -0.20870419
0.035643816 0.03724247 -0.21919239 0.044965744 -0.15193354 -0.22876927 0.21028532 0.070711225
0.056308925 0.13310216 -0.025762348 -0.005646756 0.1227394 0.14170097 0.0040795496 -0.20550199
-0.033883993 0.17890503 0.13183191 -0.008046482 0.14600986 0.046018947 -0.10901241 0.0803837
-0.27358323 0.11792266 0.097343154 0.13547239 -0.021584 0.14985886 -0.056176495 -0.023076069
-0.17896892 -0.2894621 0.03942515 0.16154061 -0.03496726 -0.20224576 0.052921724 0.07150831
0.12585711 -0.0124987485 0.145889 0.24740285 0.032247286 -0.02781201 0.16838391 -0.07565917
0.09147844 0.13048922 0.16518064 -0.051856656 -0.10136062 0.14185557 0.064379 0.03614074
-3.2357362e-05 0.17186712 -0.16323885 -0.12383583 0.018580828 0.07150292 0.18395169 -0.25873446
0.094137825 -0.10862733 -0.109636925 -0.048720665 -0.14895122 -0.14441691 0.1033047 0.25565752
0.06362998 0.17126952 0.13382804 0.19354464 -0.00048659826 -0.10042825 0.08776187 -0.07433914
-0.061974395 0.14114596 0.028032478 -0.052694052 0.1356606 -0.083528474 -0.07130752 0.11914096
-0.18845549 0.1720057 -0.026737927 -0.11042448 -0.15720357 -0.007373929 -0.045284506 0.10699697
-0.16947284 -0.029967336 -0.034377225 -0.029933767 0.075314835 0.027544774 0.022419982 -0.01336763
-0.07983722 -0.08048048 0.015527454 0.010155932 0.1997607 0.031019563 0.031729806 -0.046891544
-0.22124222 -0.064270176 -0.07506862 -0.14238998 -0.08001754 0.020725006 0.17415418 -0.08781178
-0.12129641 -0.018113973 0.033838082 -0.1419073 -0.15930074 -0.111475416 0.0569162 -0.04925392
-0.05304162 0.025991509 -0.09313911 -0.08683505 0.0032907843 0.0595743 0.08220858 0.020770743
0.048471406 0.018919691 -0.08155065 -0.15443903 0.15540205 0.029556988 -0.063313514 0.00023645912
0.006180385 0.075398624 0.019831683 0.07327571 -0.11582222 0.043339185 0.020368721 0.062311444
0.03730519 0.13925079 -0.013558603 0.113423556 0.017585801 0.0691975 0.09959567 -0.0012940579
0.08008435 -0.16475579 -0.059765104 -0.07798294 0.024710443 -0.12298897 -0.12893306 -0.029236551
0.07147157 0.11504122 0.14494719 0.015692944 0.018960044 -0.14476267 -0.054563183 0.029690618
0.19468667 -0.099860206 0.022379728 -0.15989625 -0.062682 0.08085828 -0.01689051 -0.16643977
0.14032146 0.15401632 -0.010594132 -0.22681104 -0.17407273 -0.19143021 -0.042756114 0.0018107988
-0.048647862 -0.04591931 0.030174844 -0.03431707 -0.07035844 -0.13429245 0.14992091 -0.019354329
0.35662937 -0.115883775 -0.1485433 0.18391253 0.18428904 0.10909649 -0.039567992 -0.14038263
0.114255555 0.043784525 0.12802577 0.042704817 -0.020823536 -0.1465547 -0.0037355088 0.048599984
-0.016934391 0.034108434 0.059737746 0.24455638 -0.15643239 0.028965345 0.05206102 0.08130861
0.14500032 -0.14982376 -0.10983034 -0.09809436 0.09366859 0.085655555 -0.05125783 0.112491734
0.312187 -0.019936379 -0.02787162 0.33450195 0.10540496 0.16048016 -0.06303859 -0.13159277
00000000: ac5a 32be e2b3 4cbc d902 70bd c422 913d
00000010: f168 88bd 7b06 1a3e 6ac9 0d3e 54b5 503d
00000020: 47c6 223d 2e07 a6bd f6a5 433e 2716 6d3d
00000030: 6546 a53d f4da 67bc 6e71 643e 8db6 55be
00000040: 40ff 113d 8f8b 183d f873 60be 002e 383d
00000050: 7794 1bbe 7e42 6abe 0955 573e 0cd1 903d
00000060: 30a4 663d ef4b 083e 8f0b d3bc 6c08 b9bb
00000070: cb5e fb3d 0f1a 113e bead 853b 1d6f 52be
00000080: f1c9 0abd e132 373e f2fe 063e 64d5 03bc
00000090: 9c83 153e 5d7e 3c3d e641 dfbd 36a0 a43d
000000a0: 1a13 8cbe 7081 f13d d95b c73d 46b9 0a3e
000000b0: eed0 b0bc 9a74 193e 5319 66bd 060a bdbc
000000c0: a143 37be 6034 94be 447c 213d e76a 253e
000000d0: d439 0fbd 8319 4fbe 73c4 583d f372 923d
000000e0: b0e0 003e 8dc7 4cbc ed63 153e 2c57 7d3e
000000f0: bb15 043d 03d6 e3bc d56c 2c3e 32f3 9abd
00000100: 0c59 bb3d f79e 053e 1d25 293e a567 54bd
00000110: 2896 cfbd 9642 113e 23d9 833d 5008 143d
00000120: 74b7 07b8 effd 2f3e 1628 27be a49d fdbd
00000130: d236 983c 1f70 923d d55d 3c3e d878 84be
00000140: 55cb c03d 0178 debd 5389 e0bd 528f 47bd
00000150: ab86 18be 07e2 13be 6a91 d33d 8be5 823e
00000160: 6f50 823d 4761 2f3e 380a 093e 9130 463e
00000170: 1d1e ffb9 54ad cdbd 7fbc b33d 1e3f 98bd
00000180: ddd8 7dbd 9188 103e 5ea4 e53c b8d5 57bd
00000190: 9dea 0a3e fa10 abbd ad09 92bd 2d00 f43d
000001a0: 7afa 40be 4322 303e 7f09 dbbc 3b26 e2bd
000001b0: f9f9 20be 00a1 f1bb 3f7c 39bd 3a21 db3d
000001c0: 4a8a 2dbe 0f7e f5bc 22cf 0cbd a937 f5bc
000001d0: aa3e 9a3d 94a5 e13c 1caa b73c e703 5bbc
000001e0: b281 a3bd f3d2 a4bd dd66 7e3c 1165 263c
000001f0: 128e 4c3e bd1c fe3c 1df7 013d 5911 40bd
00000200: 528d 62be 15a0 83bd 94bd 99bd aece 11be
00000210: 3ce0 a3bd 7dc7 a93c 7955 323e aad6 b3bd
00000220: 416a f8bd c163 94bc cd99 0a3d 2650 11be
00000230: bc1f 23be 394d e4bd f620 693d 7abe 49bd
00000240: 2b42 59bd 25ec d43c b8bf bebd 93d6 b1bd
00000250: 33aa 573b 2e04 743d f95c a83d 6827 aa3c
00000260: f489 463d 78fd 9a3c 0704 a7bd 4425 1ebe
00000270: b721 1f3e 7f21 f23c 84aa 81bd 03f2 7739
00000280: d484 ca3b 986a 9a3d 0e76 a23c 9311 963d
00000290: 3334 edbd 6e84 313d 4edc a63c 493a 7f3d
000002a0: 54cd 183d c297 0e3e e724 5ebc 9c4a e83d
000002b0: 1910 903c 6bb7 8d3d d1f8 cb3d 619d a9ba
000002c0: 4403 a43d beb5 28be 41cc 74bd 85b5 9fbd
000002d0: 8e6d ca3c a4e1 fbbd 0707 04be 7e81 efbc
000002e0: b05f 923d bb9a eb3d 096d 143e 7d8e 803c
000002f0: 1852 9b3c aa3c 14be a57d 5fbd bd39 f33c
00000300: f15b 473e 8283 ccbd b155 b73c d8bb 23be
00000310: 6c5f 80bd 0799 a53d f85d 8abc 306f 2abe
00000320: 6eb0 0f3e 74b6 1d3e 0393 2dbc 2741 68be
00000330: 1f40 32be 4806 44be 0921 2fbd 5358 ed3a
00000340: fb42 47bd e315 3cbd 3c31 f73c 0e90 0cbd
00000350: 1618 90bd f683 09be de84 193e f88c 9ebc
00000360: 2098 b63e 7954 edbd bc1b 18be 9153 3c3e
00000370: 44b6 3c3e fb6d df3d 0c12 22bd 77c0 0fbe
00000380: d1fe e93d 6757 333d 3019 033e 3feb 2e3d
00000390: 1f96 aabc 6f12 16be 70cf 74bb c710 473d
000003a0: feb9 8abc 49b5 0b3d 91af 743d fd6c 7a3e
000003b0: d02f 20be bb48 ed3c f03d 553d 2185 a63d
000003c0: f77a 143e 666b 19be bbee e0bd b2e5 c8bd
000003d0: 51d5 bf3d 2e6c af3d bbf3 51bd 1162 e63d
000003e0: f9d6 9f3e 9e51 a3bc 0653 e4bc d743 ab3e
000003f0: 8ede d73d e954 243e 601a 81bd 41c0 06be

fc1.bias f4 [32]
-0.14296775 -0.21794485 0.110943705 -0.065044075 0.15590635 0.10014292 -0.09652679 0.10443738
0.053333573 -0.040356018 0.045526944 0.026622484 0.14658639 0.09401888 -0.089964196 -0.09154403
-0.18090335 -0.14306097 0.07429224 -0.1599128 0.11061632 0.060289044 0.022107247 0.063057646
0.15247393 0.019119676 0.10602677 -0.05412427 0.012177175 0.014333874 -0.10393747 0.028110076
00000000: 2366 12be ef2c 5fbe 7436 e33d d435 85bd
00000010: eaa5 1f3e bb17 cd3d d6af c5bd 44e3 d53d
00000020: 4e74 5a3d 5a4c 25bd 767a 3a3d 6517 da3c
00000030: be1a 163e f88c c03d 263f b8bd 707b bbbd
00000040: ba3e 39be 937e 12be 8826 983d 2ec0 23be
00000050: cf8a e23d a5f1 763d 421a b53c 5e24 813d
00000060: 2022 1c3e dea0 9c3c 9024 d93d 69b1 5dbd
00000070: c682 473c a0d8 6a3c 2bdd d4bd 1a47 e63c

fc2.weight f4 [32, 32]
-0.019105962 -0.09788949 -0.14524046 0.14135659 0.12690535 0.14881353 0.0045586615 -0.070054315
-0.12466774 -0.0070913704 0.0823093 0.0896671 0.23065878 -0.14008321 -0.16871189 -0.19597541
0.026096076 -0.15481663 -0.0003672708 -0.048390344 -0.0851926 0.105813794 -0.05031626 0.024290886
0.16339724 -0.17528154 0.12594931 0.18950407 -0.12822802 -0.09491808 -0.06811574 -0.200609
0.032915764 0.065540016 -0.14896086 -0.123576835 0.04590778 0.07778471 0.12976266 -0.16505496
0.02139214 0.062211204 -0.15978523 -0.19929904 0.08324774 0.07852879 0.046068273 -0.07124461
0.17458108 -0.045390703 0.04916621 0.08267936 0.07331498 -0.16723138 -0.13025713 0.08369313
-0.14492512 0.06383398 -0.22381121 -0.12887073 -0.014259616 -0.1829447 -0.10907847 -0.046473652
-0.10818124 0.11082372 -0.1570858 0.10782505 -0.18062373 0.087360285 0.087698095 0.020386994
-0.08999899 -0.17820668 -0.06698252 -0.017773854 -0.024793968 -0.1107492 -0.1911935 -0.0633568
-0.14416485 -0.13907929 0.0005725017 -0.10105891 -0.08322934 -0.13726987 0.032770947 -0.14090815
-0.17408882 0.01233551 -0.110069886 0.131183 -0.009173379 0.0772287 -0.08905554 0.10637582
0.18209384 0.09962121 -0.14879699 0.17077456 0.12423074 0.0044815927 0.15101175 -0.19229661
0.106498115 0.0781919 -0.082436204 0.0346065 -0.16932431 -0.035209324 0.16947125 -0.10883043
0.03618288 0.18857998 0.15269494 -0.06299527 0.17076974 -0.048988976 -0.046855424 0.10357464
0.04803512 -0.057106126 -0.18046255 0.18086489 -0.12996441 0.20257866 0.18674871 -0.034945883
0.23839054 -0.09064318 0.07165087 -0.33540198 -0.11359742 -0.14978932 0.14558113 -0.05878859
-0.20515138 0.07784422 0.09259633 0.100820996 0.016444024 -0.051202916 0.22615461 0.1552964
-0.08541862 -0.08445941 -0.26359305 -0.1041846 0.07131456 -0.17533731 0.06791138 -0.12578039
-0.035173453 -0.16526173 -0.06876999 -0.123013966 -0.085245535 -0.23795162 0.18166994 0.15065303
-0.08976472 -0.09011541 -0.050622877 -0.17261851 -0.0024368744 0.21007295 0.10496327 -0.11796034
0.0899045 -0.12388518 -0.11067391 -0.050251413 0.09305903 -0.007861491 0.064869024 -0.21674517
0.15432258 0.07129791 -0.07164289 -0.14042324 0.10367137 -0.13584301 0.024440171 0.052874777
0.11960149 -0.055651166 -0.052027166 -0.08356767 0.051751185 0.0886585 0.14652762 0.008354261
-0.06625913 0.0008167415 -0.115365215 -0.035360195 0.04780725 0.08473431 -0.13194308 0.112959296
-0.09013594 -0.083854884 -0.026454933 -0.16658118 0.094703116 0.16443467 -0.017374955 0.05477869
0.074042045 -0.03533928 0.019894289 0.14327161 0.22442389 0.06382004 0.024330232 -0.11735519
0.24860099 0.16706808 0.12419269 -0.15483804 -0.05731665 0.22475281 -0.072699785 0.21173823
-0.003508636 0.045300443 0.121892855 0.16699688 0.12233006 -0.005033241 0.09913374 -0.17892472
0.24822418 -0.22921637 -0.24458992 0.12824096 0.077783674 -0.27469566 0.09007793 -0.02142074
0.08585814 0.026096342 0.2822246 -0.005602928 0.037922986 -0.043482132 0.0864131 0.06532421
0.1964563 0.058841996 0.16577594 -0.10664671 -0.12198817 -0.15122347 -0.102836646 -0.09181607
00000000: 1b84 9cbc 497a c8bd eab9 14be c8bf 103e
00000010: 7af3 013e 9362 183e d360 953b a378 8fbd
00000020: cd51 ffbd ba5e e8bb c791 a83d 62a3 b73d
00000030: d131 6c3e f971 0fbe cfc2 2cbe c7ad 48be
00000040: 70c7 d53c 4088 1ebe 418e c0b9 f434 46bd
00000050: 7579 aebd e7b4 d83d 6c18 4ebd aefd c63c
00000060: 9b51 273e 017d 33be dbf8 003e 5b0d 423e
00000070: 354e 03be 6964 c2bd 4480 8bbd 726c 4dbe
00000080: aed2 063d d839 863d 3289 18be da15 fdbd
00000090: cc09 3c3d 974d 9f3d 81e0 043e 2b04 29be
000000a0: 923e af3c 2dd1 7e3d bd9e 23be 0c15 4cbe
000000b0: cb7d aa3d b4d3 a03d 16b2 3c3d b2e8 91bd
000000c0: 62c5 323e 9aeb 39bd 8262 493d cc53 a93d
000000d0: 2a26 963d b43e 2bbe 2062 05be 4e67 ab3d
000000e0: 4067 14be 64bb 823d c42e 65be b0f6 03be
000000f0: 2aa1 69bc db55 3bbe 8864 dfbd 285b 3ebd
00000100: 208e ddbd 8cf7 e23d 1adb 20be 61d3 dc3d
00000110: 6df5 38be f3e9 b23d 0f9b b33d a002 a73c
00000120: 6451 b8bd d07b 36be 222e 89bd 799a 91bc
00000130: b81c cbbc 7ad0 e2bd 3bc8 43be 36c1 81bd
00000140: f39f 13be cd6a 0ebe f013 163a f9f7 cebd
00000150: 2574 aabd 7990 0cbe d43a 063d 3a4a 10be
00000160: 5744 32be e11a 4a3c 526c e1bd d654 063e
00000170: f14b 16bc 152a 9e3d c062 b6bd 91db d93d
00000180: cf76 3a3e 3406 cc3d 3d5e 18be 87df 2e3e
00000190: b06c fe3d 53da 923b d3a2 1a3e 67e9 44be
000001a0: af1b da3d 1323 a03d 50d4 a8bd 8cbf 0d3d
000001b0: 5a63 2dbe a737 10bd df89 2d3e 7de2 debd
000001c0: 8034 143d 1c1b 413e 105c 1c3e aa03 81bd
000001d0: 43de 2e3e aaa8 48bd 79eb 3fbd f11e d43d
000001e0: 79c0 443d 1de8 69bd 2dcb 38be a534 393e
000001f0: 6415 05be c870 4f3e 0e3b 3f3e 6a23 0fbd
00000200: a61c 743e 22a3 b9bd b1bd 923d cfb9 abbe
00000210: c4a5 e8bd 5f62 19be 3813 153e 4ecc 70bd
00000220: 3413 52be ca6c 9f3d 25a3 bd3d 3d7b ce3d
00000230: 9eb5 863c 26ba 51bd 1395 673e 0506 1f3e
00000240: f5ef aebd 0ef9 acbd abf5 86be bc5e d5bd
00000250: 5e0d 923d a08b 33be 1f15 8b3d 93cc 00be
00000260: 0a12 10bd 5f3a 29be 48d7 8cbd bfee fbbd
00000270: 3695 aebd 97a9 73be af07 3a3e ca44 1a3e
00000280: 91d6 b7bd 6e8e b8bd ef59 4fbd e8c2 30be
00000290: f8b3 1fbb 5d1d 573e fcf6 d63d 3195 f1bd
000002a0: da1f b83d 83b7 fdbd 01a9 e2bd 6dd4 4dbd
000002b0: bc95 be3d 7ccd 00bc 0dda 843d 72f2 5dbe
000002c0: bd06 1e3e a304 923d 82b9 92bd 1ccb 0fbe
000002d0: a851 d43d 6e1a 0bbe c136 c83c 3993 583d
000002e0: a0f1 f43d 7af2 63bd 701a 55bd 8725 abbd
000002f0: 0df9 533d 9692 b53d 560b 163e 4fe0 083c
00000300: deb2 87bd 981a 563a 9944 ecbd dad5 10bd
00000310: 89d1 433d 2f89 ad3d 161c 07be 3457 e73d
00000320: 3199 b8bd 1cbc abbd 04b8 d8bc 4294 2abe
00000330: b5f3 c13d 9061 283e ec55 8ebc 9f5f 603d
00000340: 5ba3 973d ecbf 10bd 59f9 a23c cbb5 123e
00000350: 60cf 653e 15b4 823d 3250 c73c eb57 f0bd
00000360: 4291 7e3e e513 2b3e bd58 fe3d dd8d 1ebe
00000370: ddc4 6abd 9a25 663e a0e3 94bd e8d1 583e
00000380: 25f1 65bb f58c 393d f6a2 f93d 3b01 2b3e
00000390: 2f88 fa3d e3ed a4bb a106 cb3d 0b38 37be
000003a0: 7b2e 7e3e b2b7 6abe c875 7abe 9951 033e
000003b0: 0c4d 9f3d e9a4 8cbe c77a b83d 8c7a afbc
000003c0: 64d6 af3d ffc7 d53c be7f 903e c498 b7bb
000003d0: 2255 1b3d 521a 32bd 5af9 b03d b3c8 853d
000003e0: d72b 493e 4e04 713d 2bc1 293e 9769 dabd
000003f0: efd4 f9bd 53da 1abe 059c d2bd 100a bcbd

fc2.bias f4 [32]
0.23432828 -0.21001546 -0.06517395 -0.13795897 -0.011465502 0.18371409 0.046637483 -0.056566745
-0.18869366 0.20419858 -0.10272059 0.033942822 0.03275899 -0.0008645789 0.13401124 0.113736324
-0.032427385 0.23038378 -0.09542117 0.13094568 -0.064106554 0.042471576 0.12752621 0.16409712
-0.03645551 0.14616461 -0.124871075 -0.17130847 -0.005710622 0.024043422 0.047085967 -0.17073508
00000000: c1f3 6f3e 4b0e 57be eb79 85bd 1e45 0dbe
00000010: cdd9 3bbc 8c1f 3c3e f206 3f3d 88b2 67bd
00000020: e938 41be 6f19 513e 2c5f d2bd a107 0b3d
00000030: 4a2e 063d e8a4 62ba 3e3a 093e 97ee e83d
00000040: 94d2 04bd bae9 6b3e 2d6c c3bd a016 063e
00000050: 4c4a 83bd adf6 2d3d 3b96 023e 1309 283e
00000060: 5f52 15bd 2dac 153e 68bc ffbd 7d6b 2fbe
00000070: 2b20 bbbb b6f6 c43c 37dd 403d 2dd5 2ebe

fc3.weight f4 [4, 32]
0.026426515 -0.019496877 -0.098507516 0.093179025 -0.010437712 0.10530097 0.21375102 -0.104968116
0.04103299 -0.011253639 0.031640135 0.070322916 0.103231095 0.008737503 0.10237841 0.18086089
0.13619782 0.0217571 0.006568947 -0.15158142 -0.0973377 0.17077717 0.12634182 0.15296549
0.04776465 0.15275078 -0.035719182 0.07479608 -0.051931676 -0.08904606 0.08180727 -0.03279829
0.06356115 -0.0021780212 -0.06585666 0.071919866 0.037518065 0.11076282 0.07448762 0.0014529079
-0.12160752 0.14467353 -0.032969013 0.067271 -0.11010316 -0.06965853 -0.11839369 -0.06702906
0.10490081 0.13701513 0.054645587 0.14825138 0.10707802 -0.075004645 -0.011177507 0.16221319
-0.14987877 0.1579194 0.06891252 -0.09569243 0.042531025 0.13372512 0.19435947 0.029090255
0.23246834 -0.004103102 0.049108986 -0.091634326 -0.0881518 0.21414027 0.11218163 0.1337287
-0.04433811 0.08283455 -0.013814522 -0.10262945 0.13977443 0.050942987 0.073819734 -0.02804442
0.1171267 0.079825066 -0.03512283 0.09141228 0.096122965 0.16057745 0.008118433 -0.10622715
0.078070536 0.0032125353 -0.10253011 -0.075035945 0.0074058366 -0.09735772 -0.104551144 -0.024158183
-0.103199266 0.14102282 0.0931177 -0.0656052 0.107898064 0.08841733 0.14388196 0.002676058
-0.056552812 0.16248316 -0.04898908 0.09570506 -0.15803897 -0.07959437 0.13039695 0.12593327
-0.14634967 0.0055417777 -0.0037420662 0.12384097 -0.017489957 -0.058655974 -0.0060700383 -0.06462339
0.16442463 0.10654843 0.06779835 -0.093326576 -0.03432506 0.075801454 -0.12405722 0.015772521
00000000: 6b7c d83c eab7 9fbc 4fbe c9bd a5d4 be3d
00000010: f002 2bbc 09a8 d73d 8ce1 5a3e 86f9 d6bd
00000020: 3512 283d 2f61 38bc 1699 013d 7605 903d
00000030: d36a d33d be27 0f3c c6ab d13d 9933 393e
00000040: 7177 0b3e f23b b23c 5240 d73b 2938 1bbe
00000050: fd58 c7bd 36e0 2e3e c05f 013e fca2 1c3e
00000060: dea4 433d b36a 1c3e 474e 12bd b02e 993d
00000070: 4fb6 54bd c85d b6bd 928a a73d 8057 06bd
00000080: 592c 823d 22bd 0ebb dbdf 86bd b94a 933d
00000090: 8bac 193d 9ed7 e23d f78c 983d 806f be3a
000000a0: 5d0d f9bd 4c25 143e 840a 07bd 61c5 893d
000000b0: c47d e1bd 22a9 8ebd 6478 f2bd 8846 89bd
000000c0: 3cd6 d63d b24d 0c3e 0dd4 5f3d 36cf 173e
000000d0: b94b db3d 099c 99bd dd21 37bc 371b 263e
000000e0: d279 19be a0b5 213e 0222 8d3d 65fa c3bd
000000f0: 0335 2e3d 3def 083e 2b06 473e b04e ee3c
00000100: 2e0c 6e3e 5073 86bb 8126 493d c7aa bbbd
00000110: ee88 b4bd 9647 5b3e 7cbf e53d 2df0 083e
00000120: e19b 35bd 29a5 a93d 4e56 62bc 642f d2bd
00000130: 0721 0f3e 98a9 503d cd2e 973d 69bd e5bc
00000140: 20e0 ef3d 537b a33d f5dc 0fbd 5d36 bb3d
00000150: 1edc c43d 6a6e 243e 2d03 053c 9f8d d9bd
00000160: 72e3 9f3d 6689 523b 4efb d1bd 72ac 99bd
00000170: a9ac f23b 7c63 c7bd e91e d6bd 62e7 c5bc
00000180: 235a d3bd 4968 103e 7eb4 be3d 055c 86bd
00000190: a9f9 dc3d 2514 b53d cb55 133e ce60 2f3b
000001a0: eca3 67bd fc61 263e c6a8 48bd 0401 c43d
000001b0: f8d4 21be 6002 a3bd c786 053e a7f4 003e
000001c0: b0dc 15be cd97 b53b 743d 75bb 56a0 fd3d
000001d0: 1947 8fbc 3f41 70bd 2ce7 c6bb 4559 84bd
000001e0: ee5e 283e 1036 da3d dcd9 8a3d 0122 bfbd
000001f0: 6f98 0cbd cb3d 9b3d b611 febd 6035 813c

fc3.bias f4 [4]
0.14932126 0.055730633 0.098712236 0.2201287
00000000: ace7 183e ce45 643d a429 ca3d 6b69 613e
